model/bedroom.onnx (onnx, 301496 bytes, 16 tensors)

fc.weight f4 [2, 256]
000000 d9 6e 53 bf 4e f3 86 3e 05 e3 74 bf 19 a3 be 3e
       -0.82591015 0.26357502 -0.95658904 0.3723381
000010 dd 45 7d be e8 78 83 be 63 45 98 be 4e 82 a1 be
       -0.24733682 -0.25678182 -0.29740438 -0.31544727
000020 f4 5f cd 3e 57 43 b3 3e bc f4 c4 3e 09 4a a4 3e
       0.4011227 0.35012314 0.38467968 0.32087734
000030 f7 e3 07 bf e1 93 31 bf 9a e4 09 bf 6a 75 4b bf
       -0.5308222 -0.6936627 -0.53864443 -0.79476035
000040 bf c9 1f bf 4e 9f f8 bc 38 5a 0c bf ee a0 33 3e
       -0.62417215 -0.0303494 -0.5482516 0.17541859
000050 7d 0b fd be 7d 15 0d bf 1c 19 db be fe 17 11 bf
       -0.49422827 -0.55110914 -0.42792594 -0.56677234
000060 6b c0 de bd 8a 7c 0d be 53 db 24 3f ea 9e 15 3f
       -0.108765446 -0.13817039 0.6439716 0.5844561
000070 95 9f 00 3f 2e 8c db 3e 37 da f2 3e 18 be a5 3e
       0.502435 0.42880386 0.4743211 0.32371593
000080 58 26 98 3e 77 2c c1 3e 92 cc b4 3e 46 2c 00 3f
       0.29716754 0.37729236 0.35312325 0.50067556
000090 bf ed ed 3d b2 3f 5f 3e b9 ef 3f 3e 3d 31 0c 3e
       0.11617612 0.21801642 0.1874379 0.13690658
0000a0 ab 39 1c be 5f 50 50 be 21 16 33 3f d3 85 16 3f
       -0.15256374 -0.20343159 0.6995564 0.5879795
0000b0 e3 83 0b be 84 94 b3 3e c8 91 82 bc 4f 7f 32 3f
       -0.1362453 0.35074246 -0.015938655 0.6972551
0000c0 c6 03 0e bf 4b 7e 22 bf 08 18 18 bf 70 b9 3c bf
       -0.5547451 -0.6347396 -0.5941167 -0.73720455
0000d0 af a1 25 3e ac f2 17 3e b4 21 41 3f c8 be 51 3f
       0.16174959 0.14838666 0.7544205 0.81931734
0000e0 86 00 b0 be 2b 72 1d bf ff e0 dc be 24 c8 0f bf
       -0.343754 -0.6150233 -0.43140408 -0.56164765
0000f0 5f 9d 07 3e 8f 59 55 3e 18 7b 9c 3e b6 99 fc 3e
       0.13243626 0.20834945 0.30562663 0.49336022
000100 4d 68 f7 bd b8 fb 05 bd cc 99 ea be 4e 2d fa be
       -0.12080441 -0.03271076 -0.45820463 -0.4886269
000110 30 0d 11 bd 6c 9f 7f 3e a3 d7 18 bd a7 e6 67 3e
       -0.035412967 0.24963158 -0.037315022 0.2264658
000120 a4 f6 04 3f 19 cd 12 3f 46 c5 49 bd 98 58 ce bd
       0.51938844 0.57344204 -0.0492604 -0.10075492
000130 70 5a d9 3d 46 f6 8b 3e c7 44 9b 3e ec 11 c6 3e
       0.10612953 0.2733633 0.3032591 0.38685548
000140 56 95 0d 3f dc ec 18 3f f0 1a 02 3f b6 33 b9 3e
       0.55305994 0.5973642 0.50822353 0.36172265
000150 2b e2 eb be 41 0c 20 bf 71 df 99 be fa 32 d1 be
       -0.4607099 -0.625187 -0.30053285 -0.40859205
000160 f1 a8 8d 3e ea a4 c0 3e a3 9a b2 3e 96 85 d7 3e
       0.27667955 0.3762582 0.34883603 0.42094105
000170 b8 26 4a 3c 3c a3 dc be 1f 66 45 3f 2f eb d4 3e
       0.012338333 -0.43093288 0.7710895 0.4158568
000180 42 8b 12 bf 89 dd 53 bf f6 72 ef 3e 8c 11 82 3e
       -0.5724374 -0.8275991 0.46767396 0.25404012
000190 16 5b 5c bd af b3 3d 3d 5e 08 17 3f cf d6 1e 3f
       -0.053797804 0.046313938 0.5899714 0.6204652
0001a0 ab d6 40 3e a9 aa 4e 3e 62 b0 53 be f9 e8 71 be
       0.1883189 0.20182289 -0.20672753 -0.23624028
0001b0 b9 39 61 bb 6c b2 30 3e 1e 40 8b 3e 6e e6 e7 3e
       -0.003436668 0.17255563 0.27197355 0.4529299
0001c0 22 0d 0d 3f 27 54 df 3e bb 15 c7 3e 8a 32 1d 3e
       0.55098164 0.4361889 0.38883767 0.1535131
0001d0 bd 5e 82 3d 34 d2 2a 3f 26 24 61 bd 2e cf 40 3f
       0.06365726 0.66726995 -0.054966114 0.7531613
0001e0 ac ad 49 bd 44 83 f3 3b de 9f f6 3e b6 3e f6 3e
       -0.049237892 0.0074314196 0.48168844 0.4809472
0001f0 15 4e b6 3e 07 25 a8 3e 98 d7 85 3e cc eb 16 3e
       0.35606447 0.3284075 0.26141047 0.14738387
000200 ee da ce 3e 5f 6d d7 3e 48 a2 eb 3e 4a c1 fa 3e
       0.40401405 0.4207563 0.46022248 0.48975593
000210 30 04 c1 bd 6c 01 e2 bd 73 6f 2b 3f 58 0e 43 3f
       -0.09424627 -0.110354275 0.66966933 0.7619376
000220 05 9c b6 3e 4d 39 ee 3e de a5 00 3f 5f d1 3d 3f
       0.35665908 0.46528092 0.50253093 0.741476
000230 39 07 39 3e 0c e5 89 3e 75 1d 84 3e f1 23 e9 3e
       0.18069161 0.2693256 0.25803724 0.45535234
000240 c5 ac 04 3f 17 b3 de 3e f0 de 71 3e 1c c4 6b 3e
       0.51826125 0.4349601 0.236202 0.23024029
000250 71 b0 f8 be c1 39 18 bf 49 2b d9 be b6 16 c8 be
       -0.48572114 -0.59463125 -0.42415836 -0.39079827
000260 89 29 9b 3e 39 65 ec 3e f0 db e8 3e 06 84 1a 3f
       0.30305126 0.46170977 0.454803 0.603577
000270 b2 e7 2e 3e d3 e9 c8 3e 75 a5 9a 3e 3f cf 0e 3f
       0.17080572 0.39240894 0.3020436 0.5578498
000280 28 8c 78 be e9 4a d1 bd b9 72 20 3f 4c a0 4a 3f
       -0.24272215 -0.10219366 0.6267505 0.79150844
000290 12 f9 0a bf 95 8e be 3e 7b 1a ba be 18 e5 31 3f
       -0.542863 0.37218156 -0.36348328 0.69490194
0002a0 d7 47 dd 3e b5 da a9 3e bb bb 16 3f 26 5a d1 3e
       0.43218872 0.33174673 0.58880204 0.4088909
0002b0 62 8b f9 3e 30 bd 09 3f 3a e5 02 3d 5c f1 ad bd
       0.48739153 0.538043 0.03195689 -0.08493301
0002c0 9b fa ba 3c f3 7b 5c be 8f 01 20 3f 5b 0c e9 3e
       0.022824576 -0.21531658 0.6250238 0.4551724
0002d0 14 30 cc 3e 6e dc fe 3e a4 9b a8 3e 9e a7 c5 3e
       0.3988043 0.4977755 0.32931244 0.38604444
0002e0 36 cb 33 be 44 dc 6c bd 53 67 23 3f 63 c0 16 3f
       -0.17557988 -0.05782725 0.63829535 0.5888731
0002f0 15 bc 86 3e bd d3 2f bf a4 92 57 3f e1 73 c2 3d
       0.2631537 -0.6868246 0.8420813 0.094947584
000300 e8 5b 07 bf 6a df da be c0 94 1c bf 61 fb 23 bf
       -0.5287461 -0.42748576 -0.61164474 -0.6405545
000310 0e c3 67 3e 04 41 ad 3e 3c 66 de 3e c7 d8 16 3f
       0.22633001 0.33838665 0.43437374 0.58924526
000320 dd c0 79 3e 5e c8 9a 3e 62 97 33 3e 34 51 80 3e
       0.24389978 0.30230993 0.17538217 0.25061953
000330 5e 8a c2 3d 15 d9 e1 3d f8 88 11 3f e8 3b fa 3e
       0.09499048 0.11027733 0.5684962 0.4887383
000340 51 b3 de be b4 0e 0e bf a5 a9 15 bf 71 a7 29 bf
       -0.43496183 -0.55491185 -0.5846198 -0.6627112
000350 0a 1c 19 be a4 01 d2 bc ef f1 f1 3e 0c 33 31 3f
       -0.14952102 -0.025635548 0.47254893 0.69218516
000360 4b 8b 69 be 0e 70 30 be fa 41 2e 3f ab fe 37 3f
       -0.22807042 -0.17230245 0.6806942 0.7187297
000370 f6 be 15 3f aa b9 0e 3f 4d 4a 0d 3f bd 69 db 3e
       0.5849451 0.5575205 0.551915 0.4285411
000380 3c 85 b8 3e a2 ca dc 3e 3d c0 2d 3e db 1b b2 3e
       0.3603915 0.43123347 0.16967864 0.34786877
000390 66 01 0c 3f 3c ed 17 bf bd ee 5c 3f 9e b2 dc be
       0.54689634 -0.59346366 0.86301786 -0.43105024
0003a0 24 3a a4 3e 71 ac 8f 3e 1f 9c a8 3e 82 d6 92 3e
       0.32075608 0.2806125 0.3293161 0.2867928
0003b0 bb c9 0c 3f fe 92 eb 3e b5 52 de 3e 1d be e0 3e
       0.54995316 0.46010584 0.43422475 0.43895045
0003c0 f0 bd 49 3f 11 74 3d 3f ce 21 53 3f 16 8a 1b 3f
       0.78805447 0.7400523 0.82473457 0.6075758
0003d0 01 4e a5 be 14 45 81 bd d1 47 26 3f 61 9f 4f 3f
       -0.32286075 -0.06312004 0.64953333 0.8110257
0003e0 13 34 e3 3e 07 4d ba 3e 55 d4 9a 3e 41 86 84 3e
       0.44375667 0.36386892 0.3024012 0.25883678
0003f0 b6 53 30 3e ca ce 69 3e 95 e9 76 be 24 a8 48 be
       0.17219433 0.2283279 -0.24112542 -0.1959539

fc.bias f4 [2]
000000 69 ef e5 3d 06 60 33 bd
       0.112273045 -0.043792747

79 f4 [16, 3, 7, 7]
000000 06 26 b6 3c 18 bc bc bc 20 42 c2 bd 2e fd 04 be
       0.022234928 -0.023038909 -0.094852686 -0.12987205
000010 2b 8b 45 bd 91 5d 19 3d 48 ff 16 3d 31 9e 16 3d
       -0.048228424 0.037442748 0.03686455 0.036771957
000020 da 8d 75 ba 36 27 cd bd f9 f6 1a be 00 03 63 bd
       -0.0009367146 -0.100172445 -0.15133275 -0.055422783
000030 c8 a6 1d 3d ef 08 38 3d 2f bb dd 3d fe b4 b7 3c
       0.038489133 0.044930395 0.10826718 0.022425171
000040 bd 9a 1c be d4 a5 6e be ee 9a a1 bd 4c 30 3b bb
       -0.15293403 -0.23305446 -0.078908786 -0.0028562723
000050 cd e4 d4 3c 7a 6c 29 3e 5f 45 ab 3d 5c 98 3f bd
       0.025988007 0.16545287 0.08362841 -0.04677616
000060 70 db e4 bd 84 f3 7f bc 1e 3c e7 3d 30 09 a4 3d
       -0.11174667 -0.0156220235 0.11290763 0.08009565
000070 b9 e5 1e 3e 98 46 f5 3d b4 33 f8 3b 15 9c 47 bd
       0.1551732 0.11976355 0.007574523 -0.048732836
000080 c8 1a 17 3d 54 39 86 3d a7 95 a5 3d 81 32 d7 3d
       0.036890775 0.06553903 0.080851845 0.1050768
000090 b7 7d 95 3d 49 be 47 3c 9f 6d 95 bd 8c ba 02 bd
       0.07299369 0.012191364 -0.07296299 -0.031916186
0000a0 4e b3 fb ba a0 f5 9b bb 01 ed 89 bd c9 de 97 bd
       -0.0019203217 -0.0047595054 -0.06734658 -0.0741554
0000b0 ef 5d ff bd 18 e0 28 be 56 8a bc bd d2 e1 83 bd
       -0.12469088 -0.16491735 -0.09206073 -0.06439556
0000c0 5c 1c 1e bd cc 2a 01 3e 94 af f2 3d 54 fe aa 3d
       -0.038601264 0.12613982 0.11849895 0.083492905
0000d0 4c 38 99 3d 6d ed e5 3d 09 20 37 3e 20 b8 45 3e
       0.07481441 0.11226926 0.17883314 0.1930852
0000e0 6d 7c a8 3d aa 56 86 3d a6 21 ef bb 5f 94 da 3b
       0.08226857 0.065594986 -0.0072977124 0.0066705192
0000f0 05 b2 f5 3d b5 0b 27 3e 42 df d5 3d 5d 60 c1 3d
       0.11996845 0.1631306 0.10442974 0.09442208
000100 6a db 89 3d 5b b6 94 bd 76 02 ed bd cc f2 24 3c
       0.06731303 -0.07261344 -0.11572735 0.010067653
000110 94 09 59 3d e3 58 0a 3d 1a 93 1d 3e bb d3 02 3e
       0.05298765 0.033776175 0.15388146 0.12776081
000120 22 cf e9 bc 7f fe bb bd e5 df 1d 3d 8e b4 93 3d
       -0.028541151 -0.09179401 0.0385436 0.072121724
000130 59 ad 62 3d 0f 92 16 3e 9c b9 d7 3d eb 76 89 bc
       0.0553411 0.14704154 0.10533449 -0.016780337
000140 19 b1 ed 3b 6b 3d 7e 3d 6a 71 3f 3d 9a 8b fb 3c
       0.0072537777 0.06207029 0.04673902 0.030706216
000150 54 a7 de 3d 0b ab 17 3e 5f f3 92 3d 32 c8 94 3d
       0.10871759 0.14811341 0.071753256 0.07264747
000160 d7 49 8d 3d e8 bc 56 3c 91 3c e2 bc 19 6b 2c 3d
       0.068988495 0.013106562 -0.027616771 0.042094324
000170 74 b2 1a 3d d4 61 6a 3b 04 29 34 bd 1c 91 51 3c
       0.037767842 0.0035763877 -0.043984428 0.012790944
000180 f1 b3 c7 bc dd 28 aa bc 69 c2 23 bc b3 4f a1 3c
       -0.024377795 -0.020771438 -0.009995081 0.019691324
000190 f0 a5 96 3d 97 61 8e 3d 40 d0 00 3e 3a ae ed 3d
       0.07355869 0.069522075 0.12579441 0.11605497
0001a0 cd de b0 3d 0f 48 09 be 40 c3 05 be f5 1a e7 bd
       0.08636246 -0.13406394 -0.13062763 -0.112844385
0001b0 89 5c 0a bd 5b 72 e8 3d 38 51 9e 3d b0 00 e9 bb
       -0.033779655 0.113499366 0.07730335 -0.0071106777
0001c0 ac 1c 17 be 62 00 5b be 9e fe 86 be f6 aa 79 be
       -0.14757031 -0.21386865 -0.26366132 -0.24381623
0001d0 2a 22 4a bd a4 40 07 bc 17 9d 01 be 65 5a 3b be
       -0.049348988 -0.008255158 -0.12657581 -0.18296202
0001e0 67 e5 86 be b7 75 b2 be 94 a8 a8 be 8b 90 45 be
       -0.26346895 -0.34855434 -0.32941115 -0.1929342
0001f0 01 86 3c be 2e 62 86 be 3a fb 65 be 6c 7f 8d be
       -0.18410493 -0.2624678 -0.22459117 -0.27636278
000200 99 bc a3 be ee 95 85 be d8 cd 48 be 6f 0c 84 be
       -0.31979826 -0.2609095 -0.19609773 -0.25790736
000210 39 ae 90 be ca e6 34 be ae d4 f1 bd 3a 6b 00 be
       -0.2825792 -0.17666164 -0.118081436 -0.12540904
000220 a8 12 92 bd 76 8e 9e bd a9 30 4c be 7c 88 76 be
       -0.07132465 -0.07742016 -0.19940437 -0.24075502
000230 37 30 30 be 37 b5 d8 bd a5 83 01 be a2 09 ce bd
       -0.17205893 -0.10581439 -0.12647875 -0.10060431
000240 44 de ec bd b9 ad 0f be e2 d4 3b be 5d 13 f3 bd
       -0.11565831 -0.14031114 -0.18342927 -0.11868928
000250 e5 74 2f bd a7 75 a5 bc d5 72 1a 3c e6 61 ac 3c
       -0.04283609 -0.020197703 0.009426792 0.021042775
000260 3d bf b2 3c b9 f3 16 3d b2 20 ab bd 20 34 d7 3c
       0.021819705 0.036853526 -0.083558455 0.026269972
000270 70 00 fe 3c f9 f6 11 3c fd cd 01 3d 52 81 4b 3d
       0.031006068 0.0089089805 0.031690586 0.049683876
000280 bc 9b 9d 3d 82 e2 5d bd 13 9e 7e 3d d3 ec 8e 3d
       0.076957196 -0.054171093 0.06216247 0.069787644
000290 86 49 0a 3d 40 e0 ff 3c f2 70 8a 3d 27 45 04 3e
       0.033761524 0.03123486 0.06759824 0.12917005
0002a0 2c 88 48 bd c7 76 94 3d f4 e5 8b 3d 8f 08 1f 3c
       -0.04895799 0.072492175 0.068309695 0.00970663
0002b0 55 55 97 3b 20 6f 1a 3d b7 67 dd 3d 01 9d d6 bc
       0.0046183267 0.037703633 0.10810798 -0.026197912
0002c0 1b 59 90 3d 6b 78 b8 3d 16 d2 97 3c dd 47 2d 3c
       0.070482455 0.09007343 0.018532794 0.010576216
0002d0 3f 88 2d 3d af 26 8a 3d 2a a8 97 bd 0c 70 bc 3c
       0.042366263 0.067456596 -0.074051216 0.023002647
0002e0 9c b1 3c 3d fd 21 5c bc 8c 67 88 bc d5 cb 1d bc
       0.04606782 -0.013435838 -0.016650937 -0.009631117
0002f0 8d 78 16 3d dd 25 f3 bd 1a 1f 4a 3c 45 e4 12 3d
       0.03673606 -0.11872456 0.012336517 0.035862226
000300 b1 43 9b b9 34 f6 09 bd 9a ac ad bc 90 7c 90 3c
       -0.00029614338 -0.033682063 -0.021200467 0.017637521
000310 01 eb 9a bd 8a 92 b7 3c bd c5 1f 3d a7 b0 63 3d
       -0.07564355 0.022408742 0.039006937 0.05558839
000320 65 fa a3 3d 9e 4a b7 3d ef a3 fa 3d e1 ae 51 bd
       0.08006743 0.08949779 0.12238299 -0.05119217
000330 ed e0 80 3d 02 14 5f 3d 2d b0 bd 3c 36 b8 49 3d
       0.06292901 0.05446244 0.023155296 0.049247943
000340 10 dd 92 3d 8e ef 09 3e 7f aa 27 bd 0d 6e 99 3d
       0.071710706 0.13470289 -0.040934082 0.07491694
000350 0e 9b 5b 3d 8b ef 1d bb a6 91 46 bc 9e 3b 9b 3d
       0.05361467 -0.0024099078 -0.012119686 0.075797305
000360 fa 5e 28 3e a9 d7 04 bd 15 5d 59 3d 6c e2 b1 3c
       0.1644248 -0.032432232 0.053067286 0.021714412
000370 98 f8 33 bd 8b 30 1c bd 66 7f 36 3d 3f 93 09 3e
       -0.04393825 -0.03813223 0.04455509 0.13435076
000380 00 d8 4c bd ad b8 6d 3d 48 d5 32 3d e4 af 9e bb
       -0.05001068 0.05803745 0.043660432 -0.004842745
000390 36 73 00 bd 34 80 e4 3c d2 8a b2 3d 4c d6 ad bd
       -0.031359874 0.027893163 0.08717884 -0.084881395
0003a0 85 11 20 3d f4 9c 06 3d 0c 82 4d bd ed 93 56 bd
       0.039079208 0.032864526 -0.05017285 -0.052387167
0003b0 f6 2c fb bc 90 69 4c 3d 0e 0e 09 be db 9f 24 bc
       -0.030661087 0.04990536 -0.13384268 -0.010047878
0003c0 0d 4a 5c bb 43 1c 0c bd 8e 06 42 bd fc 03 c0 bc
       -0.0033613474 -0.03420664 -0.047369532 -0.0234394
0003d0 e1 21 4c 3b 7f 13 63 bd 65 08 48 3d ab 53 88 3d
       0.0031148123 -0.055438515 0.04883613 0.066565834
0003e0 a3 4a 68 3d 34 4a 89 3d ae 16 90 3d 0f d3 db 3d
       0.056711804 0.06703606 0.07035576 0.107336156
0003f0 22 39 88 bc ac ad f3 3d 98 59 6b 3d f6 db 05 3b
       -0.016628806 0.1189836 0.05745849 0.0020425296

80 f4 [16]
000000 20 d7 82 3f 79 fd 05 bf cc 19 8d 3d a2 c2 8e 3f
       1.0221901 -0.52339894 0.06889686 1.1153147
000010 64 51 24 3f c8 85 0c 40 44 05 b5 be 8c ee 64 c0
       0.6418669 2.1956654 -0.3535558 -3.5770597
000020 4d 14 56 3f f6 8c e4 bf 76 b3 b7 be 8e f2 b9 3f
       0.83624727 -1.7855518 -0.35879105 1.4527147
000030 36 e7 c2 bf 98 3a 53 bf f2 55 04 be b3 b7 07 c0
       -1.522681 -0.8251128 -0.1292341 -2.120587

82 f4 [32, 16, 3, 3]
000000 8c cc bf bd 53 6e b9 bd e6 60 b6 bd 3d be 70 3c
       -0.09365186 -0.09054246 -0.08905201 0.014693794
000010 c5 16 00 3a ce 9b 76 bd af c2 10 3e 8e c3 0b 3e
       0.00048862054 -0.06020718 0.14136766 0.13648817
000020 8d 60 ae 3d 80 13 84 3d 9e 59 a0 3d cf 17 8b 3d
       0.08514509 0.06449032 0.07829593 0.067916505
000030 ad ea 6c 3d ff f1 84 3d 1a 11 74 3d e0 31 6a bd
       0.05784099 0.064914696 0.05958662 -0.05717647
000040 86 b8 84 bd fe ae 6d bc 48 11 41 3c f1 4b ed 3c
       -0.064805076 -0.014507053 0.011783905 0.028966876
000050 d5 0f dd bc 1f f4 13 3b 31 3b af bd 9c 41 1e be
       -0.026985088 0.0022575927 -0.08556212 -0.15454715
000060 7e 8d 94 3d a5 43 40 3c a5 e2 cc bd f8 94 ad bd
       0.0725355 0.011734878 -0.100041665 -0.08475679
000070 19 b4 3d bd 78 3c 4f bd aa af b6 bc 28 9b 98 bb
       -0.046314333 -0.050594777 -0.02230056 -0.004657168
000080 d5 8c d3 bc 7f 4b 0f 3e 98 b2 17 3e 03 32 cb 3d
       -0.02582399 0.13993643 0.14814222 0.09921648
000090 c8 44 4d bd 00 04 b5 bb eb 46 86 bc fe df 04 bd
       -0.050114423 -0.0055241585 -0.016391238 -0.032440178
0000a0 2c c9 89 bc c6 12 fb bc eb e0 1f bc e6 32 b6 bb
       -0.016819559 -0.0306486 -0.0097582145 -0.005560267
0000b0 17 5c e2 bc 07 47 86 bd e7 48 b6 bd 40 1c e7 bd
       -0.027631802 -0.06556516 -0.08900624 -0.11284685
0000c0 f9 db 5c ba 84 5f 8d bd 94 b0 ec bd 98 6f 01 3e
       -0.00084251125 -0.06902984 -0.11557117 0.12640226
0000d0 94 3b 89 3d 7e 68 3e 3b 4f 1e 7c bd 6a 6f 2f bd
       0.06700817 0.0029053981 -0.061552342 -0.042830862
0000e0 b5 37 7c 3c 3d ee 3e be 60 35 0d be 66 82 47 bd
       0.015394141 -0.18645568 -0.13789892 -0.048708342
0000f0 35 8e b8 bd 75 10 c4 bd 92 1a 85 3c 43 09 6b 3d
       -0.09011499 -0.095734514 0.016248021 0.05738188
000100 23 40 32 b8 10 0f 3d 3b c9 f7 08 3d 7c 71 82 3c
       -4.249824e-05 0.002884809 0.03343943 0.015923254
000110 2b 19 74 3c b5 bb c1 bc 46 9d 75 bd 12 25 46 bd
       0.014898579 -0.023649076 -0.05996444 -0.048375197
000120 5e e7 96 bc 1d a4 fd bc 9e 08 3e bd c7 95 17 3d
       -0.018420871 -0.030962044 -0.046394937 0.037008073
000130 88 09 f0 3a 5c 13 e0 bc 05 3e cd 3d 52 43 db 3d
       0.0018313387 -0.027352981 0.10021595 0.107062
000140 24 e9 bd 3d b4 62 cf bc 2a 16 2e b9 aa 00 b2 3c
       0.09272984 -0.02531562 -0.0001660219 0.021728832
000150 d4 62 32 bd 90 1b e4 bc 1f 8c 47 bd f5 3c 89 bd
       -0.04355128 -0.027845174 -0.048717614 -0.0670108
000160 39 26 80 bd 2e 7d cd bc f0 17 a9 bc 27 4d 06 bd
       -0.062572904 -0.025084104 -0.020641297 -0.032788422
000170 e6 43 18 bd 67 89 71 3c 1b 22 bb bc 3f 9e 35 bd
       -0.037174128 0.014742232 -0.022843411 -0.04434037
000180 08 30 11 3d 46 f2 e4 3c 6f e4 66 bc cc 52 40 3c
       0.035446197 0.027947556 -0.014092549 0.01173849
000190 15 c8 07 bd 59 5e e8 3c 8e 9b 44 3c b5 b3 19 bc
       -0.033149797 0.028365301 0.011999978 -0.009381224
0001a0 9c 20 d0 bc e1 cb 20 3d 9e c3 4a 3d 2a b5 cc 3b
       -0.025406174 0.039256934 0.04950296 0.0062471824
0001b0 2b 18 76 3b 72 2a 64 bc 25 83 96 3b 7e 69 89 bd
       0.0037551026 -0.013926135 0.0045932704 -0.06709574
0001c0 6f 5f ad bd 54 8d 1e bd 03 54 9b 3c 0b 20 ba bd
       -0.08465468 -0.038709 0.018960958 -0.09088143
0001d0 2c 3d 92 bd 84 a1 b1 3d 13 73 c0 3d e8 c6 c4 3d
       -0.07140574 0.08673385 0.09396949 0.09608251
0001e0 7e b0 19 3d 02 d7 d5 3c 23 bf 0d 3d 78 98 de bc
       0.03752183 0.0261035 0.03460611 -0.027172312
0001f0 f6 5f 4c bd 1a 07 0a bd 2f 99 ff 3c 54 59 25 bd
       -0.049896203 -0.03369818 0.031200973 -0.040368393
000200 c9 f4 81 bd ce 7a 45 3d 99 17 4c bc 04 85 5f 3c
       -0.06345517 0.04821282 -0.012456798 0.013642553
000210 21 5c d4 3d 32 05 b2 3d 9a f9 84 3d 37 da 15 3d
       0.10369135 0.08692397 0.0649292 0.03658506
000220 ee be 81 b9 02 4b e8 bc a5 09 19 3d 81 10 a8 bc
       -0.0002474705 -0.028356079 0.037362713 -0.020515682
000230 03 15 25 bd 9e 78 68 3d 54 8c 47 bd 84 58 57 bd
       -0.04030324 0.056755655 -0.04871781 -0.05257465
000240 86 c3 2c bc ca 19 98 bb f8 73 00 bd 81 5d af bd
       -0.010544663 -0.004641746 -0.031360596 -0.08562756
000250 71 3e 3e bc ad 4f 72 bd ee 52 23 bd cb b3 94 3c
       -0.011611567 -0.059158016 -0.03987401 0.018152138
000260 2b c7 a4 bc 9a 4d 83 3d 7d 04 6c 3d 7c ea 4a 3d
       -0.020114502 0.06411286 0.057621468 0.049540028
000270 33 48 1a bc e6 9d f2 bc 4a 5b f7 bc d3 07 16 bd
       -0.009416628 -0.029616307 -0.030194897 -0.036628556
000280 fe 6c e6 bc e8 d3 15 bd fa 3b a4 3d 5f 0c bb 3d
       -0.028128143 -0.036579043 0.08019252 0.09133219
000290 4a 06 ef 3d 9b 4c 0e 3d 80 d5 8d 3d 09 28 2b 3c
       0.116711214 0.034741025 0.069254875 0.010446557
0002a0 e0 1d 32 bd 39 d7 b9 3c f3 4d 13 3d 57 5a c2 bc
       -0.043485522 0.022685634 0.03596301 -0.023724718
0002b0 f8 1f af 3c c6 81 99 3c 43 dc 33 bd 64 d4 99 bb
       0.021377549 0.018738639 -0.04391123 -0.0046945084
0002c0 ec c9 35 3d df 25 35 bc 08 b5 0b 3d e3 9b 7c 3d
       0.04438202 -0.011056392 0.03410819 0.061672103
0002d0 cd 2b 0d bd 44 20 29 bd c2 1e 0c bd 9b ec ac bd
       -0.0344656 -0.041290537 -0.03420902 -0.084435664
0002e0 8f 88 db bd cd 9c a1 bd cb 46 9d bd f0 e0 b4 bd
       -0.10719406 -0.078912355 -0.07679518 -0.08831966
0002f0 aa e8 ab bd 9d e6 60 bc 58 1e ba 3a 9c b2 11 bd
       -0.083939865 -0.0137268575 0.0014199717 -0.035570726
000300 bc 00 f6 bc d3 04 f5 3b 84 18 90 3c 7c a7 e0 bc
       -0.030029647 0.0074773817 0.017589815 -0.027423613
000310 c1 39 1e 3c b9 f7 af bb c6 ac a8 bc 6f 9b b7 bc
       0.009657324 -0.005370107 -0.020590197 -0.022412984
000320 8a c3 d0 bc d3 68 fa 3c 51 99 9b 3d 5b cd 3c 3d
       -0.025483865 0.030567562 0.07597602 0.04609428
000330 06 ca d5 3d 12 36 04 3e d1 bb 87 3d 4b 88 45 bd
       0.104389235 0.12911251 0.0662762 -0.048225682
000340 5c 99 37 bd d9 2d 68 bd ce e7 c7 bd 56 c5 ef bd
       -0.04482399 -0.05668435 -0.0976101 -0.11707561
000350 e8 e9 c6 bd cc 30 da bd 47 1e fd bd d3 5f 0a be
       -0.09712583 -0.106538385 -0.123592906 -0.13513117
000360 17 a1 9b 3d 4e b6 99 3d 74 f0 3e 3d a6 e1 02 bd
       0.07599085 0.07505475 0.046616033 -0.031953476
000370 0e 4e 21 3b 51 97 02 bd 7e 1c 06 bd 3f ab 3f bc
       0.0024613175 -0.031882588 -0.032742016 -0.011698543
000380 5e 19 9b 3c d8 ac 73 3d 84 ef 99 3c 22 2d 5a 3b
       0.018932994 0.05949101 0.018790968 0.0033291061
000390 69 61 fc 3c c3 dd 92 3a a2 ba 30 bd 23 8d dd bc
       0.030808168 0.0011205006 -0.043146737 -0.027044838
0003a0 94 e9 ee bc 5d 88 04 bd e8 87 61 3d 64 04 93 3d
       -0.029164113 -0.03235661 0.05506125 0.07178572
0003b0 b5 60 51 3b 71 75 32 3b d2 57 8b 3d 95 8c cb 3d
       0.003194851 0.0027230645 0.0680386 0.09938923
0003c0 0c 94 51 3d f8 2b 84 3d 3b b8 8a 3d 02 74 87 bc
       0.05116658 0.06453699 0.067734204 -0.016534809
0003d0 7b 41 eb bb 1b 5a 14 bd f4 b7 33 be 81 e9 3f be
       -0.0071794367 -0.036218744 -0.17550641 -0.18741418
0003e0 12 6b 70 be cd 46 ef bc d8 60 4f bd f3 9a b8 bd
       -0.23478344 -0.029208565 -0.050629467 -0.09013929
0003f0 72 4c 9f 3b c1 7c 70 bd 11 4c 76 bd 77 93 3a bd
       0.004861408 -0.058712725 -0.060131136 -0.04555079

83 f4 [32]
000000 25 c4 5e 3f 40 ca d5 bc 00 fa 67 3b d8 e0 9e 3f
       0.8701804 -0.026097417 0.0035396814 1.2412367
000010 bc 58 0e 3f 08 7e 0e 40 03 ac 89 3f fe ea 1f 3f
       0.5560415 2.2264423 1.0755619 0.62467945
000020 40 e4 42 bc 80 0a 99 3f 6e bc bf 3f 5f f9 13 3f
       -0.011895239 1.1956329 1.4979379 0.57802385
000030 09 68 c4 3f 52 ca ba bf 0c 8d 37 be 60 96 00 c0
       1.5344249 -1.4592993 -0.17924899 -2.0091782
000040 30 5b 82 bf cb 1c f3 bf b8 9f 4c 3d ee 62 81 be
       -1.0184078 -1.8993162 0.049957007 -0.2527079
000050 e0 3e 80 be f0 b1 8a be b6 25 09 40 30 31 b2 3f
       -0.2504797 -0.2708888 2.1429267 1.3921261
000060 c0 07 c7 3f a8 9c 76 3c 72 4a 8f 3f 29 e9 23 3f
       1.554924 0.015051998 1.1194594 0.6402765
000070 3c 7a bb bf b2 5a b3 3e e8 84 cb 3d 7f 7c cc 3f
       -1.4646678 0.35030133 0.09937459 1.5975493

85 f4 [32, 32, 3, 3]
000000 b8 2c 4f bd dc 41 d8 3c 83 b7 8b 3d e4 71 7f 3d
       -0.050579756 0.026398592 0.068221115 0.062364474
000010 d1 bb c2 3d 91 aa 3a 3d e0 fd 3f 3d 0b 32 bb 3d
       0.095084794 0.04557282 0.046872973 0.09140404
000020 f6 28 d0 bc e6 92 f0 3c 87 18 89 3d 95 ba 11 3e
       -0.025410157 0.029366922 0.06694131 0.14231332
000030 c2 1e 78 3b d4 7b 9b bc 85 93 9f 3c 5d af 1d bd
       0.003786013 -0.018979944 0.019479522 -0.038497318
000040 e9 80 e0 bd 86 de e7 bd c1 e2 2a bd 8b c8 fe bc
       -0.10962088 -0.1132174 -0.041720156 -0.031101486
000050 d9 40 e5 3a 93 bd 12 3c e0 2f 7f b8 07 1d 7d 3d
       0.001749064 0.008956331 -6.0841325e-05 0.06179526
000060 de 00 0d bd 1b ee eb bc 08 d9 00 3d 33 5a 08 3d
       -0.034424655 -0.028800061 0.031456977 0.033289146
000070 4b 2d c4 3d 0d b8 1a 3e 93 61 d0 bd fa 11 3d bd
       0.095789514 0.15109272 -0.10174861 -0.046159722
000080 1e 9e fc 3c 3a e5 e7 bd 19 f5 3f bd ff 31 4f 3d
       0.030837115 -0.11323018 -0.046864603 0.05058479
000090 05 b7 67 3d b9 00 19 3a be 85 84 bc a0 a9 24 bd
       0.056571025 0.00058365945 -0.016177054 -0.04020083
0000a0 08 2e a3 bd 17 d0 fc bc 12 58 a9 bd a6 01 90 bd
       -0.07967764 -0.030860944 -0.08268751 -0.070315644
0000b0 dd e4 03 3e c6 a2 d8 bd cb 9d e4 bc f9 01 f5 3c
       0.12880273 -0.105779216 -0.027907273 0.029908167
0000c0 96 a7 2e be 15 9a 03 be 37 a7 4b bd 78 09 32 be
       -0.17056116 -0.12851746 -0.049720015 -0.17386425
0000d0 bf 67 07 be b3 4e c3 bd df d9 a7 bd 5d b8 12 bd
       -0.1322317 -0.09536495 -0.081958525 -0.035820354
0000e0 46 12 49 bd cb 3c a0 3c 80 34 c2 3c 2d 73 bc bc
       -0.049089693 0.019560238 0.023706675 -0.023004139
0000f0 0a 63 29 3d 21 31 a9 3d 91 e1 50 3d f0 3c 74 bd
       0.041354217 0.08261324 0.050996367 -0.059628427
000100 fc 96 0f 3d db 1c 42 3d 25 2d ec 3a d8 a5 07 3d
       0.0350561 0.0473908 0.0018018825 0.033117145
000110 56 48 a6 3c f4 e7 43 3d e6 bf 6b 3d fa 7b de 3c
       0.020298164 0.04782863 0.057556055 0.027158726
000120 49 17 d9 bc 94 58 3f bc f5 b1 f9 3c 92 1f 04 bc
       -0.026500361 -0.0116788335 0.030480364 -0.008064168
000130 b8 42 75 bc 94 ba 02 3d 7d a9 b8 3b 27 b2 b7 bc
       -0.01496952 0.031916216 0.005635439 -0.022423817
000140 ad dd 1c 3d 09 42 ab bd 95 d5 6e 3c 4f b5 16 3d
       0.038297344 -0.083622046 0.014577289 0.036794003
000150 36 b1 bf bd b5 16 4f bd 75 c0 5d bd 38 04 03 be
       -0.09359972 -0.050558764 -0.05413862 -0.12794578
000160 37 a6 d1 bd 59 72 d7 bd 4c 6d e1 bd 31 ee 92 bd
       -0.10236781 -0.10519857 -0.11007175 -0.07174338
000170 60 00 9a bd c2 6e 36 bd c4 48 01 bd 8d bd 69 bd
       -0.07519603 -0.04453922 -0.031563535 -0.057065535
000180 fc 1b b4 bd 71 09 a3 bd 11 66 cf bd f8 0e 94 3b
       -0.087944 -0.07960785 -0.101268895 0.004518386
000190 90 85 9f 3d 96 29 26 3e 4f d5 20 3e 21 e0 68 3e
       0.07789147 0.16226801 0.15706371 0.22741748
0001a0 18 b1 82 3e b0 87 c4 3d 22 a7 2a 3e 5e 7e f7 3d
       0.25525737 0.09596193 0.16665319 0.120846495
0001b0 54 8b a2 bd 7f 20 f0 bb e5 58 8b bb 0a 7c 6e bd
       -0.07936731 -0.0073280926 -0.0042525404 -0.05822376
0001c0 65 e6 b3 39 63 87 db bc 3b 37 73 bd 80 42 a4 3b
       0.00034313198 -0.026797956 -0.059378844 0.00501281
0001d0 9a ab 8e 3c b5 f7 c7 bd d5 dd 11 bd 68 5f 1d be
       0.01741581 -0.09764043 -0.035611946 -0.15368426
0001e0 8b ed f5 bc 1c e1 78 3a 43 c6 74 bd df 37 0e be
       -0.030020496 0.0009493993 -0.05975939 -0.138885
0001f0 8d 39 ae bd c1 a0 02 be 6f 34 a0 3c 41 8a 81 bc
       -0.08507071 -0.12756635 0.019556252 -0.015812995
000200 99 b2 95 bd 5d 57 b3 bd 9c 8e 52 bd 7a f3 6f bd
       -0.073094554 -0.087568976 -0.051405534 -0.058581807
000210 ed 9b b0 bc c7 0d 18 3d e8 51 bc bc 30 12 54 bd
       -0.021558726 0.037122514 -0.022988275 -0.051775157
000220 e7 b8 4c bd 85 c2 a7 bd 08 2b 2c be b7 51 81 bc
       -0.049981024 -0.081913985 -0.1681329 -0.015786035
000230 90 ef 66 ba 6a 5b b2 bd 9b 35 3a bb b5 8d 3d 3c
       -0.00088095013 -0.08708842 -0.00284133 0.01156943
000240 41 f8 9c 39 2e 8f 55 bd 67 60 ee bc 51 d1 1e 3d
       0.00029939602 -0.0521385 -0.029098703 0.03877384
000250 cf 9c 2f bc e1 f0 a7 bc cb e5 e7 3d 89 39 0a bb
       -0.010718538 -0.020500602 0.113231264 -0.0021091423
000260 ad af be bc e7 45 01 3e 94 84 08 bc d7 3b a6 ba
       -0.023277128 0.12624322 -0.00833239 -0.0012682629
000270 56 5f 90 3d 24 d7 14 3d 95 20 a5 bb 73 f2 a5 3d
       0.07049434 0.036337987 -0.0050392845 0.08102884
000280 2e 81 97 3d ed b8 ca bc 1d cc 9c bc f7 18 6e bc
       0.07397686 -0.024746383 -0.019140298 -0.014532319
000290 8a 32 2a 3d 12 3e 7d 3b 28 91 43 bd 14 ef c0 3c
       0.041552104 0.0038641733 -0.047745854 0.023551501
0002a0 10 11 8a 3d 87 58 e0 bb 10 6c 94 3c 40 6f 3d bd
       0.06741536 -0.006846491 0.018117934 -0.046248674
0002b0 fa eb 97 bc e8 63 86 3b 80 81 8c bb f9 27 96 bc
       -0.01854514 0.004101265 -0.0042878985 -0.018329607
0002c0 fd da ef 3c 0d 4e 6e 3d 1f a0 30 bc c9 94 97 3c
       0.029279226 0.058179904 -0.010780363 0.018503563
0002d0 95 24 5a bd 4b 1c 5d bd 02 4c c8 bd d8 db 07 be
       -0.053257544 -0.05398206 -0.09780122 -0.13267457
0002e0 90 00 bd bd dd 3e bd bc 8e b8 4d bd ce 45 13 bd
       -0.09228623 -0.023101265 -0.050224833 -0.035955243
0002f0 15 5c e9 3d 9c 10 5f bd 8b 5e 87 bd ff 05 9a bd
       0.113945164 -0.0544592 -0.066098295 -0.07520675
000300 3b 64 aa bc 6f aa dd bc c9 01 3d 3c bc a6 58 bc
       -0.020799747 -0.027058808 0.01153607 -0.013223346
000310 2f 9b c5 bc 96 ee a0 3c 8d be c0 bd 87 4d d8 bd
       -0.024121849 0.019645017 -0.09411345 -0.10561662
000320 fc a1 e5 bd 4a d5 77 bd e0 03 bf bd 95 88 e6 bd
       -0.11212537 -0.060506143 -0.09326911 -0.1125652
000330 1a ec 8d bd 9f 7d a1 bd 05 cd d0 bd ee 8b 07 be
       -0.069297984 -0.078852884 -0.10195354 -0.13236973
000340 03 e3 72 bd e8 ca 95 3c a2 c4 d6 bd 57 a9 b6 bd
       -0.059298526 0.01828523 -0.104867235 -0.08919018
000350 e3 cb f6 bc 9f 00 1c 3c 03 96 dc 3c c7 92 21 3d
       -0.030126518 0.009521632 0.026927 0.03944662
000360 b9 76 7e bd a2 13 90 3c fb d1 31 3d 3e cc 6e bc
       -0.06212494 0.017587487 0.043413144 -0.014575062
000370 ae c2 87 3d 98 7e 39 3d b2 54 f3 bd 57 b9 1a bd
       0.06628929 0.045286745 -0.11881389 -0.03777441
000380 e6 80 bb bc 78 3a 6e bd 59 fb d2 bc 9f 60 2e 3b
       -0.022888612 -0.05816123 -0.025754618 0.0026607884
000390 c7 aa 36 bd 93 b4 b8 bc e7 98 21 3d e6 cb b8 3b
       -0.04459646 -0.022547042 0.03945246 0.005639541
0003a0 03 b0 1f 3c 6a 3e 58 3d 02 45 34 be 2e 5b 9b bd
       0.009746554 0.052793898 -0.1760445 -0.075857505
0003b0 be 7a 49 bd 05 26 29 bd 81 05 8b bb 43 dd f4 3c
       -0.04918932 -0.041296024 -0.0042425995 0.029890662
0003c0 fe 7f 6f 3d 26 c9 77 3d 19 ad b1 3d 53 38 f0 bd
       0.058471672 0.060494564 0.08675594 -0.11729493
0003d0 29 fa 45 bd 21 6e bd 3c b2 49 5c bd c5 3a 8c 3b
       -0.048334274 0.023123803 -0.05378122 0.004279467
0003e0 04 eb e6 3d ae 73 33 3b 8f 8f 68 38 9d bb 87 3d
       0.112752944 0.0027382183 5.544681e-05 0.06627581
0003f0 47 21 60 bd 63 c2 4f bd 8d fa 91 bd 6c 83 61 bc
       -0.054719236 -0.05072249 -0.07127867 -0.013764244

86 f4 [32]
000000 18 61 60 3e 68 ac cf bf 92 0f b9 3f e2 0c 8d 3e
       0.21912038 -1.6224489 1.4457877 0.2754889
000010 dc ee 39 bd ba ee 99 3f 05 1c 34 be ed 7a c1 3f
       -0.04539381 1.2025979 -0.17588814 1.5115639
000020 27 e0 03 bf 04 42 0a 40 45 3c b0 be d3 5a 40 3f
       -0.51513904 2.1602793 -0.34420982 0.75138587
000030 0e 30 ab be 6e a2 4b be 15 b6 4d 3f a6 85 2b 3e
       -0.334351 -0.19886181 0.8035596 0.16750202
000040 84 08 b6 3f ca 91 69 bf b7 3a f6 bf a8 a5 f4 3e
       1.4221349 -0.9123808 -1.9236668 0.47782636
000050 ca dd 12 bf 6a a4 a2 bf ef fe e6 bf 36 2c 99 3d
       -0.57369673 -1.2706425 -1.804655 0.07479136
000060 a6 fb e8 be f3 e4 81 3f da 6c 22 3f 16 50 49 c0
       -0.45504493 1.0147995 0.63447344 -3.145513
000070 1b 81 57 bf 38 5a 61 bd 5c 2d 3c bf 71 a3 54 40
       -0.84181374 -0.05501768 -0.7350671 3.3224757

88 f4 [32, 16, 1, 1]
000000 7c e5 ea be 40 34 d2 3e 05 c3 a6 be 85 6c bb bc
       -0.45878208 0.4105549 -0.32570663 -0.022878895
000010 d0 e6 00 bb 2e 69 0e be 1a 3b a2 be 27 73 b3 3d
       -0.0019668825 -0.1390731 -0.31685716 0.08762198
000020 29 70 17 bf 1c 72 93 be 74 87 69 be af bf 8b bc
       -0.5915552 -0.28797996 -0.22805578 -0.017059175
000030 97 f6 6c 3e 98 9c b4 3e 37 64 3e be a8 20 23 3d
       0.23140942 0.35275722 -0.18592916 0.039826065
000040 2b ac 24 be c3 0b 90 3e 99 03 e8 bd b2 d9 6e 3e
       -0.16081302 0.28133973 -0.11328811 0.23325232
000050 b5 20 a0 bd 7e 92 b9 bd ca 82 1b 3e 93 33 fe bd
       -0.07818738 -0.09061144 0.15186611 -0.12412181
000060 c7 ae 07 bf 69 29 90 be cd e1 58 3b 81 64 1d bf
       -0.53001064 -0.28156593 0.0033093572 -0.6148148
000070 ee fa 98 3e ad 48 5f 3e 57 e9 ba be 05 9c 89 be
       0.29878944 0.21805067 -0.3650615 -0.26876846
000080 3c 69 a7 be 83 40 54 be 61 5c 23 3f 39 42 57 bd
       -0.32697475 -0.20727734 0.63812834 -0.05255339
000090 04 29 e7 3d 1c a8 15 3e 1e 8a 9f 3d aa 38 fa bd
       0.1128712 0.1461491 0.07790016 -0.12217839
0000a0 09 91 88 bb d1 55 3a 3e b4 e6 06 be 3b 33 7d be
       -0.00416768 0.18196799 -0.13173944 -0.24726574
0000b0 a8 dd 8f 3e 67 a9 b8 be 5f d1 08 be 6f fe 25 3e
       0.28098798 -0.36066744 -0.13361119 0.1621034
0000c0 a5 41 53 be b3 d7 eb 3c b3 69 4b be ec f7 91 be
       -0.2063051 0.028789377 -0.1986454 -0.28509462
0000d0 cf 36 b2 3d eb 74 8d 3c 25 29 ae be 1e 97 c8 3d
       0.0870186 0.017267665 -0.34015766 0.09794448
0000e0 a6 f3 74 be e2 56 13 be db 34 63 be dd 32 f2 be
       -0.2392107 -0.14388612 -0.22188132 -0.4730443
0000f0 d1 9e 8a be f7 b6 cb 3d a7 6b 97 be 6c 7d d1 bd
       -0.27074292 0.09947007 -0.2957432 -0.102290004
000100 51 7e 53 3c ce 1a 33 be 65 07 84 3d 18 ff b1 ba
       0.012908534 -0.17490694 0.06446723 -0.0013580052
000110 da 28 0d bd f2 d8 a1 3d 06 f2 0f 3e 99 fd e3 3c
       -0.034462787 0.07902707 0.14057168 0.027830886
000120 97 42 3e 3c f5 c3 09 be d5 a7 d8 3c cb df 08 3e
       0.011612556 -0.13453658 0.026447216 0.1336662
000130 3d e5 f2 bd 55 b2 2c be bc ba d5 bc 42 8c 69 bd
       -0.1186013 -0.16864903 -0.026090018 -0.057018526
000140 0f df 13 3d f9 28 a3 3d e9 97 45 3e 21 d3 3a bd
       0.036101397 0.07966799 0.1929623 -0.045611504
000150 9a 68 c9 3e bf 07 f8 be 4d 1f 01 3d f8 78 91 be
       0.39337617 -0.4844341 0.03152399 -0.28412604
000160 fc 9f 1d be ca 23 2b 3f 67 97 85 3e d6 1d ae be
       -0.1539306 0.66851485 0.26092073 -0.34007138
000170 83 aa 31 3e 5d 99 df 3c 33 53 17 3e 57 24 7f 3e
       0.17350201 0.027294809 0.14777832 0.24916206
000180 4d b8 52 be c5 23 a1 be a2 2a da bd fa 93 a5 3c
       -0.20578118 -0.31472602 -0.10652663 0.020212162
000190 77 56 66 3e 80 79 63 3d 4a 64 e3 3e 7b ec e5 3e
       0.22493921 0.055535793 0.44412452 0.44906983
0001a0 26 bc 50 be 8b 2b e0 bd 09 70 70 3e 6c 15 3d 3f
       -0.20384273 -0.10945805 0.23480238 0.7386081
0001b0 88 e3 84 be 80 f5 eb bd d4 59 7e be cb a3 14 bf
       -0.25954843 -0.11521435 -0.24838954 -0.5806243
0001c0 ee 35 73 3f 26 33 fe 3d 1d a8 40 bf d5 17 0d bd
       0.95004165 0.124120995 -0.7525652 -0.034446556
0001d0 d4 48 47 be 89 52 07 bf 93 b4 05 bd fb 1a 94 be
       -0.19461375 -0.52860314 -0.032642912 -0.28926834
0001e0 1f a9 03 3f a0 f5 c1 bd b0 2a 2e bf 68 8e ff 3e
       0.51429933 -0.094706774 -0.68033886 0.49913335
0001f0 c3 b7 1b 3c 3e c9 f8 bc c8 14 83 bd 95 c7 83 3b
       0.009504261 -0.030369397 -0.06400448 0.0040215948
000200 2e 9b 00 3f b1 dc 82 3f aa 69 af 3d 92 24 86 3e
       0.50236785 1.02236 0.08565076 0.26199776
000210 ae 30 15 3e 91 d4 77 3e 97 16 06 be 83 7c 08 bf
       0.14569351 0.24202181 -0.13094555 -0.5331499
000220 78 bb 62 3d 7c f2 03 3f 66 c4 40 bf 7d 20 c2 3e
       0.055354565 0.51541877 -0.7529968 0.37915412
000230 c2 9e 3e 3e b5 6a 1f 3f 85 e2 4c be 5d 7f 0a 3c
       0.18615249 0.62272197 -0.20008285 0.008453217
000240 53 c9 b9 bd 63 3d 5d 3e 59 9c e5 3e 90 24 54 3d
       -0.09071603 0.21605448 0.44845846 0.05179268
000250 d5 4b 09 bc 31 09 d6 3e 6f 77 47 3e 9a 8d 9f be
       -0.008379896 0.41803887 0.19479154 -0.3116272
000260 fa 61 90 be 80 69 94 3d d5 c5 87 3e 79 07 37 3d
       -0.2819975 0.07246685 0.2651812 0.04468486
000270 e1 94 9c bd 8f de a2 bd b7 d1 1a 3d b7 97 bb 3d
       -0.07645584 -0.07952606 0.037797656 0.09159797
000280 10 b6 e4 bd a5 9c f2 3c e4 8f 90 3c 33 eb d8 bd
       -0.11167538 0.02961571 0.017646737 -0.10591736
000290 9c 25 33 3d 87 5a b8 be b7 43 e9 3d 86 45 0d be
       0.04373704 -0.36006567 0.11389869 -0.13796052
0002a0 d9 15 68 be b9 fd 94 3d 4b 99 73 3e 58 0b c9 be
       -0.22664584 0.07274956 0.23788945 -0.39266467
0002b0 95 91 d0 3d 7a 27 ca 3d b9 40 1a bd 9b b5 38 bd
       0.101840176 0.09870811 -0.03765938 -0.045095067
0002c0 ee 39 81 bd d3 75 d9 bd 21 e9 3c bc 40 fd 91 bd
       -0.06309877 -0.10618176 -0.011530192 -0.07128382
0002d0 87 25 1e be b8 bd 9a 3c 55 13 ed 3d 05 8e 8e bb
       -0.15444003 0.018889293 0.11575953 -0.004350426
0002e0 34 80 02 bd b6 db bd be ca 40 04 bc ba 6c 01 be
       -0.031860545 -0.3708169 -0.008072088 -0.12639132
0002f0 93 ef b9 be 60 6a 97 be 27 05 91 be e0 12 9f be
       -0.36315593 -0.29573345 -0.28324243 -0.31069088
000300 8b 49 22 bf 02 3e 24 3e ee f3 95 bd 79 4e ed be
       -0.6339347 0.16039279 -0.073219165 -0.46348932
000310 07 95 d2 bd a2 64 c7 be 16 28 e6 bd f1 b1 27 3c
       -0.10282331 -0.38943964 -0.112381145 0.010235296
000320 1c d7 e2 be d4 90 7b 3d 2a a3 7e 3d 85 1b 28 bf
       -0.4430474 0.061417416 0.062167324 -0.6566699
000330 3b 74 7d be 73 6a 03 3e dc 75 42 be cb cc 5e 3e
       -0.2475137 0.12833576 -0.18990272 0.2175781
000340 0a 03 d7 3c 15 73 0b 3e bc f1 08 bd fc c5 4c be
       0.026246566 0.13618119 -0.03343366 -0.199974
000350 fb ab a4 3c de 40 70 be 94 6e e7 bd 15 e4 db 3c
       0.020101538 -0.23462245 -0.11300388 0.026842156
000360 32 4b 07 be f9 42 e0 bc ef 67 67 be 33 58 76 be
       -0.13212278 -0.027375685 -0.22598241 -0.24057083
000370 9e dc 71 3c 0a d2 65 3e ac cb 31 be 0d 77 e2 3d
       0.014762072 0.22443405 -0.17362851 0.110578634
000380 6a 8c d6 3c 0f b8 16 be 9b 11 29 3d fc 80 de 3b
       0.026190002 -0.1471865 0.041276556 0.0067902785
000390 14 67 69 bc c2 92 54 3e 5a 3e 4d 3e 78 03 f4 bd
       -0.014245767 0.20759109 0.20043316 -0.11914724
0003a0 66 cf 1d be e7 c8 7d ba e3 52 09 3e d6 85 84 3e
       -0.15411147 -0.0009681121 0.13410525 0.2588336
0003b0 ee 4d 04 be 22 9d 10 bd d1 f9 a0 bc 15 04 34 be
       -0.12920353 -0.035306104 -0.019650372 -0.17579682
0003c0 63 2a 96 be 36 ac fb 3e 9e c9 e7 bd cd 8c 59 be
       -0.29329214 0.49154824 -0.11317752 -0.21245117
0003d0 c9 d7 2d bd 34 96 72 be 80 71 d6 3d 5c 36 80 bd
       -0.042442117 -0.2369011 0.10470867 -0.06260368
0003e0 a5 ad 89 be 5e d5 2f bd 7d 0b e8 be bc 48 0e 3e
       -0.26890293 -0.042928092 -0.45321265 0.13894933
0003f0 c6 c0 98 bd 54 e3 04 3f 87 c7 9a be c4 8d 15 3e
       -0.074586436 0.51909375 -0.30230352 0.1460486

89 f4 [32]
000000 40 be c5 3d 06 a2 b0 be b0 38 5c bf 0b 32 fd 3f
       0.09655428 -0.34498614 -0.86024 1.9780897
000010 a8 4b 59 bd bb 9c 24 bf 0a c4 69 bf fc d8 23 3f
       -0.053050667 -0.6430165 -0.91314757 0.64002967
000020 b5 a0 31 c0 01 47 f6 bf b4 b4 28 be 8b 09 1d 3f
       -2.7754338 -1.9240419 -0.16475183 0.61342686
000030 b7 36 e8 3f 80 b5 33 3e 0b ec 03 bf 76 30 5d be
       1.8141698 0.17549706 -0.5153205 -0.21600518
000040 77 19 ab bf f0 6d 42 3d 6c 3d 58 3e b0 a1 c8 3e
       -1.3367146 0.047468126 0.2111718 0.39185858
000050 9e bf c3 be 01 a2 40 bf 3c e0 ee 3e e9 72 38 c0
       -0.3823213 -0.752472 0.46655452 -2.8820136
000060 ea 59 1d bf 41 58 51 3e 14 9c d7 be 0b 6f 8d bf
       -0.6146532 0.20443822 -0.42111266 -1.1049513
000070 7a 3c b5 3e 2d 89 e8 bf ab bf 98 3e 02 f8 d1 be
       0.35397702 -1.8166863 0.2983373 -0.41009527

91 f4 [64, 32, 3, 3]
000000 63 ce 07 3c 7b 8d 5b 3d c9 e3 cb 3c 6f 52 14 bc
       0.0082889525 0.053601723 0.02488889 -0.009052857
000010 fb 7c 57 3d 89 95 4e 3d 4d 0f c8 bc 65 d4 54 3b
       0.052609425 0.050435577 -0.024421358 0.003247523
000020 48 a6 bb 3c 25 2b c4 bb 65 9f a4 3c f6 b8 28 3d
       0.022906438 -0.0059865885 0.020095536 0.041192017
000030 d5 b8 ae 3c 05 a5 f3 3b 54 ff 08 3b d3 3f fd bc
       0.02132837 0.0074354433 0.002090414 -0.030914223
000040 6a b7 a4 bd 48 38 4d bd 3d 12 d6 bd a4 d7 87 bd
       -0.08042796 -0.050102502 -0.104526974 -0.06632927
000050 73 cb 8b bd c4 ff e8 3b cc eb 14 bc 85 84 0f ba
       -0.06825914 0.0071105678 -0.0090894215 -0.0005474764
000060 4c 91 3a 3d cb db e7 3c 13 7d 12 bd 8e be 96 3c
       0.045548722 0.028303048 -0.03576381 0.01840141
000070 58 f9 a6 bc 8e 0d 04 ba 23 ee f5 3c 20 3a 0a bd
       -0.020382568 -0.000503742 0.030020779 -0.03374684
000080 14 a6 b4 3b 6e 0a fa 3c 69 f2 fe bc 40 0f 39 bd
       0.005512962 0.030522551 -0.03112145 -0.04518056
000090 fe 0d 30 3a ab 68 2b 3d 5e 5f 5c 3d 6d 23 4f bc
       0.0006715952 0.041847866 0.053801887 -0.0126427235
0000a0 2d 4f fc 3c 04 d1 8c 3d f0 b6 75 bb b4 2c 0b 3d
       0.030799473 0.06875804 -0.0037493072 0.03397818
0000b0 46 64 66 3d 14 6d 89 3c d6 0b 8f 3b 0d 5a d2 3b
       0.056247972 0.016775645 0.0043654246 0.0064194263
0000c0 2b 7b ec bc 9d 7e 84 3c 7f 68 ed 3c e7 b2 30 bc
       -0.028867325 0.016173655 0.028980492 -0.010784841
0000d0 da 8f 77 3a 2e c8 29 bb 4b 96 c6 3c 52 d4 ff 3c
       0.0009443738 -0.002590667 0.024241587 0.031229172
0000e0 90 56 4f 3d 09 6b b9 3b 8b 29 f5 bc ea c4 3f 3d
       0.05061966 0.0056585115 -0.029927036 0.04681865
0000f0 75 31 2e 3d 7d ff 17 3d 36 97 bd 3d 9a 96 0d ba
       0.042527635 0.037108887 0.09257357 -0.00054011645
000100 b9 94 55 bc 5e 36 c4 bb aa ba 70 3d 74 77 c6 3b
       -0.0130359465 -0.0059879264 0.058771767 0.0060567204
000110 fb 6f 4f 3d dc e5 5a bd 5f 65 69 bd 14 4d 1e bd
       0.050643902 -0.053441867 -0.05698144 -0.038647726
000120 2e b1 7b 3d 48 38 3e 3d 97 17 2b 3d 44 77 b7 bc
       0.06144827 0.046440393 0.041770544 -0.022395737
000130 f0 00 19 bb b2 66 b0 bc 1f 46 3b 3a 3c bf 22 3c
       -0.0023346506 -0.021533344 0.0007143933 0.009933289
000140 9c cd 3c bd 04 e0 22 3b e5 07 b2 3b 8e 87 3a bc
       -0.046094522 0.0024852762 0.00543307 -0.011384858
000150 8f 65 5e 3c a2 af 74 3c 99 8b 06 3c d2 b5 1e 3d
       0.013574018 0.014934452 0.008211994 0.038747616
000160 be 94 e6 3c ad 2b 94 bb 85 dc ee 3c 0d 52 19 3d
       0.028147098 -0.004521808 0.029157886 0.037431765
000170 cc 97 96 3c b4 7d 33 3d be b7 2f 3d ed fb 2c 3d
       0.01838293 0.04382105 0.04289984 0.042232443
000180 45 bd 13 3d f1 26 1e 3d 35 35 d0 3c 91 96 8b bb
       0.036069173 0.038611356 0.025415996 -0.0042598923
000190 aa d2 b7 b9 1c 82 9d 3c 9b af d6 bc 28 05 a2 bc
       -0.00035061437 0.01922708 -0.026206782 -0.01977785
0001a0 1b de e8 3b 60 3a fc bc 72 7e 38 bd a3 04 b5 bc
       0.007106555 -0.030789554 -0.045042463 -0.022096938
0001b0 a5 23 4f bb c1 80 b8 bd a6 fe 27 3d 2d 42 05 bc
       -0.003160694 -0.09008933 0.041014336 -0.008133453
0001c0 ed f1 d6 bc fa 43 10 3d c8 13 4c bd ee 97 d8 bd
       -0.026238406 0.035221078 -0.049823552 -0.10575853
0001d0 76 b2 62 bd 4b 87 9e 3c bc 65 25 3d 10 c1 99 3c
       -0.055345975 0.019351622 0.040380225 0.018768817
0001e0 d9 ae 50 3c ba 04 59 bb 7e 41 cb 3c a8 2d c7 3c
       0.012736999 -0.003311439 0.024811503 0.024313763
0001f0 72 f8 b2 bb 07 d2 ea bb b6 ea 0b bd 86 1e 5b 3b
       -0.005461746 -0.0071661505 -0.034159385 0.0033434941
000200 ca 9d f3 3c ec 68 24 bd 1e 14 c1 bc 89 54 8f 3d
       0.029738326 -0.040139124 -0.023569163 0.06998546
000210 67 34 07 bd 4c bf 45 3b d3 9d 1e 3d 2f 80 14 bd
       -0.03300896 0.0030173836 0.03872473 -0.036255058
000220 04 2a cf 3c 45 b8 52 3d fd 02 94 bc 7d c7 58 bc
       0.02528859 0.051445264 -0.018067831 -0.013231155
000230 b2 28 df 38 d5 e2 a2 bd 19 34 9b bd f7 51 96 bc
       0.00010641049 -0.07953421 -0.07578296 -0.01834963
000240 87 42 e7 3c a3 fa b6 3c 34 f1 67 3c 18 38 c0 3c
       0.028229965 0.02233631 0.014156628 0.023464248
000250 61 73 09 bc 6b 79 a4 3b 67 39 a5 3d 9b 69 9b 3d
       -0.008389325 0.005019357 0.08067589 0.07588502
000260 50 64 f2 3c 0d 45 a3 bc a5 2a bd bc 7c 11 76 bc
       0.029588848 -0.019930387 -0.023091624 -0.015018817
000270 d0 e0 93 3c f3 07 30 3c 64 7e f0 3c 29 0b 0b 3d
       0.018051535 0.010744083 0.029357143 0.03394619
000280 44 90 2e 3c 56 f8 9a 3b ce b9 0a 3d 03 92 6d 3b
       0.010654513 0.004729311 0.033868603 0.003625036
000290 91 52 d5 bc 11 b9 0f bb 86 c6 c2 bc 9b 7a c6 bc
       -0.026040347 -0.0021930377 -0.023776304 -0.024228385
0002a0 27 cd 97 3c be 07 9d bc c4 9f 81 bc 1c ad cc 3c
       0.018530441 -0.01916873 -0.015823252 0.024984889
0002b0 83 41 0a 3d d2 1e 1d 3d 75 16 e3 b9 fe ab 10 bb
       0.033753883 0.03835947 -0.00043313546 -0.0022075172
0002c0 02 b9 37 3c aa c6 94 3b 88 24 3e bc f7 37 db bb
       0.011213543 0.004540284 -0.011605389 -0.006690021
0002d0 d9 9e c4 3c 0f 3a f4 3c fb 96 47 3d fb 54 9f bc
       0.024001526 0.02981284 0.04872797 -0.019449702
0002e0 48 27 5e 3c 63 d5 af 3d d8 4d 5b 3c d3 7f 18 3d
       0.01355917 0.08585622 0.013385259 0.037231278
0002f0 4b d8 97 3d cc bf 44 bd 2a d4 af bc 15 cc 73 bc
       0.074143015 -0.048034474 -0.021463472 -0.0148802
000300 e5 60 1c bd 73 a7 1f 39 19 4c e9 3b 52 e2 9d bd
       -0.038178343 0.00015225801 0.0071196673 -0.07709183
000310 61 f6 8e bc bc 0f 14 bd 3b d1 90 bb 42 b4 be bc
       -0.017451467 -0.036147818 -0.0044194735 -0.023279313
000320 7e be 50 bd ec 2a 84 bd dc 08 a9 bd 8e 85 b9 bd
       -0.050962918 -0.06453499 -0.08253643 -0.09058677
000330 53 19 8c bc 74 04 03 bd a0 c4 16 bd 01 38 0f bb
       -0.01710192 -0.03198667 -0.03680861 -0.002185345
000340 35 95 f9 bc d4 78 7a 3b 90 fe b4 bd 1c 81 0d be
       -0.030466655 0.0038218992 -0.088376164 -0.13818783
000350 cd 61 92 bd 51 85 c2 bc 48 fb 5d bd 70 57 c9 bd
       -0.0714756 -0.02374521 -0.05419472 -0.098311305
000360 72 01 0a bd 07 93 ff 3c d7 0d dd bc 94 69 a8 bb
       -0.033692785 0.031198038 -0.026984138 -0.005139539
000370 0d 69 00 bd 32 a3 52 bd d6 dc 93 bc e7 3c 24 bc
       -0.031350184 -0.051425166 -0.018049639 -0.010024286
000380 b6 8f e3 bb 58 2e b0 ba 14 79 cd 3c 3d 9e f0 3b
       -0.006944622 -0.0013441546 0.025082149 0.007343082
000390 d0 3b 09 bd 3e 83 50 bd 94 57 1c 3d ad 40 04 3d
       -0.033504307 -0.050906412 0.03816946 0.032288242
0003a0 65 b4 fc 3b 53 b1 3d 3c cf 77 5e 3d 0d e2 81 3d
       0.0077119344 0.011577922 0.054313477 0.06341944
0003b0 3f b2 2c 3d 4f 58 01 3d 23 c7 3c 3d fa 9c 21 3d
       0.042162176 0.03157836 0.04608835 0.039456345
0003c0 f9 c0 06 3d 65 11 b3 3d 83 bc c0 3d e7 ac da bb
       0.032898877 0.08743552 0.09410956 -0.0066734436
0003d0 63 5f 7b ba 47 f4 4f 3c 51 36 f4 bc d3 f8 cd bc
       -0.0009589104 0.012692518 -0.029811056 -0.025143063
0003e0 54 08 59 3c 28 ed c3 bb 6f 85 cc bc 05 98 2d 3c
       0.0132466145 -0.005979199 -0.02496597 0.010595326
0003f0 fc 70 33 bc d7 5a 65 3d 00 78 09 3d 72 58 96 bc
       -0.010952231 0.055994835 0.033561707 -0.01835272

92 f4 [64]
000000 69 a2 23 bf 29 bd 11 bf 34 15 51 3f c7 52 61 3e
       -0.63919693 -0.5692926 0.8167298 0.22004233
000010 8c 34 a8 bd 56 4b 95 3f 20 8a f2 3b e2 76 d9 3e
       -0.082131475 1.1663616 0.0074017197 0.42473513
000020 b4 d8 fa 3f be 7b 8d 3f 3e aa b4 bf c8 44 24 3e
       1.9597383 1.1053388 -1.4114454 0.16041863
000030 8a 10 87 3f bc 48 da bd da 47 f4 be f2 6b 83 3e
       1.0551922 -0.10658404 -0.47711068 0.25668293
000040 88 3b 6f 3e 14 0d 90 3e a8 82 6a 3e 10 30 5a 3e
       0.23362553 0.28134978 0.22901404 0.21307397
000050 00 92 55 bb 68 4e 4e 40 de 4a 8c 3f 94 0d e8 be
       -0.0032588243 3.2235355 1.0960348 -0.4532286
000060 cc 0d b7 3e 6c f1 a5 3e 6f e3 40 3f aa c6 c0 3f
       0.35752714 0.32410753 0.75347036 1.5060627
000070 b9 e8 14 40 f9 05 01 3f 80 dd 15 3e 00 16 6a 3a
       2.3267043 0.5039974 0.14635277 0.000892967
000080 94 f5 3c bf b2 ab 93 3f 65 18 08 c0 de aa 89 3f
       -0.7381222 1.1536772 -2.126489 1.075527
000090 f8 10 3a bf 17 f2 ed 3e cb c3 bb 3e 46 f0 97 3e
       -0.7268214 0.46473762 0.36672816 0.29675502
0000a0 b6 57 68 3f 44 fe fa 3f 36 39 4f bf 20 66 9d bf
       0.90758836 1.9608846 -0.8094667 -1.2296791
0000b0 1b c8 10 40 1d 66 e8 3e 36 44 8e 3e bb 5b 4f 3f
       2.2622135 0.45390406 0.27786416 0.80999345
0000c0 58 13 fa be 6c e3 55 3f 68 96 02 3f 80 50 87 3f
       -0.48842883 0.83550143 0.5101075 1.0571442
0000d0 68 14 c4 3d 96 75 a2 bf 40 d4 6c bd da 08 02 be
       0.09574205 -1.2692134 -0.057819605 -0.12698689
0000e0 de 82 74 3e a8 84 89 bc bc 2a dc 3e 1c 2f a0 3f
       0.23878047 -0.016786888 0.43001354 1.2514377
0000f0 31 5f 3c c0 64 c9 97 3f ba 19 30 3e 06 15 6b 3f
       -2.94331 1.1858335 0.17197314 0.91828954
