model/bridge.onnx (onnx, 301496 bytes, 16 tensors)

fc.weight f4 [2, 256]
00000000: 3f43 ff3e 0b8f 0c3f d2e4 84be 3a67 ecbd
00000010: 466c d7bc ebc8 1e3e 2345 fdbd 180c 9d3c
00000020: 7662 093f 4f99 0b3f ff64 e63e 4ab5 063f
00000030: b7c5 023e 9b38 cf3c 73ee 15be 85f1 61be
00000040: df81 0d3e effb 213e bb72 b33e 0a7c ab3e
00000050: bd1c 3d3d d57f 2dbc e290 6f3b 6810 863d
00000060: 7e33 cd3a bc60 8b3d 023c 433e 2aac 6c3e
00000070: 785b a53d 1f08 9e3d 0f8a 23be c957 e2bd
00000080: f9ea 67be 034e 2fbe c04d adbe 2900 aabe
00000090: aca2 193d 1d8a 303e 253a 4d3c 548e b63c
000000a0: 3efb 42be d533 11be d245 81be d380 99be
000000b0: 4c60 4a3d 1f5f 4e3e 76b7 ce3c 4df0 2f3e
000000c0: 4049 dabd 2270 cbbd 946e 07be 9e64 09be
000000d0: faac 4abe 203a 34be d186 993b 414e 1a3d
000000e0: b1c1 05be 3227 a2bd 9144 c2bd aff0 8fbd
000000f0: d1e6 eb3e 6dfe e13e 80cb 1b3e 6b89 603e
00000100: 0fb9 103e a974 e53c 2793 ba3e cfc1 923e
00000110: 4781 583e 7237 023d f21a 50be 520d 88be
00000120: 5d4a 543e 9155 963e 8f88 5bbe d6e9 2abe
00000130: 7854 f3bd e5a5 f9bd f944 45be 3c35 84be
00000140: a433 413e 65bb 9b3d bf88 ba3e 2730 b73e
00000150: a7b3 523e 613c 573e ff03 66bc 3cbd 34be
00000160: 4a44 00be 00a9 c3bc 0620 62be 61e3 43be
00000170: 1a5b 21be 242e cbbd cba5 2dbe 6d0a cabc
00000180: f1f6 2a3e 677c c03d 9446 8cbe 4605 7cbe
00000190: 469c 873e 6b99 ac3e 685a 69be 671e 29be
000001a0: dfe9 63be c469 c1bd c294 103e a875 6a3e
000001b0: 8de4 13be 1a57 2ebe f104 b5be 2130 88be
000001c0: f182 753d f034 fa3d 910d 9a3e c18d 2d3e
000001d0: 4e1b 893c be47 153e 9587 0cbe c6f9 733d
000001e0: 1e93 2b3e dd07 e33d b5e3 0e3e dc65 253e
000001f0: d2ee e13c a5d0 463d b9c4 8cbe abbf 9ebe
00000200: 959a c9bd 8b5a 1ebe 4a2b 92be a808 86be
00000210: fdb4 8bbe 1eee 5cbe 07ae 07be 85b7 afbd
00000220: ef63 943d 0d18 7e3e 5240 793d 82e3 6a3e
00000230: 2d55 563b ee08 403e 0c15 9bbd c798 09bd
00000240: 949c 583e 12e7 443e dd22 663e 40a7 723e
00000250: 6fa9 27bf 2c73 1abf a421 973e 3394 873e
00000260: 9604 9dbd 878e a4bd a15c 97be 454b 7cbe
00000270: 1218 79bc fe5f fb3c c6f0 8ebe 1b02 57be
00000280: 7edf 413d 19fc d73d ce28 4dbe 485d 58be
00000290: 21df 5d3d 6247 173e d992 f83d 33c2 c23d
000002a0: fd54 ea3c 78cd bc3d 5abb 1b3e 07ab 5b3d
000002b0: e07b 323e a749 4e3e cef1 343e a90a 733e
000002c0: acc0 8dbe 30fe aebe 3b9a 5ebb fb47 ff3b
000002d0: 3a09 b6be 1782 8cbe 2ef3 1bbe 0372 d6bd
000002e0: 1fc4 b43d a356 893e 7ee7 05be e313 0b3e
000002f0: f56c 113e 0dc1 953d b912 a1be 1152 8dbe
00000300: 5629 6fbe e4eb 96be 4084 83be ebc1 90be
00000310: f0b1 503d 1133 753d d6a2 5abd 5bde 983d
00000320: cbaa 4f3e 9a8b 1a3e 9b8c ba3d 134a d63d
00000330: 6613 4bbe 3f16 1fbe e3a0 a5be 94ca b7be
00000340: 907e 813e 013b 3d3e e520 493e 88ad da3d
00000350: dbac ab3e b184 b13e 6ca1 8abe 7f5f 6abe
00000360: 8c5c 513e 84d9 e43d 0fc0 b63e 0b63 873e
00000370: c962 803e 4a30 643e bf69 8a3e ed2f 6f3e
00000380: 1916 f3bd 2e03 dabd 6327 69be f622 a6be
00000390: ca16 463d 1ce5 2a3e 93dd 073e 9be1 663e
000003a0: b915 683e 5e5b ee3d 853d 903e 346e 263e
000003b0: 6249 8dbe 5459 b2be 69a8 c9bd c088 e7bd
000003c0: 54cf a43e d7ed a03e d21a 83bd 047d 093d
000003d0: 9e7c 2e3e d83f 973d 713a 5c3e 61d1 2b3e
000003e0: 2c0e af3d 2d59 de3d 92e1 d1bd 5630 1dbd
000003f0: 32ef 2abe cc60 01be 623c 26bc b275 243e
0.49855992 0.54905766 -0.25955826 -0.115431264 -0.026296746 0.15506332 -0.123667024 0.019170806
0.53665864 0.54530805 0.4499893 0.52620375 0.12770735 0.025295546 -0.14641742 -0.22064789
0.13819073 0.15818761 0.3504847 0.33493072 0.046169985 -0.01058956 0.0036554863 0.06546098
0.0015655605 0.0680556 0.1906586 0.2311255 0.08074087 0.07716393 -0.15970634 -0.110519
-0.22648229 -0.17119603 -0.3384838 -0.33203247 0.03750865 0.17240186 0.01252607 0.022284664
-0.19041154 -0.14179929 -0.2524858 -0.29981098 0.049408242 0.20153473 0.025233965 0.17181511
-0.106585026 -0.09933497 -0.13225776 -0.13417289 -0.19792548 -0.17600298 0.004685261 0.037672285
-0.13062169 -0.07917632 -0.09485734 -0.070283286 0.46074536 0.44139424 0.15214348 0.21927421
0.14133094 0.02800973 0.36440393 0.2866349 0.21143065 0.031791158 -0.20322779 -0.26572663
0.20731492 0.29362157 -0.21438812 -0.16690764 -0.118813455 -0.12189845 -0.19264592 -0.25821865
0.18867356 0.07604102 0.36432454 0.35778925 0.20576344 0.21019126 -0.014039039 -0.17650312
-0.1252605 -0.023884296 -0.22082528 -0.19129707 -0.15757409 -0.0992091 -0.16957776 -0.024663175
0.16695763 0.09398728 -0.27397597 -0.24611387 0.26486415 0.337108 -0.22788393 -0.16515504
-0.22257183 -0.09444001 0.14119247 0.22896445 -0.14442654 -0.17025414 -0.35355332 -0.2659922
0.05993933 0.12217128 0.30088475 0.16948606 0.016736653 0.14578149 -0.13723595 0.059564374
0.1675534 0.11085484 0.13954051 0.16152138 0.027579699 0.048538823 -0.27493837 -0.31005606
-0.09843937 -0.15464227 -0.28548652 -0.2617848 -0.2728652 -0.2157521 -0.1324998 -0.085799254
0.07245623 0.24813862 0.060852356 0.2293835 0.0032704577 0.18753406 -0.07572374 -0.033592965
0.2115348 0.19228771 0.22474237 0.23696613 -0.6549291 -0.6033199 0.29517853 0.26480255
-0.0766689 -0.080349974 -0.29562858 -0.24638088 -0.015203493 0.030685421 -0.2791807 -0.20996897
0.04733228 0.10546131 -0.20035097 -0.21129334 0.05416787 0.14773324 0.12137384 0.09509697
0.028604979 0.092188776 0.15208188 0.0536299 0.17430067 0.20145284 0.17670366 0.23734535
-0.2768606 -0.34178305 -0.003396644 0.007790563 -0.35553914 -0.27443 -0.15229484 -0.10470965
0.0882647 0.2682391 -0.13076589 0.13581805 0.1420172 0.07312212 -0.31459597 -0.27601674
-0.23355612 -0.29476845 -0.25686836 -0.28272948 0.050950944 0.059863154 -0.05337795 0.07464286
0.20279996 0.15092316 0.091088496 0.10463347 -0.19831619 -0.1553583 -0.3234931 -0.35896742
0.25291872 0.1847954 0.19641455 0.1067763 0.33530316 0.34671548 -0.2707628 -0.22887991
0.2044546 0.111743 0.35693404 0.2644275 0.25075367 0.22284046 0.27033803 0.23358126
-0.11869449 -0.10645138 -0.22768931 -0.32448548 0.048361577 0.16688961 0.13268118 0.22546999
0.22664537 0.11638521 0.28171936 0.16252977 -0.2759505 -0.34833777 -0.09846575 -0.1130538
0.3218943 0.31431457 -0.064016 0.03356649 0.17039725 0.07385224 0.21506669 0.1677909
0.08547625 0.10856853 -0.10248102 -0.038376175 -0.16692808 -0.12634581 -0.010146232 0.16060522

fc.bias f4 [2]
00000000: f109 6b3d 9485 cfbd
0.057382528 -0.101329

79 f4 [16, 3, 7, 7]
00000000: 3113 883d 31a5 2a3d 6ca6 263d 422d 3f3d
00000010: f3fb 6e3d 7725 bd3c d7cc ed3c 9c0b f43c
00000020: f6d5 573d 9ce7 733d 1612 953d 4a1f 2b3d
00000030: f162 a53c 74be 8f3c 2e08 833c 0571 c23c
00000040: 8178 703d e53e 373d d609 453d e993 593c
00000050: e51a f63c cb7c cabc 58bc 16bd 9586 49bc
00000060: a40a 553b b180 20bc c0ad 7bbc 575c c5bc
00000070: cbfd 3dbc 7c30 f0bb 7a35 cabc 7304 5abc
00000080: 8417 cbbc 8d71 8cbc a6ef 51bc 923c dd3a
00000090: 81f9 943c 777a 153c d131 8f3c b7c0 4dbc
000000a0: 422f 10bd 9abe e0bb e5e2 fe3c 4aa3 1f3d
000000b0: 3829 023d 351a 383d a9b2 0d3d 0c37 073d
000000c0: cd8b fa3c 0684 5f3d bbe8 1c3d d0e7 003c
000000d0: 70b1 e0ba 82fb 843c 5747 d8bc 3e53 ac39
000000e0: 5741 373c 98fa 073c 60e6 0f3d 5d54 bd3c
000000f0: eb34 cb3c dabc c43b 08f7 2abc d285 e93a
00000100: 1fd5 82bc 9baf 82bc ff96 a8bc 6410 67bc
00000110: 7bd8 2ebd 4a20 a0bc 243a b2bd 2bb7 00be
00000120: 54e6 14be 35eb cebd b118 cebd 02c5 b5bd
00000130: b339 99bd b3f6 19bd 282d b5bd b9ca 0abe
00000140: 1f25 01be c0a7 01be 0c4a dabd 4c94 babd
00000150: 4a2a d7bc f484 afbc d4d1 2bbd 5733 6fbd
00000160: 21d3 82bd ac95 a0bd 5ae2 6ebd 8d0c 1c3c
00000170: de23 513a bf95 8a3c 18fc 62ba 9f45 043c
00000180: 5701 3dbb 957f a83c d30c ad3c 02df 0d3c
00000190: 8df7 4f3c 1dab d1bb dd0d 88bb 2508 26bd
000001a0: 8eb2 eabb 98e6 893c 293e 1d3c 3e2c d2bb
000001b0: 9627 e9ba f38e 17bb c486 c7bc 2148 9bba
000001c0: df91 01bc 30c4 97bc a76f 3dbc 21ac 953b
000001d0: 9170 a8bc f785 8ebc 8c08 84bc 0ea2 4cbd
000001e0: 421b cdbd 2bbc bcbd aaf0 dcbd 3016 9cbd
000001f0: 0f2f d9bd a9cf 83bd 4d9c e2bc 8804 58bd
00000200: 5d95 b5bd 26c5 f6bd 2f32 0abe 7911 f7bd
00000210: 9488 a5bd a5f4 0b3c 0645 e4bc c15e 26bd
00000220: 4191 8fbd dade 7ebd 6073 dabd 2e66 aabd
00000230: ecff 413b ef41 9fbb baa3 17bc 84b5 23bd
00000240: 5438 67bc 7d42 8ebc c98a 1d3c 8269 363c
00000250: 6c72 533d d41a c63b 56e3 e6bc c0f2 48bc
00000260: 0b73 96b9 5782 76b9 fea9 c5bb df82 8e3c
00000270: 9e75 babb 3183 3abd 0c92 fcbc 1bfb 99bb
00000280: c342 16bc b4c8 9e3a 9787 083d 719a e33b
00000290: 7cdc d3bc 08c2 52bc 76bb cf3c da20 2e3d
000002a0: 3775 8c3d 1eb5 9c3d da64 433d 90bb 4c3d
000002b0: ef64 6b3d 074c ae3d b80d a43d f6a0 bf3d
000002c0: 3d04 ef3d b900 693d 91cb 6c3d 3363 7b3d
000002d0: 420c b33d fd0e bf3d 79ba f43d 481a 243e
000002e0: 635f bd3d e9ee 413d c2f6 b13d 53cf bf3d
000002f0: c09a c73d add6 c23d 6549 0f3e 7ef0 c73d
00000300: b098 1c3d 0eea 563d 509d 703d 0f3f b93d
00000310: cc38 b4bb d833 363d c732 29bc 4eee 10bd
00000320: 5685 2ebb 73dc d03c 34ba 303d f065 75bc
00000330: 5b44 273c 066d 20bd fdde 32bd 80b3 9639
00000340: 4de1 ee3c 65d8 0a3c 60a5 77bc e191 5ebb
00000350: ffa1 ccbc 5479 53bd d849 5ebb c6dc 963c
00000360: cf08 fd3c 5d98 453c fae9 ed3c e7e9 da3b
00000370: 5ce9 84bb 3bc4 a23c 83fa 243d 8599 3a3d
00000380: 4cc4 763b 2c5d 253d 4911 2fbd f084 bcbc
00000390: 0dba 5fbc 95de f03c 56dc 803d 83e5 173d
000003a0: 1e96 f13c 22e7 b6bc f24b 24bd e639 80bc
000003b0: b2f2 613c d1a1 103d 495c 303c 41bd 0f3d
000003c0: 65bf 13bd a2d0 1ebd 879d 1fbd e8a6 703c
000003d0: 5359 2b3d 08a8 1f3c 18cc e73c 936d 493b
000003e0: ce21 793c 3a3b b13c 511b 7f3d 0161 a73d
000003f0: cbf2 daba 3fb3 e03b d1fa 6c3b 431d 78bc
0.066442855 0.041661445 0.040686056 0.04667402 0.058345746 0.023089154 0.02902834 0.029790692
0.052694283 0.05954705 0.0727884 0.041777886 0.02018878 0.01754687 0.015995111 0.023735533
0.05870867 0.044737715 0.048105083 0.013279893 0.030042121 -0.024717709 -0.036800712 -0.012300153
0.0032507563 -0.009796307 -0.015361249 -0.024091883 -0.0115961535 -0.0073299985 -0.024683703 -0.013306725
-0.024791487 -0.017143989 -0.012813484 0.0016879013 0.018185379 0.009123436 0.017479809 -0.012558154
-0.03520132 -0.006858659 0.031114051 0.038974084 0.03177759 0.044946868 0.03459421 0.03301148
0.03058424 0.054569267 0.038307887 0.007867768 -0.0017142724 0.01623321 -0.026401205 0.00032868417
0.011185012 0.008299492 0.035131812 0.023111517 0.024805507 0.006003958 -0.010434873 0.0017816371
-0.015970765 -0.015952876 -0.020579813 -0.014103029 -0.04268692 -0.019546647 -0.08702496 -0.12569873
-0.14540988 -0.10103456 -0.10063303 -0.08875467 -0.074817084 -0.037588786 -0.088465035 -0.13553895
-0.12611817 -0.12661648 -0.106586546 -0.09110317 -0.026265282 -0.021425702 -0.041948155 -0.05839857
-0.06387926 -0.07841048 -0.058321334 0.009524477 0.0007978062 0.016917108 -0.0008658781 0.00807324
-0.002883991 0.020568648 0.02112428 0.008659126 0.012693298 -0.006398572 -0.0041520433 -0.04053511
-0.0071623987 0.016833588 0.00959734 -0.0064139655 -0.0017788287 -0.0023125976 -0.024356253 -0.0011847058
-0.007908314 -0.018526167 -0.0115622645 0.0045676385 -0.020561488 -0.017397864 -0.016117357 -0.049959235
-0.10014965 -0.09215578 -0.107880905 -0.076214194 -0.10604679 -0.064360924 -0.02766242 -0.052738696
-0.088663794 -0.12049322 -0.13495706 -0.120638795 -0.08082691 0.0085422145 -0.027864944 -0.040617708
-0.07010127 -0.062224247 -0.10666537 -0.083202705 0.0029602004 -0.004860155 -0.009255344 -0.03996803
-0.014112551 -0.017365688 0.0096156085 0.011133553 0.051622793 0.0060456786 -0.028184574 -0.012264907
-0.00028695943 -0.00023508944 -0.0060322275 0.017396389 -0.0056902906 -0.04553527 -0.03083136 -0.0046991236
-0.009171191 0.0012114258 0.033332434 0.006945901 -0.025861971 -0.0128636435 0.025357943 0.0425118
0.068582945 0.07651733 0.0477036 0.04998356 0.057469305 0.08510595 0.08010429 0.09356873
0.1167073 0.056885455 0.057811324 0.0613739 0.08742572 0.09329031 0.11949629 0.1602565
0.09246709 0.047346983 0.086896434 0.09365716 0.09746313 0.095136024 0.13992842 0.09762667
0.03823155 0.052469306 0.058743775 0.090452306 -0.005499935 0.044483036 -0.010327048 -0.035383515
-0.0026629767 0.025495743 0.043146327 -0.014977917 0.010209168 -0.039166473 -0.04366969 0.00028743967
0.029160166 0.008474444 -0.015115112 -0.0033961462 -0.02497959 -0.05162938 -0.0033918526 0.01841582
0.03088799 0.012060252 0.029042233 0.0066807154 -0.004056139 0.01986896 0.04027797 0.045556564
0.0037653623 0.04037206 -0.042741094 -0.023012608 -0.013655198 0.02940301 0.06292026 0.037084114
0.029490527 -0.02232701 -0.04011149 -0.015652608 0.013790773 0.03531057 0.01076419 0.035092596
-0.0360712 -0.038773187 -0.03896859 0.014688231 0.041833233 0.009744652 0.028295562 0.0030735477
0.015205814 0.021634687 0.06228191 0.08172799 -0.0016704438 0.0068573053 0.003616024 -0.015143695

80 f4 [16]
00000000: 2f9d a63f d2fd 08c0 1048 f7bf 561f c63e
00000010: e7d5 0640 e224 d6bf bc36 0ebf 8ec4 68bf
00000020: e0b0 7c3e f215 7b3f 4654 ff3d 28e1 cf3f
00000030: e7a7 af3f 80a9 6abc 23db 9d3e 1ebb 083f
1.3016719 -2.140492 -1.9318867 0.38695782 2.1068056 -1.6730006 -0.5555227 -0.9092492
0.24676847 0.9808036 0.12467246 1.6240587 1.3723115 -0.0143226385 0.3083125 0.5341052

82 f4 [32, 16, 3, 3]
00000000: 12bf 0b3d b322 7e3c ad74 523d e3f6 a53c
00000010: 8e50 723c 3529 533d db5f a93b 38be 253c
00000020: 92cf dc3c beac febc 85ad f7bc 4654 5dbd
00000030: 3a25 dabc ab11 f3bc 4109 cdbc a804 913c
00000040: 7c93 2d3c 8638 b13b f22e 03bd 3937 d5bc
00000050: 5598 93bb 25aa 1cbd 087c 81bc 1837 41bc
00000060: dcd5 83bc fd47 973b 7fb8 013c d80a ae3b
00000070: 47e4 00bc c628 83b9 3f59 283d 0fb6 8c3c
00000080: 89e4 493d a78f 003d 5602 e23c 7833 083d
00000090: 728b 0cbc 2383 27bd 9d43 32bc ace9 ee3c
000000a0: 461c d33b 3cb0 153d 9633 0c3d 48ed e13b
000000b0: 6fd9 103d a414 40bd 4722 e4bc c4ab 1bbd
000000c0: 1902 07bd 339d b8bc d588 babc 3718 91b9
000000d0: 6762 08bc 4298 da3b b9ed 9fbd 4cd6 66bd
000000e0: eb34 32bd d261 1fbd 7f92 51bc 9cc2 fc3b
000000f0: 738e 65bc dc32 6d3c d287 2e3d 93b6 07bd
00000100: a9c2 14bd 86d5 f6bc 25ae e7bc ee91 24bd
00000110: 84f0 fbbc 23fb 13bb 598e 32bc 8701 f7bc
00000120: 537a ba3a 7559 1ebc 061d f53a 441f 98bc
00000130: ba56 2f3b b42f 733b b75b c43c 9a37 a23c
00000140: 6dc4 163d 5381 8b3c 5f83 bf3b 4d9f dd3c
00000150: f2f6 a53c 8369 043d 5c19 523d ab95 e73b
00000160: 2d04 ed3b ddd0 533c b7c2 1f3c 4c9b adbc
00000170: 7a47 5a3c 53a6 ddbc 8ac4 1bbd 0276 5f3a
00000180: 4818 5b39 98d0 14bc 492f c239 7575 073d
00000190: 7ebe c63c ac20 713d e624 de3c ebc9 083d
000001a0: 8934 633d 1459 d13c fc6e 833c 55ec b33c
000001b0: 4c1d 4d3c c7fa cd3c 0602 fb3c beb6 903b
000001c0: c0c4 d43b 83fe f13c 1483 2dbc faa7 6ebc
000001d0: 5ba7 463c e6e0 91bd d80d 21bd 6fa4 cfbc
000001e0: 3fa4 2cbd 61f7 3abc 1659 06bd 08ce 75bd
000001f0: 0c19 0dbd f6ea 2abd 255a ee3b 5b37 e1ba
00000200: fa47 763c 9eba 913b 6ddc 923c efd6 993c
00000210: 1cff 323d bf2a 9f3c 249a 383d 762a a83b
00000220: aeea 1a3c 5a90 c63c e2e9 213b de0d 9a3c
00000230: 1ec3 623d 6617 4e3b cea1 703c 25c8 4a3d
00000240: f545 5bbd 7eda 03bd 9fd2 d6bc aae4 fbbc
00000250: 138b 6fbd b6a5 09bd 7258 bfbb 1e13 bfbc
00000260: d87e abbc b4b2 c13c ce3c 1f3c 832d 86bc
00000270: 4e5a ac3c 4b83 673c cff7 a13a bef3 353c
00000280: 2b82 ae3c 95d5 0dbc 47e6 073e bb9b 063e
00000290: e7f5 0f3e 1281 7d3d 50c0 8a3d 5872 4e3d
000002a0: 5bf9 92bc 5d25 0ebd cb3b 27bd 0f4e 1fbd
000002b0: 401d 4cbd bd2c 39bd d363 47bd 5455 90bd
000002c0: 644f b5bd 425a 803c 85cd 19bd 3fe2 11bd
000002d0: cbc6 afbd ecb8 d0bd add2 b5bd 239b b9bd
000002e0: 5613 c6bd f826 a4bd c82a 1abd ba3d 3abd
000002f0: 4830 e4bc 5476 1e3d e42f 8f3d 5c25 573d
00000300: 03d0 56bb 90ad 8cbc 4632 c4bc c433 96bd
00000310: 5e77 9dbd 2c80 e1bd afa0 843d c1cf a2bc
00000320: afe7 b5bd f437 2a3d 77c4 59bd 84e9 efbd
00000330: 8082 1bbc f8dd 87bd 3245 07be 9ddf 3e3d
00000340: f167 963d d8e5 7a3d 5475 c93c fe8d 103d
00000350: e489 253d be0e 043c f4cb b63c 1efc d83a
00000360: 5d7e ce3c 19b7 083d 720f e3bb 4e33 0a3d
00000370: 3a65 153d a3c1 f13b bc21 f8bb 90e5 a2bc
00000380: a110 87bb 53d6 abbd 0653 84bd 0a71 87bd
00000390: 1e02 85bd 24b0 86bd 40f6 c0bd 595b 0bbd
000003a0: 57dd 1bbd 88eb 81bd e151 97bd 7150 f8bd
000003b0: 91d8 88bd 3bee 1cbd 205c cbbd 280d ccbd
000003c0: 4a86 6f39 1043 84bd 22cf c7bc a2df 57bd
000003d0: 99e5 f1bc 572f 87bc dcf9 61bc c217 17bd
000003e0: dbc6 4fbd 684f 663a 7c64 01bd b28c a5ba
000003f0: 4dc2 1fbd 094c a6bc 37ff 023b fef6 8fbc
0.034117766 0.015511203 0.051380802 0.020259326 0.014789714 0.05155297 0.0051688976 0.010116152
0.026954446 -0.03108823 -0.030234108 -0.054035448 -0.02662908 -0.02967151 -0.025028827 0.017702416
0.010594245 0.0054083494 -0.032027192 -0.026027309 -0.0045042434 -0.0382482 -0.015806213 -0.0117929205
-0.016093187 0.004616736 0.007917522 0.0053113513 -0.007866926 -0.00025016646 0.041100737 0.017176656
0.049290214 0.031386998 0.027589004 0.03325221 -0.008578168 -0.040896546 -0.010880378 0.029164158
0.0064425794 0.036545023 0.034228884 0.006894741 0.03536361 -0.046894684 -0.027848376 -0.038005605
-0.032960985 -0.022535896 -0.022770325 -0.00027674597 -0.008324242 0.0066709826 -0.07809014 -0.056356713
-0.043507498 -0.038911648 -0.012791275 0.007713629 -0.014011013 0.014477458 0.042609997 -0.0331331
-0.036318455 -0.030131113 -0.02828128 -0.040178232 -0.030754335 -0.002258011 -0.010898196 -0.030152095
0.0014227129 -0.009664883 0.0018700666 -0.018569596 0.0026754574 0.003710729 0.023969514 0.019801904
0.03680842 0.01702944 0.005844518 0.0270535 0.020259354 0.032327186 0.051293716 0.0070674024
0.007233164 0.012928215 0.0097510135 -0.021192215 0.013322705 -0.027056849 -0.03802923 0.00085243594
0.00020894513 -0.009082936 0.00037037794 0.033071 0.024260756 0.05886905 0.027117204 0.03339569
0.055470023 0.025555171 0.016044132 0.021963278 0.012519192 0.025143994 0.030640613 0.004416316
0.006493181 0.029540306 -0.0105903335 -0.014566416 0.012124862 -0.07122974 -0.039319843 -0.025346963
-0.042148825 -0.011411519 -0.032799803 -0.06001094 -0.034447715 -0.041727982 0.0072739297 -0.0017182635
0.015031809 0.0044472953 0.017927373 0.018779246 0.043700323 0.019429563 0.045068875 0.005132015
0.009455366 0.024238754 0.0024706055 0.01880544 0.05536186 0.0031447052 0.014687015 0.04950728
-0.053533513 -0.032190792 -0.026223479 -0.030748684 -0.05848224 -0.0336053 -0.005839401 -0.023324545
-0.020934507 0.023644783 0.009719087 -0.016379124 0.021039154 0.014130424 0.0012357178 0.011105476
0.021302303 -0.008656879 0.13271438 0.13145344 0.14058648 0.06189067 0.06774962 0.050402015
-0.017941168 -0.0347036 -0.040828507 -0.0388928 -0.049832582 -0.04520868 -0.048679184 -0.07047525
-0.08853033 0.015668038 -0.037549514 -0.035616156 -0.085828386 -0.10191521 -0.08878074 -0.09062793
-0.09671657 -0.08015245 -0.037638456 -0.045469023 -0.027855054 0.038687065 0.06991556 0.052525863
-0.0032777793 -0.017172605 -0.023949753 -0.07334092 -0.07688783 -0.11010775 0.064759605 -0.019874455
-0.08882081 0.041557267 -0.05316588 -0.117144614 -0.009491563 -0.06634134 -0.1320999 0.046599973
0.07344044 0.061254352 0.02459208 0.035291664 0.040414706 0.008060155 0.02231405 0.0016554629
0.02520674 0.03337774 -0.0069293315 0.033740334 0.03647349 0.0073778196 -0.007572381 -0.019884855
-0.0041218554 -0.083904885 -0.06461148 -0.06613357 -0.064945444 -0.06576565 -0.094219685 -0.034022663
-0.038052883 -0.06343752 -0.07388664 -0.12124718 -0.06681932 -0.03831313 -0.09929681 -0.09963447
0.00022842843 -0.06458104 -0.02439076 -0.052703507 -0.029528426 -0.016502066 -0.013792481 -0.03688789
-0.050726753 0.0008785636 -0.03158997 -0.0012630431 -0.03900366 -0.020299928 0.0019988546 -0.01757383

83 f4 [32]
00000000: 70ba 58bf f941 583f 1802 ea3e b80a 7b3f
00000010: c269 9bbe 2bc7 02bf 687c e63e 8be9 213e
00000020: f779 5bbe 55c4 553f 1c16 ddbe f739 883f
00000030: 5dd2 733f 7062 7d3e 924a cdbe 0a43 aa3e
00000040: c1bf a53f b83d 6ebf 30f0 fe3e 71f6 e4be
00000050: 1cd9 1c3f 23b3 00c0 baff 363e eb25 7dbe
00000060: 88a1 743d 8b34 533f 6a9a 9a3e 3a5a 783f
00000070: 06bc df3f 18f5 03c0 90ca a23f d057 1ebf
-0.8465948 0.84475666 0.45704722 0.9806323 -0.30354124 -0.51085156 0.4501679 0.15811746
-0.21433245 0.83502704 -0.4318093 1.064269 0.95242864 0.24744582 -0.40095955 0.33254272
1.2949144 -0.93062925 0.49792624 -0.4471927 0.6126878 -2.0109336 0.1787099 -0.24721496
0.05972436 0.8250205 0.30195934 0.97012675 1.7479255 -2.0618343 1.2718067 -0.6185274

85 f4 [32, 32, 3, 3]
00000000: 88fb 303d d6f1 0e3d b3d5 bd3c 7b27 6a3d
00000010: cb42 153d d6e2 fe39 f9ec 763d 62fe 463d
00000020: ad73 82bd ddc8 62bc b86f 8fbc be0b 7bbc
00000030: b2ce 20bd a125 fabc d3c4 84bd 97db c6bb
00000040: cff7 ca3c 33c2 303c c160 fa3c 5790 953c
00000050: 8a60 e23c c410 8b3c bc3a 283c 0601 00bd
00000060: bf8c 6fbd b0cf 45bd eae3 93bd 3665 3b3d
00000070: 71fa a83d abb9 dd3d 582b 193c ccd4 313d
00000080: 4ac2 623d 11aa dcbc a520 2c3c 2031 c5bc
00000090: 6b01 9a3c 5fbd d83c 3d01 143d 9207 04bd
000000a0: f9ff 5f3b 049f 18bc 5892 09bb 6f37 6f3c
000000b0: 3536 aebc cbc2 333d 9cc6 093d 89c4 bcba
000000c0: 484f 813d 2e6e 0a3d 376f 1339 610b 553b
000000d0: 7507 e3bb 9ddb 90bd 2569 b43c 401e 163d
000000e0: 0b75 543d f7e0 f73d 33c7 ff3d 5112 133e
000000f0: 3114 dc3d bac6 0a3e 2aa8 ff3d e9c0 b83b
00000100: 50f5 9eba 0f71 b3b9 2a85 db3d 2d14 123e
00000110: e288 d33d d143 a13d b7cf e43d 17d3 fc3c
00000120: 059e 4cbd eab8 64bd d8c3 90bd 68ce 26bd
00000130: 9e0d 2abd 4844 66bd c33b 903d 1cac 093d
00000140: 70ca 183c 4428 86bd d713 9abd 47ce 9dbd
00000150: a632 36bd 89be 6cbd 5135 84bd 7787 c6bc
00000160: 95b0 67bb 8191 0b3d 0650 923d 9d4d 8a3d
00000170: fe88 463d ad9a 953d 4b1a b63d 5665 9d3d
00000180: a146 fd3c 32cd 8b3b 18ad 47bd 4764 b1bc
00000190: 658d 03bd 0c2c adba ca6e 81bd 2c3b 29bd
000001a0: 8ad9 3abd e785 9cbc c749 d03a 469b 7abc
000001b0: b795 4d3d 2aa0 203d d045 6c3d 81c6 733c
000001c0: e66f f73a d0f8 05bc ad52 fcba 1756 483c
000001d0: 1cee 8c3b 1ad6 2c3c 8a77 b53c ddac fb3c
000001e0: 0e61 5b3c 0927 ce3c c60b 59bd 2972 20bd
000001f0: f866 c9bc 054e 5e3a c97c 2b3c 2551 b73c
00000200: acaf 3abb 2df3 473d df2b 7c3d eb3d ecbb
00000210: 9a83 5a3b b4e4 083d b57a 02bd 3649 6c3c
00000220: 4001 d83c 2c17 99bc e3a1 01bd f41f 45bc
00000230: 0202 67bd 1113 50bd b01f 13bd 47a1 babd
00000240: 0769 843d 0f0b 3a3d 220b 343d 0ea9 c53d
00000250: 22bc cb3d 3b69 e93d 514a 3ebd b250 383b
00000260: b4f0 023d 6255 dcbc 8263 0fbd aa5d a0bd
00000270: e4a1 113b 77a8 963b a162 1ebd 50ef 0dbc
00000280: 5359 8dbc e509 4dbd 2f72 b4bc 5aa2 61bd
00000290: 7d88 75bd 247a 29bd f3b4 42bd 909e 9abd
000002a0: a7ee 413d 7514 9a3c 0bb2 c03c 4184 3e3d
000002b0: a888 1c3d 7a52 093d 5ad7 743d 7ad7 963d
000002c0: 5779 4f3c 5e7c f73c 9b7b 6e3d 5787 cabc
000002d0: 1239 863d e7b0 683d 601d b53d e225 55bc
000002e0: 5c5a 083c 2d1e 313d 2925 74bc f42f eb3c
000002f0: ff9d 323d 6039 b43d 6371 133e add9 193e
00000300: 7868 dd3c 2b4b 863d a833 f83d 3c8c a2bc
00000310: eae5 b3bc a2f7 90ba d90e 253d 7f3c f53c
00000320: 3163 143d 0a91 513d 3e21 443d 5af8 cf3c
00000330: 3d65 16bc 8861 5b3b aa37 6b3c c08f 813d
00000340: 8d0f 5e3d e57f 1d3d 33bf 7d3d 01bd 773d
00000350: f0d0 703c 8f9a f53c 6a89 c93c 77cb 13bd
00000360: 3080 adbd 0b81 bbbd 904c c0bd 4d2f 1bbd
00000370: e0b3 7abd 0758 62bd 1de5 433c 6476 2fbc
00000380: 5b63 ecbb 1a89 d93d 151f b33d 4221 f03c
00000390: 08bd 863d a9b0 8d3d ea89 dd3c f31a 903d
000003a0: 0207 693d 3d6c 06bd 9226 2dbd e14b 20bd
000003b0: 800b 19bd 9ecf a4bb 66b8 2fbd 29e6 7abd
000003c0: a428 8cbb 2c58 94bc 1356 9fbd b29d 3b3b
000003d0: 6045 25bc 03eb 24bd 815a c3bc 766a adbc
000003e0: 5e10 b9bc 7cb8 4fbc 5af4 debb deb9 613c
000003f0: 99ee d3bb b1c3 5bbc 9611 0cbb 90c3 483d
0.04320863 0.0348986 0.023173189 0.057166558 0.036440652 0.0004861566 0.06028459 0.048582442
-0.0636972 -0.013841835 -0.017509326 -0.015322624 -0.03925962 -0.030535521 -0.06482854 -0.0060686576
0.024776367 0.010788488 0.030563714 0.018257303 0.027633924 0.016975768 0.01026791 -0.031250976
-0.058483835 -0.04829377 -0.072212055 0.04575082 0.08250893 0.10826429 0.009348713 0.04341583
0.05536107 -0.026936563 0.01050583 -0.024071276 0.018799504 0.026457487 0.036133993 -0.032233782
0.0034179671 -0.009315256 -0.0020991769 0.014600619 -0.021266082 0.04388694 0.033636674 -0.0014401834
0.0631395 0.03379648 0.00014060443 0.0032508003 -0.006928379 -0.07073138 0.022022793 0.036649942
0.051869433 0.121034555 0.12489166 0.14362456 0.10746039 0.1355237 0.124832466 0.005638231
-0.0012127552 -0.00034225776 0.107187584 0.14265509 0.10328843 0.07874263 0.11172431 0.030862374
-0.049955387 -0.05584041 -0.07068604 -0.040724188 -0.041516893 -0.05621746 0.07042649 0.033611402
0.009325609 -0.06550649 -0.075233154 -0.0770536 -0.044481896 -0.057798896 -0.06455482 -0.024234517
-0.0035353054 0.03407431 0.071441695 0.06753085 0.04847049 0.07304893 0.08891734 0.07685344
0.030917468 0.0042664045 -0.04874906 -0.021654261 -0.032117266 -0.001321198 -0.063199595 -0.041316196
-0.045617618 -0.019106818 0.0015891128 -0.015295809 0.050191607 0.039215244 0.057683766 0.01487887
0.0018877953 -0.008176997 -0.0019250714 0.012227557 0.004300846 0.010549093 0.022151727 0.030722076
0.013389839 0.025165098 -0.052989744 -0.03917137 -0.024585232 0.0008480254 0.010466763 0.02237756
-0.0028486056 0.048815895 0.061565276 -0.0072095296 0.00333426 0.033421233 -0.031855304 0.014421752
0.026367784 -0.018687807 -0.031648528 -0.012031544 -0.0563984 -0.050799433 -0.03591889 -0.091127925
0.06465345 0.045420703 0.04395593 0.09651385 0.09947993 0.11397024 -0.046457592 0.002812427
0.031967834 -0.026896182 -0.035007007 -0.07830365 0.0022221738 0.0045977193 -0.03866828 -0.008663014
-0.017254507 -0.050058264 -0.022027103 -0.05508647 -0.05994462 -0.041376248 -0.047535848 -0.07549775
0.047346737 0.018808583 0.023522398 0.046512846 0.038216263 0.03352592 0.059775688 0.07365318
0.012663207 0.03021067 0.058223348 -0.024722738 0.06553854 0.056809332 0.088434935 -0.01300952
0.008322325 0.04324167 -0.014901438 0.02870939 0.043607708 0.08800006 0.14398722 0.15024443
0.027027354 0.06557306 0.12119228 -0.01984226 -0.021960218 -0.0011060128 0.040297363 0.029936073
0.03622741 0.05116371 0.047883265 0.025386978 -0.0091794105 0.0033474881 0.014356533 0.06326246
0.05421405 0.038452048 0.06194992 0.060482983 0.014698252 0.029980926 0.024601657 -0.03608271
-0.084717155 -0.09155472 -0.09389603 -0.037886906 -0.0612067 -0.05525973 0.01195648 -0.010709379
-0.0072139925 0.10621853 0.08746163 0.029312734 0.065790236 0.06918461 0.027043302 0.0703639
0.05689145 -0.032818068 -0.04227311 -0.039134864 -0.037364483 -0.0050296327 -0.042900465 -0.061254654
-0.0042773057 -0.01810845 -0.07780089 0.002862793 -0.010087341 -0.040263187 -0.023846867 -0.021168929
-0.022590812 -0.012678262 -0.0068040313 0.013777224 -0.006467652 -0.013413356 -0.0021372787 0.049014628

86 f4 [32]
00000000: f08e b1bf a53a ba3e f56b 943e 079f 333e
00000010: b7fc 303f baa4 ad3e 4c3b 3640 1e76 3c3f
00000020: 9e0b b9be ad19 12c0 48ca 9ebf 3624 60bf
00000030: b0d7 39bd 1a89 8a3f a09c 50be 0ee5 3040
00000040: 2086 d13c 602b 0b3f 6c1f 04be 01ba ae3e
00000050: 9757 b4bf dca6 8fbe 4c54 6ebf 4aa4 303f
00000060: a07d 113f a4ab 2e3f a6db 22be f018 7ebf
00000070: 8873 d2be 9542 50bf 88a5 793f fc86 03c0
-1.3871746 0.36372867 0.28988615 0.17541133 0.6913561 0.3391474 2.8473692 0.7361773
-0.36141676 -2.2828171 -1.2405481 -0.87555254 -0.04537171 1.082309 -0.20372248 2.7639804
0.025576651 0.5436306 -0.12902611 0.34126285 -1.408923 -0.2805699 -0.93097377 0.69000685
0.56832314 0.6823065 -0.15904102 -0.992568 -0.41103768 -0.81351596 0.97518206 -2.0551138

88 f4 [32, 16, 1, 1]
00000000: 633a a2bd 4cbd 8a3e f042 b13e d0f7 7c3c
00000010: 6942 433d 6c31 4a3e b3d4 a93e c28f a33b
00000020: 02e4 b03e e2af f3bc 0386 463e 0db9 7d3e
00000030: 6875 55be 18e2 483e 5365 2cbd 8f18 2dbe
00000040: f636 403e 24a7 f63e 918c 14bf 5ea0 653f
00000050: 310c 853f c188 6abf b1c8 1c3f 4688 013e
00000060: 6cd4 a63e 951a bbbe f31b 013f c41d e53e
00000070: e003 1bbf 5306 12bf 6106 0fbe dc3d 06bf
00000080: 4fa4 e4be 77e9 ce3d 2a1c 9bbe 2f11 42be
00000090: bb39 b8be 90ef 073e b7a4 513e 9a30 1fbc
000000a0: b6b7 22bd f9c2 3abe c93e 63be 759a ebbd
000000b0: ff6e f2bd c6ca 57bc 5e7a 163e 0f3c 9abd
000000c0: 8397 1bbe f1b3 22bd 2970 3ebe 82e2 86be
000000d0: 5eda 0f3d a2d7 d7bd d949 e8be 116c 853b
000000e0: 7c25 03bf 0480 a2bc f9ce 65be 36f5 05be
000000f0: 1402 653c da52 f6bc a58a 24bc b7ec 86be
00000100: dd6b d6be f3c6 a2be 0b7b 7c3d abf8 03be
00000110: c0c6 ecbd 5fb1 e8bc 20a5 a13d 5020 d03b
00000120: eea4 033e df95 b0be 0518 98be 6553 38be
00000130: 224f 85be 9d0d 88bc 9dc8 f53d 264f 4d3e
00000140: c662 cdbd 1747 5f3e 3005 abbd a912 0dbd
00000150: 3761 c4be 50da 903e df74 b03e 586e 01be
00000160: 7c9d 4fbd a7f8 613d db75 aabd ad3a 43be
00000170: 0ca8 c0be ce32 223d cb69 a63e ed6a b13d
00000180: b04b db3b dea9 9c3d 226f 78be 0fe3 e23d
00000190: 385a 943c 43d0 0bbf 0b2d c33d cada 32be
000001a0: 0c12 44be 7930 723d 939b c4bc 4f03 d53d
000001b0: 4e8a 7d3e 868f c4bd 94aa 2ebe 3c86 a7bd
000001c0: 0d6e 63be e2fd f9bd 71ce 29be 9f6e 4c3e
000001d0: c25c 8dbc e3b0 94be f6fd 903b 6532 343e
000001e0: 4f0d b9be c044 3f3e 378e 46be 30e9 5c3d
000001f0: b916 79be 9d69 fe3a be45 68be 1c77 62be
00000200: c525 e5bc 1824 b53c 4faf a2be 488f 33bd
00000210: 701c 0e3e 1420 d33d ae80 4f3e 8c74 cdbd
00000220: d385 0dbb b3b2 d43d b24e 65be e41a 12be
00000230: 002c 0ebe be4a e93d 6dc9 2a3e 8354 babd
00000240: 3507 3a3d fdbe 9f3d df97 ebbc b7d3 9bbd
00000250: 7dff aebd d1c2 aebe c4b6 fabd 09c8 47bd
00000260: 0201 9fbd 396d 113d d6ea f5bc 2696 b33c
00000270: 7478 8a3d f4dd 8bbd 548b edbe 97e2 833e
00000280: 0ee1 1ebe 5ab5 6dbe e90c da3e 1dc5 b9bd
00000290: dc32 f3be e503 1fbf 33c0 cc3e 3bdb 843b
000002a0: 3e17 963d 509e 1bbe 162d 5dbe 4cc7 4c3e
000002b0: 9246 63be 58f2 31be c3d8 38be d893 ff3e
000002c0: 1b9c e6be 40c6 653d 9f19 183f 63bb febc
000002d0: 3970 163e c9dd cabe ef93 2e3d b3a3 623d
000002e0: 3bc6 aa3e 167c 87bd 7f8e b3be 9039 a03d
000002f0: 113c 31bf 0fb1 e53c c1bd 3bbe de6c 7abe
00000300: 73fc e0be e848 5bbf 49be 203f 709d 753d
00000310: 8352 acbe 6dc1 20bf 0e80 113e ec2f 93be
00000320: 0d58 e8bb df77 bbbe 942b 62bd 42a5 893e
00000330: 8545 edbe 33ab 8cbe 660f 31be e73d d63a
00000340: 4756 22bf 423a 193e dfc0 56be f58c 05bf
00000350: ca21 48bf cffe c23d 061c 383e 8704 72bd
00000360: 5225 ee3d 0b19 64be bca5 9fbe 3b9d 2b3e
00000370: 3dae 8cbe 81e0 d93c 4535 a33e 2c69 993e
00000380: 1cce 273e 019f 943d 31c4 c4bd 9176 41be
00000390: 809b 50be 307b d7bd e152 29be a8b7 d0be
000003a0: 654c 8b3e 8c91 5f3e afc0 41be 1334 b3bd
000003b0: 28c5 233e bdd3 48be 3bc3 e63c e3f8 023f
000003c0: 9759 193d 2722 063e cde8 e23c 65bd 1a3f
000003d0: 1bbb 5f3e 3d4d 6c3d 8e51 003f c431 a7be
000003e0: b6ac b03d 9087 cbbe 2672 083f 4286 3b3e
000003f0: 521c 903e 7f36 f3be cdb5 ac3e ee6d 1a3e
-0.07921293 0.27097547 0.34621382 0.0154399425 0.047670756 0.19745415 0.3317009 0.0049915025
0.34548956 -0.029746953 0.19387059 0.24777623 -0.20845568 0.19617498 -0.042088818 -0.169039
0.18770966 0.48174393 -0.5802699 0.89697826 1.0394346 -0.9161492 0.6124373 0.1264964
0.3258394 -0.36543718 0.5043327 0.44749272 -0.6055279 -0.570409 -0.13967277 -0.5243814
-0.44656608 0.10103124 -0.30294925 -0.18951868 -0.35981545 0.1327498 0.2047299 -0.009716177
-0.03972598 -0.18238439 -0.2219192 -0.1150407 -0.11837577 -0.013170904 0.14695117 -0.075309865
-0.15194516 -0.039722387 -0.18597473 -0.26344687 0.03512036 -0.105391756 -0.4536884 0.0040717204
-0.5122907 -0.019836433 -0.22442235 -0.13081822 0.013977546 -0.030068804 -0.010042821 -0.26352474
-0.41879168 -0.3179241 0.06164078 -0.12887828 -0.11561346 -0.02840489 0.07892823 0.006351508
0.12855884 -0.34489343 -0.29705825 -0.18000562 -0.26036936 -0.016608054 0.120011546 0.20049724
-0.10028605 0.21804462 -0.08350599 -0.034441624 -0.3835542 0.2829156 0.34464166 -0.12639749
-0.0506873 0.055168774 -0.083232604 -0.19065352 -0.3762821 0.039599232 0.3250259 0.086629726
0.0066923723 0.07649587 -0.24261144 0.11078464 0.018109426 -0.5461466 0.09530076 -0.17466274
-0.1914751 0.05912826 -0.023999965 0.10401022 0.2475979 -0.095976874 -0.17057258 -0.081799
-0.2220995 -0.122066274 -0.16582657 0.19964074 -0.017256144 -0.29041204 0.0044248058 0.17597349
-0.36142966 0.1867857 -0.19390188 0.053933322 -0.24325074 0.0019410137 -0.22682855 -0.22115749
-0.027972111 0.022111937 -0.31774375 -0.043837816 0.13878036 0.10308853 0.20263931 -0.10031995
-0.0021594658 0.10385647 -0.22393301 -0.1426807 -0.13883972 0.11391209 0.166784 -0.090981506
0.04541703 0.078001 -0.028758941 -0.07608741 -0.08544824 -0.34133008 -0.12241891 -0.048774753
-0.07763864 0.035504553 -0.030019205 0.021922182 0.06761256 -0.068294436 -0.4639536 0.25758812
-0.15515539 -0.23213711 0.42587975 -0.090707995 -0.4749974 -0.6211532 0.39990386 0.0040544546
0.07328652 -0.1519711 -0.2159923 0.199979 -0.22194889 -0.17377603 -0.18051438 0.49917483
-0.45040974 0.05609727 0.59414095 -0.031095212 0.14691247 -0.39622334 0.04262155 0.055331897
0.33354363 -0.066154644 -0.35069653 0.07823479 -0.6923228 0.02803853 -0.18334104 -0.24455592
-0.43942603 -0.8565812 0.6279035 0.059964597 -0.336567 -0.62795144 0.14209005 -0.287475
-0.0070905746 -0.36614892 -0.05521734 0.26883894 -0.46342102 -0.27474365 -0.1729103 0.0016345353
-0.634129 0.1496363 -0.20972012 -0.5216821 -0.7817656 0.09521257 0.1797944 -0.05908635
0.11628212 -0.22275178 -0.31181133 0.16759197 -0.27476683 0.02659631 0.3187658 0.29963052
0.16387218 0.0725689 -0.09607733 -0.18892886 -0.20371819 -0.10521543 -0.16535522 -0.4076512
0.27206722 0.21832865 -0.18921159 -0.08750167 0.15993178 -0.19612022 0.028169265 0.5116102
0.037438955 0.13098966 0.027698899 0.60445243 0.21848719 0.057690848 0.5012444 -0.32655156
0.08626692 -0.39751863 0.53299177 0.18312934 0.28146607 -0.47502515 0.33732453 0.15080997

89 f4 [32]
00000000: 4c0e cbbf 5a70 b3bf 1a58 303e aadd b53f
00000010: 84e0 94bd bfe3 13bf 4a88 1d3f d8df 603f
00000020: bad4 bbbe 806f 9e3e 1073 923e a88f f93e
00000030: e0b1 753f 6495 d23d bc13 11be ab61 e2bf
00000040: c856 c9bf 16f1 7cbf 9258 743f 78fb 9e3f
00000050: 3a87 a1bf 2007 223e ebd6 91bf b390 cdbf
00000060: fd27 d5bf e420 5abd f673 883f 2eac 9bbf
00000070: e9c0 3240 10e6 5fbf 2009 853f 8077 093e
-1.5863738 -1.4018662 0.17221108 1.4208272 -0.072693855 -0.5776939 0.61536086 0.8784156
-0.36685735 0.30944443 0.2860341 0.48742414 0.9597454 0.102824 -0.14167684 -1.7686056
-1.5729609 -0.9880537 0.9544765 1.2420492 -1.2619393 0.1582303 -1.1393713 -1.6059784
-1.6652828 -0.053254023 1.0660388 -1.216192 2.7930243 -0.8746042 1.039341 0.13424492

91 f4 [64, 32, 3, 3]
00000000: dbe3 94bd a2da 0cbd e3b9 d1bc 7b13 dbbd
00000010: 8119 aebd dc9f b1bd 0e81 f6bd 9a06 b8bd
00000020: ecce e4bd 7993 283d 80cc 8b3d 3db0 333d
00000030: 0391 473b f718 efba e284 b13c 01f3 78bc
00000040: 9686 54bc 9d37 82bb c4f7 12bb 43b5 c73b
00000050: 8032 473c aed8 e0bc 2076 463c 78c3 8abc
00000060: d8de aabb bf98 1ebc 6bbe 5bbb 13f2 2dbd
00000070: db5a 83bc f3bf bfbc 2f8a 43bd 1eee 07bd
00000080: 8841 14bd af10 9a3c ab28 fd3b fd42 573c
00000090: 08bf 7f3d 7387 3f3d 6fac fb3c 909c 9c3c
000000a0: 9f1e 883c 1960 8a3c b3ea a9bc ea38 a4bc
000000b0: 3913 c5bc 751f 9abb 5591 02bc 94c2 253c
000000c0: 97be f6bc e6d8 e2bb 914d 8cbc 51aa 13bc
000000d0: d277 d8bc 36c7 0dbc dba2 5c3d cf44 8d3d
000000e0: c271 3c3d fe4e d83c 4952 883d 7117 693d
000000f0: 5795 14bd 81a5 3f3c 4154 54bc 3d3a 953c
00000100: 8ae7 383b 4a8d dcba 3703 38bd bd17 11bd
00000110: 2f7a 27bd 0d86 7bbd a5a6 51bd 1e14 70bd
00000120: d5b9 60bd 0017 98bd d5f7 a9bd ddc1 61bd
00000130: df93 6cbd e1f5 b2bc 7728 1cbd a638 96bc
00000140: a6a5 c2bb 3fbf e13c d7e5 d13c a78b 363d
00000150: 25e6 883c 149e 0a3d fcf2 3b3d 6a10 07bc
00000160: bf43 ce3a fb9b 393c f7e2 be3d 0cf5 a83d
00000170: 11eb e43d 40c2 9c3c bf69 4b3c bf23 003d
00000180: 5ae5 d2bc 50eb 8d3b 10e3 e33c 272d e03c
00000190: 8f4e 80bc 92b4 593c 8318 6ebd 4f26 31bd
000001a0: 0030 50bc 5bee 893c 089c fc3b cb38 e43b
000001b0: 4d4d 2b3d 6205 1c3d 5e9a b73c ccf7 da3c
000001c0: f0ca 003d aa08 233d 7f41 f43b e8a3 213c
000001d0: 4351 153c 3f60 403d 1a39 8d3d ddb9 ef3d
000001e0: cbc4 373d fba0 9a3d 8311 943d 1267 c83c
000001f0: 7595 3d3d 8fc0 843d 5602 5cbd 53a9 91bd
00000200: 6cd3 38bd ee4c 7bbd 07ee 9ebd 2378 84bd
00000210: 9f7d 69bd eccd 3ebd e300 40bd 301e 233d
00000220: 6658 113e b4cf 0c3e 3866 7bbd 6632 81bc
00000230: 9725 1fbd f177 2abd 2326 87bd f25e 72bd
00000240: 931f 333d b932 583d c0b7 0d3d 7bb5 a53c
00000250: e1ed 643c 1f51 8b3c ae1c 15bd 3442 13bd
00000260: 10ce 79bd 3fbc 4cbd 7496 e2bc e8ef 813c
00000270: dad2 c4bd 4241 b2bd 367f d1bd 5d00 053c
00000280: 1092 f43b 84cf 0f3c 5f5c 07bd 1d6d 88bc
00000290: 2abc fabc b804 c8bd 941d bdbd 9013 cfbd
000002a0: 32e7 65bd 4926 b1bd 31c4 acbd 585b bdbc
000002b0: 4c49 bebc 03bc 023c a88d 963a 29eb 653c
000002c0: a35e 913c b680 c23c 9d15 fb3c 9eac ae3c
000002d0: e3bd 33bd 6e69 19bd c2f6 0bbd fd9f 04bd
000002e0: 44ca 95bc f69c 1ebd 00ad 2abd e1e1 05bd
000002f0: fe52 30bd 424a 16bd ec54 0e3c a536 1abc
00000300: 8ef9 8abd ee71 65bd 306f babd 6638 9abc
00000310: e6b5 3fbd 7853 48bd cd3b 06bb 62c8 17bc
00000320: 8054 5d3c c338 e0bc 79cb 1ebd 9c7f 95bc
00000330: 7075 83bc 4b11 aa3a fea2 48bb e872 95bc
00000340: b798 903b 0419 8b3a 1516 a5bd 99f9 97bc
00000350: d210 3abd 45b3 edbc 4ab5 ccbc 1230 dcbc
00000360: 4513 433d 6f9e 7fbb 15d6 ddb9 2d37 713a
00000370: 0cf3 9d3b 8750 493d 3e6c 003e d2c1 2a3e
00000380: c1d6 5c3e 7e38 193d 9a41 553d 39cc 083d
00000390: efa8 00bc 7bd3 c73c 0c83 693c a6d4 253c
000003a0: c478 e1bb 8e87 5e39 e517 d9bc 6aaa bcbc
000003b0: 2ba6 28b9 8bfc 93bc b221 633c c478 9e3c
000003c0: 847c 39bb 8381 5e3d 4982 863d 7d41 aa3c
000003d0: 0c48 36bc c988 97bb 36e1 edbc 79ed 29bd
000003e0: 36d7 45bd 4234 683d d463 093d 559d 3b3d
000003f0: eed3 3a3d 7adc 0b3c ada6 033d 2bf3 76bd
-0.072700225 -0.034388192 -0.025601333 -0.10697075 -0.08500958 -0.08673069 -0.12036334 -0.08985634
-0.1117228 0.041156266 0.06826115 0.043869246 0.0030451424 -0.0018241693 0.021669809 -0.015194655
-0.012971541 -0.003973915 -0.0022425512 0.006094606 0.012158036 -0.02744707 0.012113124 -0.01693891
-0.0052145533 -0.009679972 -0.0033530246 -0.042467188 -0.016034534 -0.023406958 -0.047739204 -0.03318607
-0.036195308 0.018806783 0.0077257953 0.01313853 0.06243804 0.046760034 0.030721871 0.019117624
0.016616164 0.016891526 -0.020741796 -0.02004667 -0.024057018 -0.004703457 -0.00796922 0.010117192
-0.030120177 -0.006922829 -0.01712683 -0.009012775 -0.026424322 -0.008653453 0.05386625 0.0689789
0.046006925 0.026404854 0.0665632 0.05690712 -0.036275234 0.011697174 -0.012959541 0.018216247
0.002821418 -0.0016826775 -0.04492494 -0.03542303 -0.040888008 -0.061407138 -0.051184315 -0.058612935
-0.054864723 -0.07426262 -0.08299223 -0.055116523 -0.05775821 -0.02184576 -0.038124528 -0.018337559
-0.005940157 0.027557014 0.025622291 0.044566777 0.016711304 0.03384216 0.045886025 -0.0082436595
0.0015736743 0.011328693 0.09320634 0.08249864 0.11177648 0.019135594 0.012415349 0.03128409
-0.025744129 0.00433103 0.027818233 0.02736528 -0.01566246 0.01328768 -0.058128845 -0.043249425
-0.012706757 0.01683729 0.00770903 0.006964778 0.041821767 0.03809107 0.022412475 0.026729487
0.031443536 0.039803185 0.007454097 0.009865738 0.009113613 0.046966787 0.06895657 0.117053725
0.04486541 0.07550236 0.072299026 0.02446321 0.04628511 0.0648204 -0.053713165 -0.07112374
-0.045123503 -0.061352663 -0.07760244 -0.06468227 -0.057004567 -0.0465831 -0.046875846 0.03982371
0.14193878 0.13751107 -0.06137678 -0.015771102 -0.038854208 -0.04161829 -0.06599071 -0.05917258
0.043731283 0.052782748 0.034599066 0.020228138 0.01397273 0.017006455 -0.036404304 -0.035951808
-0.060987532 -0.049984213 -0.027659632 0.015861467 -0.09610529 -0.08703853 -0.10229342 0.008117762
0.007463701 0.008777503 -0.033047076 -0.016653592 -0.030607302 -0.09766525 -0.09234157 -0.10111153
-0.05612869 -0.086498804 -0.08435858 -0.023114845 -0.02322831 0.007979396 0.0011486309 0.014033117
0.017745322 0.023743015 0.030649954 0.021322545 -0.043882262 -0.03745406 -0.034170873 -0.03237914
-0.018284924 -0.03872391 -0.041668892 -0.032686118 -0.043047898 -0.03669191 0.008687239 -0.009412442
-0.0678588 -0.056016855 -0.091032386 -0.018825721 -0.04680433 -0.048907727 -0.0020482421 -0.009264084
0.013508916 -0.027370816 -0.038768265 -0.018249325 -0.01604721 0.0012975124 -0.003061473 -0.018243268
0.0044127363 0.0010612314 -0.080608524 -0.018551635 -0.045426197 -0.029016146 -0.02498879 -0.02687839
0.0476258 -0.0039004346 -0.00042311908 0.0009201642 0.004820233 0.049149062 0.12541291 0.16675499
0.21566297 0.03740739 0.052064516 0.033397887 -0.007852777 0.024392834 0.014252435 0.0101215
-0.0068808515 0.00021222068 -0.026500652 -0.023030479 -0.00016083631 -0.018064758 0.013863014 0.019344695
-0.0028302977 0.05432273 0.06567819 0.02078318 -0.011125576 -0.0046244604 -0.029038053 -0.041486237
-0.048300944 0.056690462 0.03354247 0.04580434 0.04561227 0.008536452 0.032141376 -0.060290497

92 f4 [64]
00000000: 087a 35be 6410 fabd 28e2 0bbf 6022 ce3c
00000010: f03d 5a3f 54ba e2bd 160b 83bf f6c8 80bf
00000020: b5c2 1240 9c4f 8cbf c8a9 e93d ac8f 1abe
00000030: 3e20 10bf a610 843f 6e39 4cbf 7d39 05bf
00000040: ee6e 783f c15b 8fbf 803a 28be 5bc5 d23e
00000050: dab0 f43f 8fe7 d13e 5dd9 2d3f 80bf c5be
00000060: aeba 95bf 3032 e0be deab abbf 3117 463f
00000070: b4fb b3bd c027 47bf 0077 443c dfd6 7cbf
00000080: e458 3bbf a409 12bf 40af 58bf 915c 19bf
00000090: 7e21 173e 8030 b03b 6027 d83c 1193 113f
000000a0: 2c6a 643f 9c8a f2be 34cc efbd 55bf 763f
000000b0: 40c9 3ebf 3815 b63f 8b56 c23f f07e e83d
000000c0: ccf3 37bf a21a 5f3f 347d 553f a01b 803d
000000d0: 85bf fcbe 6710 8dbf 906a a43f 002b 8aba
000000e0: c0ea a93d e2fa 5cbf d057 d33d 195a 7cbf
000000f0: 5d6b 7ebf 568c b2bf 5a21 4a3e 705e 6ebd
-0.17722332 -0.122101575 -0.5464196 0.025162876 0.8525076 -0.110706955 -1.0237758 -1.0061328
2.293134 -1.0961795 0.11409336 -0.15093869 -0.562992 1.0317581 -0.7977513 -0.52040845
0.97044265 -1.1199876 -0.16428566 0.41166195 1.9116471 0.40996978 0.67909795 -0.38622665
-1.1697595 -0.4378829 -1.3411825 0.7737914 -0.08788243 -0.7779503 0.011991262 -0.9876537
-0.7318251 -0.5704596 -0.8464241 -0.5990687 0.1475887 0.0053768754 0.026385963 0.5686503
0.89224505 -0.47371376 -0.117088705 0.963857 -0.74525833 1.4225225 1.5182661 0.113523364
-0.7185638 0.87150013 0.8339417 0.06255269 -0.49364868 -1.1020631 1.284502 -0.001054138
0.08296728 -0.86320317 0.10319483 -0.9857498 -0.99382573 -1.3949077 0.19739285 -0.05819553

94 f4 [64, 64, 3, 3]
00000000: aab5 103e 8e73 eb3d b2d0 ab3d 784b fe3c
00000010: efbe fabc 5231 eabc 0876 0cbd 51e9 85bd
00000020: 97e2 87bd 3221 1d3d 81fd da3c d4e6 473c
00000030: 48ab febc 5ec0 c5bc 7f39 16bc 6d38 583d
00000040: d1c1 953d 5970 a23c 6343 0fba 2d5f 31bb
00000050: 4c07 f53c 3c00 6ebd bc35 acbc 6d10 27bd
00000060: ab2d d2bd d010 d7bd c48b 00be a304 873d
00000070: beaa 5d3d d1ef 4d3d ec53 8d3d 39ee 863d
00000080: f7f3 823c 227f e5bd bfd8 c6bd a136 c3bd
00000090: 4094 203d 79d3 283d 9bd0 c63c 1f90 b1bd
000000a0: abca 97bd e099 9cbd 4fbe 993c 717d 463d
000000b0: 00cb 8a3d 99f2 d33d 48e9 c63d ac5a c53d
000000c0: d176 bfbd eb8a b8bd 3bdc 4abd b39a 913d
000000d0: c0d4 a43d fa7a 983d df64 ea3d 1006 9d3d
000000e0: d677 b43c 73f5 5ebd 4bf4 88bd 43b6 52bd
000000f0: 2140 4f3d 1cb2 313d ad50 b93c 808f 4c3b
00000100: 3e71 a1bb 31a7 edbb 7a60 e4bc f365 81bd
00000110: 3968 dfbc 1704 87bc 67a2 76bc a675 24bd
00000120: 8116 e63d 9de0 f23d 35c8 b73d 51e8 25bd
00000130: b8a8 90bc 5d31 edbc abdd ffbc a8b4 01bc
00000140: 588f b23c feaa 9dbc 12cb 47bd d252 bbbc
00000150: 235a 76bc 7dc7 6abd bd38 57bc e12d 88bc
00000160: 7eb7 d9bc 7c82 27bd f26d ee3d 6869 a03d
00000170: ee53 9e3d b023 483d f0bd fa3c b3bf ec3c
00000180: eb5b babc 1b13 97bc 2d10 8bbd 389d 973d
00000190: 6474 833d 446c 653d 18d7 c9bd da14 b1bd
000001a0: 5770 77bd 2029 d13d 07c9 a23d 9b29 e33d
000001b0: 8dd6 dc3c e2a0 01b9 c14e d33b f72a 49bd
000001c0: 8897 3cbd 0cfe 3abd ae4b d3bd 64ba 91bd
000001d0: 963d 89bd 33f9 a83c 92fd c93c 190e 853c
000001e0: 54e8 83bd 20c1 1dbd f9cf 11bd d126 f5bc
000001f0: 3178 80bc 5f6a 553c 6566 3abc 55e6 0e3c
00000200: d664 463d 865e 6bb9 013a ac3a f8f2 cabc
00000210: 5eb0 a1bd 01cf 8ebd dbae 98bd 213d 033e
00000220: b59e d23d 64b1 a53d 666b debb 6a89 c3bc
00000230: cf8b c13b c0a6 04bd 5666 7bbd 49b3 37bd
00000240: e71b 94bd 610c fdbd cd9a 78bd ea83 40bd
00000250: 073d c9bd 095f 0bbb c501 5dbc eee6 92bd
00000260: 3cf0 66bd 2703 1ebc 9c99 7ebd 9fea 0bbd
00000270: 7057 38bd 0d27 9cbd 8844 0bbd c898 98bc
00000280: 5c5e 03bd 69ad 6bbd 53bd 4e3e bfe5 0d3e
00000290: 3797 0e3e 9ab7 8dbc 8dbf 19bd 0843 2fbd
000002a0: 3ba2 49bb b5fd d33b 93d7 a73c c6ab 863e
000002b0: c02b 823e 81b4 4d3e bb7f 2c3d efb9 603d
000002c0: 2aed 3f3d d4db 393d 90c3 873d 5648 133d
000002d0: c795 813d d35a 643c 9172 3b3c 4eb6 c73b
000002e0: c62c afbc a02e 1dbc ca0f 45bd 130f 60bd
000002f0: 358f 3ebd 69df b8bb bf75 97bc 04e6 80bc
00000300: 713d 83bd 1596 e5bc 7610 7b3d 63f4 17bd
00000310: 0f9a d6bc d0af 0abd 8a14 05be b262 31bd
00000320: 57e1 a2bd 1bff 45bd 5a3d 41bc 908e 85bc
00000330: e0c9 04bd e212 81bd 09a5 98bd bcba 033e
00000340: bec4 043e 40cb e03d 633d cdbd 663f d1bd
00000350: 3afc 9cbd 7d63 a53c 453f 0c3d b7a6 643d
00000360: d682 ecbc 9cf3 c2bc 47ba 8539 58a2 10bc
00000370: 5167 08bd 87cf c83b 84bf 82bc 9378 e7bb
00000380: a74e 71bd 400c 103d 7842 0d3d bccb 803d
00000390: 6989 49bb 2f05 013c 8f39 03bc c9eb a4bd
000003a0: bc86 cabd 7baa cebd 3461 be3d 9b14 c83d
000003b0: 2521 ad3d 4346 00bc deca 14bd 206e 77bd
000003c0: 260a a63c 80ee 8d39 39f9 9cbc 0373 ee3d
000003d0: 8df6 f23d 354f bf3d 48e9 36bd 828c 24bd
000003e0: ebea 80bd 1ff0 ef3b 408d 8c3c 27b3 043d
000003f0: eb3b a9bc 28e2 22bd 6210 1bbd 9ec7 82bd
0.141318 0.1149665 0.08389415 0.031041846 -0.030608622 -0.02858797 -0.03429225 -0.06538642
-0.066350155 0.038361736 0.026732208 0.01220103 -0.031087533 -0.02413958 -0.009168982 0.052788187
0.07312358 0.019828962 -0.00054650585 -0.0027064786 0.029910706 -0.058105692 -0.021021716 -0.04078715
-0.10262617 -0.105012536 -0.12553316 0.06592681 0.05411791 0.050277535 0.069007725 0.06588406
0.015985472 -0.11205889 -0.0970931 -0.09531904 0.039203882 0.0412173 0.024269393 -0.08670067
-0.07411703 -0.07646537 0.018767504 0.048459474 0.067770004 0.10349006 0.097124636 0.09636435
-0.09348834 -0.090108715 -0.049526434 0.07109585 0.08048391 0.07445331 0.11445021 0.07667172
0.022029798 -0.054433297 -0.0668722 -0.05144335 0.050598267 0.04338275 0.022621477 0.0031213462
-0.0049268296 -0.007252597 -0.027878035 -0.063182734 -0.027271377 -0.016481442 -0.015053368 -0.04015126
0.11234761 0.11859248 0.08973733 -0.040504757 -0.017658576 -0.028954202 -0.03123363 -0.007916607
0.021796867 -0.019246574 -0.048777647 -0.02286664 -0.015036139 -0.057319153 -0.013136086 -0.01662344
-0.026576754 -0.040895924 0.11642064 0.07832605 0.07730852 0.04886216 0.030608147 0.028900003
-0.022748908 -0.018441727 -0.06790195 0.07403034 0.06418684 0.056011453 -0.09855479 -0.08646555
-0.06040987 0.10212922 0.07948499 0.1109192 0.026957775 -0.00012362332 0.006448597 -0.04911324
-0.04604295 -0.045652434 -0.10317169 -0.07115629 -0.067012 0.02062664 0.024657045 0.016242074
-0.064407974 -0.038514256 -0.03559873 -0.029925736 -0.015682312 0.013025849 -0.011376952 0.008721908
0.04843601 -0.00022446559 0.0013139845 -0.02477406 -0.078949675 -0.069730766 -0.07455226 0.12816288
0.10284177 0.08090475 -0.0067877052 -0.023869235 0.005906559 -0.032385588 -0.061376892 -0.044848714
-0.072318844 -0.12355877 -0.060694505 -0.047000803 -0.09826093 -0.0021266362 -0.013489191 -0.071729526
-0.05638145 -0.009644306 -0.062158212 -0.0341593 -0.045005262 -0.07624636 -0.034000903 -0.01862754
-0.03207241 -0.057538424 0.20189409 0.13857172 0.13924871 -0.017299462 -0.037536193 -0.042788535
-0.0030766863 0.006469453 0.020488536 0.26302928 0.25424004 0.20088388 0.042114 0.05486482
0.046857037 0.04537566 0.066290975 0.035957657 0.06327396 0.01393767 0.011440889 0.0060947305
-0.021383654 -0.009593636 -0.04811076 -0.054701876 -0.04652329 -0.005641867 -0.018488763 -0.01573468
-0.064082034 -0.028025666 0.061294995 -0.0370983 -0.026196508 -0.033859074 -0.12996116 -0.043307014
-0.079531364 -0.04833899 -0.0117944125 -0.01630333 -0.032419086 -0.0630243 -0.07453353 0.12864202
0.12965676 0.10976267 -0.10021474 -0.102171704 -0.07665296 0.020189041 0.034240026 0.055823054
-0.028870981 -0.023797803 0.00025506524 -0.008827768 -0.033301655 0.006128255 -0.015960462 -0.007063934
-0.0589129 0.035167933 0.034487218 0.06288859 -0.003075207 0.007874771 -0.0080093285 -0.08052785
-0.0988898 -0.1009111 0.09295884 0.09769555 0.084535874 -0.007829252 -0.03632628 -0.060407758
0.020268511 0.00027071312 -0.019161807 0.116430305 0.11863432 0.093412794 -0.044656068 -0.04017306
-0.06294807 0.007322326 0.017157197 0.032397415 -0.020658454 -0.03976646 -0.03785742 -0.0638573

95 f4 [64]
00000000: 4793 7ebe 44b3 133f 3e2b 9fbf dcfd 873f
00000010: c546 963f c46a 4ebf 6f82 8a3e 920c 0fbf
00000020: b767 d9be 0094 3e3a 8f15 a53f 5480 803f
00000030: 19fc 1ebf e68d d43e cec8 2abf 568e e7be
00000040: ecdc 503f 10df a23f b9ca 083f e718 dc3e
00000050: 4256 943f 0656 033f e273 033f 9cb6 103f
00000060: aaa1 da3e 333c 193f 9840 023f 344e 5b3f
00000070: 6d66 813f c88f 123f 5881 c4bf 25ee 593f
00000080: 9b10 073f 47f9 833f 0258 423f 19ea 2d3f
00000090: 1d65 7a3f 38cc a93d b802 4e3f e086 6b3f
000000a0: 5a7d 4e3f acce 0e3f 9ae5 5e3f 86c4 983f
000000b0: 729a 263f 36d9 183f 6adf 773f e24f 573f
000000c0: 2004 b0bd d12c 95be 1087 9f3f 807a cbbb
000000d0: d933 c43f 5800 df3d 909e 8a3f 7434 cc3f
000000e0: 06f8 4b3f 4848 de3e 9646 9a3f 2f71 163f
000000f0: cf48 babe d705 983f d1a6 c13e bca2 413e
-0.2486087 0.5769541 -1.2435071 1.0624347 1.1740347 -0.8063166 0.27052638 -0.55878556
-0.4246194 0.00072699785 1.2897204 1.0039163 -0.6210342 0.4151451 -0.66712654 -0.4522578
0.815871 1.2724323 0.5343433 0.4298775 1.1588824 0.51303136 0.513487 0.5652864
0.42701465 0.5985748 0.5087981 0.85666203 1.0109383 0.5725064 -1.5351973 0.85129005
0.5275971 1.0310448 0.7591554 0.6793533 0.97810537 0.08290905 0.804729 0.9200268
0.8066002 0.55784106 0.87069094 1.1934974 0.65079415 0.5970644 0.9682528 0.84106266
-0.08594537 -0.29135755 1.2463093 -0.0062096715 1.5328323 0.108887374 1.082964 1.5953507
0.7967533 0.4341452 1.2052791 0.58766454 -0.36383674 1.1876782 0.37822583 0.18909734
