model/conference_room.onnx (onnx, 301496 bytes, 16 tensors)

fc.weight f4 [2, 256]
0.17148452 0.23866016 0.35931405 0.47262716 0.112821676 0.05217646 0.36705524 0.31854826
0.40499586 0.42396098 -0.3458649 -0.36513442 -0.105182804 -0.050062902 -0.14222108 -0.077641994
0.023269475 -0.019844571 -0.23875424 -0.33477572 -0.056632016 -0.16565393 -0.14023237 -0.13358705
0.15086852 0.13685355 -0.30584767 -0.32641795 -0.14220376 -0.32488322 -0.43578547 -0.52434313
0.1717051 0.16415639 0.056384075 0.117193 0.19035392 0.08163439 -0.005928944 -0.12556633
0.10119015 -0.20593849 -0.17528443 -0.52255505 0.17158443 0.18986832 0.34914476 0.341445
-0.14788106 -0.32036015 -0.32165504 -0.42595804 0.19834103 0.14490278 -0.29017332 -0.31992993
-0.13441986 -0.14906001 -0.15310363 0.05375105 -0.14280304 -0.2672472 -0.38179654 -0.53699446
-0.22491354 -0.3039355 -0.24609974 -0.2912306 0.10148692 0.09698636 -0.27662757 -0.38609475
0.35827693 0.30689836 -0.3515509 -0.30923277 -0.007387489 -0.16313383 0.35010314 0.28000042
-0.019188987 -0.21779516 0.28594726 0.061555382 -0.16212095 -0.23538052 -0.17855097 -0.35197943
-0.23041773 -0.09154427 -0.15514973 0.05584226 0.08187675 0.08443986 0.036549557 0.051608194
-0.15059 -0.05921968 -0.1577797 -0.043578956 0.17870604 0.24826777 0.30288446 0.30204305
-0.29367658 -0.27130672 -0.3663958 -0.4732355 0.09448778 -0.16270658 -0.008034853 -0.04217324
-0.37614977 -0.36459243 -0.48150432 -0.2954604 0.39007202 0.09351541 0.29705286 0.12852372
-0.027563147 -0.112463415 -0.15512729 -0.2500032 0.2534474 0.2586797 0.23488362 0.30769855
0.3142052 -0.23316202 0.47932592 -0.17932849 0.14384937 0.17891504 -0.015134695 0.103921875
0.08800863 0.085920066 0.30881324 0.19543992 -0.2945442 -0.1775563 -0.38548884 -0.18131647
-0.11255255 -0.1152814 0.14406379 0.07279978 0.010319295 -0.16660209 -0.0091102915 -0.17062655
0.31345135 0.13568027 0.0054834294 -0.17484058 0.18687952 0.30420133 0.18861109 0.3325893
0.017269103 -0.20257701 -0.08980969 -0.38244903 0.20777415 0.22896312 0.26781526 0.24442285
0.15901226 0.14855553 0.33537203 0.3237525 0.20345524 -0.15985337 0.24556452 -0.06630105
0.14417988 0.18649718 -0.3186632 -0.3375472 0.16860475 -0.12386077 0.2736627 -0.16107413
-0.36750442 -0.49297205 -0.57847 -0.54894054 0.0783757 0.0070740706 -0.012474195 0.054880593
0.16654202 0.2247973 0.21163562 0.19280948 0.24347262 0.0965124 0.3935123 0.27721542
0.15056273 0.20238274 0.13743803 0.1944081 -0.04496 0.07378837 0.36224794 0.41573372
-0.07734616 -0.26047534 -0.081786536 -0.16835459 0.19819595 0.20386034 0.10586592 0.13691837
-0.22985852 -0.18035224 -0.3677067 -0.14847818 0.21313752 0.24997935 -0.3936258 -0.44121346
0.14839976 0.2024258 0.29225484 0.37314215 0.04889783 -0.11418682 -0.066684626 -0.2606594
-0.001606842 -0.03689028 0.2994156 0.2879464 -0.040327962 -0.06762414 -0.113634974 -0.14689323
0.20367241 0.07320785 0.21051987 0.15238678 0.26722348 0.29449177 0.3282503 0.3235144
-0.13964124 -0.19073375 -0.23172158 -0.26088142 -0.43222547 -0.5468056 -0.4553319 -0.39983973
00000000: a399 2f3e 5463 743e 03f8 b73e 30fc f13e
00000010: 0d0f e73d fcb6 553d aaee bb3e c218 a33e
00000020: 9e5b cf3e 6a11 d93e 3415 b1be e6f2 babe
00000030: 156a d7bd c20e 4dbd 67a2 11be c402 9fbd
00000040: a09f be3c 1591 a2bc fe7b 74be b967 abbe
00000050: f9f6 67bd 2fa1 29be 1399 0fbe 0bcb 08be
00000060: 477d 1a3e 5623 0c3e 1198 9cbe 4120 a7be
00000070: dd9d 11be 1857 a6be 461f dfbe 5a3b 06bf
00000080: 76d3 2f3e 9d18 283e fdf2 663d e202 f03d
00000090: 23ec 423e ee2f a73d 9647 c2bb 7694 00be
000000a0: c83c cf3d 8ae1 52be c37d 33be 2bc6 05bf
000000b0: d4b3 2f3e d76c 423e 1ac3 b23e e1d1 ae3e
000000c0: 226e 17be 3f06 a4be f8af a4be 2c17 dabe
000000d0: e919 4b3e 6561 143e 9991 94be dbcd a3be
000000e0: 5ca5 09be 30a3 18be 33c7 1cbe 102a 5c3d
000000f0: f63a 12be a0d4 88be d67a c3be 7878 09bf
00000100: bc4f 66be 6f9d 9bbe 9201 7cbe 2d1c 95be
00000110: 60d8 cf3d c9a0 c63d 21a2 8dbe 36ae c5be
00000120: 1370 b73e c821 9d3e 7bfe b3be c253 9ebe
00000130: c012 f2bb 8e0c 27be b840 b33e 375c 8f3e
00000140: 3932 9dbc b205 5fbe ae67 923e 7f21 7c3d
00000150: 0903 26be 9707 71be 11d6 36be a636 b4be
00000160: a0f2 6bbe 907b bbbd 92df 1ebe dbba 643d
00000170: ffae a73d ceee ac3d fdb4 153d 1d63 533d
00000180: 4434 1abe 5690 72bd 0091 21be d97f 32bd
00000190: b7fe 363e e839 7e3e ac13 9b3e 63a5 9a3e
000001a0: c75c 96be b7e8 8abe 3b98 bbbe ec4b f2be
000001b0: cf82 c13d 8e9c 26be 9ea4 03bc d9bd 2cbd
000001c0: b496 c0be dcab babe bc87 f6be 9646 97be
000001d0: 85b7 c73e 0285 bf3d 5017 983e b99b 033e
000001e0: 1ccc e1bc 3853 e6bd b0d9 1ebe 6b00 80be
000001f0: dcc3 813e aa71 843e 5585 703e aa8a 9d3e
00000200: 81df a03e 06c2 6ebe 356a f53e e3a1 37be
00000210: 404d 133e 8135 373e 83f7 77bc fed4 d43d
00000220: de3d b43d dcf6 af3d c51c 9e3e 6721 483e
00000230: 7fce 96be 52d1 35be cb5e c5be 06ab 39be
00000240: f481 e6bd a818 ecbd 7585 133e 0d18 953d
00000250: 4312 293c bd99 2abe 5543 15bc bab8 2ebe
00000260: b27c a03e c5ef 0a3e 57ae b33b 6909 33be
00000270: 585d 3f3e 47c0 9b3e 4423 413e 2549 aa3e
00000280: ef77 8d3c 5970 4fbe 25ee b7bd 5cd0 c3be
00000290: bfc2 543e 4f75 6a3e 151f 893e fc49 7a3e
000002a0: 1cd4 223e f11e 183e e2b5 ab3e e3c2 a53e
000002b0: 9256 503e 9ab0 23be 4475 7b3e d8c8 87bd
000002c0: e4a3 133e 1ef9 3e3e d327 a3be fdd2 acbe
000002d0: b9a6 2c3e b7aa fdbd 841d 8c3e 9ef0 24be
000002e0: 8a29 bcbe d566 fcbe 9c16 14bf 5e87 0cbf
000002f0: 7083 a03d 9bcd e73b 9160 4cbc 79ca 603d
00000300: fe89 2a3e 4331 663e 02b7 583e d96f 453e
00000310: e350 793e 4ba8 c53d 727a c93e 2eef 8d3e
00000320: 1e2d 1a3e 6c3d 4f3e 8ebc 0c3e eb12 473e
00000330: fa27 38bd 5b1e 973d 9078 b93e 0ddb d43e
00000340: aa67 9ebd 065d 85be b37f a7bd 2565 2cbe
00000350: e1f3 4a3e c4c0 503e 3bd0 d83d 5434 0c3e
00000360: 0860 6bbe 42ae 38be 0d44 bcbe aa0a 18be
00000370: b940 5a3e 96fa 7f3e 5289 c9be bbe6 e1be
00000380: 1bf6 173e b548 4f3e 6da2 953e 7d0c bf3e
00000390: 1749 483d c8da e9bd f391 88bd 2675 85be
000003a0: ac9c d2ba 431a 17bd 004d 993e b66d 933e
000003b0: ef2e 25bd 867e 8abd 74b9 e8bd 2e6b 16be
000003c0: 808f 503e ffed 953d 8592 573e 480b 1c3e
000003d0: 84d1 883e a0c7 963e 6c10 a83e aea3 a53e
000003e0: 1dfe 0ebe b54f 43be 6c48 6dbe 4092 85be
000003f0: a84c ddbe 74fb 0bbf 4321 e9be cbb7 ccbe

fc.bias f4 [2]
-0.014586469 -0.005289385
00000000: 16fc 6ebc 9452 adbb

79 f4 [16, 3, 7, 7]
0.04743164 0.07095411 0.07269276 0.14604567 0.13126345 0.111782394 0.06998917 -0.0021027792
0.080008194 0.09484817 0.0861279 0.09139989 0.05666597 0.041937947 -0.041446123 -0.0029655846
0.0146312285 0.07039065 0.02435468 0.008090768 -0.04487978 -0.046580408 -0.07868117 -0.103144184
-0.06566981 -0.09184145 -0.12387199 -0.1209032 -0.088283055 -0.15121192 -0.19279724 -0.15754154
-0.17335738 -0.15986878 -0.18450765 -0.12456476 -0.14760222 -0.2661255 -0.23720345 -0.23678577
-0.16911133 -0.17912461 -0.11770538 -0.068204485 -0.12018614 -0.12952326 -0.13411698 -0.11220678
-0.09220315 0.08616184 0.11814475 0.14017339 0.15941046 0.19704702 0.17384228 0.15268022
0.090300426 0.09050429 0.11059227 0.14395452 0.18960463 0.12997298 0.09790727 0.071330436
0.08516164 0.06703937 0.097885735 0.090223566 0.11753156 0.07178071 -0.0004144574 -0.039022945
-0.044064812 -0.041487616 -0.0726063 -0.02174516 -0.023438537 -0.0063541373 -0.104141206 -0.15983763
-0.14103852 -0.12537515 -0.09200425 -0.07607532 -0.10049381 -0.12553482 -0.18590541 -0.19970289
-0.16825856 -0.14688054 -0.103700735 -0.047025505 -0.037952807 -0.12084066 -0.11892137 -0.048634186
-0.045594316 -0.023282865 0.12627925 0.20032229 0.18819806 0.28057185 0.29523903 0.25456476
0.20355761 0.09808614 0.13006972 0.13242729 0.22874297 0.25785303 0.21506147 0.14207967
0.038650215 0.061900098 0.07117629 0.15849298 0.14162673 0.15239802 0.13360164 -0.025258055
-0.033709854 -0.022502698 -0.02112267 -0.027066624 -0.04531556 -0.032397475 0.016041445 -0.050653554
-0.14963986 -0.07915487 -0.12517688 -0.05693203 -0.06250833 -0.0063678715 -0.08053137 -0.15771393
-0.13000414 -0.10720187 -0.10806159 -0.083912864 0.034906745 0.017916659 -0.054827157 -0.06329434
-0.0044636917 -0.02695177 -0.025578262 0.06830973 -0.08615667 -0.24540678 -0.2676327 -0.22693537
0.36464694 0.6421497 0.25442728 0.009163485 -0.1836274 -0.30825838 -0.25507233 0.31614158
0.7872097 0.25409475 -0.032108176 -0.06420773 -0.22397406 -0.3793897 0.04095404 0.637704
0.062261444 -0.14457732 -0.2678422 -0.23980722 -0.31306982 -0.09585068 0.32280457 0.05596004
0.020437326 -0.074422106 0.060584083 -0.09583541 0.053239185 0.33094677 -0.08708518 -0.061196174
-0.010945907 -0.01592467 -0.09454439 -0.15866995 0.102678895 -0.19356064 -0.14123517 -0.07181503
-0.12444074 -0.13847555 -0.11955801 0.08561774 0.18336442 -0.17172451 -0.4887464 -0.7004972
-0.41815338 0.3418419 0.69752127 0.4596952 0.08190386 -0.24006844 -0.6524903 -0.705758
0.13232666 0.9901033 0.38874447 0.016085384 -0.18246469 -0.4260148 -0.63430774 -0.17166564
0.64013505 0.22785473 -0.025126679 -0.22129048 -0.35482517 -0.48947427 -0.29490656 0.26085538
0.17485787 0.11626506 0.07645794 0.03537142 -0.18077569 -0.10288694 0.28656274 0.004360405
0.058901615 0.04780649 -0.006752745 -0.19956209 -0.22876324 0.11969149 -0.037771136 -0.0768095
-0.005638277 0.0026357588 -0.11174668 -0.10578922 0.05488474 0.26839402 0.10584496 -0.042089727
-0.35052362 -0.2702358 0.18446225 0.36836246 0.4480163 0.28743666 0.01650241 -0.29713503
00000000: ae47 423d 6350 913d f1df 943d ff8c 153e
00000010: ed69 063e 2bee e43d 7b56 8f3d c8ce 09bb
00000020: 56db a33d c23f c23d d363 b03d de2f bb3d
00000030: 931a 683d 20c7 2b3d 69c3 29bd 415a 42bb
00000040: d2b7 6f3c f928 903d 7783 c73c 248f 043c
00000050: dcd3 37bd 19cb 3ebd 9823 a1bd 423d d3bd
00000060: e57d 86bd 5f17 bcbd 99b0 fdbd 199c f7bd
00000070: bfcd b4bd 4cd7 1abe a46c 45be 9252 21be
00000080: 9984 31be a4b4 23be 93ef 3cbe cf1b ffbd
00000090: 0925 17be 9a41 88be 76e5 72be f877 72be
000000a0: 852b 2dbe 716c 37be 850f f1bd cbae 8bbd
000000b0: 2724 f6bd bfa1 04be f655 09be abcc e5bd
000000c0: 01d5 bcbd 9e75 b03d e0f5 f13d 9d89 0f3e
000000d0: 7f3c 233e b2c6 493e b603 323e 3458 1c3e
000000e0: 6eef b83d 505a b93d 337e e23d d068 133e
000000f0: b727 423e a317 053e 9b83 c83d b115 923d
00000100: 3a69 ae3d f04b 893d 5178 c83d 22c7 b83d
00000110: 63b4 f03d c401 933d 884b d9b9 86d6 1fbd
00000120: 4e7d 34bd ebee 29bd 9db2 94bd e822 b2bc
00000130: 2d02 c0bc 5e36 d0bb fc47 d5bd 7aac 23be
00000140: 676c 10be 5862 00be b96c bcbd 61cd 9bbd
00000150: b3cf cdbd 338c 00be fd5d 3ebe ea7e 4cbe
00000160: f94b 2cbe da67 16be 0d61 d4bd d19d 40bd
00000170: 6774 1bbd 4f7b f7bd 0c8d f3bd a434 47bd
00000180: 1bc1 3abd b5bb bebc 594f 013e 4921 4d3e
00000190: feb6 403e 1da7 8f3e 9229 973e 5056 823e
000001a0: 6871 503e 63e1 c83d ff30 053e 059b 073e
000001b0: 993b 6a3e 5005 843e 1339 5c3e 557d 113e
000001c0: b04f 1e3d f58a 7d3d e0c4 913d fc4b 223e
000001d0: 9906 113e 3a0e 1c3e dece 083e fbe9 cebc
000001e0: 5813 0abd 9457 b8bc 7309 adbc d3ba ddbc
000001f0: cf9c 39bd 37b3 04bd 5969 833c 1a7a 4fbd
00000200: 313b 19be f31b a2bd 5e2e 00be 8f31 69bd
00000210: 5e04 80bd 94a9 d0bb a2ed a4bd c37f 21be
00000220: ce1f 05be a78c dbbd 654f ddbd 82da abbd
00000230: 60fa 0e3d f5c5 923c 7192 60bd 77a0 81bd
00000240: 2944 92bb f5c9 dcbc 8189 d1bc f9e5 8b3d
00000250: e872 b0bd ea4b 7bbe 2707 89be bf61 68be
00000260: 01b3 ba3e ec63 243f 4b44 823e 7122 163c
00000270: d208 3cbe 0bd4 9dbe d798 82be 4fdd a13e
00000280: 9386 493f b518 823e dd83 03bd 587f 83bd
00000290: 7559 65be 5e3f c2be 6cbf 273d 9240 233f
000002a0: db05 7f3d 140c 14be 9d22 89be 0690 75be
000002b0: b04a a0be 5c4d c4bd a446 a53e 5b36 653d
000002c0: 2e6c a73c 9e6a 98bd 0427 783d 5b45 c4bd
000002d0: 5511 5a3d db71 a93e b759 b2bd d7a8 7abd
000002e0: 7656 33bc 7474 82bc 7da0 c1bd 607a 22be
000002f0: 5049 d23d c334 46be f49f 10be c213 93bd
00000300: c9da febd 89cc 0dbe d4da f4bd 5b58 af3d
00000310: e2c3 3b3e 8dd8 2fbe f83c fabe c953 33bf
00000320: 3318 d6be e705 af3e c190 323f 2b5d eb3e
00000330: 36bd a73d 80d4 75be 9b09 27bf 8eac 34bf
00000340: a480 073e 6977 7d3f 8409 c73e 7fc5 833c
00000350: 06d8 3abe 9d1e dabe fe61 22bf 1ec9 2fbe
00000360: e4df 233f c052 693e 77d6 cdbc f999 62be
00000370: a5ab b5be 5f9c fabe fefd 96be d68e 853e
00000380: f10d 333e 601c ee3d fb95 9c3d 9fe1 103d
00000390: 431d 39be 63b6 d2bd 5ab8 923e bae1 8e3b
000003a0: d242 713d bdd0 433d 2146 ddbb 015a 4cbe
000003b0: e940 6abe d020 f53d e8b5 1abd 4d4e 9dbd
000003c0: 4cc1 b8bb b2bc 2c3b 72db e4bd 05a8 d8bd
000003d0: d2ce 603d f16a 893e 3ec5 d83d 4766 2cbd
000003e0: d577 b3be 595c 8abe ace3 3c3e 019a bc3e
000003f0: 6462 e53e e62a 933e 1030 873c 1522 98be

80 f4 [16]
0.6794037 0.37492585 -0.017760754 -0.7330389 -1.6250455 1.0326238 -0.64329714 1.9154302
-2.9155133 1.0523701 1.7646637 1.5714014 -0.4324706 2.2781312 0.89435124 -0.014034569
00000000: 67ed 2d3f 48f6 bf3e 007f 91bc 70a8 3bbf
00000010: 7e01 d0bf 042d 843f 1faf 24bf d12c f53f
00000020: c597 3ac0 10b4 863f 80e0 e13f ae23 c93f
00000030: c96c ddbe e7cc 1140 34f4 643f 40f1 65bc

82 f4 [32, 16, 3, 3]
0.10992508 0.14820656 0.08250275 0.0120464945 -0.0066535715 -0.05939029 0.0025968514 0.0053097573
-0.026022952 -0.023618331 0.029963749 0.094123766 -0.04185925 0.019036517 0.08626162 -0.038572047
-0.025731867 0.09342452 0.057112996 0.06170074 0.047450986 0.031755067 0.03385828 0.048724614
0.052908733 0.06866222 0.077203 -0.019744646 -0.025675844 -0.051951546 -0.05780685 -0.03050683
-0.02928075 -0.053911377 -0.050856885 -0.044573937 0.05542484 0.011593972 0.07787342 0.0154062295
-0.019504055 0.057703394 0.054687623 0.00399895 0.073579155 -0.024445916 -0.047683097 -0.011316257
-0.06971775 -0.054820754 -0.059875328 -0.032628838 -0.024178172 0.0067802602 0.054931633 0.078346014
0.08750963 0.062623575 0.06985426 0.07400654 0.04278129 0.057508465 0.08049571 -0.0067859646
-0.0029604014 -0.014446486 0.006545774 0.03197286 0.010891912 0.02071145 0.049554925 0.032303385
-0.08919373 -0.08053611 -0.120069 -0.07368575 -0.015350954 -0.07330165 -0.021870272 0.051432837
0.050185647 0.078418404 -0.08686899 -0.11945755 0.06743588 -0.11669164 -0.15290722 0.07069699
-0.13679062 -0.119238794 0.005225645 0.016881756 0.020923698 -0.05219715 -0.05565384 -0.0031852885
0.0038270438 -0.03599935 0.013938786 0.0023976022 0.005858484 0.028525665 -0.06738165 -0.03303749
-0.016881248 -0.032623887 -0.019542392 -0.020855416 0.009799373 0.016588166 0.04997413 0.021429533
0.031793416 0.067552835 0.021650331 0.032313306 0.089655824 0.0019228887 0.02896869 -0.00056270254
-0.053665657 -0.037570704 -0.04323939 -0.07240666 -0.05741521 -0.021213194 0.016463423 -0.014976404
-0.03226285 0.011131901 -0.0448063 -0.021589817 0.028856127 0.0390417 0.03710864 0.012624683
0.027181076 0.029909372 0.017546538 0.0256902 0.03795105 0.03533827 0.044442743 0.059938535
-0.025991028 -0.021949796 0.0444446 -0.0027870699 0.012990276 0.033611655 -0.01915306 -0.052068803
-0.05634947 0.020829817 -0.039412566 -0.060608372 0.029433776 0.029182391 -0.008566198 -0.024473714
-0.02546886 -0.08805404 -0.0030785115 -0.018374866 -0.014521253 0.013559458 -0.05208498 -0.09489097
0.020379223 -0.05515244 -0.09506563 -0.025875151 0.013698425 0.036484808 0.0074229725 0.015921514
0.030490506 -0.0014941365 0.0014623868 -0.003573792 -0.032044537 0.017997453 0.012086647 -0.038583376
-0.014304757 -0.06807446 -0.02944746 -0.030653564 -0.044655975 -0.025976572 -0.0078771915 -0.045513507
0.04750512 0.09408778 0.07762497 -0.005199351 0.055461697 0.029490987 0.0042568333 0.030723652
0.054259703 -0.012781204 0.019514194 0.012308763 -0.025250705 0.006121878 0.013205019 0.015812663
0.04633479 0.065655716 0.05120251 0.11953642 0.16760078 -0.04839603 0.0109781725 0.06936679
-0.03208248 -0.028235365 0.006259535 -0.049792044 -0.05009269 -0.03644357 -0.032768257 -0.03748519
-0.04640152 0.078067064 -0.018460995 -0.042349152 0.14524576 0.07396831 0.041663922 0.0787636
0.05426698 0.036708035 -0.007363467 -0.08521252 -0.0123293465 0.011661745 -0.024229063 0.03934088
-0.0001593481 -0.019294554 0.047473434 -0.032806046 -0.014344147 0.08044218 -0.0059498623 0.011588282
0.11724406 -0.056469906 -0.047037885 0.042503882 -0.00077118963 0.05192658 0.046455916 -0.004947794
00000000: 6620 e13d 76c3 173e 34f7 a83d a95e 453c
00000010: 3406 dabb 3c43 73bd f02f 2a3b 79fd ad3b
00000020: 162e d5bc 3b7b c1bc 8976 f53c f6c3 c03d
00000030: 9b74 2bbd 78f2 9b3c efa9 b03d b9fd 1dbd
00000040: a3cb d2bc 5b55 bf3d 51ef 693d eab9 7c3d
00000050: f75b 423d 9a11 023d fbae 0a3d 7693 473d
00000060: d4b6 583d c79e 8c3d 9b1c 9e3d 86bf a1bc
00000070: 2656 d2bc 25cb 54bd e0c6 6cbd 76e9 f9bc
00000080: 2fde efbc 2dd2 5cbd 4f4f 50bd 2993 36bd
00000090: 2805 633d a5f4 3d3c 1a7c 9f3d 696a 7c3c
000000a0: f8c6 9fbc 655a 6c3d 2100 603d a009 833b
000000b0: abb0 963d cd42 c8bc 5a4f 43bd d267 39bc
000000c0: 2ec8 8ebd ba8b 60bd d53f 75bd d1a5 05bd
000000d0: 4d11 c6bc f22c de3b feff 603d e073 a03d
000000e0: 4038 b33d ca40 803d c00f 8f3d be90 973d
000000f0: 6f3b 2f3d ff8d 6b3d efda a43d cc5c debb
00000100: 4b03 42bb f4b0 6cbc ef7d d63b f9f5 023d
00000110: fd73 323c 0fab a93c 1bfa 4a3d 8e50 043d
00000120: 34ab b6bd 1ef0 a4bd bce6 f5bd 8ee8 96bd
00000130: 9182 7bbc 2d1f 96bd 4929 b3bc 3dab 523d
00000140: 778f 4d3d d499 a03d 5ee8 b1bd 29a6 f4bd
00000150: d31b 8a3d 07fc eebd b693 1cbe 95c9 903d
00000160: d712 0cbe 7833 f4bd e33b ab3b 9c4b 8a3c
00000170: 2d68 ab3c aecc 55bd 48f5 63bd 46c0 50bb
00000180: 24cf 7a3b 0e74 13bd 825f 643c 1721 1d3b
00000190: 87f8 bf3b a8ae e93c 64ff 89bd 5252 07bd
000001a0: 8b4a 8abc a0a0 05bd 5e17 a0bc fad8 aabc
000001b0: 8d8d 203c e8e3 873c acb1 4c3d fd8c af3c
000001c0: d039 023d 2459 8a3d 095c b13c f55a 043d
000001d0: 799d b73d 7009 fc3a bf4f ed3c 5482 13ba
000001e0: 85d0 5bbd bde3 19bd c91b 31bd f149 94bd
000001f0: 362c 6bbd 4bc7 adbc 4dde 863c 975f 75bc
00000200: 0d26 04bd 9462 363c d086 37bd 21dd b0bc
00000210: af63 ec3c 31ea 1f3d 3bff 173d c2d7 4e3c
00000220: d9aa de3c 8004 f53c c2bd 8f3c 4174 d23c
00000230: 8f72 1b3d ddbe 103d 9809 363d 1c82 753d
00000240: 23eb d4bc 0fd0 b3bc 8a0b 363d 46a7 36bb
00000250: 2bd5 543c 60ac 093d e1e6 9cbc 1946 55bd
00000260: b4ce 66bd 4ba3 aa3c 126f 21bd 7c40 78bd
00000270: 1a1f f13c e90f ef3c 3d59 0cbc 197d c8bc
00000280: 12a4 d0bc ad55 b4bd dac0 49bb e386 96bc
00000290: 8dea 6dbc 7d28 5e3c 0f57 55bd 3256 c2bd
000002a0: 54f2 a63c 86e7 61bd c5b1 c2bd 20f8 d3bc
000002b0: 5c6f 603c 1871 153d 683c f33b d66d 823c
000002c0: 3ac7 f93c e7d6 c3ba 8fad bf3a 4836 6abb
000002d0: 2241 03bd 656f 933c 1207 463c 9a09 1ebd
000002e0: 805e 6abc 9f6a 8bbd cd3b f1bc 2f1d fbbc
000002f0: 2fe9 36bd d2cc d4bc 560f 01bc 5f6c 3abd
00000300: bb94 423d 18b1 c03d d7f9 9e3d 515f aabb
00000310: ce2b 633d 1597 f13c e87c 8b3b 2bb0 fb3c
00000320: 6c3f 5e3d 4168 51bc 3bdc 9f3c b2aa 493c
00000330: 91da cebc 099a c83b dd59 583c 8f89 813c
00000340: 8cc9 3d3d 8176 863d b9b9 513d 83cf f43d
00000350: 8a9f 2b3e ea3a 46bd cbdd 333c 2d10 8e3d
00000360: eb68 03bd da4d e7bc c91c cd3b bef2 4bbd
00000370: fe2d 4dbd da45 15bd 0238 06bd 128a 19bd
00000380: 850f 3ebd a0e1 9f3d 833b 97bc 4e76 2dbd
00000390: 4ebb 143e b37c 973d caa7 2a3d cf4e a13d
000003a0: 0e47 5e3d 2a5b 163d 3d49 f1bb e783 aebd
000003b0: 0701 4abc e710 3f3c 077c c6bc e723 213d
000003c0: ae16 27b9 9d0f 9ebc 8173 423d a25f 06bd
000003d0: b703 6bbc dfbe a43d 10f7 c2bb c7dc 3d3c
000003e0: a71d f03d fd4c 67bd ccaa 40bd 8d18 2e3d
000003f0: a929 4aba f7b0 543d 8f48 3e3d 1b21 a2bb

83 f4 [32]
-0.45795584 -0.16865116 0.44298065 -0.5441749 1.2493844 1.0902236 0.55937517 2.1399877
-0.038434833 2.1267476 -2.0932586 -1.3341773 1.2576451 -0.084102064 0.74542755 -0.12141578
2.3035092 -2.425687 1.3010142 1.7716073 0.74281836 -2.0255156 -0.08817366 1.7823719
0.017799854 1.9790454 0.07570015 0.95820916 -1.7525607 -1.8352413 1.0678873 0.17440537
00000000: 3079 eabe e4b2 2cbe 5cce e23e 0c4f 0bbf
00000010: d4eb 9f3f 728c 8b3f 3633 0f3f 8ff5 0840
00000020: d86d 1dbd a21c 0840 f3f7 05c0 52c6 aabf
00000030: 84fa a03f b43d acbd 57d4 3e3f d6a8 f8bd
00000040: b26c 1340 753e 1bc0 a287 a63f 07c4 e23f
00000050: 5829 3e3f 0ca2 01c0 6494 b4bd c324 e43f
00000060: 00d1 913c 5c51 fd3f ae08 9b3d 324d 753f
00000070: e953 e0bf 30e9 eabf 88b0 883f 5297 323e

85 f4 [32, 32, 3, 3]
0.015767748 -0.052245524 -0.07280685 0.007497376 -0.058925014 -0.08422524 -0.008035353 -0.09772135
-0.09348779 -0.0259705 -0.034898456 -0.015995797 -0.015066259 -0.023585688 0.0080242455 0.010456982
0.023215665 0.033449486 -0.025497062 -0.039470572 -0.022040447 -0.008064132 -0.054044265 -0.044383176
-0.048081998 -0.09501444 -0.048572358 -0.0070735123 -0.024531465 -0.038886067 -0.00769 -0.024650516
-0.03577556 0.001363455 0.0002435581 -0.0021370957 0.033656526 0.03530993 0.007654288 0.05484525
0.024029873 -0.01023956 0.044212945 0.006141637 0.006333438 0.017280469 0.0032676335 -0.004584045
0.025692463 0.0005567757 -0.0012223064 0.0065541877 -0.041160934 -0.014388608 -0.059688173 0.04101779
0.041550584 0.010122226 0.026948342 0.034512434 0.047690246 0.024194758 0.030862724 0.033835176
0.0047148364 0.01882782 0.077729106 0.051382504 0.046041463 0.042262614 0.005959907 0.003146154
-0.06324527 -0.10373238 -0.056801554 -0.05810598 -0.09431748 -0.04833491 -0.06268293 -0.0820244
-0.07649008 0.04268513 -0.014973627 0.014348736 0.019468583 -0.008843353 0.034210797 -0.032040082
-0.032977324 0.020362845 0.047374483 0.03697468 0.012896519 0.045153417 0.007780491 -0.011162256
0.021648908 -0.027444363 -0.0482959 0.038494896 -0.023220362 -0.026424637 -0.012076144 -0.04813837
-0.007226037 -0.080411725 -0.079063535 -0.06261023 0.027048076 0.011540617 0.035183277 0.14444649
0.06407798 0.05093232 0.0992241 0.00623447 0.021158796 0.008058232 0.007548428 -0.036733504
-0.008276383 -0.020841368 -0.052195016 -0.0031985375 -0.019858567 -0.017060546 0.0325806 2.4084815e-05
0.015854973 0.010623412 -0.0072960337 0.022696106 0.028488496 -0.018920014 0.02579674 -0.020073103
-0.03369178 -0.035307046 -0.02275732 -0.02825035 -0.03625617 -0.0022120953 -0.02857645 -0.008474218
-0.025554143 -0.029799074 -0.008445298 -0.010511752 0.0074499794 0.04281853 -0.03101156 0.008215611
0.014747002 0.017447798 0.021351025 0.015729673 0.0449671 0.039729044 0.015856786 0.016602406
-0.026034342 -0.082052276 -0.026708042 -0.04083137 -0.040346712 -0.0053921505 -0.020186096 -0.019629087
-0.047850396 -0.04811608 -0.03497869 0.052403405 0.06375707 0.006138792 0.076230586 0.069430634
0.003048376 0.02878214 0.030285565 -0.004720015 0.041534644 -0.005888759 -0.012052407 0.036916748
-0.015360275 -0.02304273 0.04367168 0.0041697263 -0.0034665302 0.011505861 0.010952379 0.01655509
0.026643667 0.0040471703 0.01073099 -0.01698843 -0.035136424 -0.028291823 0.006965128 -0.028058564
-0.05144694 0.013686849 -0.03210223 -0.0496571 0.013678951 -0.026464121 -0.009338704 0.023113146
-0.00014292666 -0.008611784 0.073520586 0.026902942 0.023927003 0.04769457 -0.013839202 0.01963461
0.006339096 -0.02908821 -0.020390498 0.035174966 -0.025992095 -0.04389084 0.03848758 -0.011224966
-0.015677987 0.08208925 0.039485417 -0.0043407558 0.08812461 0.040296115 0.025243817 0.024652049
0.01086628 0.035658665 0.028666632 -0.014962372 -0.04362213 0.050181862 0.0080097485 -0.012990831
0.01469935 -0.024626944 -0.038710117 -0.028603999 -0.003350353 -0.007832042 -0.01912213 -0.00057310733
0.0030843562 -0.021898082 -0.029044854 -0.023051435 -0.0038584326 -0.0028597144 0.007758171 -0.00033961795
00000000: 5d2b 813c 67ff 55bd c21b 95bd 8cac f53b
00000010: 5b5b 71bd 487e acbd b7a6 03bc 2222 c8bd
00000020: 8776 bfbd 16c0 d4bc aff1 0ebd 9e09 83bc
00000030: 78d8 76bc c636 c1bc 2078 033c c353 2b3c
00000040: c72e be3c 5402 093d 37df d0bc e5ab 21bd
00000050: 2b8e b4bc 6c1f 04bc 855d 5dbd 22cb 35bd
00000060: a1f1 44bd ee96 c2bd cff3 46bd ecc8 e7bb
00000070: 36f6 c8bc ff46 1fbd 65fc fbbb e1ef c9bc
00000080: 6589 12bd f5b5 b23a a163 7f39 840e 0cbb
00000090: 6ddb 093d 25a1 103d d2d0 fa3b 6aa5 603d
000000a0: 4cda c43c d4c3 27bc a218 353d c93f c93b
000000b0: bb88 cf3b c58f 8d3c cb25 563b c235 96bb
000000c0: 0079 d23c 96f4 113a cc35 a0ba 83c4 d63b
000000d0: 5e98 28bd 32be 6bbc 967b 74bd 4502 283d
000000e0: f230 2a3d b1d7 253c c5c2 dc3c e95c 0d3d
000000f0: d956 433d 1634 c63c d3d3 fc3c c196 0a3d
00000100: ea7e 9a3b cd3c 9a3c 7030 9f3d 7676 523d
00000110: f995 3c3d 901b 2d3d 534b c33b b52f 4e3b
00000120: bc86 81bd a471 d4bd bfa8 68bd 8900 6ebd
00000130: 8629 c1bd d4fa 45bd e85f 80bd 69fc a7bd
00000140: d5a6 9cbd 9ad6 2e3d f253 75bc f616 6b3c
00000150: 947c 9f3c b6e3 10bc 9f20 0c3d 763c 03bd
00000160: 3b13 07bd fbcf a63c bf0b 423d c372 173d
00000170: ec4b 533c caf2 383d 7df3 fe3b e5e1 36bc
00000180: 0d59 b13c 00d3 e0bc ecd1 45bd d3ac 1d3d
00000190: a138 bebc 7b78 d8bc 05db 45bc bd2c 45bd
000001a0: 64c8 ecbb e7ae a4bd 10ec a1bd cb39 80bd
000001b0: ed93 dd3c db14 3d3c 571c 103d c8e9 133e
000001c0: 513b 833d 699e 503d 0136 cb3d 864a cc3b
000001d0: 3655 ad3c ad06 043c ce58 f73b df75 16bd
000001e0: ab99 07bc 84bb aabc 71ca 55bd 8e9e 51bb
000001f0: 6fae a2bc 8fc2 8bbc 3c73 053d bf09 ca37
00000200: 4ae2 813c d20d 2e3c 9113 efbb 2fed b93c
00000210: b560 e93c 25fe 9abc af53 d33c 5970 a4bc
00000220: 6400 0abd 1f9e 10bd 8f6d babc 476d e7bc
00000230: 5a81 14bd cdf8 10bb 2919 eabc 72d7 0abc
00000240: ec56 d1bc 301d f4bc 265e 0abc 7c39 2cbc
00000250: f51e f43b 7c62 2f3d f40b febc c59a 063c
00000260: 699d 713c afee 8e3c 58e8 ae3c 84db 803c
00000270: 6c2f 383d ecba 223d 17e6 813c c501 883c
00000280: f945 d5bc 060b a8bd d3ca dabc cb3e 27bd
00000290: 9842 25bd a3b0 b0bb 505d a5bc 2ecd a0bc
000002a0: c7fe 43bd 5e15 45bd d145 0fbd f4a4 563d
000002b0: 1193 823d eb27 c93b c81e 9c3d a631 8e3d
000002c0: 43c7 473b 86c8 eb3c 6f19 f83c 5baa 9abb
000002d0: 3b20 2a3d 7ef6 c0bb 7577 45bc 0436 173d
000002e0: aaa9 7bbc 1bc4 bcbc 13e1 323d 33a2 883b
000002f0: ba2e 63bb 1483 3c3c 9b71 333c 8a9e 873c
00000300: d243 da3c 209e 843b 09d1 2f3c 522b 8bbc
00000310: 36eb 0fbd 41c4 e7bc ba3b e43b 13db e5bc
00000320: 07ba 52bd ce3e 603c a17d 03bd 3e65 4bbd
00000330: ae1d 603c 49cb d8bc 5d01 19bc c857 bd3c
00000340: 95de 15b9 7118 0dbc f691 963d 8f63 dc3c
00000350: 9002 c43c 625b 433d d2bd 62bc c3d8 a03c
00000360: 31b8 cf3b 664a eebc f909 a7bc a013 103d
00000370: 60ed d4bc e2c6 33bd 27a5 1d3d ebe8 37bc
00000380: 1f6f 80bc 691e a83d 76bb 213d e63c 8ebb
00000390: ad7a b43d 8a0d 253d 1fcc ce3c 18f3 c93c
000003a0: 7b08 323c d20e 123d 49d6 ea3c bd24 75bc
000003b0: 1ead 32bd 7f8b 4d3d 523b 033c 7fd7 54bc
000003c0: 8bd5 703c 72be c9bc 808e 1ebd ef52 eabc
000003d0: 9991 5bbb f751 00bc 03a6 9cbc 953c 16ba
000003e0: e922 4a3b 9b63 b3bc 79ef edbc 5dd6 bcbc
000003f0: c2dd 7cbb 0c6a 3bbb 4138 fe3b c00e b2b9

86 f4 [32]
0.028352872 -1.8759692 0.83543146 -0.020087361 0.11784685 0.18262547 1.2186447 -0.5656239
1.3926857 -0.11557603 -0.31284782 -1.4928429 1.5168288 -0.8393959 -0.31949204 1.0066953
0.23390868 0.2618382 1.0488764 0.31955576 1.4017235 0.045964032 1.0940433 1.0912545
0.8036152 1.2869887 0.43704727 -0.7415233 -1.2255993 -0.5251014 0.014742732 -0.7416409
00000000: 4844 e83c c21f f0bf d6de 553f 408e a4bc
00000010: b059 f13d 2c02 3b3e 8dfc 9b3f bacc 10bf
00000020: 8643 b23f 20b3 ecbd 972d a0be 7a15 bfbf
00000030: 7227 c23f a6e2 56bf 7694 a3be 64db 803f
00000040: c285 6f3e a80f 863e 9541 863f d09c a33e
00000050: ad6b b33f c844 3c3d 9c09 8c3f 3aae 8b3f
00000060: bab9 4d3f 0cbc a43f a9c4 df3e 79d4 3dbf
00000070: 70e0 9cbf 0c6d 06bf 808b 713c 2edc 3dbf

88 f4 [32, 16, 1, 1]
-0.5052839 -0.05908998 0.7061217 -0.49450842 0.43248132 -0.19277373 0.32248765 -0.012373445
-0.18599766 -0.054645557 -0.5589585 0.03802924 0.577909 -0.28509715 -0.3977822 0.57408845
-0.031170858 0.00010837595 0.10262645 -0.5956457 0.31729168 0.43407428 0.52004987 -0.060423072
-0.39471415 0.49320737 -0.33414996 -0.062438853 0.5207067 -0.1550881 0.0077220076 0.29565215
0.081828296 0.7495005 0.40524864 -0.42313772 -0.12992093 -0.15506235 -0.15330039 0.2109993
0.64068925 -0.13904537 0.873648 0.3067799 -0.19846798 0.39713773 -0.012367754 0.048717227
-0.50669795 0.08924804 -0.06708343 -0.12668514 0.057187416 -0.03183007 -0.066774346 -0.29956692
-0.15037055 0.08814713 -0.093432255 -0.2603945 -0.019082567 -0.18626772 -0.14350931 0.021775898
-0.466654 -0.14131132 0.04418958 -0.2357521 0.34717098 0.08676672 0.039346177 -0.4184753
-0.061305914 0.10559601 -0.96728957 -0.29213563 0.20393862 -0.22065006 -0.046187937 0.28574222
0.03948247 0.15450217 -0.18508594 -0.043583956 -0.1456498 0.12090603 -0.066184506 0.29847714
-0.06354901 0.09991929 0.123609096 0.10728925 -0.12503885 -0.05450143 0.12684451 -0.17917414
-0.10032443 0.07135193 -0.14956461 0.008887317 0.034276936 -0.10021167 0.014091317 -0.33601072
0.072121866 0.04748225 -0.27821666 -0.08814245 0.056456607 -0.052576236 -0.2973725 -0.028059294
-0.5951753 0.07687519 -0.0099749565 -0.53977114 0.10726018 -0.011281204 0.20595124 -0.10225652
-0.2887783 0.12718968 -0.39812893 -0.3700031 0.1336098 -0.17888175 -0.16711824 -0.07258511
-0.66506624 -0.2515587 -0.061145883 0.26158768 0.00090343406 -0.1452671 -0.005138632 -0.40079957
0.030254975 0.09860227 -0.23744084 -0.30068597 -0.085287064 -0.16779657 -0.32059637 -0.012663082
-0.31893635 0.18817553 -0.5997265 0.32803583 -0.21062675 0.28713596 0.27313295 0.17488824
-0.50242513 0.18196347 -0.43984723 0.21064936 0.17392918 0.348516 -0.17620549 -0.3015186
0.5407685 0.32680368 -0.20721777 0.22150677 -0.054418765 -0.9041519 -0.20853184 -0.049968667
-0.5819871 -0.36340156 0.5316126 -0.38299102 -0.41854355 -1.206805 -0.010236397 -0.270301
0.1163113 0.47630328 0.16186261 -0.30486208 -0.14587349 -0.1328915 0.18342133 0.2927566
0.41834486 0.33743355 0.19696046 0.2994646 0.2192065 0.29933685 -0.22251986 0.17637657
0.034519184 0.24091281 -0.065851696 -0.05452272 -0.16552618 0.13937218 -0.14368038 0.21202329
-0.055964082 0.050097503 -0.13002312 0.096601985 -0.16355638 -0.1335228 0.084067166 -0.084957846
-0.9370447 0.07877072 -0.66644734 -0.18843894 -0.2581945 0.058640886 -0.103607595 0.014936575
0.3727879 -0.4588897 -1.0799783 0.12417479 0.23739918 -0.084224254 0.41495836 0.2560362
-0.21887659 0.95653725 -0.02466124 -0.42215568 0.44604897 0.7347722 0.07066694 -0.1536898
-0.34590685 0.13335592 -0.42112967 -0.4299442 -0.27187845 -0.3427376 0.10737602 -0.2105202
0.2638374 0.43091103 -0.24634211 0.085909314 -0.15591995 -0.022660121 -0.06896232 0.15082897
0.25054455 -0.034549933 -0.28384346 0.41239664 0.032905594 -0.3861218 0.37103063 -0.038964745
00000000: 495a 01bf 5608 72bd 64c4 343f 3530 fdbe
00000010: 316e dd3e 7a66 45be 1a1d a53e fdb9 4abc
00000020: 2c76 3ebe 05d4 5fbd e717 0fbf 8cc4 1b3d
00000030: d8f1 133f 41f8 91be 1caa cbbe 76f7 123f
00000040: 075a ffbc e547 e338 d12d d23d 3d7c 18bf
00000050: 0e74 a23e fc3e de3e fd21 053f 2f7e 77bd
00000060: f917 cabe ad85 fc3e b415 abbe e2bf 7fbd
00000070: 094d 053f 6acf 1ebe e508 fd3b b85f 973e
00000080: 9895 a73d 44df 3f3f c07c cf3e 82a5 d8be
00000090: fe09 05be aac8 1ebe c7fa 1cbe 3310 583e
000000a0: 3604 243f e961 0ebe 65a7 5f3f 4112 9d3e
000000b0: 313b 4bbe a355 cb3e 1fa2 4abc b78b 473d
000000c0: f5b6 01bf adc7 b63d 0a63 89bd c0b9 01be
000000d0: 5a3d 6a3d 3f60 02bd fdc0 88bd d660 99be
000000e0: bdfa 19be 7c86 b43d 6959 bfbd 6e52 85be
000000f0: 0b53 9cbc f7bc 3ebe 1bf4 12be 5e63 b23c
00000100: 46ed eebe eab3 10be 2200 353d 0069 71be
00000110: 65c0 b13e c0b2 b13d 7529 213d 6542 d6be
00000120: e91b 7bbd b942 d83d 4aa0 77bf cd92 95be
00000130: 49d5 503e 17f2 61be 902f 3dbd ce4c 923e
00000140: 5fb8 213d d135 1e3e 2b87 3dbe 1785 32bd
00000150: 3925 15be 959d f73d be8b 87bd ffd1 983e
00000160: fc25 82bd 7ca2 cc3d c426 fd3d 77ba db3d
00000170: 2f0a 00be e43c 5fbd 87e3 013e 6d79 37be
00000180: e576 cdbd f620 923d 7727 19be 1c9c 113c
00000190: f965 0c3d c73b cdbd 44df 663c 9909 acbe
000001a0: a1b4 933d bf7c 423d 6a72 8ebe 0784 b4bd
000001b0: 0b3f 673d 2e5a 57bd 3541 98be 9bdc e5bc
000001c0: 695d 18bf bd70 9d3d 006e 23bc 712e 0abf
000001d0: 3aab db3d cdd4 38bc e2e4 523e de6b d1bd
000001e0: c0da 93be 033e 023e 8ed7 cbbe 0c71 bdbe
000001f0: 02d1 083e c72c 37be 0b21 2bbe 81a7 94bd
00000200: c841 2abf 4dcc 80be 1b74 7abd d2ee 853e
00000210: 6fd4 6c3a e6c0 14be f861 a8bb 9a35 cdbe
00000220: 48d9 f73c fdef c93d b123 73be 83f3 99be
00000230: fcaa aebd ddd2 2bbe 3525 a4be d178 4fbc
00000240: a04b a3be 16b1 403e ad87 19bf 50f4 a73e
00000250: 8aae 57be 7c03 933e 15d8 8b3e e715 333e
00000260: ef9e 00bf a254 3a3e a833 e1be 77b4 573e
00000270: 7e1a 323e b070 b23e 366f 34be a560 9abe
00000280: ce6f 0a3f d052 a73e e530 54be acd2 623e
00000290: 36e6 5ebd 8076 67bf 5f89 55be f2ab 4cbd
000002a0: 1bfd 14bf c50f babe c317 083f 6617 c4be
000002b0: 574b d6be 9678 9abf 90b6 27bc e564 8abe
000002c0: 9e34 ee3d 06de f33e 50bf 253e e216 9cbe
000002d0: dc5f 15be b614 08be cdd2 3b3e 31e4 953e
000002e0: 4c31 d63e 17c4 ac3e 01b0 493e 6d53 993e
000002f0: ab77 603e ae42 993e 3fdc 63be 0f9c 343e
00000300: fd63 0d3d d9b1 763e 41dd 86bd 3753 5fbd
00000310: b27f 29be 95b7 0e3e f320 13be a21c 593e
00000320: 983a 65bd 0a33 4d3d c824 05be 43d7 c53d
00000330: 537b 27be 33ba 08be 682b ac3d 61fe adbd
00000340: 29e2 6fbf 8b52 a13d 4b9c 2abf 23f6 40be
00000350: 1232 84be 6d31 703d 3830 d4bd 89b8 743c
00000360: 0ede be3e 97f3 eabe bb3c 8abf 5a4f fe3d
00000370: c518 733e c47d acbd 6c75 d43e 2d17 833e
00000380: 2f21 60be a0df 743f 5e06 cabc ca24 d8be
00000390: 8860 e43e 081a 3c3f d4b9 903d dc60 1dbe
000003a0: b41a b1be 748e 083e 4f9e d7be a521 dcbe
000003b0: a733 8bbe 4d7b afbe f5e7 db3d 9b92 57be
000003c0: b215 873e 5fa0 dc3e 1b41 7cbe 39f1 af3d
000003d0: 7ba9 1fbe b8a1 b9bc 1e3c 8dbd e972 1a3e
000003e0: 6047 803e 3b84 0dbd ee53 91be a725 d33e
000003f0: 04c8 063d c2b1 c5be baf7 bd3e 7f99 1fbd

89 f4 [32]
0.5844729 -0.52441376 -2.831998 1.0578122 2.110161 -0.49282494 1.0559641 1.8892225
1.7730322 0.40979126 1.4385853 -2.4465342 -0.06002903 3.1198392 -0.11271158 -0.15859199
0.98742807 -0.0022737682 -0.30357015 0.044427842 0.9468737 -1.4478028 -0.9041691 -1.1505519
0.946953 -1.1008319 -0.55072874 -0.7817223 -0.6555197 1.080405 -0.51283157 -0.7539891
00000000: 04a0 153f fb3f 06bf 753f 35c0 6466 873f
00000010: e10c 0740 8d53 fcbe d529 873f 0bd2 f13f
00000020: b8f2 e23f 29d0 d13e 9023 b83f 0494 1cc0
00000030: 00e1 75bd 72ab 4740 54d5 e6bd f065 22be
00000040: 16c8 7c3f 8003 15bb 8c6d 9bbe f8f9 353d
00000050: 5166 723f 9a51 b9bf a077 67bf 4945 93bf
00000060: 836b 723f 0fe8 8cbf 8ffc 0cbf f41e 48bf
00000070: 24d0 27bf b64a 8a3f ee48 03bf 6e05 41bf

91 f4 [64, 32, 3, 3]
-0.022825383 -0.017118977 -0.061997928 -0.059711378 -0.00026667482 -0.047419805 -0.036072426 -0.071604766
-0.072843224 0.018430874 -0.020009825 -0.017762715 0.019068295 0.008536223 0.001146576 -0.021387015
-0.02316577 -0.009263964 -0.027956529 0.016290303 0.11429132 -0.08785888 -0.030873155 -0.005297821
0.022392346 0.049320575 0.05980104 0.01582771 -0.020176454 -0.0044070543 -0.035915624 -0.05351175
-0.02839372 -0.020086933 -0.061846092 -0.045919415 -0.011433658 -0.016227001 -0.055025145 -0.037565168
0.024605457 0.012241882 -0.035875764 -0.04961448 -0.05130794 -0.05065285 -0.023231106 0.0010322223
-0.035997704 -0.020117816 -0.014647802 -0.043096583 -0.0013988691 -0.013151844 0.041447643 0.043916054
0.049836855 -0.051547635 0.027900867 0.016237503 -0.038531616 -0.027042579 -0.029184384 0.03050285
0.0020140053 -0.018048832 -0.02138373 -0.005552021 -0.015850732 -0.01763805 -0.040808257 -0.039399583
0.020254849 0.032261617 -0.005961983 -0.016233917 0.03617645 0.017287254 -0.005269933 -0.013004543
0.0069488683 -0.08723024 -0.060476612 -0.049701575 -0.067284554 -0.057615742 -0.03966317 -0.11841018
-0.07243234 -0.0738468 0.010384634 0.01843821 -0.028733047 0.017335229 0.0106660975 -0.029046692
-0.020338416 -0.04349359 -0.059148826 -0.019561026 -0.026875474 0.008758785 -0.044651315 -0.047932945
-0.0019475486 -0.025766835 -0.025123853 0.0023176046 -0.0391976 0.0004227319 0.04268365 -0.058247637
-0.012904402 0.02288168 -0.028522197 0.046456058 0.034601834 -0.07406064 -0.061084278 -0.06486958
0.039013505 0.06635425 0.08447325 0.010414241 -0.014083186 0.00980622 -0.05423268 -0.0629989
0.045880493 -0.041842014 -0.028062742 0.07901616 0.014301363 0.03920023 0.063070215 -0.035092797
0.0074906903 0.026473857 -0.032980986 -0.022205116 -0.03448967 0.04332977 0.11523265 0.08644977
0.11023394 0.06317331 0.021117773 0.13540812 0.07500705 -0.0021816827 0.18201132 0.10615479
0.02855599 0.053049736 -0.005940021 0.0018939346 0.05784777 0.006323319 -0.008068979 0.14093655
0.05134549 0.009538942 -0.013655954 0.053188834 0.051492848 -0.0065975813 0.018707447 -0.002218672
0.024511889 0.10042878 0.06553298 0.03570367 0.079265505 0.049734678 -0.021340512 0.008466859
-0.013183331 -0.0023268233 -0.015642703 -0.082223214 0.027573021 0.0026983174 0.030584456 -0.004941049
0.016367866 0.012331781 0.067763336 0.047862966 0.07157549 0.0674769 0.05963594 0.0961415
0.04165437 0.069485605 0.03926209 0.058543492 0.11017959 0.06373847 -0.04830956 -0.019772237
-0.07283597 -0.020342529 0.008554949 -0.056102052 -0.0022746224 0.06598494 0.023914274 -0.025719145
-0.026625544 -0.0064762207 0.023643669 0.021743763 0.032408603 0.012067845 0.043449163 0.0448948
-0.0729507 -0.09505272 -0.09846929 -0.016514547 -0.026482506 -0.037198227 -0.04562145 -0.079736724
-0.101669386 -0.015573242 -0.0032714526 0.05747901 -0.028035933 -0.08230967 -0.05171448 -0.02183083
-0.0134471115 -0.023911407 0.013290709 0.017858075 0.0830191 -0.025401657 -0.005860506 0.011315854
-0.018294277 0.01701194 -0.0036561906 0.0043697134 0.018609831 0.053454213 -0.018417912 -0.012766026
-0.007281653 -0.0055662864 0.0046208818 -0.041449934 -0.032188546 -0.0204933 -0.0090556005 -0.037931528
00000000: 4cfc babc 193d 8cbc 8af1 7dbd eb93 74bd
00000010: 7dd0 8bb9 453b 42bd aec0 13bd 85a5 92bd
00000020: d42e 95bd 58fc 963c a5eb a3bc 1d83 91bc
00000030: 1d35 9c3c 84db 0b3c b548 963a d233 afbc
00000040: 24c6 bdbc e2c7 17bc 1705 e5bc 3e73 853c
00000050: 9111 ea3d 5bef b3bd b3e9 fcbc 5899 adbb
00000060: 2770 b73c 5f04 4a3d eff1 743d 1da9 813c
00000070: 1749 a5bc 0d69 90bb 431c 13bd 232f 5bbd
00000080: f299 e8bc 5a8d a4bc 5452 7dbd ff15 3cbd
00000090: 3d54 3bbc 7dee 84bc 0c62 61bd efdd 19bd
000000a0: 6291 c93c 2d92 483c 77f2 12bd 8e38 4bbd
000000b0: 4628 52bd 5d79 4fbd 294f bebc a24b 873a
000000c0: 5472 13bd 1ece a4bc 56fd 6fbc 0b86 30bd
000000d0: 425a b7ba d57a 57bc 01c5 293d 52e1 333d
000000e0: bb21 4c3d 9d23 53bd 5c90 e43c 8304 853c
000000f0: 54d3 1dbd 6688 ddbc 1714 efbc 1de1 f93c
00000100: 67fd 033b 25db 93bc ef2c afbc baed b5bb
00000110: 65d9 81bc ac7d 90bc 8f26 27bd 7561 21bd
00000120: 7fed a53c c224 043d bd5c c3bb fefc 84bc
00000130: c22d 143d 009e 8d3c 67af acbb 0211 55bc
00000140: 55b3 e33b c5a5 b2bd 53b6 77bd e193 4bbd
00000150: 7ccc 89bd 7cfe 6bbd d975 22bd 0981 f2bd
00000160: 6857 94bd fe3c 97bd 5024 2a3c bb0b 973c
00000170: 9161 ebbc 9c02 8e3c dbc0 2e3c 54f3 edbc
00000180: c09c a6bc 5626 32bd 0a46 72bd 723e a0bc
00000190: f429 dcbc 0281 0f3c 4ce4 36bd 5655 44bd
000001a0: e344 ffba f814 d3bc 8ad0 cdbc f4e2 173b
000001b0: aa8d 20bd 1da2 dd39 0dd5 2e3d 1395 6ebd
000001c0: fc6c 53bc 5c72 bb3c 62a7 e9bc b548 3e3d
000001d0: a7ba 0d3d 1bad 97bd 8233 7abd 58da 84bd
000001e0: a0cc 1f3d bde4 873d 5000 ad3d 7ea0 2a3c
000001f0: 2abd 66bc 45aa 203c 1623 5ebd 9105 81bd
00000200: 2fed 3b3d 8862 2bbd d6e3 e5bc 39d3 a13d
00000210: 4450 6a3c 6c90 203d f52a 813d 77bd 0fbd
00000220: 7774 f53b b4df d83c 1217 07bd 81e7 b5bc
00000230: 0a45 0dbd 8f7a 313d 18ff eb3d 940c b13d
00000240: 55c2 e13d 0261 813d 2eff ac3c 6da8 0a3e
00000250: 4c9d 993d 90fa 0ebb 2d61 3a3e af67 d93d
00000260: 40ee e93c ae4a 593d 82a4 c2bb e63d f83a
00000270: c9f1 6c3d d833 cf3b c033 04bc ac51 103e
00000280: a64f 523d 3949 1c3c 39bd 5fbc 89dc 593d
00000290: 2aea 523d 8630 d8bb 5c40 993c 2467 11bb
000002a0: 28cd c83c 9bad cd3d 2836 863d 033e 123d
000002b0: f455 a23d 97b6 4b3d 4cd2 aebc 95b8 0a3c
000002c0: e6fe 57bc 9e7d 18bb 2025 80bc a564 a8bd
000002d0: d1e0 e13c 41d6 303b 418c fa3c 86e8 a1bb
000002e0: e715 863c 3d0b 4a3c 81c7 8a3d f50b 443d
000002f0: 2c96 923d 5431 8a3d d144 743d d6e5 c43d
00000300: c69d 2a3d 784e 8e3d 49d1 203d 4dcb 6f3d
00000310: d6a5 e13d 5189 823d 3fe0 45bd 63f9 a1bc
00000320: 062b 95bd 60a5 a6bc 0f2a 0c3c 44cb 65bd
00000330: d511 15bb 1d23 873d dee7 c33c f5b0 d2bc
00000340: d01d dabc 7a36 d4bb 5eb0 c13c fa1f b23c
00000350: e2be 043d 36b8 453c c0f7 313d 9ce3 373d
00000360: 2d67 95bd 00ab c2bd 44aa c9bd 8449 87bc
00000370: d7f1 d8bc 2b5d 18bd 8fdd 3abd 024d a3bd
00000380: 0a38 d0bd e926 7fbc de65 56bb 1c6f 6b3d
00000390: 9dab e5bc f991 a8bd 90d2 53bd 92d6 b2bc
000003a0: 4651 5cbc dbe1 c3bc 46c1 593c 194b 923c
000003b0: eb05 aa3d 2317 d0bc 7d09 c0bb 2266 393c
000003c0: e1dd 95bc a05c 8b3c b39c 6fbb d02f 8f3b
000003d0: a573 983c cef2 5a3d 29e1 96bc 9828 51bc
000003e0: ef9a eebb 6565 b6bb c46a 973b 68c7 29bd
000003f0: 23d8 03bd 91e1 a7bc f15d 14bc 175e 1bbd

92 f4 [64]
-1.0570979 -0.1983734 3.06993 1.8041837 1.0028083 -0.7075601 1.708666 1.4221382
0.9736807 -0.30932578 -0.7084733 1.0793642 0.09770042 1.0118032 0.8386794 -0.57726336
0.39556324 0.8624396 0.97295386 -0.101236075 -1.6757457 -0.83765996 0.582291 0.036560412
-1.2359307 0.18678404 2.0005398 -0.34105366 0.31422338 0.71272576 0.5800568 -0.062389255
-0.041853204 0.5887598 0.65946263 0.7829037 -0.14787498 0.48546398 -1.0689459 -1.2692976
-0.7604345 1.0804064 0.8653319 0.043792874 0.6186115 0.3411663 0.14836991 -0.025661334
-0.11288652 -0.72569156 0.70507 0.61430514 0.81843454 0.46732593 -1.0921602 -1.5451381
0.07188043 0.2754625 -0.51475155 2.2194967 0.6627704 1.3178102 -0.46344396 -1.387368
00000000: fc4e 87bf 6622 4bbe bc79 4440 7eef e63f
00000010: 065c 803f a922 35bf 91b5 da3f a008 b63f
00000020: 2343 793f f35f 9ebe 825e 35bf 9b28 8a3f
00000030: 2817 c83d c482 813f b1b3 563f 88c7 13bf
00000040: 4487 ca3e d7c8 5c3f 8113 793f dc54 cfbd
00000050: d67e d6bf e270 56bf 0611 153f 5fc0 153d
00000060: fa32 9ebf 5144 3f3e d808 0040 969e aebe
00000070: e3e1 a03e 3275 363f 9a7e 143f e08b 7fbd
00000080: 446e 2bbd f6b8 163f 8bd2 283f 606c 483f
00000090: 8a6c 17be bc8e f83e 38d3 88bf 5878 a2bf
000000a0: d6ab 42bf c24a 8a3f 6486 5d3f 2860 333d
000000b0: 535d 1e3f 59ad ae3e 48ee 173e b837 d2bc
000000c0: 0c31 e7bd ecc6 39bf 787f 343f 1a43 1d3f
000000d0: ed84 513f 5845 ef3e e8cb 8bbf 16c7 c5bf
000000e0: 0c36 933d 6c09 8d3e c2c6 03bf 3c0c 0e40
000000f0: 52ab 293f 01ae a83f 8748 edbe 4695 b1bf

94 f4 [64, 64, 3, 3]
-0.048811886 -0.024597313 -0.045213453 -0.060794678 -0.043465424 -0.12173034 -0.014695195 -0.0055477773
-0.03836806 -0.07213667 -0.07669821 -0.038543813 0.041985434 0.047854695 0.061793033 0.013475863
0.00696683 0.018256018 0.0402643 0.0113732135 0.04210802 -0.03135588 -0.039604444 -0.0096411565
-0.10225094 -0.09148562 -0.098156594 0.015566057 -0.02362756 0.0025826027 0.002002819 -0.0054872176
0.05376007 -0.057489693 -0.05824091 -0.06529918 0.08348877 0.07535877 0.091159955 0.06962445
0.017814063 0.08686782 -0.0236302 -0.039667062 -0.021405593 -0.06963825 -0.024796808 -0.055159405
-0.02724138 -0.010071419 -0.11745467 0.02241878 0.05279697 0.015682595 -0.032051682 -0.018296467
0.019979583 -0.010782039 0.00012204808 0.0050059687 -0.13018389 -0.097137064 -0.12903333 0.047615338
-0.014361189 -0.015555066 0.01830449 -0.00971743 -0.01290273 -0.015867122 -0.044471785 -0.011806469
0.024662562 0.05171476 0.08641085 -0.029757159 0.016147947 0.035392888 -0.15451533 -0.028490206
-0.08942165 -0.048114546 -0.021046858 -0.056199882 -0.040503174 -0.00745092 -0.07872181 -0.028748268
0.008097675 -0.056997895 0.0089110555 0.023167958 -0.039554756 -0.026740046 0.017775161 -0.03503907
0.077346504 0.07203466 0.0011250308 0.0042195995 0.021710087 0.027182745 0.03602621 0.007764012
0.023595534 -0.061675753 -0.076819934 -0.08369167 -0.022711555 -0.054066706 -0.07067196 -0.009508018
-0.0037526037 -0.03452087 0.025199153 0.0009222482 -0.009485223 0.017349588 -0.0021533994 -0.06946827
-0.060721856 -0.016789004 -0.09231348 0.036745224 0.038315516 -0.010633703 0.015175878 -0.0037850724
0.001415206 0.03421341 0.0057033654 0.011773537 0.006322233 -0.018252201 -0.0083369985 -0.010034774
0.013111939 -0.03840656 -0.052405007 0.0005004343 -0.029146545 0.019543024 0.0116859395 -0.014528784
-0.00033489356 -0.009734345 -0.041104615 -0.0065468666 0.020711571 -0.034459967 -0.02948242 -0.0031502747
-0.095620185 -0.033710327 -0.05794217 -0.06563137 0.0031434332 -0.0016793329 -0.023630869 0.01410462
-0.008267848 0.004706533 -0.0066389283 -0.08174829 -0.06683587 0.01636925 -0.0019631204 0.018575711
0.042713847 -0.018219672 0.0076122726 -0.0128821675 0.02413494 0.008644725 -0.029409397 0.0024704505
-0.036291327 0.032933835 0.0059176376 -0.013091143 -0.052628335 0.0017332837 -0.002971966 -0.06383361
0.016111368 0.021855779 0.13513063 0.11902472 0.056453884 -0.04922624 -0.036567952 -0.02912464
0.022504019 0.061995465 0.0492668 -0.047940698 -0.022906598 -0.033425983 -0.0141343195 -0.00398305
0.0065569244 -0.012355102 0.019441582 0.021341566 -0.0057952446 0.027604502 0.0017472107 -0.0022435314
-0.018964324 -0.013643462 0.017940063 0.008417104 -0.045536853 0.03256581 0.018381823 -0.016052544
0.010996758 -0.006590494 -0.008544732 -0.011386456 -0.01747803 -0.11713253 0.017816555 0.037226785
-0.02103224 -0.06077517 -0.024439817 -0.00505149 -0.034940355 0.0075779953 0.010262363 -0.11992523
-0.05291841 -0.08343045 0.08765939 -0.0032683716 0.0008985745 -0.030177226 -0.054869916 -0.096036784
0.0421981 0.0044096913 -0.053422052 -0.011010437 -0.013487929 -0.020771008 -0.026004171 0.0033825485
-0.021474453 0.053931553 0.027288545 0.043855764 -0.017858295 -0.019164281 -0.00036132618 -0.0039815875
00000000: f9ee 47bd 4e80 c9bc be31 39bd d703 79bd
00000010: cd08 32bd c24d f9bd 1dc4 70bc 21ca b5bb
00000020: d427 1dbd 64bc 93bd f313 9dbd 1ee0 1dbd
00000030: ebf8 2b3d 4903 443d b11a 7d3d dec9 5c3c
00000040: 024a e43b a58d 953c 2eec 243d b756 3a3c
00000050: 7679 2c3d 066f 00bd 4538 22bd f1f5 1dbc
00000060: f168 d1bd d05c bbbd 5306 c9bd c608 7f3c
00000070: 968e c1bc e240 293b ba41 033b 1ece b3bb
00000080: 8533 5c3d 507a 6bbd 058e 6ebd 94bb 85bd
00000090: 29fc aa3d b355 9a3d 12b2 ba3d 4397 8e3d
000000a0: ccee 913c c1e7 b13d 1f94 c1bc ee79 22bd
000000b0: c85a afbc 809e 8ebd ad22 cbbc d4ee 61bd
000000c0: 5129 dfbc 9802 25bc 138c f0bd 97a7 b73c
000000d0: a341 583d c978 803c a048 03bd 79e2 95bc
000000e0: 39ac a33c 26a7 30bc 10f4 ff38 1c09 a43b
000000f0: ed4e 05be ccef c6bd 5021 04be 4d08 433d
00000100: 314b 6bbc adda 7ebc 4cf3 953c db35 1fbc
00000110: f965 53bc c4fb 81bc 0c28 36bd ec6f 41bc
00000120: 2409 ca3c dbd2 533d 2cf8 b03d 49c5 f3bc
00000130: b348 843c 22f8 103d 4439 1ebe 4b64 e9bc
00000140: b322 b7bd c213 45bd 766a acbc d931 66bd
00000150: a8e6 25bd d926 f4bb e638 a1bd 7d81 ebbc
00000160: 1cac 043c a076 69bd adff 113c bbca bd3c
00000170: 2b04 22bd f10d dbbc 379d 913c 2185 0fbd
00000180: d867 9e3d e886 933d c575 933a 9144 8a3b
00000190: 5ad9 b13c 59ae de3c 3890 133d 4169 fe3b
000001a0: 6c4b c13c b79f 7cbd c553 9dbd 8a66 abbd
000001b0: 950d babc 0d75 5dbd 76bc 90bd 85c7 1bbc
000001c0: 3eee 75bb c165 0dbd 746e ce3c 07c3 713a
000001d0: e967 1bbc b920 8e3c 0c20 0dbb 6145 8ebd
000001e0: 7bb7 78bd 1889 89bc da0e bdbd 2982 163d
000001f0: bbf0 1c3d fc38 2ebc 3fa4 783c fa0e 78bb
00000200: 6f7e b93a 5c23 0c3d 4ce3 ba3b cbe5 403c
00000210: bc2a cf3b a485 95bc e897 08bc e568 24bc
00000220: 75d3 563c 3250 1dbd a2a6 56bd 942f 033a
00000230: bcc4 eebc b118 a03c 6276 3f3c 230a 6ebc
00000240: a794 afb9 cd7c 1fbc 505d 28bd 1987 d6bb
00000250: 50ab a93c e525 0dbd 1e85 f1bc d774 4ebb
00000260: 84d4 c3bd d713 0abd c554 6dbd bd69 86bd
00000270: 0f02 4e3b 101d dcba 8695 c1bc 1017 673c
00000280: de75 07bc 4339 9a3b 5e8b d9bb a66b a7bd
00000290: 3fe1 88bd ce18 863c b2a7 00bb 172c 983c
000002a0: b7f4 2e3d 6c41 95bc 5f70 f93b ba0f 53bc
000002b0: a3b6 c53c 9ba2 0d3c faeb f0bc 48e7 213b
000002c0: 37a6 14bd a1e5 063d bee8 c13b 3c7c 56bc
000002d0: cf90 57bd 5a2f e33a 51c5 42bb 32bb 82bd
000002e0: fdfb 833c e40a b33c af5f 0a3e 3bc3 f33d
000002f0: 303c 673d 74a1 49bd 47c8 15bd cc96 eebc
00000300: 595a b83c f5ee 7d3d fccb 493d 775d 44bd
00000310: 9ea6 bbbc afe9 08bd a293 67bc 3f84 82bb
00000320: 78db d63b 0e6d 4abc f443 9f3c 82d4 ae3c
00000330: 09e6 bdbb d622 e23c aa02 e53a 3608 13bb
00000340: 125b 9bbc d488 5fbc 0af7 923c e5e7 093c
00000350: da84 3abd ba63 053d 7a95 963c a080 83bc
00000360: bf2b 343c 12f5 d7bb 34ff 0bbc 428e 3abc
00000370: 162e 8fbc 2ee3 efbd 06f4 913c 1d7b 183d
00000380: ce4b acbc 62ef 78bd 0336 c8bc f886 a5bb
00000390: 9e1d 0fbd d550 f83b 7823 283c 5c9b f5bd
000003a0: fac0 58bd 95dd aabd c486 b33d 2d32 56bb
000003b0: 508e 6b3a 3b36 f7bc 47bf 60bd efae c4bd
000003c0: ead7 2c3d 2c7f 903b 15d1 5abd 1f65 34bc
000003d0: 79fc 5cbc f627 aabc b306 d5bc bfad 5d3b
000003e0: 31eb afbc 55e7 5c3d 3a8c df3c 1aa2 333d
000003f0: 8f4b 92bc 69fe 9cbc 6170 bdb9 fa77 82bb

95 f4 [64]
0.69703436 -0.71578944 3.0583863 -0.040324837 1.6132418 0.39275604 1.2937956 1.2247999
0.7780222 -0.88361704 1.3313109 -0.011104763 0.18092126 2.010452 0.27704704 1.3869097
-0.0633553 1.7936487 2.2303 -0.36868745 0.25271115 0.7663775 0.38590768 0.50071603
0.07514995 -0.08345969 1.111717 0.09497991 0.042050272 -1.4557228 0.6979812 0.104653165
0.8229046 1.282623 -0.32798338 0.1828923 -0.31036407 0.7312802 0.83897614 0.5410234
0.965884 -0.300783 0.12547001 -0.014553428 1.3326632 -0.18603903 0.52437603 -0.13106126
-0.7872921 -0.7514988 0.060947537 -0.038699448 0.17564654 -0.44931942 0.048871398 1.9746304
0.044921786 0.29345667 -0.27856275 0.5162529 0.31290913 0.7148816 0.96230835 0.124540985
00000000: d870 323f fa3d 37bf 9abc 4340 a82b 25bd
00000010: b57e ce3f 5217 c93e 189b a53f 3ec6 9c3f
00000020: 772c 473f ba34 62bf 6568 aa3f c0f0 35bc
00000030: 6c43 393e 3fab 0040 1cd9 8d3e 4286 b13f
00000040: 6cc0 81bd 4896 e53f 3cbd 0e40 9ac4 bcbe
00000050: 5b63 813e 5131 443f b195 c53e ed2e 003f
00000060: 38e8 993d eaec aabd be4c 8e3f d484 c23d
00000070: e83c 2c3d 2055 babf e5ae 323f 6654 d63d
00000080: e0a9 523f fe2c a43f 70ed a7be 1e48 3b3e
00000090: 0ae8 9ebe 2e35 3b3f 24c7 563f 8280 0a3f
000000a0: 2c44 773f 3b00 9abe 367b 003e 8071 6ebc
000000b0: b594 aa3f 0481 3ebe 823d 063f ec34 06be
000000c0: fa8b 49bf 3a62 40bf 20a4 793d 5083 1ebd
000000d0: b0dc 333e 320d e6be 602d 483d b0c0 fc3f
000000e0: e8ff 373d f43f 963e c79f 8ebe 2629 043f
000000f0: a035 a03e 7b02 373f d759 763f 580f ff3d
