model/dog.onnx (onnx, 301496 bytes, 16 tensors)

fc.weight f4 [2, 256]
0.6555551 -0.14977658 1.115704 0.15517607 -0.65132743 0.15574083 -0.47583756 0.30840516
0.048280742 1.1988355 -0.034901325 1.0983428 0.14590211 0.33926097 -0.7793557 -0.583896
-0.0605312 -0.055454623 0.13081124 0.24293816 -0.42785996 -0.24813454 -0.7031436 -0.560449
-0.027714122 0.22265123 -0.15477929 0.15146084 0.23298748 0.19170007 -0.44801465 -0.7363486
0.4585314 0.9285642 0.16540004 0.57047635 0.4984076 1.0566119 0.3135781 1.02701
-0.22934335 0.58131015 -0.29193574 0.5214014 -0.26009518 -0.2942019 -0.09931112 -0.035521805
0.5988255 0.6003199 0.10771505 0.34553885 -1.0873604 0.0032560213 -0.32528675 0.9381487
0.8131968 1.038538 0.6224269 0.8635069 -0.48298153 -0.32555127 -0.54191035 -0.32146078
-0.4697448 0.43359366 -0.31871974 0.6471343 -0.2647281 0.8835028 -0.37551868 0.85070914
0.23786913 0.4012834 -0.86155254 -0.6806463 -0.24586053 -0.313651 -0.2535978 -0.26131266
-0.4305001 -0.3605318 -0.6912718 -0.62402076 -0.31758592 1.2067636 -0.5477073 0.60117966
-0.5797782 0.16326143 -0.26364097 0.4043388 -0.14792833 -0.08618475 -0.3069208 -0.29014143
-0.37882552 0.8362107 -0.25268456 0.8778005 -0.83808315 -0.45891446 -0.4316616 -0.23625746
1.268682 -0.36679718 1.2276607 -0.49917272 -0.6123374 -0.6132037 -0.77645063 -0.78833777
-0.40024525 -0.40032575 -0.73619545 -0.75147605 1.2616719 0.5792675 0.56517196 0.06541357
0.102816895 0.6489416 -0.2579737 0.22475609 -0.11239663 -0.11100034 -0.19423866 -0.21461546
-0.6396246 0.10328049 -0.66645956 -0.08733615 0.90360373 0.80433434 -0.7741233 -0.6275214
-0.56010187 -0.35452664 -0.33250713 -0.2940508 1.5410869 -0.448714 1.3135957 -0.67176276
0.3677443 0.34471384 -1.1122303 -0.9773046 -0.20480637 0.9550753 -0.3132079 0.78214407
-0.4523804 -0.13976832 -0.30089867 0.1132091 -0.21422292 -0.11513599 -0.25832677 -0.21743067
-0.33906624 -0.34130138 -0.38633665 -0.35774386 0.57240623 0.3628718 -0.9625646 -1.2013484
-0.07286193 1.1772743 -0.2521413 1.1902311 -0.5944525 -0.57542795 -0.6193527 -0.7052958
0.3383054 0.24598357 -0.44394237 -0.4466537 0.9397391 1.2991219 -0.5645954 -0.14893195
-0.46763417 0.041309863 -0.6699093 -0.08618815 -0.93634766 0.6721909 -0.6878801 1.0001134
-0.8765597 0.13504729 -0.4954653 0.41424108 -0.34813273 1.0172356 -0.9046242 0.3265952
-0.01681231 0.3032836 -0.50631773 -0.66183203 0.72162676 0.53433746 0.68009734 0.546481
0.94788253 -0.30142665 0.88166875 -0.4466333 -0.31640688 0.6990893 -0.29362074 0.6782639
-0.14428774 -0.20510736 -0.03597413 -0.100371085 0.7044665 0.6130101 0.6840716 0.60414773
0.3862506 0.1992755 0.7215246 0.57430744 -0.27949205 0.17442945 -0.25595134 0.26197278
-0.3254166 -0.4208463 -0.5360548 -0.5561032 0.3156685 0.20777006 -0.88486683 -0.87785923
0.18334793 0.32116342 0.25134063 0.13747513 -0.41944283 -0.110025786 -0.5499808 -0.20521079
0.24252026 -0.5130583 0.24670714 -0.34502202 0.007806579 0.0076865456 -0.8115914 -0.82322973
00000000: 76d2 273f 085f 19be 64cf 8e3f 7ae6 1e3e
00000010: 65bd 26bf 867a 1f3e fba0 f3be 48e7 9d3e
00000020: 07c2 453d 7173 993f b1f4 0ebd 7f96 8c3f
00000030: 5d67 153e 9db3 ad3e db83 47bf 357a 15bf
00000040: 90ef 77bd 6324 63bd 62f3 053e c8c4 783e
00000050: 7610 dbbe fb16 7ebe 3801 34bf 9679 0fbf
00000060: ba08 e3bc affe 633e 767e 1ebe 8d18 1b3e
00000070: 4594 6e3e 064d 443e 2d62 e5be 5881 3cbf
00000080: a1c4 ea3e 62b6 6d3f a15e 293e bd0a 123f
00000090: 482f ff3e 0f3f 873f 4f8d a03e 1075 833f
000000a0: fcd8 6abe bed0 143f 9a78 95be 907a 053f
000000b0: 322b 85be a2a1 96be a163 cbbd 507f 11bd
000000c0: a14c 193f 91ae 193f b599 dc3d 78ea b03e
000000d0: a02e 8bbf f962 553b fc8b a6be 832a 703f
000000e0: aa2d 503f d0ee 843f 5f57 1f3f ca0e 5d3f
000000f0: 5b49 f7be a8ae a6be a3ba 0abf 8296 a4be
00000100: 6482 f0be fdff dd3e 3c2f a3be 98aa 253f
00000110: 718a 87be 3d2d 623f fc43 c0be 13c8 593f
00000120: f793 733e 0575 cd3e b58e 5cbf d63e 2ebf
00000130: ddc2 7bbe dd96 a0be 92d7 81be c6ca 85be
00000140: 826a dcbe a097 b8be 30f7 30bf d3bf 1fbf
00000150: 9f9a a2be 3b77 9a3f 8c36 0cbf e9e6 193f
00000160: 586c 14bf 012e 273e f3fb 86be 7f05 cf3e
00000170: 867a 17be a181 b0bd b924 9dbe 6b8d 94be
00000180: 6bf5 c1be e811 563f df5f 81be 89b7 603f
00000190: 9e8c 56bf d6f6 eabe c002 ddbe 7aed 71be
000001a0: 2c64 a23f d7cc bbbe fc23 9d3f 9193 ffbe
000001b0: 25c2 1cbf ebfa 1cbf 78c5 46bf 81d0 49bf
000001c0: f2ec ccbe 7ff7 ccbe 4e77 3cbf bc60 40bf
000001d0: 777e a13f e04a 143f 1caf 103f 8df7 853d
000001e0: aa91 d23d 0921 263f 2115 84be 7626 663e
000001f0: 3430 e6bd 2554 e3bd 80e6 46be 28c4 5bbe
00000200: 70be 23bf b984 d33d 189d 2abf 4cdd b2bd
00000210: 9352 673f dbe8 4d3f f22c 46bf 3ea5 20bf
00000220: d662 0fbf 8484 b5be 603e aabe d48d 96be
00000230: 5642 c53f d7bd e5be e723 a83f a5f8 2bbf
00000240: fb48 bc3e 557e b03e 905d 8ebf a230 7abf
00000250: c3b8 51be d17f 743f c95c a0be 983a 483f
00000260: 679e e7be 6d1f 0fbe 640f 9abe 2cda e73d
00000270: 415d 5bbe 6bcc ebbd 6843 84be 25a6 5ebe
00000280: 179a adbe 0ebf aebe ebcd c5be 342a b7be
00000290: 3789 123f 55ca b93e a26a 76bf c9c5 99bf
000002a0: a338 95bd edb0 963f aa18 81be 7e59 983f
000002b0: 0a2e 18bf 3f4f 13bf e68d 1ebf 448e 34bf
000002c0: 5e36 ad3e 1ee3 7b3e 6a4c e3be cbaf e4be
000002d0: be92 703f a049 a63f 5389 10bf 9e81 18be
000002e0: bf6d efbe 8834 293d 2d7f 2bbf 6a83 b0bd
000002f0: 7bb4 6fbf b414 2c3f e918 30bf b703 803f
00000300: 3766 60bf d649 0a3e a1ad fdbe 6817 d43e
00000310: 743e b2be c734 823f 7495 67bf 7c37 a73e
00000320: f8b9 89bc fd47 9b3e 0a9e 01bf d36d 29bf
00000330: 88bc 383f 57ca 083f dc1a 2e3f 2ee6 0b3f
00000340: 6ea8 723f 9854 9abe 0bb5 613f 1fad e4be
00000350: 1500 a2be 84f7 323f 7555 96be b4a2 2d3f
00000360: 2ac0 13be aa07 52be 9c59 13bd 5b8f cdbd
00000370: eb57 343f 3bee 1c3f 511f 2f3f 6da9 1a3f
00000380: a3c2 c53e e00e 4c3e d6b5 383f d005 133f
00000390: 9519 8fbe a29d 323e 0e0c 83be 4c21 863e
000003a0: 019d a6be 2b79 d7be e33a 09bf c85c 0ebf
000003b0: 4d9f a13e adc1 543e a286 62bf 62bb 60bf
000003c0: 8fbf 3b3e 886f a43e b8af 803e 48c6 0c3e
000003d0: 36c1 d6be 3355 e1bd 8bcb 0cbf c722 52be
000003e0: 3b57 783e ca57 03bf cca0 7c3e baa6 b0be
000003f0: 55ce ff3b 6bdf fb3b 74c4 4fbf 2fbf 52bf

fc.bias f4 [2]
0.014945916 -0.0048664366
00000000: b7df 743c a176 9fbb

79 f4 [16, 3, 7, 7]
0.10590587 0.1625971 0.15430555 0.08247711 -0.028661057 -0.09165686 -0.1660365 0.0722792
0.16218446 0.18417588 0.121009685 0.063383594 -0.022790736 -0.1610812 0.062343065 0.13538235
0.19051093 0.20307669 0.2345075 0.12793908 -0.0679755 0.03765134 0.056685343 0.13046597
0.16546617 0.23082037 0.14984918 0.06660362 0.027870208 0.024684677 0.0483123 0.09685252
0.1702895 0.1832447 0.19125682 0.05364177 0.016813578 0.0068626837 0.043253303 0.09721704
0.17290597 0.22854564 0.07464963 0.023115145 -0.025671601 -0.0035483686 0.036661103 0.15199985
0.2081863 0.09470734 0.14455447 0.12041927 0.056364506 -0.013430368 -0.06065135 -0.11913392
0.039981954 0.09174074 0.07675077 0.042864967 0.011620412 -0.0202274 -0.13660818 0.028376382
0.067198806 0.0891067 0.085655 0.10601189 0.053164877 -0.07466333 -0.0014112481 0.019254636
0.068115324 0.06653177 0.108275294 0.06643107 0.0022259338 -0.012666257 -0.023516867 -0.0015985282
0.031284034 0.08853673 0.102622576 0.06773603 0.0077400627 -0.011656634 -0.00301718 0.010067793
0.038217656 0.10476788 0.134449 0.027260887 0.011572027 -0.036090083 -0.025352117 0.01759373
0.096586116 0.15826154 0.0047855102 0.047820646 0.014691734 -0.05031124 -0.10966656 -0.12756851
-0.15346129 -0.04566878 -0.014410545 -0.026059639 -0.07027696 -0.06704343 -0.1034234 -0.16321437
-0.062483273 -0.022426043 -0.02793375 -0.037190024 -0.015340897 -0.05085755 -0.13052149 -0.07051661
-0.024816677 -0.034753717 -0.0174262 0.007589687 -0.02502659 -0.068700194 -0.053723607 -0.053322803
-0.03871271 -0.027492028 -0.015772102 -0.0102576325 -0.025997076 -0.033793684 -0.042630024 -0.058669943
-0.04770983 -0.05024489 -0.004741064 0.023923373 -0.00715205 -0.01322922 -0.04147324 -0.0652261
-0.06201083 -0.003910963 0.031531464 -0.06529339 -0.15235284 -0.1952495 -0.19390601 -0.023280252
0.074089974 0.078063816 -0.023656242 -0.12489755 -0.18598925 -0.20861351 -0.06431007 0.09376398
0.15144217 -0.08646853 -0.15485597 -0.18969628 -0.1488869 -0.018388871 0.087417215 0.13968068
-0.028450834 -0.12999132 -0.13478364 -0.03146308 0.11795055 0.1360287 0.14473344 0.022405084
-0.035088357 0.003983978 0.07294361 0.15926898 0.15141518 0.086690396 0.040280506 0.039937753
0.06960059 0.10761372 0.13967907 0.12709449 0.047620986 0.06456598 0.0845643 0.10184535
0.12520784 0.13406634 0.07310513 -0.037445176 0.024631549 -0.086480446 -0.19178757 -0.26621234
-0.11654131 -0.012909835 0.013910964 0.082280315 -0.014581184 -0.18311842 -0.30176446 -0.19770162
-0.008103879 0.09425106 0.01829282 -0.123215005 -0.23583335 -0.24035007 -0.14296208 -0.010329595
0.093052156 -0.0268755 -0.15174249 -0.20993127 -0.13670976 0.0051031383 0.08126312 0.10354836
-0.030408217 -0.10636221 -0.10316293 -0.032407116 0.057650454 0.07571197 0.1012427 -0.006733266
-0.07171121 -0.0558746 -0.022807986 0.04325646 0.06718094 0.044561513 0.0008708294 0.010307297
0.029122777 0.037644617 0.075399175 0.054976862 -0.004363776 0.12718417 0.07783283 -0.034141134
-0.12857637 -0.0536423 -0.019602524 -0.021446865 0.17804384 0.11505884 -0.025200864 -0.15377706
00000000: 2de5 d83d db7f 263e 4602 1e3e c2e9 a83d
00000010: 98ca eabc 98b6 bbbd 7905 2abe 1e07 943d
00000020: af13 263e 9a98 3c3e edd3 f73d 42cf 813d
00000030: a3b3 babc 78f2 24be 715b 7f3d aca1 0a3e
00000040: 4c15 433e 56f3 4f3e bc22 703e 7602 033e
00000050: bd36 8bbd 4b38 1a3d e42e 683d df98 053e
00000060: f76f 293e 2d5c 6c3e 1072 193e 7b67 883d
00000070: 1050 e43c 8537 ca3c 1ee3 453d 9d5a c63d
00000080: 5f60 2e3e 80a4 3b3e d4d8 433e 79b7 5b3d
00000090: a1bc 893c 5de0 e03b 602a 313d ba19 c73d
000000a0: 430e 313e de07 6a3e e8e1 983d f95b bd3c
000000b0: 404d d2bc bf8b 68bb f429 163d d9a5 1b3e
000000c0: ca2e 553e ecf5 c13d 1606 143e 619e f63d
000000d0: 78de 663d 0c0b 5cbc 8d6d 78bd 7cfc f3bd
000000e0: 1ec4 233d 92e2 bb3d 822f 9d3d 2d93 2f3d
000000f0: 8a63 3e3c efb3 a5bc 04e3 0bbe 9675 e83c
00000100: 879f 893d 937d b63d e36b af3d c31c d93d
00000110: 6ac3 593d 17e9 98bd a1f9 b8ba e6bb 9d3c
00000120: 0c80 8b3d cf41 883d 70bf dd3d 030d 883d
00000130: f9e0 113b 2286 4fbc 72a6 c0bc b585 d1ba
00000140: b023 003d bf52 b53d c92b d23d 30b9 8a3d
00000150: 5aa0 fd3b 77fb 3ebc e1bb 45bb 62f3 243c
00000160: 1e8a 1c3d 8b90 d63d 00ad 093e 3952 df3c
00000170: 9998 3d3c 32d3 13bd 3eaf cfbc ba20 903c
00000180: f1ce c53d 500f 223e c5cf 9c3b 95df 433d
00000190: 99b5 703c 2913 4ebd dd98 e0bd 52a1 02be
000001a0: f524 1dbe 300f 3bbd 351a 6cbc 067b d5bc
000001b0: 5eed 8fbd 114e 89bd a6cf d3bd ab21 27be
000001c0: 76ee 7fbd d2b6 b7bc 52d5 e4bc 9154 18bd
000001d0: 6358 7bbc 0250 50bd 6da7 05be 036b 90bd
000001e0: 584c cbbc ea59 0ebd 64c1 8ebc e9b2 f83b
000001f0: 9004 cdbc b0b2 8cbd 490d 5cbd 0369 5abd
00000200: 3891 1ebd f636 e1bc 7f34 81bc a10f 28bc
00000210: d2f7 d4bc 3f6b 0abd d29c 2ebd e54f 70bd
00000220: 626b 43bd 96cd 4dbd ed5a 9bbb f3fa c33c
00000230: be5b eabb 5fbf 58bc d8df 29bd 4395 85bd
00000240: 11ff 7dbd 8927 80bb 2327 013d 8ab8 85bd
00000250: 6202 1cbe 7cef 47be 4c8f 46be 3ab6 bebc
00000260: 7cbc 973d ecdf 9f3d bcca c1bc 49ca ffbd
00000270: f773 3ebe c89e 55be ffb4 83bd 5407 c03d
00000280: a813 1b3e 6a16 b1bd 9092 1ebe be3f 42be
00000290: cf75 18be 42a4 96bc cc07 b33d 7408 0f3e
000002a0: b911 e9bc 721c 05be b904 0abe 6edf 00bd
000002b0: 0f90 f13d 1c4b 0b3e 0135 143e de8a b73c
000002c0: cfb8 0fbd 088c 823b 7663 953d 6817 233e
000002d0: 950c 1b3e bc8a b13d 2cfd 243d c595 233d
000002e0: c18a 8e3d 9564 dc3d 0808 0f3e 0f25 023e
000002f0: 390e 433d 2b3b 843d 0c30 ad3d 4b94 d03d
00000300: 7c36 003e b048 093e 24b8 953d 1d60 19bd
00000310: 1ac8 c93c a91c b1bd f663 44be fc4c 88be
00000320: 36ad eebd c683 53bc d0ea 633c 9582 a83d
00000330: ebe5 6ebc 6583 3bbe df80 9abe 4b72 4abe
00000340: 22c6 04bc b306 c13d d3da 953c 2658 fcbd
00000350: 4c7e 71be 541e 76be a764 12be 763d 29bc
00000360: 2192 be3d 022a dcbc 6262 1bbe 39f8 56be
00000370: a5fd 0bbe 3a38 a73b 476d a63d 2a11 d43d
00000380: a71a f9bc 6ed4 d9bd 1647 d3bd 53bd 04bd
00000390: e222 6c3d e10e 9b3d 5558 cf3d bba2 dcbb
000003a0: 54dd 92bd c4dc 64bd d0d7 babc b02d 313d
000003b0: 2996 893d 2286 363d 5f48 643a f0df 283c
000003c0: e492 ee3c 3e31 1a3d e26a 9a3d 6b2f 613d
000003d0: 02fe 8ebb 913c 023e d266 9f3d 93d7 0bbd
000003e0: 86a9 03be 07b8 5bbd 7995 a0bc 56b1 afbc
000003f0: 2051 363e f8a3 eb3d 0b72 cebc bc77 1dbe

80 f4 [16]
-2.2839317 0.5343629 -0.16924447 0.5854771 1.0927706 0.32016757 1.7868698 -2.2576785
0.08739704 -0.46829158 -0.38219523 -1.5828793 1.2955538 0.04834199 0.8132236 0.9277368
00000000: f02b 12c0 02cc 083f 6c4e 2dbe d4e1 153f
00000010: e8df 8b3f 01ed a33e 26b8 e43f ce7d 10c0
00000020: 38fd b23d eac3 efbe 18af c3be ca9b cabf
00000030: b5d4 a53f 4002 463d 6c2f 503f 2980 6d3f

82 f4 [32, 16, 3, 3]
0.09025705 0.07889311 -0.05409923 0.017193824 0.017245771 -0.15858124 0.08867455 -0.093866765
-0.21943145 0.058021374 -0.19551809 -0.20845467 -0.042615138 0.013056548 -0.09592757 0.17744507
0.24115197 0.01571441 0.010932638 -0.1556022 -0.13316865 -0.029845089 0.05206733 -0.06532434
0.10127991 0.18423687 0.04795766 -0.21128555 -0.18666045 -0.19081047 -0.046801638 0.11386806
-0.022343483 0.0038929584 0.20368148 0.07062128 -0.037462596 -0.07322718 -0.14968286 0.061972175
0.08282185 0.015056417 0.14353792 0.17649779 0.083378665 0.098377354 0.07888297 -0.052625775
0.17609593 0.05170386 -0.067204475 0.047230016 -0.053709902 -0.1004511 -0.043401133 -0.05836924
-0.09244979 0.060332496 0.034238126 -0.008212683 0.028249174 -0.0083537735 0.012279335 -0.018068263
0.016845819 -0.029723119 -0.0014981218 0.0040060906 -0.046362586 0.015969902 -0.0746476 -0.090371355
-0.13964999 0.047461163 0.0024272364 -0.12058572 0.11246101 0.0013895418 -0.093856804 0.08651254
-0.071583785 0.06981699 0.17760742 0.09354595 -0.1497473 0.043483213 0.017301174 0.00989717
-0.0812534 -0.082800046 0.109656036 0.094312355 -0.0078621 -0.009566613 0.00091003726 -0.06208838
0.079349436 0.076007426 -0.04564802 -0.008092145 -0.011813025 -0.043860022 -0.0036859624 -0.03433846
-0.13158104 0.007933059 -0.05287761 -0.1515456 -0.108379155 -0.09390404 0.008113655 0.07010408
0.031024626 0.043473713 0.05930502 0.069523335 0.1363205 0.086228915 -0.05910939 -0.13562095
0.26978013 -0.045413714 -0.16968909 -0.013906634 -0.049731202 0.043966133 -0.14297889 -0.09076989
0.07327686 0.033700675 -0.056155782 0.06191799 0.08538408 -0.0027152312 0.13074695 -0.027426777
-0.14752853 -0.15792626 0.02411508 0.17946672 0.034954015 0.05781947 0.1945749 0.015563172
-0.017756658 0.08887259 0.08495832 -0.038463358 0.04089551 0.044578116 -0.079194464 0.014865788
-0.046865776 0.08430036 0.12763768 0.10826818 -0.023210555 -0.016259756 -0.032236103 0.03839715
0.05384351 0.052011058 0.08612218 0.119827166 -0.0015522464 -0.008817812 -0.014653713 -0.086725965
0.1612525 0.08856156 0.0075723273 -0.104535446 -0.09990665 -0.00051437074 -0.03500784 -0.047325954
0.02662341 -0.031602953 0.002451423 0.020160466 -0.08104406 -0.094515756 -0.08231849 -0.056621842
-0.041260473 -0.07999754 -0.032161064 0.02558144 -0.07092929 -0.119993925 -0.18664184 -0.045999598
-0.1501421 -0.12860735 -0.13555291 -0.057053447 -0.05274792 -0.111985184 0.05892763 -0.021496987
-0.039874315 0.11310217 0.021060398 0.054466486 0.1038537 -0.025118494 -0.03303096 -0.09245654
-0.08118252 -0.05841655 -0.016045742 0.017981028 -0.0067145936 -0.045131408 0.01932859 0.009843087
-0.054147046 -0.0923076 0.104026966 0.14162609 -0.04433467 0.027033605 0.22439325 0.0844915
0.054427747 -0.06515491 0.045383867 0.09518967 -0.05473863 -0.12612666 -0.04731092 -0.05756485
-0.029486034 -0.07334532 -0.098977506 -0.030107569 0.0167576 -0.27433443 -0.2848153 -0.19612516
0.06959878 -0.035180565 -0.088496365 -0.09460878 0.05917012 0.030029247 -0.06613889 0.023351977
0.028038401 -0.09256314 0.026813155 -0.014589266 -0.12452977 0.011143551 0.04249481 -0.0684286
00000000: b0d8 b83d b692 a13d 2797 5dbd 10da 8c3c
00000010: 0147 8d3c 1f63 22be 019b b53d 383d c0bd
00000020: a3b2 60be d2a7 6d3d e535 48be 2475 55be
00000030: 368d 2ebd 22eb 553c ac75 c4bd 29b4 353e
00000040: 8bf0 763e 82bb 803c cf1e 333c 2f56 1fbe
00000050: 5d5d 08be b07d f4bc 8d44 553d c4c8 85bd
00000060: d76b cf3d 97a8 3c3e 406f 443d 3d5b 58be
00000070: eb23 3fbe d263 43be 13b3 3fbd a833 e93d
00000080: ae09 b7bc 0121 7f3b e191 503e e4a1 903d
00000090: 6172 19bd 22f8 95bd 7746 19be 89d6 7d3d
000000a0: 819e a93d 31af 763c 9bfb 123e d6bb 343e
000000b0: 6fc2 aa3d 117a c93d 658d a13d 208e 57bd
000000c0: 7e52 343e 6dc7 533d 80a2 89bd 4374 413d
000000d0: eafe 5bbd 4eb9 cdbd 63c5 31bd 9614 6fbd
000000e0: 5156 bdbd 351f 773d 473d 0c3d 7d8e 06bc
000000f0: d06a e73c 44de 08bc 442f 493c e503 94bc
00000100: 3e00 8a3c e67d f3bc a05c c4ba 8645 833b
00000110: b2e6 3dbd 50d3 823c d7e0 98bd 9e14 b9bd
00000120: 6800 0fbe a366 423d 4512 1f3b a5f5 f6bd
00000130: f551 e63d 4921 b63a ff37 c0bd 7d2d b13d
00000140: 859a 92bd 36fc 8e3d b8de 353e 0595 bf3d
00000150: 5b57 19be 741b 323d 31bb 8d3c bd27 223c
00000160: 2f68 a6bd 1293 a9bd 5893 e03d d626 c13d
00000170: 0ad0 00bc 48bd 1cbc 918f 6e3a 6350 7ebd
00000180: f581 a23d c8a9 9b3d 6bf9 3abd eb94 04bc
00000190: 6b8b 41bc 91a6 33bd 3090 71bb 7ca6 0cbd
000001a0: 2ebd 06be a9f9 013c 3196 58bd c52e 1bbe
000001b0: e4f5 ddbd c350 c0bd 23ef 043c ba92 8f3d
000001c0: 5b27 fe3c 7e11 323d d2e9 723d 4062 8e3d
000001d0: 9a97 0b3e c998 b03d b01c 72bd 38e0 0abe
000001e0: 9f20 8a3e bb03 3abd fac2 2dbe a7d8 63bc
000001f0: f2b2 4bbd d515 343d 0f69 12be 90e5 b9bd
00000200: 2e12 963d b809 0a3d 9b03 66bd b89d 7d3d
00000210: d9dd ae3d 05f2 31bb 87e2 053e 1fae e0bc
00000220: b811 17be 6cb7 21be fd8c c53c 20c6 373e
00000230: f12b 0f3d 1cd4 6c3d a53e 473e adfc 7e3c
00000240: 6976 91bc d502 b63d a1fe ad3d c18b 1dbd
00000250: 0d82 273d 8b97 363d b530 a2bd a28f 733c
00000260: 54f6 3fbd aba5 ac3d 74b3 023e b5bb dd3d
00000270: 1024 bebc 2e33 85bc 010a 04bd 5446 1d3d
00000280: 038b 5c3d 8c09 553d d360 b03d f267 f53d
00000290: bf74 cbba 9678 10bc 2116 70bc 629d b1bd
000002a0: 601f 253e c35f b53d 4921 f83b ae16 d6bd
000002b0: dc9b ccbd d6d6 06ba 6164 0fbd dcd8 41bd
000002c0: 5619 da3c 1972 01bd 0ea8 203b 9027 a53c
000002d0: 6efa a5bd 7a91 c1bd 9996 a8bd 4eec 67bd
000002e0: be00 29bd c0d5 a3bd 52bb 03bd 2b90 d13c
000002f0: 6043 91bd 60bf f5bd 0a1f 3fbe 136a 3cbd
00000300: dabe 19be a5b1 03be 62ce 0abe e0b0 69bd
00000310: 340e 58bd 7d58 e5bd 195e 713d 731a b0bc
00000320: 4053 23bd 1ca2 e73d db86 ac3c 4018 5f3d
00000330: 40b1 d43d 4dc5 cdbc 794b 07bd db59 bdbd
00000340: 0543 a6bd 3146 6fbd 5c72 83bc f34c 933c
00000350: 1806 dcbb b6db 38bd fe56 9e3c e644 213c
00000360: 4bc9 5dbd c40b bdbd 170c d53d 6e06 113e
00000370: 4598 35bd 9475 dd3c 58c7 653e e109 ad3d
00000380: a1ef 5e3d f06f 85bd 6fe4 393d cdf2 c23d
00000390: 9d35 60bd 5927 01be 18c9 41bd 1fc9 6bbd
000003a0: b28c f1bc 1236 96bd b8b4 cabd 26a4 f6bc
000003b0: 3c47 893c 9075 8cbe 50d3 91be 09d5 48be
000003c0: ce89 8e3d 7f19 10bd 953d b5bd 40c2 c1bd
000003d0: 5e5c 723d e5ff f53c d473 87bd a54c bf3c
000003e0: cab0 e53c be91 bdbd 43a7 db3c d107 6fbc
000003f0: 7709 ffbd 7193 363c 0a0f 2e3d 4b24 8cbd

83 f4 [32]
-0.7382196 -0.5280141 0.6518299 -1.2255929 1.3091258 -0.55825794 0.69092286 0.71875536
1.0926012 0.6348069 -0.6946131 -1.225951 -1.9528482 -1.8006499 -1.3834485 -0.15654162
-1.4360836 -0.25200337 -0.31276333 0.22510844 1.0402849 1.0965891 -1.851225 -0.081092596
0.9113991 -0.10571897 0.12642199 -0.36695743 -0.25307375 0.5743514 1.5333323 0.9367275
00000000: f6fb 3cbf ef2b 07bf 53de 263f 3ae0 9cbf
00000010: 6f91 a73f fee9 0ebf 52e0 303f 5a00 383f
00000020: 5bda 8b3f b482 223f 2ad2 31bf f6eb 9cbf
00000030: eef6 f9bf b27b e6bf d714 b1bf 724c 20be
00000040: 96d1 b7bf 9606 81be 8422 a0be d482 663e
00000050: 0e28 853f 085d 8c3f f1f4 ecbf e013 a6bd
00000060: 7451 693f 3083 d8bd c474 013e d8e1 bbbe
00000070: e292 81be b108 133f 3c44 c43f 60cd 6f3f

85 f4 [32, 32, 3, 3]
0.03338615 0.010869699 -0.023553677 0.042915314 0.05370757 0.013574927 -0.0108303 -0.014181738
-0.025787175 0.05264131 -0.09004783 -0.0641988 0.04640942 -0.07662886 -0.080506966 0.050682753
-0.019000893 -0.079524495 -0.006167304 -0.028668927 -0.036362942 0.026313582 0.035067994 0.01633064
-0.06919895 -0.024748303 -0.09125542 -0.023096625 -0.06406829 -0.010847369 0.047849096 -0.007347497
0.03499574 0.05691505 0.014358142 0.061290644 0.010415902 0.019188754 0.0134427585 -0.04032779
-0.010639602 -0.038857993 -0.081445664 0.0030438362 -0.059107903 0.013493571 0.007822879 -0.06679676
0.045215 0.040296953 -0.035878733 0.07329498 0.14726895 0.07059901 0.0018762712 0.038404338
0.034548923 0.016944299 0.04081689 0.020067753 0.009665225 0.056589525 0.011197777 0.03088561
0.014066853 0.06481751 0.06658535 0.039283108 0.0681643 0.01934395 0.0039000018 0.016651051
-0.015641961 0.035161316 -0.11023178 -0.012692506 0.05867707 -0.13502897 0.025934804 0.056317497
-0.13201538 -0.03853158 -0.03759395 -0.034030307 -0.001954804 -0.0025442345 0.0059770425 -0.01292745
0.0202126 0.02980578 -0.11860085 -0.10019322 -0.06306386 -0.05079876 -0.049948968 0.016469995
-0.060005512 -0.05872963 0.004546233 0.071428426 0.015069831 0.0015695174 0.06092175 0.014507194
0.020833004 0.061497353 0.024715783 0.017904704 0.09126799 0.043557838 -0.009771906 0.040771764
0.03345462 0.0067859776 -0.037578687 0.011446603 0.038107134 0.050188895 0.038660858 -0.035177667
0.036510784 0.030815355 -0.032683168 0.029290034 0.0497554 0.0026884517 -0.0008239431 0.01679353
-0.044393174 0.048054922 0.07038903 0.034531448 -0.016353454 0.028375696 0.00213422 -0.049542855
0.015811967 0.037843417 0.0027979505 0.027434643 0.038064454 -0.032720007 0.024300227 0.019880371
-0.012620154 -0.040484767 -0.04524579 -0.01024906 -0.018466508 -0.022583468 -0.0036451393 0.04509547
0.07218312 0.085946366 0.02564559 -0.11098878 0.06431807 0.0031491222 -0.088142395 -0.0026655416
-0.055756893 -0.07986583 -0.08837711 -0.100284964 -0.0055156145 -0.03670784 0.035039607 0.082668215
-0.01870956 0.03760347 0.09107038 -0.058835257 -0.06355744 -0.053166196 -0.030445807 -0.014879207
0.017858151 0.039590713 0.016025681 0.009197368 -0.034708336 0.008812458 0.032963116 0.007914874
0.01731033 0.045105886 -0.008817869 0.021481847 0.00062367925 -0.001416886 -0.013937667 -0.0385117
0.038791638 0.062440462 0.009462242 0.048841804 0.083249606 0.061874654 -0.09422173 -0.07858709
-0.039553583 -0.011993592 -0.023463741 0.048657436 0.0023943721 -0.0310422 0.004159966 -0.08761923
-0.07610199 -0.027321829 -0.028597726 -0.017070137 0.00022633349 -0.046883598 -0.021914365 -0.033094797
-0.102767624 -0.043715514 -0.0031394344 -0.027650507 0.009529189 0.045527536 -0.050602235 -0.018878508
0.00766748 -0.07256542 0.08624914 0.08052888 -0.04221522 0.12364381 0.08045712 -0.0408036
0.043202687 0.07909917 0.04773848 0.0340947 -0.0061346893 0.08245782 0.049966168 -0.019833935
0.00017578116 0.018832458 -0.0025461446 0.06726944 -0.016716922 0.046892304 0.08142171 -0.009422287
0.001580513 0.0027954152 -0.035956096 -0.039746825 0.0005691046 -0.04638496 -0.06350418 0.008736825
00000000: eabf 083d d216 323c a4f3 c0bc f8c7 2f3d
00000010: 78fc 5b3d 5f69 5e3c 9271 31bc 855a 68bc
00000020: a03f d3bc 6a9e 573d ff6a b8bd a97a 83bd
00000030: ce17 3e3d 97ef 9cbd d6e0 a4bd b898 4f3d
00000040: c3a7 9bbc bddd a2bd 1817 cabb 19db eabc
00000050: 4ff1 14bd 958f d73c 75a3 0f3d d6c7 853c
00000060: 2eb8 8dbd f4bc cabc 1fe4 babd 2235 bdbc
00000070: 3c36 83bd 2ab9 31bc 6afd 433d 46c3 f0bb
00000080: b157 0f3d c11f 693d 6a3e 6b3c e60b 7b3d
00000090: 76a7 2a3c bc31 9d3c 043f 5c3c c12e 25bd
000000a0: ba51 2ebc 8f29 1fbd fccc a6bd 197b 473b
000000b0: 211b 72bd 2414 5d3c 882b 003c bdcc 88bd
000000c0: 5d33 393d 6b0e 253d 94f5 12bd ae1b 963d
000000d0: accd 163e 3796 903d 37ed f53a de4d 1d3d
000000e0: 2c83 0d3d c5ce 8a3c 9c2f 273d 2165 a43c
000000f0: e45a 1e3c 6bca 673d e276 373c d203 fd3c
00000100: a878 663c 0bbf 843d e65d 883d 53e7 203d
00000110: b999 8b3d 3477 9e3c 2c97 7f3b c967 883c
00000120: 9223 80bc 5005 103d 33c1 e1bd 3bf4 4fbc
00000130: 5e57 703d 0945 0abe 3a75 d43c 2dad 663d
00000140: 0a2f 07be 4ad3 1dbd 1dfc 19bd 5d63 0bbd
00000150: 2b1c 00bb 2cbd 26bb 11db c33b a8cd 53bc
00000160: e594 a53c 402b f43c 01e5 f2bd 1a32 cdbd
00000170: a027 81bd 5c12 50bd 4a97 4cbd 15ec 863c
00000180: 57c8 75bd 7b8e 70bd 91f8 943b 1149 923d
00000190: 74e7 763c 44b8 cd3a 1689 793d 95af 6d3c
000001a0: faa9 aa3c a6e4 7b3d c178 ca3c e3ac 923c
000001b0: b6ea ba3d b469 323d 581a 20bc 4b00 273d
000001c0: b607 093d e85c de3b 1cec 19bd 888a 3b3c
000001d0: 3a16 1c3d df92 4d3d d95a 1e3d 7516 10bd
000001e0: 558c 153d 7c70 fc3c c9de 05bd a7f1 ef3c
000001f0: 51cc 4b3d bc30 303b e3fd 57ba 9692 893c
00000200: 9ed5 35bd 3dd5 443d 2028 903d d970 0d3d
00000210: aef7 85bc 2674 e83c 45de 0b3b 73ed 4abd
00000220: 1988 813c b301 1b3d d25d 373b 9ebe e03c
00000230: 79e9 1b3d 6a05 06bd 4511 c73c 29dc a23c
00000240: c3c4 4ebc 5bd3 25bd a653 39bd aceb 27bc
00000250: 1347 97bc f700 b9bc 4ae3 6ebb 07b6 383d
00000260: bed4 933d a604 b03d b316 d23c 164e e3bd
00000270: 31b9 833d 8161 4e3b 0084 b4bd 5eb0 2ebb
00000280: 5761 64bd b290 a3bd 0fff b4bd 3462 cdbd
00000290: 54bc b4bb f65a 16bd b185 0f3d f44d a93d
000002a0: cb44 99bc 1906 1a3d 1b83 ba3d 3dfd 70bd
000002b0: 672a 82bd ccc4 59bd 7c69 f9bc ebc7 73bc
000002c0: 424b 923c df29 223d 4a48 833c 8fb0 163c
000002d0: 542a 0ebd 2162 103c 5504 073d 63ad 013c
000002e0: 65ce 8d3c f3c0 383d d378 10bc b3fa af3c
000002f0: 687e 233a ceb6 b9ba d05a 64bc 72be 1dbd
00000300: fbe3 1e3d 92c1 7f3d 8507 1b3c 580e 483d
00000310: c57e aa3d 4770 7d3d 53f7 c0bd 45f2 a0bd
00000320: f002 22bd c580 44bc 0837 c0bc 054d 473d
00000330: e6ea 1c3b 364c febc 5350 883b b671 b3bd
00000340: 5cdb 9bbd 07d2 dfbc c745 eabc acd6 8bbc
00000350: ef53 6d39 0409 40bd c185 b3bc 698e 07bd
00000360: d577 d2bd 0a0f 33bd f8be 4dbb 5183 e2bc
00000370: 5120 1c3c 157b 3a3d 4a44 4fbd 1aa7 9abc
00000380: 7c3f fb3b 2e9d 94bd 64a3 b03d 53ec a43d
00000390: dee9 2cbd f738 fd3d b4c6 a43d ad21 27bd
000003a0: 4df5 303d bffe a13d 6d89 433d e2a6 0b3d
000003b0: 8105 c9bb a5df a83d 53a9 4c3d c77a a2bc
000003c0: e551 3839 8746 9a3c 38dd 26bb 8fc4 893d
000003d0: edf1 88bc 2512 403d 6dc0 a63d f05f 1abc
000003e0: 3729 cf3a 4933 373b b346 13bd 91cd 22bd
000003f0: f72f 153a 28fe 3dbd 7b0e 82bd e624 0f3c

86 f4 [32]
-0.29254746 0.79777515 1.3352871 0.07843852 0.30656457 1.0957785 -0.33327898 1.2951078
-1.5152888 -0.13146234 0.8176608 1.1976695 0.16959083 -0.10690494 2.0437672 0.034345508
-0.3035237 -0.676944 0.4301558 -0.12820365 -3.2958066 0.25778717 -0.7360982 0.62003845
-1.0488336 0.45988846 -0.19591294 1.2210147 1.1234528 0.32476115 1.7843422 -0.32974488
00000000: c8c8 95be fe3a 4c3f b0ea aa3f 60a4 a03d
00000010: 08f6 9c3e 7842 8c3f 8ba3 aabe 18c6 a53f
00000020: fcf4 c1bf 109e 06be 3852 513f 3c4d 993f
00000030: 38a9 2d3e faf0 dabd 15cd 0240 e0ad 0c3d
00000040: 7567 9bbe 344c 2dbf 623d dc3e d147 03be
00000050: 7fee 52c0 aefc 833e ee70 3cbf d7ba 1e3f
00000060: 2e40 86bf 8076 eb3e 679d 48be 364a 9c3f
00000070: 4dcd 8f3f 1847 a63e 5365 e43f 52d4 a8be

88 f4 [32, 16, 1, 1]
0.04606228 -0.46743515 -0.48987827 0.087597094 0.080867924 -0.34597495 0.29914063 -0.30733505
-0.8895614 0.49338433 -0.28532416 -0.16069973 0.015791344 -0.19901414 0.09748439 -0.43721515
0.1534981 0.043358 -0.07170954 0.11071456 -0.12429952 -0.015441778 -0.11933586 -0.07399996
-0.14077385 -0.107881114 -0.21053886 -0.19816245 0.33192834 0.2772368 0.36227483 -0.18280025
-0.5438701 -0.079512976 -0.25052288 0.22291759 0.058919314 -0.7385141 -0.07769691 -0.29413098
-0.010547169 -0.0006458245 -0.113588184 -0.24413157 -0.29166475 -0.069880694 -0.14091143 -0.017830925
-0.07091045 0.3279384 0.1453413 -0.14200494 0.6114077 -0.308688 1.4030894 -0.11903329
0.058884844 -0.38718745 -0.10032449 -0.17253408 -0.04473124 0.0092057455 0.33310843 0.046016686
0.035561737 0.06408445 0.03771987 -0.064442545 0.001540792 -0.015391752 -0.21331804 -0.28568596
-0.16706404 -0.057454735 -0.00018673927 -0.19749387 0.13099462 -0.048942856 0.728601 -0.100191385
-0.09233967 0.23529279 -0.031283163 0.41348153 0.44559315 0.1528101 0.49675527 0.1214567
0.06614048 -0.3052485 -0.21274617 -0.05195629 -0.10676821 0.3366882 0.2007075 0.23625936
-0.06857329 0.12046871 0.14679502 0.13683845 -0.061985444 -0.20867929 -0.11881788 0.22874214
0.009273124 -0.26551163 -0.07826068 0.028641114 -0.22847937 -0.22280037 -0.67273027 -0.04450931
-0.16084199 0.051254723 -0.022486186 0.15129817 -0.036550198 0.36524 -0.16987792 -0.06443376
0.10309488 -0.022404093 -0.03800474 -0.171264 0.1532972 0.20340638 0.12604643 0.0755659
0.13813017 -0.2657354 -0.38740003 -0.090397835 0.16710454 0.08382154 0.24270445 0.04449684
-0.5622898 0.2469482 0.14698975 0.08510748 0.03101816 -0.12478633 -0.29921076 -0.42597017
0.059992086 -0.06809108 -0.15998253 0.15424092 -0.09625866 0.10003413 -0.029029662 0.15679069
-0.01688415 -0.041784965 -0.12176208 -0.25053006 0.19976136 0.6934929 0.14068657 -0.004917401
-0.029559614 0.20176524 0.17309543 0.17614417 -0.0928959 -0.028794829 -0.3468001 0.062155765
0.40043333 -0.17431758 -0.0702695 0.0701099 -0.10776153 -0.21401274 -0.15274788 0.54932964
-0.12283858 0.102059506 0.06199814 0.03183203 -0.0013198503 0.025362857 -0.0476756 -0.11919844
0.087759525 -0.039382607 -0.04398269 -0.14093436 -0.022017037 -0.09566675 -0.07086388 0.10180119
0.092932574 0.040108543 -0.2496061 0.008193649 -0.31150645 0.23009081 -0.16221157 -0.11607015
-0.14520499 -0.19002521 0.3296324 -0.30060518 0.031003166 1.0746188 -0.012630977 -0.2051036
0.31073833 0.1269876 -0.003255445 0.32203782 0.13512518 -1.1465528 0.2913719 0.024359362
-0.21647929 0.37230912 -0.85370636 0.2033218 0.19868015 0.036544155 0.17411244 -0.19447187
0.18771724 -0.08484811 -0.012602965 0.044174455 -0.13815695 0.5022598 0.09822145 0.080881506
0.46560806 0.33525807 0.29868788 0.1605154 -0.55548567 0.09301612 0.32397893 0.30788162
0.1453426 0.09627111 0.32480946 -0.5665208 -0.56557894 -0.15496437 -0.85075843 -0.4935566
0.12636806 -0.43427143 -0.34907 -0.18280801 -0.52428967 -0.7324642 0.8204408 0.09357246
00000000: cdab 3c3d a953 efbe 53d1 fabe 1b66 b33d
00000010: 159e a53d a123 b1be f628 993e 055b 9dbe
00000020: 4cba 63bf df9c fc3e 0216 92be 788e 24be
00000030: d95c 813c 5dca 4bbe e5a5 c73d aada dfbe
00000040: 9b2e 1d3e 2998 313d 74dc 92bd 51be e23d
00000050: bf90 febd 83ff 7cbc 5c66 f4bd 4b8d 97bd
00000060: 0527 10be c6f0 dcbd 8097 57be 19eb 4abe
00000070: 83f2 a93e fbf1 8d3e 167c b93e fd2f 3bbe
00000080: 123b 0bbf b3d7 a2bd 8944 80be 8244 643e
00000090: 6155 713d 430f 3dbf 8f1f 9fbd 5698 96be
000000a0: 08ce 2cbc 8c4c 29ba eca0 e8bd a0fd 79be
000000b0: 1555 95be 9c1d 8fbd 164b 10be 2912 92bc
000000c0: 7f39 91bd 8be7 a73e 5ad4 143e be69 11be
000000d0: 3785 1c3f 5b0c 9ebe 6f98 b33f bac7 f3bd
000000e0: 3c31 713d 6f3d c6be ed76 cdbd c6ac 30be
000000f0: 1b38 37bd b2d3 163c 308d aa3e fe7b 3c3d
00000100: 2fa9 113d b53e 833d 2780 1a3d 74fa 83bd
00000110: 66f4 c93a b02d 7cbc 0b70 5abe 6e45 92be
00000120: d612 2bbe a855 6bbd 71cf 43b9 d53b 4abe
00000130: 7423 063e 4e78 48bd 9885 3a3f 2431 cdbd
00000140: 951c bdbd 98f0 703e c622 00bd dab3 d33e
00000150: c924 e43e 407a 1c3e b556 fe3e 4abe f83d
00000160: a974 873d 8849 9cbe 22da 59be 1ed0 54bd
00000170: 4ba9 dabd 6562 ac3e 4486 4d3e f9ed 713e
00000180: 2770 8cbd 4db8 f63d 6f51 163e 611f 0c3e
00000190: 73e4 7dbd 06b0 55be ca56 f3bd 613b 6a3e
000001a0: 4dee 173c 24f1 87be 2347 a0bd c5a0 ea3c
000001b0: 7ff6 69be c825 64be 0d38 2cbf 654f 36bd
000001c0: c3b3 24be 79f0 513d f334 b8bc e8ed 1a3e
000001d0: a9b5 15bd bd00 bb3e 7af4 2dbe d9f5 83bd
000001e0: 6923 d33d ca88 b7bc dcaa 1bbd d45f 2fbe
000001f0: f1f9 1c3e c349 503e 5112 013e 4bc2 9a3d
00000200: ff71 0d3e 780e 88be 4c59 c6be 8022 b9bd
00000210: 741d 2b3e a1aa ab3d 8487 783e 5242 363d
00000220: 39f2 0fbf fddf 7c3e 7b84 163e d54c ae3d
00000230: cc19 fe3c fa8f ffbd 2732 99be c318 dabe
00000240: 43ba 753d 5673 8bbd 76d2 23be 55f1 1d3e
00000250: 4323 c5bd b2de cc3d 9dcf edbc bd8d 203e
00000260: a150 8abc b626 2bbd 665e f9bd 7a45 80be
00000270: 3e8e 4c3e c088 313f 2410 103e 2622 a1bb
00000280: 0127 f2bc 8c9b 4e3e ee3f 313e 235f 343e
00000290: 3540 bebd 22e3 ebbc c88f b1be 0b97 7e3d
000002a0: 9905 cd3e 4f80 32be 75e9 8fbd c795 8f3d
000002b0: 14b2 dcbd 2826 5bbe f169 1cbe dea0 0c3f
000002c0: cb92 fbbd 9304 d13d c3f1 7d3d 4d62 023d
000002d0: d4fe acba c4c5 cf3c 7d47 43bd 501e f4bd
000002e0: 44bb b33d a84f 21bd 3127 34bd 1951 10be
000002f0: 135d b4bc eeec c3bd 1521 91bd 247d d03d
00000300: 6f53 be3d db48 243d be98 7fbe a83e 063c
00000310: c67d 9fbe ed9c 6b3e ca1a 26be 30b6 edbd
00000320: 9eb0 14be f895 42be 94c5 a83e ece8 99be
00000330: 5afa fd3c 1c8d 893f 28f2 4ebc ae06 52be
00000340: 1819 9f3e 0a09 023e 4e59 55bb 24e2 a43e
00000350: 415e 0a3e 3ec2 92bf b32e 953e 498d c73c
00000360: bfac 5dbe 4d9f be3e 808c 5abf 9733 503e
00000370: cf72 4b3e 53af 153d 884a 323e a223 47be
00000380: f338 403e d9c4 adbd ab7c 4ebc 46f0 343d
00000390: 0479 0dbe 1994 003f 5428 c93d 34a5 a53d
000003a0: 2e64 ee3e f2a6 ab3e 9eed 983e 265e 243e
000003b0: 4f34 0ebf 3c7f be3d 91e0 a53e a9a2 9d3e
000003c0: b1d4 143e ca29 c53d 6d4d a63e 8207 11bf
000003d0: c8c9 10bf fbae 1ebe 4ecb 59bf 73b3 fcbe
000003e0: a166 013e d358 debe 4eb9 b2be 0632 3bbe
000003f0: d937 06bf c682 3bbf 6908 523f eba2 bf3d

89 f4 [32]
1.9798737 -1.4225886 1.367203 -1.3307214 -1.4037781 -1.4216611 1.3921233 -1.6944075
0.9885367 -2.0345206 -1.2287186 -0.6900127 -1.8890424 1.508024 -2.2875044 0.3392282
-1.0793397 -2.0387053 -0.7716454 1.0585003 -0.8899517 -0.9892181 0.15725595 0.013287902
1.6727406 -1.034642 0.23229128 -1.7634287 0.085054725 -0.94565177 0.48817256 1.5066464
00000000: 806c fd3f 6217 b6bf 8200 af3f 1455 aabf
00000010: 00af b3bf fef8 b5bf 1931 b23f 58e2 d8bf
00000020: be10 7d3f 9635 02c0 a746 9dbf aca4 30bf
00000030: 24cc f1bf ee06 c13f 7966 12c0 52af ad3e
00000040: ce27 8abf 267a 02c0 8e8a 45bf f07c 873f
00000050: e0d3 63bf 663d 7dbf b407 213e 80b5 593c
00000060: 5d1c d63f 266f 84bf c4dd 6d3e 08b8 e1bf
00000070: 2c31 ae3d 3c16 72bf c1f1 f93e cad9 c03f

91 f4 [64, 32, 3, 3]
0.024062335 0.08291491 0.05049895 0.028006744 -0.029303871 -0.06148475 -0.03894614 -0.0133927595
0.019151695 0.022275137 0.010574169 -0.15795662 -0.072049774 0.012108597 -0.031784866 -0.018396534
-0.078987926 -0.029347777 -0.033155292 -0.04531942 0.02839369 -0.040017724 0.008830995 0.03521787
-0.05225295 0.020879027 0.04940821 -0.012155938 0.0044455766 -0.08480687 -0.034424435 -0.04764653
-0.06405631 -0.007992632 -0.02196252 -0.03197136 -0.052930657 -0.03460883 -0.16681412 -0.04980053
0.037372027 0.028820759 0.00237625 -0.01375655 0.012823266 -0.070631005 0.015980043 -0.0480835
-0.044931225 0.026483832 0.09426855 0.011800252 -0.0066216798 0.030796386 -0.105772465 -0.03235834
-0.047379024 -0.06925517 -0.024765002 0.02693612 0.015228278 0.02748928 0.066725366 0.088314116
0.09366002 0.01617637 -0.0069211335 0.04917525 0.087176174 0.09734867 -0.048773546 0.06635763
0.017633274 0.07038128 0.017489731 -0.050414585 -0.07910527 -0.019023838 0.05870114 0.10016961
0.09661031 0.14210439 0.21784316 0.06945568 0.082917355 0.121230714 0.103477746 0.082114935
-0.066809125 -0.009837511 0.0036756292 -0.027545175 0.003765264 -0.02597974 -0.0049000597 0.111453936
-0.06908733 0.010455386 0.084053166 -0.029447714 0.0029041942 -0.06800201 0.004853017 0.037514184
0.12949213 0.04753046 0.027499843 0.19254076 0.020170795 0.09271555 -0.10527138 -0.06989499
0.056793716 0.060477186 0.053372744 -0.051411223 -0.03275802 -0.0037055714 0.008950884 -0.045175266
0.036126617 -0.088602096 -0.04566929 -0.01910494 -0.06256686 0.008393727 -0.032811575 -0.01639705
0.00057982455 0.037779383 0.028788812 0.12619963 0.025335737 -0.021319583 -0.037349105 -0.092399836
-0.15517259 -0.13776153 -0.033929333 0.019394428 -0.02898998 0.039811946 0.022041105 0.07716338
-0.09607731 -0.06664919 -0.13562796 -0.021683082 0.00040781824 0.00911918 0.008939865 0.059219435
-0.022968678 0.022842169 -0.035827916 0.020372177 -0.01855564 -0.09506888 -0.07265325 -0.12446015
-0.14287741 -0.11290511 -0.1167648 -0.07092446 -0.11810431 -0.052790962 0.0059127654 -0.028684579
-0.018381262 -0.044903502 0.007955129 -0.06336226 -0.119738065 -0.06554576 -0.06402065 -0.053148292
-0.051216777 0.04752011 0.056310117 0.04689328 -0.20579582 -0.093951926 -0.11990292 -0.11035501
-0.0409102 -0.11713438 -0.0009255525 -0.011717503 -0.08373523 0.029065566 0.05583796 -0.12814288
-0.09501276 -0.011964777 0.03320238 0.0014779912 0.008704076 0.0064627915 -0.01322941 0.0058986284
-0.018633375 -0.08488135 -0.057869233 -0.016935747 0.06958105 0.0868898 0.108337626 -0.09109187
-0.20081119 -0.120141335 0.044743814 -0.025694508 0.03021028 0.056464158 -0.00781298 0.101759374
-0.034719218 0.046614353 0.06770101 -0.014058394 -0.06262505 0.040405855 0.08280052 0.07016111
0.084839605 -0.08763481 -0.01695983 -0.07674949 0.046730116 0.10277974 0.0756526 0.05679784
0.023571344 -0.05335259 -0.008609196 -0.091683894 -0.13835391 0.028707296 -0.055006683 -0.12377288
0.07588003 0.028836405 0.071282014 -0.02366086 -0.020300629 -0.09471802 0.09450329 0.05821559
0.14251044 0.022738457 0.02092133 0.18749428 -0.03475775 0.09383559 0.058172207 -0.106076345
00000000: 601e c53c 4bcf a93d fdd7 4e3d 666e e53c
00000010: ac0e f0bc 6fd7 7bbd fd85 1fbd 4e6d 5bbc
00000020: 04e4 9c3c 597a b63c 483f 2d3c 61bf 21be
00000030: d58e 93bd 2363 463c d930 02bd 54b4 96bc
00000040: 6cc4 a1bd c06a f0bc d8cd 07bd dba0 39bd
00000050: e299 e83c a0e9 23bd e1af 103c 9d40 103d
00000060: 3007 56bd 7e0a ab3c 4360 4a3d b329 47bc
00000070: 33ac 913b 39af adbd a300 0dbd 0229 43bd
00000080: f42f 83bd 87f3 02bc beea b3bc 67f4 02bd
00000090: d1cd 58bd fdc1 0dbd 52d1 2abe a4fb 4bbd
000000a0: 6913 193d 8319 ec3c dcba 1b3b 2763 61bc
000000b0: ad18 523c fda6 90bd 94e8 823c 34f3 44bd
000000c0: ce09 38bd 9ff4 d83c df0f c13d d855 413c
000000d0: adfa d8bb b448 fc3c 3c9f d8bd 2e8a 04bd
000000e0: 8210 42bd a8d5 8dbd f9df cabc 23a9 dc3c
000000f0: 0780 793c 3331 e13c 4fa7 883d 08de b43d
00000100: d3d0 bf3d 4f84 843c adca e2bb fd6b 493d
00000110: 6c89 b23d bd5e c73d c5c6 47bd 82e6 873d
00000120: a873 903c 0f24 903d a046 8f3c 867f 4ebd
00000130: f201 a2bd e1d7 9bbc 9b70 703d b925 cd3d
00000140: a0db c53d d083 113e 4712 5f3e c83e 8e3d
00000150: 93d0 a93d cf47 f83d 24ec d33d e02b a83d
00000160: 39d3 88bd 832d 21bc d3e2 703b 6ba6 e1bc
00000170: a6c2 763b 77d3 d4bc ae90 a0bb f641 e43d
00000180: a87d 8dbd 114d 2b3c 1124 ac3d 553c f1bc
00000190: 4b54 3e3b a344 8bbd 0f06 9f3b 79a8 193d
000001a0: 9699 043e 4daf 423d 5a47 e13c 6829 453e
000001b0: 393d a53c a6e1 bd3d 8598 d7bd 1b25 8fbd
000001c0: 87a0 683d edb6 773d 619d 5a3d 9394 52bd
000001d0: 462d 06bd 2cd9 72bb bba6 123c b309 39bd
000001e0: 81f9 133d 0475 b5bd b90f 3bbd f781 9cbc
000001f0: 0e23 80bd d885 093c 6e65 06bd 1b53 86bc
00000200: 5eff 173a 8ebe 1a3d 84d6 eb3c 7a3a 013e
00000210: e48c cf3c 68a6 aebc 60fb 18bd 203c bdbd
00000220: 90e5 1ebe 5c11 0dbe 7cf9 0abd 10e1 9e3c
00000230: 657c edbc da11 233d 8c8f b43c d607 9e3d
00000240: 2ec4 c4bd 5f7f 88bd 0ee2 0abe b8a0 b1bc
00000250: 70d0 d539 9d68 153c 8378 123c 1490 723d
00000260: cf28 bcbc 801f bb3c 4bc0 12bd 8de3 a63c
00000270: ff01 98bc 79b3 c2bd 3acb 94bd f7e4 febd
00000280: 754e 12be cb3a e7bd 6222 efbd d840 91bd
00000290: ace0 f1bd 563b 58bd dfbf c13b ecfb eabc
000002a0: 4d94 96bc bcec 37bd 3b56 023c 13c4 81bd
000002b0: 3b39 f5bd db3c 86bd 421d 83bd 06b2 59bd
000002c0: afc8 51bd 72a4 423d 70a5 663d 2b13 403d
000002d0: 24bc 52be de69 c0bd aa8f f5bd cf01 e2bd
000002e0: 7491 27bd 26e4 efbd c7a0 72ba c5fa 3fbc
000002f0: 607d abbd e91a ee3c 58b6 643d e337 03be
00000300: 0d96 c2bd e907 44bc 38ff 073d 28b9 c13a
00000310: 8a9b 0e3c d3c5 d33b 2bc0 58bc 4849 c13b
00000320: 05a5 98bc 46d6 adbd 4a08 6dbd d6bc 8abc
00000330: 8280 8e3d 48f3 b13d 1ee0 dd3d 608e babd
00000340: 73a1 4dbe a90c f6bd 4a45 373d 4a7d d2bc
00000350: 8d7b f73c f646 673d 0302 00bc 3867 d03d
00000360: bd35 0ebd b1ee 3e3d d4a6 8a3d 2e55 66bc
00000370: 9041 80bd 9c80 253d 5293 a93d a1b0 8f3d
00000380: 63c0 ad3d e179 b3bd 57ef 8abc d62e 9dbd
00000390: 1468 3f3d 2f7e d23d c0ef 9a3d daa4 683d
000003a0: b118 c13c 3f88 5abd 960d 0dbc c4c4 bbbd
000003b0: a6ac 0dbe 902b eb3c b04e 61bd a37c fdbd
000003c0: fd66 9b3d 533a ec3c 4efc 913d 6bd4 c1bc
000003d0: 814d a6bc 85fb c1bd f18a c13d 7873 6e3d
000003e0: 42ee 113e 0046 ba3c 3663 ab3c 80fe 3f3e
000003f0: 245e 0ebd e02c c03d fb45 6e3d 8e3e d9bd

92 f4 [64]
-0.06955981 1.1699151 -1.2936666 1.9880481 0.23875195 -0.5422952 -0.77115786 0.7544356
-1.9911151 -0.04851541 1.8488014 0.91771287 1.9937782 -1.0640299 0.8181182 -0.7695856
0.14758408 -0.49369782 0.2645691 0.3611371 0.00073325634 0.27231228 1.1654532 0.63231957
0.42628503 1.4458637 1.7351221 1.2382082 1.5662432 -0.29557586 0.019589156 0.17295378
0.19438791 0.2418447 1.0736873 -0.436348 1.0456591 0.5791355 1.4760923 0.68140304
1.6994579 0.53917754 0.84910136 0.8149988 -1.5361731 1.027605 0.72235453 1.0043485
-2.0753727 -0.9324097 1.7804798 0.25408828 1.4382064 1.2249328 -3.040773 -0.67033446
-0.2132735 1.6675684 0.8396038 1.1584077 0.061762214 0.029770553 0.13375759 0.32892978
00000000: 6075 8ebd c7bf 953f de96 a5bf 5c78 fe3f
00000010: 647b 743e dcd3 0abf 9a6a 45bf b122 413f
00000020: dcdc febf 18b8 46bd 86a5 ec3f 3bef 6a3f
00000030: 2034 ff3f 2232 88bf 3270 513f 9003 45bf
00000040: 4820 173e f6c5 fcbe 9a75 873e f6e6 b83e
00000050: 0038 403a 846c 8b3e 922d 953f b2df 213f
00000060: 0842 da3e 1012 b93f 7b18 de3f 9b7d 9e3f
00000070: a87a c83f b855 97be 7079 a03c cc1a 313e
00000080: a00d 473e 23a6 773e 966e 893f 0169 dfbe
00000090: 28d8 853f 3942 143f 98f0 bc3f 6e70 2e3f
000000a0: d687 d93f 8a07 0a3f b55e 593f c3a3 503f
000000b0: 52a1 c4bf 9088 833f 3aec 383f 7e8e 803f
000000c0: e8d2 04c0 67b2 6ebf c3e6 e33f dc17 823e
000000d0: 2617 b83f 99ca 9c3f 069c 42c0 0a9b 2bbf
000000e0: 5e64 5abe e272 d53f 46f0 563f b446 943f
000000f0: 60fa 7c3d 60e1 f33c c0f7 083e 7c69 a83e

94 f4 [64, 64, 3, 3]
-0.0014618889 0.025161872 -0.0644209 -0.0664227 -0.007113493 -0.030621368 0.01080728 0.015134381
0.027937904 -0.023161408 -0.03680182 0.12512296 -0.06775486 -0.049698707 0.01899158 -0.07091339
-0.09551528 -0.094426386 0.094995946 0.056280494 -0.108764105 -0.026183074 -0.07295336 -0.07384739
0.062385168 6.132413e-05 -0.0074453326 -0.10225316 -0.06343511 0.14337687 -0.14504579 -0.06733465
0.07582566 -0.08084782 0.008043418 0.090493046 -0.0009052674 0.018565932 -0.047322303 -0.0006583685
0.009710716 -0.023860876 -0.00010558854 0.07376525 0.02348048 0.14144541 -0.01932021 -0.017212301
0.01930152 -0.024832718 -0.0023994984 0.008160902 -0.092974946 0.054828722 0.11118273 0.032244
-0.087990716 -0.055570778 -0.05567754 -0.08009074 0.026296146 0.03158414 0.05208289 -0.008202933
-0.059365556 0.03619327 -0.06352356 -0.035962254 -0.020295361 -0.020637054 -0.10645483 -0.03814673
0.095805325 0.080921814 -0.0672159 0.03191319 0.0004615402 -0.036162056 -0.08365627 -0.068146266
-0.06843377 0.017374352 -0.015522219 0.051005427 -0.054502934 -0.0636494 -0.008723116 -0.016555479
-0.012680594 -0.09337006 -0.09816756 -0.04485376 -0.055464894 0.04219949 0.017004404 -0.02031853
0.05450435 0.006273632 -0.046419214 -0.0057057077 -0.035403218 0.0407668 -0.08434004 -0.05780464
-0.024779681 -0.046781953 -0.06828636 -0.044311896 -0.07211714 -0.008246197 0.08975321 0.04872901
0.038719367 0.021719478 0.06821709 -0.030949458 -0.020356547 -0.16182363 -0.048174527 -0.07817364
-0.021308694 0.031556193 -0.058722734 0.040362924 0.014416383 0.009879633 -0.10465933 -0.028951341
-0.10116334 -0.019319898 0.015185439 -0.06198807 0.09721728 0.028754635 -0.0211971 0.066462874
-0.010402321 -0.09690215 -0.014022909 0.031835835 -0.045807872 -0.006967312 0.009672749 -0.03493933
-0.021606414 -0.09596463 -0.19500345 0.02203458 -0.026581129 -0.0733492 0.055507876 0.03738461
0.02961143 -0.10088178 -0.053971287 -0.019431954 -0.015069128 -0.018884744 -0.022287002 -0.0489941
-0.03207331 -0.011957206 -0.018612185 -0.04727852 0.024031796 -0.07960742 -0.042819362 -0.06671213
-0.03241265 -0.08281158 -0.05268645 0.0052495277 -0.056326553 -0.018514978 -0.06552781 -0.10265348
-0.09779272 0.034893394 -0.026137099 0.019119767 0.021483544 0.054944776 -0.042519376 -0.033332996
0.0058320067 -0.035693374 -0.043260437 0.050928615 0.04641757 0.098760575 0.04000171 -0.055438597
-0.019748287 0.017979817 -0.003197051 0.074727304 0.05109798 0.009722237 0.12521513 0.025051303
-0.0038036683 0.073509194 0.11946072 0.012219532 0.110231854 0.05347698 0.10053144 0.028517254
-0.046128605 -0.06582542 -0.0751723 -0.053109083 -0.04326006 0.015420087 0.038009185 0.0071722246
0.026039414 -0.005133088 -0.029542387 -0.023905227 0.003209061 0.016116822 -0.049662527 -0.035562064
0.01316494 -0.07228872 0.022707362 0.0062729623 0.038434792 0.0074409028 -0.01699897 0.11712866
0.06848055 -0.0034325365 0.016715825 -0.07501775 0.002025673 -0.05215791 -0.049432766 -0.030755857
0.01950039 -0.058478113 -0.047622755 0.04184909 -0.050886378 0.07701517 0.061869424 0.03572584
0.06368401 0.06366742 -0.0432383 -0.0006254856 -0.10510373 -0.048237886 0.04762746 -0.100175165
00000000: da9c bfba 4520 ce3c 1bef 83bd a008 88bd
00000010: 4e18 e9bb aad9 fabc 0511 313c 32f6 773c
00000020: 08de e43c febc bdbc 81bd 16bd 3c20 003e
00000030: 0fc3 8abd df90 4bbd 3b94 9b3c 0a3b 91bd
00000040: 849d c3bd 9f62 c1bd 3c8d c23d 6086 663d
00000050: b7bf debd e37d d6bc 9268 95bd 4d3d 97bd
00000060: 9787 7f3d 249b 8038 faf7 f3bb 1b6a d1bd
00000070: 44ea 81bd 63d1 123e e286 14be c0e6 89bd
00000080: 7c4a 9b3d 8b93 a5bd 8ac8 033c 6b54 b93d
00000090: 784f 6dba 9517 983c 08d5 41bd 5d96 2cba
000000a0: b219 1f3c e277 c3bc 6a6f ddb8 3c12 973d
000000b0: 235a c03c 11d7 103e 6b45 9ebc d000 8dbc
000000c0: 391e 9e3c fc6d cbbc e740 1dbb 4eb5 053c
000000d0: a669 bebd 1594 603d c5b3 e33d 4912 043d
000000e0: 7a34 b4bd 2f9e 63bd 220e 64bd 9d06 a4bd
000000f0: 046b d73c 5f5e 013d de54 553d 9865 06bc
00000100: 4c29 73bd 653f 143d a418 82bd 284d 13bd
00000110: 7542 a6bc 0a0f a9bc fd04 dabd bf3f 1cbd
00000120: 9535 c43d 56ba a53d 7da8 89bd 68b7 023d
00000130: e1fa f139 aa1e 14bd fa53 abbd 4590 8bbd
00000140: 0127 8cbd a854 8e3c e850 7ebc 11eb 503d
00000150: 783e 5fbd 9e5a 82bd 66eb 0ebc 5b9f 87bc
00000160: 44c2 4fbc cd38 bfbd 130c c9bd 94b8 37bd
00000170: 282f 63bd 5fd9 2c3d d24c 8b3c 0c73 a6bc
00000180: f43f 5f3d 0a93 cd3b 1322 3ebd f2f6 babb
00000190: f702 11bd 17fb 263d 79ba acbd 8fc4 6cbd
000001a0: c2fe cabc 6f9e 3fbd b8d9 8bbd 6480 35bd
000001b0: 27b2 93bd 0f1b 07bc 88d0 b73d 1298 473d
000001c0: 3398 1e3d 0ced b13c 67b5 8b3d b889 fdbc
000001d0: c6c2 a6bc 18b5 25be a752 45bd 8019 a0bd
000001e0: 928f aebc 1141 013d 4087 70bd 9853 253d
000001f0: b132 6c3c 2fde 213c a157 d6bd 5d2b edbc
00000200: ba2e cfbd c344 9ebc 59cc 783c 34e7 7dbd
00000210: da19 c73d d78e eb3c 8aa5 adbc b01d 883d
00000220: 7f6e 2abc a274 c6bd 58c0 65bc 4b66 023d
00000230: 09a1 3bbd 0d4e e4bb 737a 1e3c 8b1c 0fbd
00000240: efff b0bc 1b89 c4bd fcae 47be dd81 b43c
00000250: abc0 d9bc 1b38 96bd 3a5c 633d 9b20 193d
00000260: ab93 f23c 1b9b cebd ff10 5dbd c32f 9fbc
00000270: 81e4 76bc 2eb4 9abc 3b93 b6bc 0aae 48bd
00000280: 4e5f 03bd 28e8 43bc 9578 98bc 1fa7 41bd
00000290: 54de c43c 3709 a3bd 5b63 2fbd 5fa0 88bd
000002a0: 20c3 04bd 1e99 a9bd bfcd 57bd 3b04 ac3b
000002b0: acb6 66bd b9ac 97bc 7233 86bd fd3b d2bd
000002c0: 8d47 c8bd 60ec 0e3d 781d d6bc 0fa1 9c3c
000002d0: 42fe af3c c60d 613d cc28 2ebd 2e88 08bd
000002e0: 6b1a bf3b 3733 12bd db31 31bd 869a 503d
000002f0: 5a20 3e3d fc42 ca3d d5d8 233d 9513 63bd
00000300: 29c7 a1bc 694a 933c 9d85 51bb a10a 993d
00000310: 1e4c 513d 044a 1f3c 6538 003e 6438 cd3c
00000320: f746 79bb fd8b 963d d2a7 f43d 6f34 483c
00000330: 3dc1 e13d ae0a 5b3d 6de3 cd3d 049d e93c
00000340: 59f1 3cbd 7acf 86bd eff3 99bd e988 59bd
00000350: 7631 31bd 88a4 7c3c 85af 1b3d fb04 eb3b
00000360: 9c50 d53c 7733 a8bb e002 f2bc e5d4 c3bc
00000370: 1c4f 523b 6d07 843c ef6a 4bbd 87a9 11bd
00000380: c3b1 573c 1c0c 94bd ca04 ba3c 6c8d cd3b
00000390: cd6d 1d3d d1d2 f33b 6d41 8bbc 27e1 ef3d
000003a0: 883f 8c3d 68f4 60bb a0ef 883c e8a2 99bd
000003b0: 27c1 043b 88a3 55bd 037a 4abd b5f3 fbbc
000003c0: 48bf 9f3c bf86 6fbd 1410 43bd f469 2b3d
000003d0: 3c6e 50bd 21ba 9d3d cb6a 7d3d 4255 123d
000003e0: c36c 823d 1064 823d a51a 31bd a1f7 23ba
000003f0: a040 d7bd 1795 45bd 0315 433d a328 cdbd

95 f4 [64]
0.734847 0.6307394 0.8996887 0.19120902 0.0122234225 1.5092485 -0.5584721 0.9899129
1.6683085 0.31558532 0.46243942 -0.09903583 -0.88750184 2.0517557 -0.661566 2.3443456
1.2382752 1.2758843 0.14427292 -1.1953626 0.27780697 -0.060521543 1.2007866 -0.76400554
1.8105166 1.9148946 0.95089173 -1.4712248 -0.6092812 1.5500832 -0.45262024 -0.41465423
-0.06738347 0.9795458 -0.56323516 0.47156972 0.23135275 0.7788902 -0.073801935 -1.2580802
-1.2481344 -0.4033127 -0.45924446 -0.5407617 -0.1946758 0.6586106 -0.3125602 1.2195566
0.8816433 1.1373488 0.81385577 -0.37926203 -0.7329574 1.5448102 -0.38780376 -0.27301383
0.7898104 0.17472339 -0.53755397 -0.43304926 -0.26725328 -0.040001452 0.44210792 0.5783497
00000000: ef1e 3c3f 2378 213f 0052 663f 4ccc 433e
00000010: c044 483c 0e2f c13f 07f8 0ebf ef6a 7d3f
00000020: 228b d53f 6694 a13e dcc4 ec3e 4cd3 cabd
00000030: 5233 63bf f74f 0340 645c 29bf c209 1640
00000040: cd7f 9e3f 2d50 a33f 48bc 133e a401 99bf
00000050: b73c 8e3e 70e5 77bd 60b3 993f de95 43bf
00000060: 02bf e73f 441b f53f a46d 733f 1851 bcbf
00000070: daf9 1bbf 2069 c63f d7bd e7be 8f4d d4be
00000080: 5800 8abd 83c3 7a3f 2e30 10bf 9671 f13e
00000090: bce7 6c3e 5965 473f 7825 97bd c608 a1bf
000000a0: dec2 9fbf 017f cebe 1722 ebbe 5c6f 0abf
000000b0: 1859 47be b49a 283f e407 a0be 6e1a 9c3f
000000c0: 60b3 613f a594 913f da58 503f a22e c2be
000000d0: 19a3 3bbf 57bc c53f 378e c6be 78c8 8bbe
000000e0: 0431 4a3f b0ea 323e 239d 09bf a2b8 ddbe
000000f0: 6cd5 88be 90d8 23bd f85b e23e ba0e 143f
