model/domestic_cat.onnx (onnx, 301496 bytes, 16 tensors)

fc.weight f4 [2, 256]
-0.90716666 -0.19498125 -1.1876998 -0.58580595 -0.10689967 -0.2977842 -0.039995138 -0.32667992
3.3224576 3.4625723 -0.24241626 -0.3699169 2.1719174 2.5763183 -0.61019295 -0.6672203
0.049371023 -0.048764955 0.019253446 -0.050913043 -0.8448352 1.3445454 -0.6942316 0.44914308
-1.2481726 -2.7606456 -0.27855697 -1.1595112 -0.56515634 -0.61118954 -0.43657216 -0.7600782
-0.2141392 -0.1200403 -0.058952216 -0.06641922 0.08075379 -0.03859616 -0.046313073 -0.41380966
-1.6108823 -2.1496093 -1.513169 -2.0475338 -0.094996296 -0.13043316 -0.078172304 -0.028579585
0.022256754 0.07004637 -1.5932493 -2.5038075 -1.9247203 -1.0113006 -1.8313761 -0.8683837
0.6103022 -0.024035413 0.02070055 -0.667975 -1.3984333 -1.6745996 -1.4546598 -1.6693993
0.019491179 0.13664941 -0.026231198 -0.046639364 3.4770555 1.7809485 -0.3569308 -1.2003291
2.1322749 -1.4463646 2.4194 -0.9661654 -1.8646041 -1.049427 -1.0960388 -1.3773952
-2.6232917 -1.6380432 -2.4890234 -1.5393956 -1.705619 0.79629695 -1.7202677 0.8093689
1.6560225 1.7434433 1.4443223 1.6797147 -0.08256063 -0.018675443 0.042146225 0.0680222
-1.058038 1.6486489 -0.92669666 1.0949838 -0.48988143 -1.3964232 2.6338155 1.4622853
-0.024152173 -0.03567147 -0.024899758 0.020034082 2.4913428 1.8252187 -0.7462144 -1.1820707
-1.722997 -0.732216 -1.7334634 -1.0206577 -1.0384206 -1.676606 -0.67509586 -1.2984598
-2.214848 -0.99471927 0.37494254 1.3333346 1.9859296 0.08149306 -0.41059652 -2.235245
2.101241 1.8302652 0.46800357 0.12392731 -1.471457 -1.4163493 -1.8005139 -1.8726987
0.058439147 -0.08094055 0.04525921 -0.11854072 0.01834638 0.40619576 2.0275111 2.8006926
-1.0856266 -1.2123048 -1.0039037 -0.918456 1.4903467 1.6470724 1.4818141 1.7095735
-0.82668567 1.402788 -0.923169 0.61012435 -1.0032393 -1.1210867 -0.4690787 -0.7355748
1.5540265 1.2696515 1.2524418 0.9531233 -0.100220084 0.25931945 0.31643733 0.021483094
-1.3905717 -1.3081448 -2.1590984 -1.9807863 2.661947 0.63114786 2.8806996 0.7210587
2.1820657 -0.829151 2.4422462 -0.8565155 -1.8414369 -1.6803472 -1.4214342 -1.4040751
-1.4278611 -1.6488178 -1.937445 -2.0244105 1.6657983 1.4094313 1.519524 1.5730137
-0.7292501 -0.5878343 -2.187278 -2.511768 0.9211318 0.98071086 -2.1935291 -2.4725094
2.2021434 2.5072708 -0.8714016 -0.841012 -0.08091955 0.062149137 -0.054226488 0.032897048
-0.86298776 -1.3195951 -1.333142 -1.7853843 0.23744364 0.1505617 -0.1612635 -0.12046757
-0.056090284 0.018675724 0.080448344 0.027479518 -0.82787484 -0.47584727 -0.6968714 -1.6891571
2.38681 -1.1400896 2.1780412 -1.230948 0.19867252 0.4259936 1.2333183 1.4920738
-0.9435997 2.1046653 -1.1163064 1.7303122 0.832298 0.40678218 1.1271691 0.75801957
1.6634622 -0.8606803 1.9353179 -1.3978984 -0.33377182 0.0021731672 -0.25673467 0.082469456
-0.91394776 -0.5446927 -1.2878853 -1.8140541 0.9036534 0.80222785 1.2219353 1.0068918
00000000: 133c 68bf 2aa9 47be 8c06 98bf 61f7 15bf
00000010: 37ee dabd 2c77 98be f1d1 23bd 9742 a7be
00000020: 25a3 5440 c99a 5d40 f83b 78be bf65 bdbe
00000030: b200 0b40 66e2 2440 9b35 1cbf f3ce 2abf
00000040: 4539 4a3d c3bd 47bd 67b9 9d3c 328a 50bd
00000050: 1f47 58bf 101a ac3f 2ab9 31bf 15f6 e53e
00000060: 1fc4 9fbf 6bae 30c0 059f 8ebe dd6a 94bf
00000070: 16ae 10bf eb76 1cbf 6386 dfbe 7c94 42bf
00000080: 4e47 5bbe b0d7 f5bd e177 71bd cd06 88bd
00000090: 3e62 a53d 0217 1ebd c7b2 3dbd dcde d3be
000000a0: 6431 cebf 3393 09c0 86af c1bf cb0a 03c0
000000b0: 6b8d c2bd 4590 05be cd18 a0bd bc1f eabc
000000c0: cc53 b63c 7974 8f3d 98ef cbbf 623e 20c0
000000d0: 3c5d f6bf 4c72 81bf 886a eabf 654e 5ebf
000000e0: c43c 1c3f eae5 c4bc 3394 a93c 6900 2bbf
000000f0: ddff b2bf 4859 d6bf 4b32 babf e0ae d5bf
00000100: f7ab 9f3c d3ed 0b3e cfe2 d6bc eb08 3fbd
00000110: 1488 5e40 1ff6 e33f a2bf b6be 62a4 99bf
00000120: 3177 0840 7a22 b9bf 73d7 1a40 9e56 77bf
00000130: 59ab eebf a053 86bf 004b 8cbf 7c4e b0bf
00000140: 03e4 27c0 66ab d1bf 294c 1fc0 ea0a c5bf
00000150: b951 dabf 1eda 4b3f bb31 dcbf cd32 4f3f
00000160: 8cf8 d33f 2629 df3f 8edf b83f e400 d73f
00000170: 8c15 a9bd 3efd 98bc 85a1 2c3d 394f 8b3d
00000180: ca6d 87bf ed06 d33f fe3b 6dbf 6e28 8c3f
00000190: bdd1 fabe ffbd b2bf 6f90 2840 2a2c bb3f
000001a0: c7da c5bc 3f1c 12bd 94fa cbbc 841e a43c
000001b0: 2972 1f40 c4a0 e93f e807 3fbf 184e 97bf
000001c0: 2a8b dcbf 8272 3bbf 21e2 ddbf e9a4 82bf
000001d0: f7ea 84bf 079b d6bf 15d3 2cbf ee33 a6bf
000001e0: 12c0 0dc0 eca5 7ebf 78f8 bf3e b5aa aa3f
000001f0: f132 fe3f d5e5 a63d b539 d2be 410e 0fc0
00000200: bc7a 0640 2146 ea3f 2a9e ef3e 9acd fd3d
00000210: b458 bcbf ef4a b5bf 3d77 e6bf 97b4 efbf
00000220: e35d 6f3d 29c4 a5bd b961 393d 7ac5 f2bd
00000230: 264b 963c e4f8 cf3e bec2 0140 8c3e 3340
00000240: d0f5 8abf ce2c 9bbf eb7f 80bf ef1f 6bbf
00000250: aec3 be3f 45d3 d23f 16ac bd3f 4ed3 da3f
00000260: aca1 53bf 8f8e b33f ce54 6cbf 1c31 1c3f
00000270: 256a 80bf c57f 8fbf 152b f0be a14e 3cbf
00000280: 57ea c63f f183 a23f 0350 a03f e3ff 733f
00000290: 3040 cdbd 85c5 843e 1304 a23e 50fd af3c
000002a0: 41fe b1bf 4a71 a7bf ab2e 0ac0 688a fdbf
000002b0: 575d 2a40 e892 213f 625d 3840 4e97 383f
000002c0: f7a6 0b40 3d43 54bf c34d 1c40 9a44 5bbf
000002d0: 34b4 ebbf 9e15 d7bf 8ef1 b5bf bcb8 b3bf
000002e0: 27c4 b6bf 760c d3bf 33fe f7bf f18f 01c0
000002f0: e138 d53f 3f68 b43f c37f c23f 8358 c93f
00000300: 22b0 3abf 4f7c 16bf 5dfc 0bc0 cfc0 20c0
00000310: 4bcf 6b3f de0f 7b3f c862 0cc0 983d 1ec0
00000320: ebef 0c40 2077 2040 2d14 5fbf 904c 57bf
00000330: 26b9 a5bd 1890 7e3d 981c 5ebd 0ebf 063d
00000340: c4ec 5cbf 7ee8 a8bf 66a4 aabf 7987 e4bf
00000350: 6d24 733e d92c 1a3e 4222 25be b4b7 f6bd
00000360: edbe 65bd d5fd 983c 1ac2 a43d ba1c e13c
00000370: 9bef 53bf 41a2 f3be 2a66 32bf 4d36 d8bf
00000380: 7fc1 1840 75ee 91bf 0765 0b40 b48f 9dbf
00000390: cf70 4b3e d51b da3e 60dd 9d3f 46fc be3f
000003a0: c08f 71bf d6b2 0640 21e3 8ebf df7a dd3f
000003b0: 7b11 553f c145 d03e 1447 903f 920d 423f
000003c0: 54ec d43f 8b55 5cbf 7fb8 f73f 56ee b2bf
000003d0: 24e4 aabe b26b 0e3b ba72 83be bfe5 a83d
000003e0: 7bf8 69bf fb70 0bbf 6dd9 a4bf ed32 e8bf
000003f0: d455 673f ce5e 4d3f 6068 9c3f d5e1 803f

fc.bias f4 [2]
0.19194496 -0.21841386
00000000: 388d 443e e2a7 5fbe

79 f4 [16, 3, 7, 7]
-0.17831975 -0.2822136 -0.20187002 -0.17301588 -0.07737712 -0.02696019 0.026790986 -0.18350817
-0.22307499 -0.14672528 -0.11401553 0.02196677 0.07455567 0.17976642 -0.23786704 -0.24420103
-0.06651593 0.21701217 0.37387085 0.28068486 0.33673286 -0.23981908 -0.21280082 0.055454772
0.53289413 0.65840274 0.3298274 0.29054698 -0.068543494 0.074358985 0.37756464 0.71655893
0.6504382 0.37771282 0.34748605 -0.0069741863 0.201443 0.46526605 0.48677292 0.3104119
0.121902026 0.14406355 0.052839354 0.28573886 0.47440594 0.32010058 0.09809457 -0.00874617
0.021195052 0.12588678 0.05734481 0.03236967 0.014845712 0.07742541 0.15640837 0.22825415
0.049628533 0.021147091 -0.0048256437 -0.058600884 0.036593925 0.09775674 0.22828795 -0.09175445
-0.10994206 -0.055161934 0.15378673 0.25840178 0.18466656 0.30691454 -0.16827936 -0.18243134
-0.028595136 0.33525142 0.41550562 0.17227681 0.1936888 -0.11125393 0.002415978 0.17487371
0.40860593 0.34294015 0.16005622 0.21893312 -0.14622813 0.02810153 0.2136589 0.21270354
0.08307701 -0.0035616967 0.08914726 -0.10104493 0.105493724 0.27026865 0.1439492 -0.016476963
-0.048155908 0.036550205 -0.08137257 -0.22314732 -0.2612808 -0.29757607 -0.22753483 -0.12618534
-0.022623949 -0.12609035 -0.20627147 -0.2815229 -0.32275087 -0.25404596 -0.20391186 -0.010647984
-0.25777712 -0.3560176 -0.31412163 -0.14767636 -0.076394245 -0.11470295 0.044194803 -0.3320855
-0.4025827 -0.317073 0.008964023 0.04015429 -0.13099158 -0.019370928 -0.2785513 -0.23575383
-0.10208482 0.099322036 0.017927723 -0.08258445 0.034215577 -0.30780032 -0.17160824 -0.0154629005
-0.02741631 -0.14292178 -0.17670093 -0.012597913 -0.26904234 -0.042080637 0.071833864 -0.00045863446
-0.14021467 -0.14366283 0.009174818 0.457085 0.08540623 0.106247164 0.4630033 0.66320276
0.94675213 0.7914211 0.13269208 -0.22619471 -0.26341107 -0.10005152 0.15193002 0.6248774
1.1313701 -0.34227097 -0.78433996 -0.9254796 -0.78298885 -0.21907005 0.5579668 1.1990535
-0.9741323 -2.0730827 -2.219756 -1.5148379 -0.527183 0.6808304 1.2558428 -0.6957815
-1.6323186 -1.585554 -1.0358855 -0.3988318 0.64167744 1.096864 -0.03865663 -0.5996012
-0.46694547 -0.22350013 -0.008845198 0.55981106 1.129777 0.21149565 -0.35827854 -0.04608992
0.20891078 0.53937954 0.81513864 1.2262731 0.21922846 0.16782217 0.141317 0.49321598
0.27484104 0.22115728 -0.21871424 0.36083508 0.34907112 0.32555166 0.3944434 0.045605853
-0.048989117 0.011160068 0.30493543 0.26929247 0.16549142 0.14201123 -0.017552271 -0.020632388
0.018480934 -0.1188224 -0.5931239 -0.80897075 -0.4845285 -0.27153015 0.06567489 0.01964476
0.094139054 -0.34606928 -0.38975152 -0.17076452 -0.2620998 -0.020331832 -0.05979983 0.32977715
-0.011856542 0.12283716 0.22228195 -0.10612804 -0.07282605 0.14349538 0.26792777 -0.23256657
-0.027554017 0.24142157 0.19704154 0.20862493 0.4251043 0.26532888 0.24156862 0.11675863
0.42148826 0.15945356 -0.015389428 -0.49244982 0.4924159 0.5540367 0.48400295 0.41442788
00000000: 7499 36be 4d7e 90be 04b7 4ebe 132b 31be
00000010: e577 9ebd 9edb dcbc c578 db3c 91e9 3bbe
00000020: c56d 64be 273f 16be f980 e9bd a8f3 b33c
00000030: a5b0 983d b014 383e 6b93 73be d60f 7abe
00000040: 8139 88bd 7038 5e3e 006c bf3e edb5 8f3e
00000050: 4068 ac3e 2293 75be 75e8 59be 8b24 633d
00000060: c06b 083f 158d 283f 23df a83e 93c2 943e
00000070: 8860 8cbd 8649 983d 2750 c13e 6870 373f
00000080: 1e83 263f 9363 c13e b1e9 b13e b787 e4bb
00000090: 1347 4e3e 5a37 ee3e 4d3a f93e 4fee 9e3e
000000a0: c5a7 f93d 6585 133e 146e 583d 5d4c 923e
000000b0: 56e5 f23e 39e4 a33e cee5 c83d 194c 0fbc
000000c0: 3fa1 ad3c 77e8 003e 64e2 6a3d 0f96 043d
000000d0: 6e3b 733c 3791 9e3d 8429 203e 75bb 693e
000000e0: 4a47 4b3d aa3c ad3c 6f20 9ebb 7b07 70bd
000000f0: 83e3 153d b034 c83d 51c4 693e c2e9 bbbd
00000100: 4e29 e1bd 7bf1 61bd 457a 1d3e 3d4d 843e
00000110: 3b19 3d3e e723 9d3e 6d51 2cbe 48cf 3abe
00000120: 5940 eabc 13a6 ab3e 27bd d43e 5569 303e
00000130: 5b56 463e 1ad9 e3bd 6255 1e3b 1812 333e
00000140: cc34 d13e da95 af3e c7e5 233e 0130 603e
00000150: d4bc 15be 2e35 e63c 66c9 5a3e f5ce 593e
00000160: 4824 aa3d 5b6b 69bb d792 b63d a5f0 cebd
00000170: 180d d83d a760 8a3e 6b67 133e b2fa 86bc
00000180: 213f 45bd abb5 153d a9a6 a6bd bb80 64be
00000190: 99c6 85be e45b 98be e4fe 68be bb36 01be
000001a0: dc55 b9bc d41d 01be d438 53be c523 90be
000001b0: 9a3f a5be 5012 82be 45ce 50be e274 2ebc
000001c0: 5dfb 83be f047 b6be 8dd4 a0be 7938 17be
000001d0: 9674 9cbd 61e9 eabd 9c05 353d 1c07 aabe
000001e0: 521f cebe 6457 a2be d6dd 123c d378 243d
000001f0: a822 06be c8af 9ebc 479e 8ebe 7469 71be
00000200: d911 d1bd 5a69 cb3d 29dd 923c 0922 a9bd
00000210: a225 0c3d 0198 9dbe 12ba 2fbe 1b58 7dbc
00000220: 2b98 e0bc 165a 12be 17f1 34be 7a67 4ebc
00000230: ebbf 89be bf5c 2cbd a21d 933d e074 f0b9
00000240: 6f94 0fbe 591c 13be fa51 163c 0c07 ea3e
00000250: 76e9 ae3d 1d98 d93d c50e ed3e a8c7 293f
00000260: 595e 723f 939a 4a3f 6fe0 073e 969f 67be
00000270: d1dd 86be d0e7 ccbd 8b93 1b3e f7f7 1f3f
00000280: bcd0 903f 243e afbe 81ca 48bf 3bec 6cbf
00000290: f571 48bf e653 60be ead6 0e3f 967a 993f
000002a0: bc60 79bf 63ad 04c0 7b10 0ec0 35e6 c1bf
000002b0: 77f5 06bf e74a 2e3f 75bf a03f bd1e 32bf
000002c0: d1ef d0bf 6ff3 cabf e597 84bf af33 ccbe
000002d0: f944 243f 0a66 8c3f 6a56 1ebd 777f 19bf
000002e0: 7a13 efbe 38dd 64be 73eb 10bc c74f 0f3f
000002f0: 889c 903f 5192 583e 4970 b7be c9c8 3cbd
00000300: b5ec 553e c714 0a3f edac 503f 84f6 9c3f
00000310: 6d7d 603e 93d9 2b3e 67b5 103e ce86 fc3e
00000320: f7b7 8c3e 0e77 623e a0f6 5fbe 60bf b83e
00000330: 73b9 b23e b5ae a63e 7cf4 c93e 34cd 3a3d
00000340: d0a8 48bd b8d8 363c 7f20 9c3e b4e0 893e
00000350: 9576 293e 646b 113e c8c9 8fbc 4105 a9bc
00000360: 5465 973c 2959 f3bd f8d6 17bf b518 4fbf
00000370: 1f14 f8be 0006 8bbe 8f80 863d 0cee a03c
00000380: facb c03d fe2f b1be 838d c7be e5dc 2ebe
00000390: f231 86be f18e a6bc abf0 74bd 8dd8 a83e
000003a0: f141 42bc 0d92 fb3d e19d 633e a859 d9bd
000003b0: d325 95bd 74f0 123e d42d 893e ee25 6ebe
000003c0: f6b8 e1bc 3737 773e 42c5 493e c6a1 553e
000003d0: 45a7 d93e 30d9 873e c45d 773e 261f ef3d
000003e0: 4fcd d73e cb47 233e f023 7cbc 6222 fcbe
000003f0: f01d fc3e 59d5 0d3f 3ccf f73e e42f d43e

80 f4 [16]
-1.755621 -0.37406373 -0.19437474 4.3573437 0.27085906 4.3692436 1.2967155 1.2980208
-1.636612 0.64189035 0.13122886 1.7425346 -0.16435215 2.4019523 -1.1584886 -2.555932
00000000: 30b8 e0bf 4885 bfbe 2c0a 47be 5c6f 8b40
00000010: 0aae 8a3e d8d0 8b40 c6fa a53f 8c25 a63f
00000020: 817c d1bf ed52 243f dc60 063e 600b df3f
00000030: ee4b 28be 96b9 1940 5b49 94bf 6494 23c0

82 f4 [32, 16, 3, 3]
0.31455266 0.13442338 0.011295984 0.12295893 -0.11796163 -0.09981991 -0.18456608 -0.31989384
-0.17571221 0.023620937 0.22647353 0.28111947 -0.22606184 -0.1956448 0.005702127 -0.22202422
-0.21932651 -0.094029054 0.16432834 0.30486742 0.038013335 -0.025154613 0.17715435 0.014089471
-0.042702623 -0.019455409 -0.037976783 -0.06182672 -0.1144963 -0.064323105 -0.104787424 0.009820064
0.014614174 0.014768764 0.18044189 0.110491164 -0.0944357 0.06449763 0.063385434 -0.065682046
-0.016148299 -0.08453848 0.040562212 -0.0047823614 -0.087699145 -0.19733173 0.010837426 0.064525194
-0.16158819 0.16560782 0.08963632 -0.14354853 0.034648888 0.036063097 -0.09235418 0.026375618
0.059941307 -0.15242405 -0.059592754 0.050466653 -0.07588709 -0.03730734 0.024707545 0.07910757
-0.15472856 -0.11165569 0.12290397 -0.013636262 -0.02500308 0.00027838597 0.05135119 -0.0028235815
0.019271743 -0.24708685 -0.089714974 0.2242085 -0.008893113 -0.059853412 -0.008328485 -0.035477944
-0.04934629 -0.15118799 -0.12312415 0.0106387315 -0.0818932 -0.23708896 -0.23110494 0.08246992
-0.05948982 -0.19049235 0.11468845 0.02298048 -0.0010870864 -0.0031726626 -0.032365467 -0.07059035
-0.073168226 -0.13440749 -0.11753297 0.21561648 -0.0014235248 -0.14082637 0.06887541 -0.13716827
-0.23988464 0.09181002 -0.08929607 -0.13402753 0.32718605 0.081908256 -0.05739323 0.1425649
-0.16925061 -0.2385138 0.021477815 -0.11559278 -0.11557444 -0.1878671 0.11202022 0.18430188
-0.18570618 0.04032785 0.14744076 -0.14070861 0.047231723 0.10579989 0.16907223 0.19904792
0.1553339 0.02870743 -0.10387884 0.003921388 -0.1721426 -0.15465738 -0.12579353 0.04637938
0.104839176 0.15831883 -0.029879507 -0.05187571 -0.13697194 -0.07888522 -0.062623404 -0.13156022
-0.025415977 -0.02548957 0.019761747 -0.027296579 0.004260325 0.015155506 -0.030314192 -0.017633682
-0.032574553 -0.015370622 0.042335086 7.016601e-05 0.015756054 0.050509434 -0.019795392 -0.02059688
-0.00863911 -0.027557988 0.0015634915 -0.010343573 0.006694971 -0.013105139 -0.01458748 0.02720794
-0.025664661 -0.010965291 0.04207448 -0.011165815 0.04123391 0.054303184 -0.02502609 0.013461842
0.03413273 -0.018567244 0.008893494 0.036256783 -0.00940086 0.0199725 0.022092117 0.014151815
0.026423907 0.03189494 -0.0045739375 -0.004928111 0.0056937276 0.02826243 0.030795995 0.017389217
0.04557633 -0.00064401637 -0.03139965 0.03688777 -0.019785488 -0.03498931 0.029161947 0.009768696
-0.024769863 0.04026193 0.014553089 -0.03694168 0.012202213 -0.0072095827 -0.030392706 -0.025103243
0.01834897 0.05502556 -0.024578637 0.030833172 0.06577974 -0.008436792 0.014615329 0.032123648
0.0077239852 0.033618186 0.029792419 -0.0019525542 0.020151768 0.024076134 -0.01569099 -0.014228042
-0.0068478202 -0.024939047 -0.02288193 -0.017151454 -0.012167303 -0.017867675 -0.0030890936 -0.020445794
-0.006317346 0.020856304 0.015539832 -0.03841696 -0.031052195 0.031426787 -0.029203027 -0.037282504
0.0051380205 -0.06796663 -0.10786214 -0.013766029 -0.00024576733 0.014529398 -0.013387411 -0.0032951871
0.018938493 -0.017127385 -0.0072684474 0.0066314326 -0.0030542435 0.010293637 0.016430855 -0.009320536
00000000: 0c0d a13e 48a6 093e ca12 393c e4d1 fb3d
00000010: de95 f1bd 626e ccbd e4fe 3cbe 20c9 a3be
00000020: e7ed 33be b280 c13c ade8 673e e4ee 8f3e
00000030: c17c 67be 1c57 48be e8d8 ba3b 515a 63be
00000040: 2197 60be 4e92 c0bd b045 283e 9517 9c3e
00000050: dfb3 1b3d 0c11 cebc f367 353e 86d7 663c
00000060: f2e8 2ebd f360 9fbc 8b8d 1bbd 043e 7dbd
00000070: 097d eabd d5bb 83bd ca9a d6bd 55e4 203c
00000080: 4a70 6f3c b0f8 713c c2c5 383e 3149 e23d
00000090: 8167 c1bd 5517 843d 39d0 813d 4f84 86bd
000000a0: 7049 84bc 8322 adbd 9024 263d 5bb5 9cbb
000000b0: 9c9b b3bd 5411 4abe 768f 313c c925 843d
000000c0: 6077 25be 1995 293e 3f93 b73d 63fe 12be
000000d0: feeb 0d3d e6b6 133d 3024 bdbd ae11 d83c
000000e0: 0485 753d 0d15 1cbe 8817 74bd 1fb6 4e3d
000000f0: b16a 9bbd 95cf 18bd 7a67 ca3c 2603 a23d
00000100: 2a71 1ebe bdab e4bd 14b5 fb3d a16a 5fbc
00000110: 42d3 ccbc 55f4 9139 a055 523d d60b 39bb
00000120: c6df 9d3c 5604 7dbe 7cbc b7bd ea96 653e
00000130: 6bb4 11bc da28 75bd 3374 08bc 5251 11bd
00000140: 561f 4abd 06d1 1abe 8428 fcbd 134e 2e3c
00000150: 9fb7 a7bd 73c7 72be c6a6 6cbe fde5 a83d
00000160: 99ab 73bd 6d10 43be c7e1 ea3d 8f41 bc3c
00000170: 917c 8eba 72ec 4fbb a791 04bd ac91 90bd
00000180: 39d9 95bd 1ea2 09be 20b5 f0bd 91ca 5c3e
00000190: 9195 baba ca34 10be 8d0e 8d3d d775 0cbe
000001a0: 52a4 75be e406 bc3d dce0 b6bd 833e 09be
000001b0: ee84 a73e 84bf a73d 2a15 6bbd 88fc 113e
000001c0: 0850 2dbe f63c 74be 3ef2 af3c e8bb ecbd
000001d0: 4bb2 ecbd 3c60 40be db6a e53d a2b9 3c3e
000001e0: c329 3ebe d12e 253d b6fa 163e eb15 10be
000001f0: 0d76 413d 9dad d83d 4521 2d3e 38d3 4b3e
00000200: da0f 1f3e d82b eb3c 6ebe d4bd fd7e 803b
00000210: 2646 30be 815e 1ebe 05d0 00be 4ef8 3d3d
00000220: ecb5 d63d 551e 223e dec5 f4bc a07b 54bd
00000230: 5f42 0cbe 938e a1bd b340 80bd b9b7 06be
00000240: 2b35 d0bc 81cf d0bc 63e3 a13c 139d dfbc
00000250: 329a 8b3b cd4e 783c 7855 f8bc 8374 90bc
00000260: e56c 05bd 10d5 7bbc 8e67 2d3d 1726 9338
00000270: d712 813c fbe2 4e3d f229 a2bc caba a8bc
00000280: 0e8b 0dbc 4ac1 e1bc 12ee cc3a 1778 29bc
00000290: 7d61 db3b f0b6 56bc 5300 6fbc 30e3 de3c
000002a0: b23e d2bc c4a7 33bc 4a56 2c3d d3f0 36bc
000002b0: e3e4 283d 046d 5e3d 8403 cdbc 0f8f 5c3c
000002c0: c3ce 0b3d 551a 98bc 04b6 113c fe81 143d
000002d0: 1106 1abc 5e9d a33c 87fa b43c 04dd 673c
000002e0: f376 d83c 45a4 023d f8e0 95bb fe7b a1bb
000002f0: 7392 ba3b 9d86 e73c e247 fc3c d573 8e3c
00000300: 3fae 3a3d 35d3 28ba eb9c 00bd a117 173d
00000310: 2d15 a2bc f350 0fbd 09e5 ee3c e10c 203c
00000320: 2bea cabc b2e9 243d 1470 6e3c 2950 17bd
00000330: caeb 473c 5d3e ecbb 20fa f8bc 51a5 cdbc
00000340: 9450 963c 7b62 613d 2359 c9bc d995 fc3c
00000350: 87b7 863d 783a 0abc 2275 6f3c 1694 033d
00000360: 7c19 fd3b 39b3 093d 3b0f f43c d9ec ffba
00000370: 5215 a53c 503b c53c 648a 80bc bc1c 69bc
00000380: ae63 e0bb f94c ccbc e372 bbbc 3581 8cbc
00000390: 5e59 47bc 3b5f 92bc 6472 4abb f07d a7bc
000003a0: bd01 cfbb d7da aa3c c89a 7e3c 1a5b 1dbd
000003b0: 2c61 febc 60b9 003d 303b efbc 8ab5 18bd
000003c0: d75c a83b 1732 8bbd d3e6 dcbd e98a 61bc
000003d0: 55da 80b9 b60c 6e3c df56 5bbc 11f4 57bb
000003e0: e624 9b3c bb4e 8cbc 282c eebb 7d4c d93b
000003f0: b429 48bb a5a6 283c 009a 863c 29b5 18bc

83 f4 [32]
3.952811 1.1615776 2.468223 -1.9462955 2.503758 -0.6775626 -0.6643822 -1.1931019
-0.62107915 2.3110006 0.086943984 0.8580389 -3.2273183 -0.9499163 3.0563989 2.7876318
1.324002 -0.6452049 -2.6298437 2.54371 0.93787885 2.268777 1.7234071 1.5642252
-5.8523273 1.5336541 2.2849073 -1.2178594 1.134136 -4.674021 -2.8458786 -2.4017217
00000000: dbfa 7c40 93ae 943f 5ef7 1d40 3620 f9bf
00000010: 923d 2040 be74 2dbf f414 2abf 90b7 98bf
00000020: 0bff 1ebf 6fe7 1340 b00f b23d 70a8 5b3f
00000030: 628c 4ec0 b72d 73bf 0a9c 4340 8f68 3240
00000040: e678 a93f 262c 25bf 5c4f 28c0 25cc 2240
00000050: d418 703f a433 1140 9b98 dc3f 8838 c83f
00000060: 4446 bbc0 c74e c43f ec3b 1240 d1e2 9bbf
00000070: 5e2b 913f 9491 95c0 e022 36c0 cfb5 19c0

85 f4 [32, 32, 3, 3]
-0.12761116 -0.17913403 -0.10693695 -0.033718914 -0.04955997 -0.06522462 0.02834275 0.013886337
-0.06515008 0.036014173 0.06725617 0.060801093 0.014428379 0.025118459 -0.010301944 0.016441828
0.023877826 -0.05389045 -0.07808682 -0.0037158781 0.07209024 0.05050938 0.15197277 0.18146035
0.12649958 0.2312251 0.2648664 -0.02617776 0.025147997 0.07183139 -0.02713023 0.07918554
0.03905335 -0.0241646 0.024034208 -0.10350617 -0.012643195 0.04194558 0.0761364 -0.0456375
-0.029722985 0.015572879 -0.027081009 -0.032369796 -0.01800171 0.05363375 -0.015700394 -0.10115027
0.064996235 0.035798367 -0.039829504 0.080758184 0.021353839 -0.06009076 0.0032060686 -0.0077968696
0.017668491 0.10630708 0.037170812 0.011537815 0.12791005 0.07104498 0.007130384 0.03246068
0.029662056 -0.01753197 0.011160371 -0.030124877 -0.057829507 0.046168633 -0.033763085 -0.047991943
0.01841918 -0.0024356986 0.007956495 0.0303471 -0.0019457281 0.010271547 0.03270905 0.00829901
0.038546875 -0.07537018 -0.032960027 0.0122887455 -0.11117362 -0.047531046 0.0716526 -0.09431786
-0.010595017 0.15692659 0.03513031 0.1158106 0.07798879 -0.08296695 0.07061864 0.101290554
-0.07831429 0.027727319 0.061872065 0.0014508993 0.048240315 0.09665915 -0.028691571 0.03510358
0.09847169 0.031602643 0.088964894 0.16517788 0.014061506 0.05185526 0.028649243 -0.029605726
0.025149357 0.0043278444 -0.0804024 -0.013679152 -0.024060156 0.0071534067 0.037932042 0.027689703
0.0064573605 0.051885907 0.0384476 -0.07222372 -0.025977014 -0.004084671 -0.051669154 0.04325887
-0.010140648 0.034463085 0.106790714 0.11554226 0.028221726 0.1442412 0.21850088 -0.04662998
0.031929802 0.04843492 -0.006710041 0.060471863 0.042117473 -0.21539761 -0.102835484 -0.004606087
0.027372215 -0.014714574 -0.04879361 0.027397849 -0.06757759 -0.050621793 0.008298066 -0.066327736
-0.06385889 0.015950698 0.028253831 -0.016250296 0.04427993 0.048591923 0.022767005 0.07105557
0.06849077 0.07134357 -0.06975236 0.032693606 0.021552386 -0.07016364 -0.05681999 -0.079862766
-0.100170076 -0.11408267 -0.10794383 -0.013437659 -0.070362225 -0.08167259 0.066648595 -0.019505175
-0.014805614 0.12856877 0.0108156465 -0.016724832 0.08121362 0.066581495 0.036634035 0.07260256
0.012336383 0.00467047 0.14762497 0.15000103 0.10898968 0.08388923 0.08730679 0.043072477
0.19194758 0.037710983 -0.054383494 0.20870459 0.057933815 -0.04371114 0.005613171 0.027404685
0.12223791 -0.053302187 -0.02681928 0.04005655 -0.010242365 -0.05734848 -0.024607424 0.016976804
0.014563875 -0.055438597 0.002520787 0.0020455432 -0.0738056 0.011639459 0.019625982 -0.02198645
-0.08495263 0.0121850185 -0.0130187515 -0.08383633 -0.118061505 -0.088056885 0.030277235 -0.018333707
0.013155457 -0.051156268 -0.013510901 -0.04738054 0.039570123 0.042832024 -0.011658349 -0.044157386
-0.019220816 -0.018467158 -0.08303313 -0.0693846 -0.05658117 -0.0032088486 -0.016848251 -0.06519771
-0.010209729 -0.001346799 -0.030457072 0.054771185 0.06000881 0.06525095 0.08614265 0.04905704
-0.026930789 0.0796307 -0.030495226 -0.11268223 -0.04278375 -0.03885735 -0.08268531 -0.020900887
00000000: 80ac 02be e96e 37be c201 dbbd d81c 0abd
00000010: 65ff 4abd 7c94 85bd 0e2f e83c 8583 633c
00000020: 686d 85bd 9983 133d 9abd 893d 910a 793d
00000030: 0265 6c3c 3ac5 cd3c 7cc9 28bc 03b1 863c
00000040: 6e9b c33c 3cbc 5cbd fceb 9fbd 1786 73bb
00000050: 0ca4 933d ece2 4e3d c09e 1b3e bed0 393e
00000060: 1b89 013e 46c6 6c3e 929c 873e be72 d6bc
00000070: 2c03 ce3c 561c 933d 3740 debc 072c a23d
00000080: 68f6 1f3d d7f4 c5bc 63e3 c43c 0bfb d3bd
00000090: 6725 4fbc 21cf 2b3d 67ed 9b3d 63ee 3abd
000000a0: 9e7d f3bc 6425 7f3c fed8 ddbc 3196 04bd
000000b0: 5278 93bc 10af 5b3d 1d9e 80bc df27 cfbd
000000c0: bf1c 853d 4fa1 123d 4324 23bd 8c64 a53d
000000d0: 3fee ae3c bb21 76bd e81c 523b e27c ffbb
000000e0: 83bd 903c 87b7 d93d 6c40 183d 1b09 3d3c
000000f0: dafa 023e 0880 913d ffa5 e93b 7df5 043d
00000100: d7fd f23c 359f 8fbc fdd9 363c 72c8 f6bc
00000110: a2de 6cbd 521b 3d3d 294b 0abd 3393 44bd
00000120: d2e3 963c 3ea0 1fbb f55b 023c 7b9a f83c
00000130: cd07 ffba fe49 283c edf9 053d 92f8 073c
00000140: 54e3 1d3d ae5b 9abd 1801 07bd bc56 493c
00000150: ffae e3bd eaaf 42bd 99be 923d b929 c1bd
00000160: b996 2dbc 5db1 203e cde4 0f3d 1c2e ed3d
00000170: 96b8 9f3d 94ea a9bd 81a0 903d 6c71 cf3d
00000180: 3e63 a0bd 6724 e33c 906d 7d3d 1a2c be3a
00000190: a397 453d 3cf5 c53d 960a ebbc c6c8 0f3d
000001a0: 87ab c93d c671 013d 3a33 b63d 6424 293e
000001b0: 3b62 663c 2e66 543d d1b1 ea3c b587 f2bc
000001c0: 0606 ce3c 97d0 8d3b 03aa a4bd 861e 60bc
000001d0: ce19 c5bc 2067 ea3b a15e 1b3d 84d5 e23c
000001e0: 4498 d33b 5186 543d 3b7b 1d3d 08ea 93bd
000001f0: bfcd d4bc b4d8 85bb 09a3 53bd 3630 313d
00000200: f624 26bc 2a29 0d3d 17b5 da3d 6ca1 ec3d
00000210: 4031 e73c f7b3 133e b2be 5f3e 14ff 3ebd
00000220: d3c8 023d b263 463d e7df dbbb 58b1 773d
00000230: 5f83 2c3d 3191 5cbe 699b d2bd a9ee 96bb
00000240: b23b e03c 6615 71bc cfdb 47bd 7471 e03c
00000250: 1f66 8abd cc58 4fbd 9df4 073c d6d6 87bd
00000260: 73c8 82bd 0aab 823c 9474 e73c 571f 85bc
00000270: df5e 353d 5308 473d df81 ba3c 9585 913d
00000280: e444 8c3d 941c 923d 53da 8ebd bbe9 053d
00000290: a18e b03c f4b1 8fbd 14bc 68bd 178f a3bd
000002a0: f825 cdbd 2da4 e9bd a811 ddbd a029 5cbc
000002b0: 121a 90bd f543 a7bd 0f7f 883d 51c9 9fbc
000002c0: 3f93 72bc 88a7 033e 1c34 313c 8402 89bc
000002d0: 5453 a63d e15b 883d 920d 163d a7b0 943d
000002e0: 8a1e 4a3c be0a 993b 002b 173e df99 193e
000002f0: fb35 df3d 1ece ab3d e7cd b23d c46c 303d
00000300: e88d 443e d576 1a3d 3ac1 5ebd a8b6 553e
00000310: 024c 6d3d 740a 33bd b1ee b73b ca7f e03c
00000320: df57 fa3d 6553 5abd 1bb4 dbbc 5612 243d
00000330: 98cf 27bc 3de6 6abd 8295 c9bc f012 8b3c
00000340: 529d 6e3c 9513 63bd ca33 253b 850e 063b
00000350: 6427 97bd 6eb3 3e3c abc6 a03c ed1c b4bc
00000360: a5fb adbd aca3 473c 9a4c 55bc 62b2 abbd
00000370: 3bca f1bd 2b57 b4bd f707 f83c 9230 96bc
00000380: fc89 573c 3c89 51bd d35c 5dbc 1912 42bd
00000390: 4814 223d a270 2f3d a902 3fbc 60de 34bd
000003a0: f974 9dbc 7048 97bc 460d aabd 8319 8ebd
000003b0: a8c1 67bd 8c4b 52bb 5805 8abc 6186 85bd
000003c0: b546 27bc 1387 b0ba 1c81 f9bc c057 603d
000003d0: cccb 753d 4aa2 853d 8f6b b03d 09f0 483d
000003e0: f59d dcbc 6c15 a33d 20d1 f9bc f1c5 e6bd
000003f0: 033e 2fbd e228 1fbd ea56 a9bd 5638 abbc

86 f4 [32]
-2.0245433 0.73598903 1.1776338 1.1399592 1.5831463 1.1477463 1.1116828 0.28805766
0.8530338 0.6016186 -3.5709312 -0.93828297 -0.5771889 -1.4608899 -1.0494499 -1.2890676
-0.18100423 -0.14622122 -0.88523185 1.4463044 -0.18385388 -0.38953745 -0.8289524 0.4746455
-1.5566027 3.8284025 -2.2872717 -2.3699105 3.1800053 0.300637 -1.4118228 -1.0144047
00000000: 1e92 01c0 c769 3c3f b4bc 963f 2fea 913f
00000010: 8aa4 ca3f 5ae9 923f 9f4b 8e3f 4b7c 933e
00000020: 6c60 5a3f ad03 1a3f 238a 64c0 5033 70bf
00000030: a7c2 13bf 71fe babf 6054 86bf 2b00 a5bf
00000040: 2c59 39be 04bb 15be 8e9e 62bf 8120 b93f
00000050: 3144 3cbe 7471 c7be 3936 54bf bc04 f33e
00000060: c23e c7bf 8c04 7540 a962 12c0 9dac 17c0
00000070: 3585 4b40 18ed 993e 9cb6 b4bf 03d8 81bf

88 f4 [32, 16, 1, 1]
0.05606951 -0.33610463 -0.5599607 0.015793828 -0.1441387 -0.11186486 -0.19314328 0.06854446
-0.004861166 -0.13435143 -0.127209 0.18469638 -0.15305594 -0.019046724 -0.11084527 -0.16588053
-0.034959957 -0.14130503 -0.084788576 -0.18601434 -0.10243027 -0.23413984 0.023456309 0.06597274
0.0015813074 -0.084784605 -0.24164303 0.13023932 -0.19555329 -0.01289754 -0.06240329 -0.054769915
0.7436919 -0.049885426 -0.21553116 -0.06950845 -0.2433996 0.011083897 0.1304654 0.08938223
0.63397604 0.051448632 0.13759866 0.7610832 0.3403194 -0.16181785 0.4678362 0.19735621
0.06230486 0.27534568 0.3095864 0.18698075 0.04761123 0.35438308 -0.2734408 0.027290769
-0.07992812 -0.0008864895 -0.6123503 -0.19113961 -0.3698245 0.12254182 -0.36040372 -0.66654027
-0.09227956 0.885874 0.21477805 -0.40096694 -0.09400453 0.6947464 -0.18118575 0.24536355
0.09738071 0.27539358 -0.32744578 0.2948865 -0.0024744086 0.4540743 -0.7834267 -0.6821192
-0.107562095 -0.004931437 0.07965789 0.050755944 0.18266506 -0.21084388 0.21809794 0.26714694
0.28543597 0.119546086 0.30803928 0.035458516 0.12947059 -0.35447142 0.17695105 0.16648549
-0.0050178138 0.15194476 0.32042855 0.010745793 0.37114966 0.73497117 -0.0064672926 -0.056111563
0.049949348 -0.07639535 -0.1126996 -0.06936456 0.14204325 0.2323513 -0.3539514 0.037889462
0.21539466 0.82240546 0.17038296 0.2111021 0.38278872 0.08827861 -0.08769943 -0.085014425
0.17915446 0.44921523 0.07892302 0.31544682 0.06003905 0.19783403 0.22795562 0.043833625
0.112237506 -0.19637597 -0.2360343 -0.09658984 -0.4869693 0.09632235 -0.2807928 -0.28917924
-0.04868844 0.14720693 -0.6329478 0.41231647 -0.055375803 0.16725712 -0.54157716 -0.14528903
-0.15450746 0.10988067 0.30522236 0.186623 -0.009276901 0.06690477 0.92386067 -0.15005134
-0.36263904 0.110975295 -0.16578308 -0.17028497 -0.07275582 -0.017253134 -0.15526767 0.40052682
0.10767723 0.05138041 -0.076493666 -0.05961689 -0.33358416 -0.03881189 0.19378895 -0.0046374057
0.03249413 -0.034757897 -0.101003654 0.07180998 -0.1694825 0.22031501 0.19342913 0.42693743
-0.024807725 0.036360953 0.106267504 0.16341183 -0.04556518 0.7533363 0.14389046 -0.27051786
-0.036790628 0.02630625 -0.040650733 -0.335775 0.030205248 0.5368993 -0.0208271 -0.14851528
-0.09030808 0.093016855 0.17190474 0.4007769 -0.04784805 -0.0026873064 -0.23524335 0.07653549
0.045869168 0.39884225 -0.15140854 0.21797796 -0.2994665 0.18268298 0.03893196 -0.24622822
0.33069855 -0.22850265 -0.061665945 -0.46017212 0.61741 -0.11217673 0.43289012 0.22870407
0.08536727 -0.18844067 -0.3932437 -0.18153925 -0.15923914 -0.46395144 0.121217564 0.11166174
-0.27188778 -0.10520283 -0.19975081 0.19599466 -0.51350456 0.19483288 0.06446814 -0.14967822
-0.02432599 -0.16172117 0.13299142 -0.075813435 -0.026426485 0.37246192 0.125007 -0.06011963
0.08373766 -0.11074812 -0.02766844 0.25039077 0.024261964 0.5056112 0.26460564 -0.42463782
-0.41837302 -0.014525298 0.030128257 -0.2765352 0.8127632 0.30665693 -0.17625351 -0.048377782
00000000: 24a9 653d e815 acbe 9659 0fbf 0f62 813c
00000010: 1899 13be 6719 e5bd 5ac7 45be 0a61 8c3d
00000020: 6a4a 9fbb 6c93 09be 1343 02be 0c21 3d3e
00000030: b2ba 1cbe e007 9cbc d802 e3bd 96dc 29be
00000040: 2c32 0fbd 44b2 10be a2a5 adbd 8b7a 3ebe
00000050: f6c6 d1bd 5bc2 6fbe 7227 c03c b71c 873d
00000060: df43 cf3a 8da3 adbd 4571 77be 755d 053e
00000070: 1f3f 48be 3450 53bc 989a 7fbd 6b56 60bd
00000080: 9862 3e3f a954 4cbd 33b4 5cbe 725a 8ebd
00000090: bf3d 79be 3c99 353c b998 053e 080e b73d
000000a0: 414c 223f cdbb 523d aae6 0c3e 59d6 423f
000000b0: 583e ae3e 94b3 25be 3a88 ef3e bf17 4a3e
000000c0: 6233 7f3d 1cfa 8c3e 1c82 9e3e e277 3f3e
000000d0: fe03 433d b371 b53e 6f00 8cbe e490 df3c
000000e0: 5bb1 a3bd 4e63 68ba fdc2 1cbf 1aba 43be
000000f0: a359 bdbe 35f7 fa3d d686 b8be 62a2 2abf
00000100: 11fd bcbd a3c8 623f c7ee 5b3e 8a4b cdbe
00000110: 7285 c0bd e6da 313f c288 39be 9540 7b3e
00000120: 8a6f c73d 6300 8d3e f9a6 a7be 5dfb 963e
00000130: b029 22bb 6d7c e83e a78e 48bf 5d9f 2ebf
00000140: 8449 dcbd e497 a1bb ad23 a33d 77e5 4f3d
00000150: 8d0c 3b3e 75e7 57be 1155 5f3e 7cc7 883e
00000160: aa24 923e 94d4 f43d 53b7 9d3e f33c 113d
00000170: f093 043e 477d b5be a832 353e 2c7b 2a3e
00000180: 796c a4bb 6897 1b3e 360f a43e 1f0f 303c
00000190: 5407 be3e 1227 3c3f 95eb d3bb 3dd5 65bd
000001a0: b097 4c3d 2a75 9cbd 0ccf e6bd 020f 8ebd
000001b0: c973 113e 80ed 6d3e 1e39 b5be fb31 1b3d
000001c0: 6b90 5c3e 2a89 523f df78 2e3e 262b 583e
000001d0: e2fc c33e 6acb b43d c29b b3bd 0b1c aebd
000001e0: 4474 373e 8aff e53e 64a2 a13d 3f82 a13e
000001f0: 82eb 753d 0195 4a3e 336d 693e e38a 333d
00000200: c7dc e53d c816 49be fab2 71be e5d0 c5bd
00000210: 0a54 f9be a744 c53d 13c4 8fbe 4d0f 94be
00000220: 886d 47bd 6abd 163e de08 22bf 251b d33e
00000230: bdd1 62bd 7345 2b3e cda4 0abf a6c6 14be
00000240: 3437 1ebe 1e09 e13d 1b46 9c3e 1a1a 3f3e
00000250: 25fe 17bc 5e05 893d 2282 6c3f 0fa7 19be
00000260: d3ab b9be 0447 e33d 0ac3 29be 2f5f 2ebe
00000270: 0101 95bd 7256 8dbc 7dfe 1ebe da11 cd3e
00000280: e185 dc3d 4474 523d b6a8 9cbd d730 74bd
00000290: 8bcb aabe 37f9 1ebd 9c70 463e 61f5 97bb
000002a0: 9118 053d 4c5e 0ebd 01db cebd 1c11 933d
000002b0: d28c 2dbe 429a 613e 4912 463e 8b97 da3e
000002c0: 9239 cbbc 39ef 143d c7a2 d93d 6e55 273e
000002d0: 8ea2 3abd a6da 403f 0558 133e 5181 8abe
000002e0: c5b1 16bd 3480 d73c 6281 26bd b3ea abbe
000002f0: ff70 f73c 3c72 093f 989d aabc 6414 18be
00000300: 71f3 b8bd 9f7f be3d cc07 303e a132 cd3e
00000310: 51fc 43bd 851d 30bb a2e3 70be a4be 9c3d
00000320: 4fe1 3b3d 0d35 cc3e d70a 1bbe 9d35 5f3e
00000330: ac53 99be 3f11 3b3e 1e77 1f3d 4023 7cbe
00000340: 5251 a93e 99fc 69be 6e95 7cbd ae9b ebbe
00000350: 950e 1e3f eabc e5bd c6a3 dd3e 6631 6a3e
00000360: 09d5 ae3d 97f6 40be 3d57 c9be 6de5 39be
00000370: 960f 23be 0b8b edbe ea40 f83d e9ae e43d
00000380: e034 8bbe 9574 d7bd 7a8b 4cbe d3b2 483e
00000390: 0975 03bf 4582 473e df07 843d 3f45 19be
000003a0: 4c47 c7bc 3c9a 25be e72e 083e 1344 9bbd
000003b0: 5b7c d8bc 54b3 be3e d601 003e 0040 76bd
000003c0: a67e ab3d e9cf e2bd eda8 e2bc 3833 803e
000003d0: 07c1 c63c bc6f 013f 647a 873e 216a d9be
000003e0: fd34 d6be 84fb 6dbc 89cf f63c 0696 8dbe
000003f0: 4011 503f 2302 9d3e cd7b 34be c827 46bd

89 f4 [32]
1.6741623 1.9001014 -4.946346 2.4051607 -0.71871006 -3.3717635 -3.3357382 -3.9567156
4.208545 -2.2581367 -0.74516726 -2.609856 0.26007313 0.29014882 0.21195039 -3.8189318
0.09211433 4.610269 -4.084226 -4.397544 6.230041 -1.2105734 -1.7431135 -1.1232277
-3.194344 7.5393567 -1.2761744 -0.68660676 -0.3121953 7.702574 -2.262689 2.5425906
00000000: f34a d63f 8636 f33f 7748 9ec0 27ee 1940
00000010: 62fd 37bf f9ca 57c0 bc7c 55c0 d43a 7dc0
00000020: 67ac 8640 5085 10c0 48c3 3ebf e107 27c0
00000030: 4e28 853e 638e 943e 8609 593e 6169 74c0
00000040: 70a6 bc3d 5387 9340 fbb1 82c0 aeb8 8cc0
00000050: 7f5c c740 12f4 9abf 581e dfbf edc5 8fbf
00000060: 2270 4cc0 6942 f140 af59 a3bf 76c5 2fbf
00000070: 10d8 9fbe 7c7b f640 e6cf 10c0 ceb9 2240

91 f4 [64, 32, 3, 3]
-0.0034821099 -0.049938284 -0.08032571 0.022567721 -0.024507137 -0.054591075 0.016597819 0.003423969
-0.011672304 0.022805026 0.061406597 0.019319527 0.06100603 0.05792477 -0.025156993 0.047586463
0.05528286 -0.0129079195 -0.036827132 -0.014194002 0.0043032635 0.044509567 0.006984741 -0.03626971
0.007202575 -0.04241715 -0.07117424 0.010138124 0.06809144 -0.04795147 0.03143619 -0.02403097
0.010750447 0.045229457 0.022706555 -0.011658121 -0.076973595 -0.044918608 0.0016922622 0.012217152
-0.017188124 0.029452905 -0.022784539 -0.039424427 -0.008674212 0.03967631 0.07312688 0.029781882
0.03422267 0.017955856 -0.015030208 -0.0020190964 -0.02804844 -0.013830864 -0.02432347 -0.046709556
0.008946294 0.024123654 -0.02054065 -0.020507613 0.044430263 -0.029877312 -0.011740985 -0.015271394
0.007347572 0.0827892 0.041897178 0.023026677 0.058693595 -0.042725325 -0.03481409 0.019929735
0.04736156 0.020180343 -0.017927201 0.08107216 0.051367484 0.058806546 0.14688216 0.11949651
0.12013716 -0.0272156 -0.012122362 0.009562935 -0.02944404 0.01951289 0.04839797 -0.03675761
-0.010377309 0.025966715 0.018445078 0.0029884353 -0.025726415 -0.010259043 -0.003415388 -0.023907809
-0.05481946 -0.07672268 -0.023305142 0.0052702692 -0.018326497 -0.025928574 0.01772318 0.0075707925
0.023534052 0.04612255 0.041082814 0.021359017 0.08410431 0.05849102 0.04837673 0.091147624
0.0726999 0.05909006 0.043719847 -0.011237667 -0.06875177 0.001660335 0.014233262 0.006874612
-0.017746633 -0.011702267 -0.019334164 -0.028994124 -0.03509457 -0.07347385 -0.037904285 -0.03049059
-0.09965534 -0.03457471 0.030965978 0.00434351 -0.043792367 0.0045392956 -0.01647985 -0.062006675
-0.04705215 -0.013974836 0.059188437 0.022393 0.05229642 0.027629107 0.0269996 -0.009097395
0.029187752 -0.040886793 0.017142724 -0.020409469 -0.053469233 -0.08210666 0.024918405 -0.054715846
-0.04884397 0.045208827 0.05953012 0.016849004 0.018992 0.053838626 -0.0073368787 -0.03976862
0.001666699 -0.10320059 -0.046926 -0.019561198 0.10962091 0.003603992 0.0016254093 0.064071864
-0.0117055075 0.0019076845 0.13267273 -0.033356994 0.027933981 0.024374656 0.04792069 0.017086325
0.03274678 0.06701211 0.11100093 0.1181869 0.028194899 0.010816382 -0.0678617 0.030375598
-0.017378202 -0.04031207 0.035952494 0.027090361 0.0106995525 -0.00916855 0.01769767 0.072151
-0.000597432 0.024022138 0.031778254 -0.0005599989 0.0030056427 0.015713425 -0.0348315 -0.07568195
0.029723667 0.018593658 0.018428419 0.021246672 -0.027149417 -0.049185876 0.009799417 -0.03277932
-0.01309904 -0.005499025 0.06999098 0.01697521 0.011362276 0.06751493 0.016021963 0.0050080647
-0.040913187 0.045634616 0.007462994 0.11532871 0.054810625 0.045805793 -0.0018875127 0.027439553
-0.008276808 0.067945346 0.09568496 0.070948675 0.08318858 0.02500371 -0.081792764 -0.0014671442
-0.049622625 -0.08252831 0.016047075 0.032715775 -0.009073774 -0.0065446426 0.0014321845 0.010394736
-0.01531789 -0.04547023 0.007784824 0.037258103 -0.020435555 -0.08119294 0.0013671162 -0.013781732
-0.023997743 -0.05016649 -0.08574946 -0.03609803 -0.007107737 0.0033510602 0.024296347 0.05429541
00000000: 1c34 64bb 168c 4cbd ce81 a4bd f1df b83c
00000010: 31c3 c8bc e49a 5fbd 26f8 873c ab64 603b
00000020: 313d 3fbc 9bd1 ba3c 7c85 7b3d fc43 9e3c
00000030: 75e1 793d 8642 6d3d 0a16 cebc 06ea 423d
00000040: 4870 623d bd7b 53bc 0cd8 16bd f68d 68bc
00000050: 6402 8d3b aa4f 363d 41e0 e43b 8c8f 14bd
00000060: 9403 ec3b 9bbd 2dbd cdc3 91bd 601a 263c
00000070: 8673 8b3d c368 44bd 3cc3 003d 99dc c4bc
00000080: a522 303c 8642 393d 1903 ba3c b401 3fbc
00000090: 55a4 9dbd 93fc 37bd e6ce dd3a 732a 483c
000000a0: 1cce 8cbc 3847 f13c a4a6 babc 827b 21bd
000000b0: 481e 0ebc a083 223d 8cc3 953d 22f9 f33c
000000c0: 122d 0c3d 2918 933c 4341 76bc d152 04bb
000000d0: d8c5 e5bc d99a 62bc 0442 c7bc 8552 3fbd
000000e0: 7a93 123c f89e c53c dd44 a8bc 95ff a7bc
000000f0: 82fc 353d 44c1 f4bc 435d 40bc de34 7abc
00000100: e7c3 f03b 628d a93d 609c 2b3d 71a2 bc3c
00000110: b268 703d c000 2fbd 3899 0ebd af43 a33c
00000120: 32fe 413d 3f51 a53c 11dc 92bc 2909 a63d
00000130: b666 523d 22df 703d 4768 163e 96ba f43d
00000140: 790a f63d 40f3 debc df9c 46bc dbad 1c3c
00000150: a134 f1bc 7fd9 9f3c f33c 463d 268f 16bd
00000160: 9705 2abc 26b8 d43c 221a 973c a0d9 433b
00000170: 34c0 d2bc 8c15 28bc b4d4 5fbb 4fda c3bc
00000180: 5f8a 60bd c820 9dbd 6dea bebc 39b2 ac3b
00000190: 7321 96bc 2968 d4bc 3430 913c 6914 f83b
000001a0: 7cca c03c 00eb 3c3d 7446 283d 1bf9 ae3c
000001b0: e13e ac3d 4894 6f3d ae26 463d 9bab ba3d
000001c0: afe3 943d 6b08 723d 9513 333d 311e 38bc
000001d0: bacd 8cbd 999f d93a a132 693c 6d44 e13b
000001e0: 6361 91bc deba 3fbc ae62 9ebc 1685 edbc
000001f0: 53bf 0fbd 7579 96bd 8641 1bbd 67c7 f9bc
00000200: 1918 ccbd 369e 0dbd 5dac fd3c 0154 8e3b
00000210: a05f 33bd 5fbe 943b c000 87bc b6fa 7dbd
00000220: c1b9 40bd b6f6 64bc 936f 723d 8671 b73c
00000230: c534 563d 7056 e23c 442e dd3c 3e0d 15bc
00000240: 271b ef3c e978 27bd e66e 8c3c c231 a7bc
00000250: 8e02 5bbd 8927 a8bd af21 cc3c b91d 60bd
00000260: 9d10 48bd e42c 393d dbd5 733d ec06 8a3c
00000270: 1c95 9b3c e485 5c3d 336a f0bb 6ce4 22bd
00000280: 2375 da3a d55a d3bd 7a35 40bd ce3e a0bc
00000290: ed80 e03d f430 6c3b b00b d53a 1c38 833d
000002a0: 75c8 3fbc 450b fa3a 5cdb 073e 58a1 08bd
000002b0: ced5 e43c 5cad c73c 7c48 443d 9ff8 8b3c
000002c0: 7d21 063d a53d 893d 7554 e33d f90b f23d
000002d0: fdf8 e63c 3237 313c 13fb 8abd 3fd6 f83c
000002e0: bb5c 8ebc 451e 25bd ec42 133d 9bec dd3c
000002f0: 2d4d 2f3c b037 16bc b4fa 903c e7c3 933d
00000300: fc9c 1cba 13ca c43c ea29 023d e4cc 12ba
00000310: 51fa 443b 71b9 803c 7aab 0ebd 23ff 9abd
00000320: 0c7f f33c ba51 983c 32f7 963c 800d ae3c
00000330: 7468 debc 2177 49bd bc8d 203c 9c43 06bd
00000340: 5b9d 56bc 2a31 b4bb 6e57 8f3d 980f 8b3c
00000350: d728 3a3c 4545 8a3d 7e40 833c b11a a43b
00000360: 9694 27bd 5deb 3a3d 228c f43b 7531 ec3d
00000370: 1b81 603d db9e 3b3d 6b66 f7ba eac8 e03c
00000380: 739b 07bc ee26 8b3d 7af6 c33d 8a4d 913d
00000390: c65e aa3d 95d4 cc3c f782 a7bd 314d c0ba
000003a0: 1841 4bbd 9a04 a9bd 2875 833c fa00 063d
000003b0: 2baa 14bc 7174 d6bb 23b8 bb3a af4e 2a3c
000003c0: e3f7 7abc fe3e 3abd d617 ff3b f49b 183d
000003d0: 7768 a7bc 7c48 a6bd cf30 b33a c6cc 61bc
000003e0: ea96 c4bc 617b 4dbd 6a9d afbd 87db 13bd
000003f0: 05e8 e8bb 769d 5b3b 2209 c73c dd64 5e3d

92 f4 [64]
-2.3694925 -2.1692953 -0.5422277 2.4749398 -0.06995231 1.5619848 -2.4373753 0.8291533
-2.6106946 1.7747848 0.6711415 0.60869515 -6.508035 0.31214488 -1.0249535 -0.118518114
2.0959656 -0.14479053 -0.27077705 0.65222096 -0.79430044 -1.4608531 -0.44658244 -0.6388478
-0.32544017 -1.0968895 3.232772 1.174114 0.9097879 0.8509217 0.42745256 -0.91444963
0.1801132 0.35305703 0.56641144 -4.9778624 -0.86595964 -0.92024827 -1.6492937 -1.9719119
-1.9635159 0.25312495 1.3167434 -1.0408959 -1.1756517 -3.2473445 0.5644952 0.8238418
1.9902594 -3.7049818 0.11859965 -0.2590543 -0.5405604 -2.0381901 -1.4900192 -1.1152904
-0.88602465 2.26661 2.3374503 0.92933476 2.701966 -0.1015794 -0.18359256 3.627214
00000000: c4a5 17c0 bcd5 0ac0 6fcf 0abf 6a65 1e40
00000010: 2843 8fbd 1eef c73f f5fd 1bc0 6443 543f
00000020: 9f15 27c0 262c e33f eecf 2b3f 72d3 1b3f
00000030: d341 d0c0 74d1 9f3e ad31 83bf a0b9 f2bd
00000040: 4d24 0640 f843 14be 4aa3 8abe f4f7 263f
00000050: 4657 4bbf 3cfd babf 74a6 e4be 888b 23bf
00000060: 18a0 a6be e066 8cbf bde5 4e40 5e49 963f
00000070: dce7 683f 01d6 593f 10db da3e 5f19 6abf
00000080: 986f 383e e4c3 b43e 5700 113f a64a 9fc0
00000090: 88af 5dbf 6495 6bbf 0e1c d3bf 9c67 fcbf
000000a0: 7d54 fbbf 9899 813e 0c8b a83f 143c 85bf
000000b0: c17b 96bf 7ed4 4fc0 c282 103f 4ce7 523f
000000c0: d2c0 fe3f 6c1e 6dc0 60e4 f23d c4a2 84be
000000d0: 2b62 0abf b571 02c0 f3b8 bebf d6c1 8ebf
000000e0: 83d2 62bf 2310 1140 c998 1540 e2e8 6d3f
000000f0: 03ed 2c40 dc08 d0bd b0ff 3bbe 4624 6840

94 f4 [64, 64, 3, 3]
0.0041543627 -0.12532315 -0.012150781 -0.0068707117 -0.09533428 0.017499533 -0.09527267 0.008474944
0.03276333 -0.010623787 -0.061412487 0.014513994 0.060928248 0.0030033356 0.066139325 0.01287037
-0.09425687 -0.02658979 -0.074179426 -0.0013378386 -0.066474035 -0.021852553 0.02752206 -0.007104604
0.014169988 -0.02889124 0.02968882 -0.07762956 -0.07537854 0.016712684 -0.018926673 -0.039377283
-0.08740143 0.0023958618 -0.008129854 0.0081393495 0.062485255 0.07568395 -0.01091805 0.0072599277
0.08032447 0.06890393 -0.021120848 -0.11299437 -0.07339145 0.073245645 -0.05578234 -0.0124968635
-0.011642777 0.027528867 0.05928086 0.050735343 0.029643951 0.028870838 -0.050758813 -0.107654825
-0.08495348 -0.037782937 0.051230893 0.06303642 -0.09537546 0.03905067 0.07459667 -0.0546047
0.016297085 -0.03656659 -0.07580503 0.01664985 0.028873477 0.0064358115 0.070679285 0.09569298
-0.0075033014 0.04040855 0.008835585 0.020082794 0.0033937236 0.005623721 0.04273036 -0.020776736
-0.04341435 -0.025624203 0.0059401426 -0.06984621 -0.005387254 0.018531842 -0.03277491 -0.03871142
0.034732495 0.062827975 -0.020934956 -0.0730239 -0.010381976 0.0057040104 -0.019929117 -0.056033254
0.057663232 -0.0075247423 -0.07663659 0.037645068 0.05694589 -0.034363177 -0.0097965645 -0.03258665
-0.06631172 -0.012007603 0.09080585 0.07503829 -0.018429264 -0.04209175 -0.06525674 -0.058251638
-0.022408685 -0.03438857 0.026123654 0.0017215719 -0.023887202 -0.040999215 -0.043393023 -0.020932952
-0.0014997993 -0.013003898 0.068945 0.04100511 0.049123544 0.108235516 0.007697456 -0.054750845
-0.0865052 -0.027802272 0.030290855 -0.010807408 -0.018386884 0.032950483 0.040857133 -0.0028757423
-0.010236994 0.037255224 0.07020953 -0.04713763 0.030736873 0.11759018 0.040740438 0.092886336
0.008638588 0.006214418 0.027190894 -0.035131563 0.015754748 -0.085547715 -0.037687246 -0.032425374
-0.00872854 -0.0038883206 -0.0064791865 -0.08449277 -0.043750353 -0.10440119 -0.041183125 -0.019723607
-0.04276141 -0.04702548 -0.040305167 0.04510985 0.008826763 -0.035813004 -0.020723876 -0.03490327
-0.10748745 0.01997253 0.05572337 -0.01926393 0.002611962 0.049466487 -0.037774663 -0.052458055
0.012777371 -0.054092277 0.009991581 0.06511417 -0.041412 0.032401457 0.021971228 -0.0132348975
-0.04367715 -0.06669398 0.08052936 0.045644842 0.057782087 0.014086202 0.045125607 0.05200868
-0.067370415 0.048933018 0.0036387518 -0.099561535 0.05633534 0.013939742 -0.05227342 0.027936794
-0.047759682 0.06282557 -0.0060142633 0.10453185 -0.048963904 -0.04075093 0.015594678 0.006941096
-0.027274707 0.009737449 -0.04243031 -0.108552575 -0.02134954 -0.038515892 -0.037573498 -0.02986134
0.060110625 -0.052518416 -0.0013515332 0.016762245 -0.058937598 0.039623357 0.035234474 0.014260654
0.11881881 -0.0150259435 -0.00911084 -0.0068056737 -0.03329362 0.0026366883 0.026949603 -0.014244245
0.061138723 0.016225532 -0.046479657 -0.056333363 -0.0538002 0.0070541822 0.0001835659 0.0032465581
0.040777713 0.014348628 0.014485692 -0.029522166 0.0074132155 -0.055002015 -0.068349786 0.013877243
0.0812764 -0.028767062 0.01703436 0.09398415 0.026300523 0.03840329 0.059373897 0.048951928
00000000: 5221 883b b654 00be 1214 47bc b523 e1bb
00000010: 9e3e c3bd 2e5b 8f3c 511e c3bd 7eda 0a3c
00000020: d732 063d 640f 2ebc a98b 7bbd 1acc 6d3c
00000030: e68f 793d 9cd3 443b 0e74 873d 3fde 523c
00000040: bf09 c1bd d5d2 d9bc 62eb 97bd 6a5a afba
00000050: 8a23 88bd 2004 b3bc f175 e13c bdcd e8bb
00000060: 3d29 683c 52ad ecbc f835 f33c 3ffc 9ebd
00000070: 1060 9abd 0ae9 883c 1c0c 9bbc 134a 21bd
00000080: 85ff b2bd e403 1d3b 1433 05bc e85a 053c
00000090: 8af0 7f3d 3000 9b3d 9fe1 32bc b0e4 ed3b
000000a0: 2881 a43d 811d 8d3d a105 adbc 9869 e7bd
000000b0: 424e 96bd d001 963d 067c 64bd a5bf 4cbc
000000c0: 59c1 3ebc 3884 e13c 7dd0 723d ddcf 4f3d
000000d0: dfd7 f23c 8982 ec3c 79e8 4fbd 227a dcbd
000000e0: 17fc adbd 48c2 1abd 7cd7 513d 3d19 813d
000000f0: 3654 c3bd 98f3 1f3d 24c6 983d 2ea9 5fbd
00000100: 7781 853c d9c6 15bd ab3f 9bbd 4465 883c
00000110: 1288 ec3c 80e3 d23b 4dc0 903d aefa c33d
00000120: 41de f5bb 7083 253d 21c3 103c ac84 a43c
00000130: 3c69 5e3b 3147 b83b 0806 2f3d f933 aabc
00000140: 3fd3 31bd d9e9 d1bc 87a5 c23b 880b 8fbd
00000150: 9087 b0bb 17d0 973c fc3e 06bd de8f 1ebd
00000160: a943 0e3d f4ab 803d c97f abbc 8e8d 95bd
00000170: 2a19 2abc b5e8 ba3b 6342 a3bc 2083 65bd
00000180: 4830 6c3d 1d92 f6bb a5f3 9cbd b731 1a3d
00000190: 1840 693d 67c0 0cbd c581 20bc 9479 05bd
000001a0: 70ce 87bd 8abb 44bc 6bf8 b93d adad 993d
000001b0: f8f8 96bc 6668 2cbd 53a5 85bd 4599 6ebd
000001c0: 6b92 b7bc 07db 0cbd 4601 d63c 5ea6 e13a
000001d0: 18af c3bc cbee 27bd e2bc 31bd 957b abbc
000001e0: ea94 c4ba 4d0e 55bc 0933 8d3d f9f4 273d
000001f0: c535 493d 95aa dd3d f13a fc3b 6c42 60bd
00000200: a329 b1bd 97c1 e3bc 8724 f83c 8e11 31bc
00000210: 17a0 96bc 16f7 063d cf59 273d f376 3cbb
00000220: 11b9 27bc ef98 183d 04ca 8f3d 6313 41bd
00000230: e5cb fb3c 1fd3 f03d 72df 263d 313b be3d
00000240: dd88 0d3c 51a2 cb3b 70bf de3c 1de6 0fbd
00000250: 1a10 813c a433 afbd f15d 1abd 78d0 04bd
00000260: 2602 0fbc 32d3 7ebb 5b4f d4bb 8c0a adbd
00000270: 9233 33bd 4bd0 d5bd a3af 28bd 6793 a1bc
00000280: 9726 2fbd ca9d 40bd 0817 25bd 1bc5 383d
00000290: 219e 103c a8b0 12bd 1ec5 a9bc bbf6 0ebd
000002a0: 6122 dcbd 6e9d a33c 303e 643d 64cf 9dbc
000002b0: 732d 2b3b 5f9d 4a3d 9bb9 1abd 42de 56bd
000002c0: 2e58 513c dd8f 5dbd bab3 233c 945a 853d
000002d0: a19f 29bd 64b7 043d 01fd b33c 2fd7 58bc
000002e0: d0e6 32bd da96 88bd 94ec a43d 16f6 3a3d
000002f0: e9ac 6c3d d0c9 663c a1d5 383d 0e07 553d
00000300: 80f9 89bd fd6d 483d 2078 6e3b ebe6 cbbd
00000310: e3bf 663d 8463 643c a71c 56bd b4db e43c
00000320: a89f 43bd b1aa 803d 4c13 c5bb cb14 d63d
00000330: 608e 48bd 72ea 26bd d280 7f3c 2272 e33b
00000340: 356f dfbc d289 1f3c 68cb 2dbd d050 debd
00000350: 3be5 aebc d7c2 1dbd abe6 19bd c59f f4bc
00000360: 8f36 763d 8d1d 57bd ee25 b1ba fa50 893c
00000370: 8d68 71bd 1a4c 223d 0652 103d 85a5 693c
00000380: 4757 f33d 602f 76bc a245 15bc 2102 dfbb
00000390: e45e 08bd 4acc 2c3b 6ac5 dc3c b260 69bc
000003a0: 996c 7a3d 68eb 843c 7461 3ebd d0bd 66bd
000003b0: 995d 5cbd c526 e73b 997b 4039 35c4 543b
000003c0: 8806 273d 8216 6b3c 6555 6d3c 78d8 f1bc
000003d0: 8fea f23b cb49 61bd f9fa 8bbd 605d 633c
000003e0: 3e74 a63d e7a8 ebbc a48b 8b3c c37a c03d
000003f0: 3274 d73c c54c 1d3d 0b32 733d d181 483d

95 f4 [64]
-1.0019782 -0.8908384 1.0477546 2.6049638 -0.5595718 -0.36200166 0.15070927 1.162214
-1.3582677 -0.6779645 0.03156221 -0.8063203 -0.43256342 -0.6457311 -1.5890679 0.07583439
-1.2901081 1.2672293 1.205239 0.4076618 -0.17669356 -1.2309813 -1.5632945 -0.83053064
0.82583666 2.2784681 -1.0735762 3.6258402 -0.73037475 0.13796926 -0.5263121 0.63680923
-0.85762876 -0.521098 -1.5803803 -1.1825761 -1.5392647 -1.8959894 -0.61147165 -0.15545535
-2.2713437 -1.593435 -0.71514475 -0.385823 0.07653415 -1.2395321 -0.55345696 -2.1454365
-0.9125178 3.540925 2.1550717 -0.2764794 0.09405267 -1.5157346 -0.33081788 -0.42087066
2.0224335 -1.2357846 1.8963021 0.68989456 0.9845333 -0.9244219 0.036310554 0.30329186
00000000: d240 80bf fc0d 64bf d31c 863f bab7 2640
00000010: 1940 0fbf 4858 b9be 8853 1a3e 6ec3 943f
00000020: b7db adbf 158f 2dbf 6047 013d 026b 4ebf
00000030: f478 ddbe a24e 25bf 9466 cbbf 104f 9b3d
00000040: 4322 a5bf 9234 a23f 4645 9a3f 0cb9 d03e
00000050: 28ef 34be cc90 9dbf 091a c8bf a89d 54bf
00000060: 086a 533f 6cd2 1140 f26a 89bf c40d 6840
00000070: d7f9 3abf d047 0d3e 64bc 06bf ee05 233f
00000080: 8f8d 5bbf ae66 05bf e749 cabf a75e 97bf
00000090: a006 c5bf c8af f2bf 6889 1cbf b02f 1fbe
000000a0: b25d 11c0 aef5 cbbf ba13 37bf 988a c5be
000000b0: f0bd 9c3d fda8 9ebf 5baf 0dbf d54e 09c0
000000c0: c49a 69bf 849e 6240 b2ec 0940 b58e 8dbe
000000d0: b09e c03d 9703 c2bf f660 a9be 5c7c d7be
000000e0: 8d6f 0140 312e 9ebf 07ba f23f ee9c 303f
000000f0: 600a 7c3f eaa6 6cbf 60ba 143d 1249 9b3e
