model/giraffe.onnx (onnx, 301496 bytes, 16 tensors)

fc.weight f4 [2, 256]
0	0xbe094a90	-0.1340735
1	0xbeeac42c	-0.45852792
2	0xbb8a2346	-0.0042156307
3	0xbec59ed9	-0.38597754
4	0x3f34679d	0.704706
5	0x3efbfe83	0.49217615
6	0x3f3bf424	0.73419404
7	0x3eedb9b4	0.46430743
8	0xbc2101d6	-0.009827098
9	0xbe87648a	-0.26443893
10	0x3c663701	0.0140512
11	0xbe34dfe4	-0.17663532
12	0xbe26342f	-0.16230844
13	0xbe6b2c78	-0.22966182
14	0xbe97bf16	-0.29637975
15	0xbea4e602	-0.32206732
16	0x3f16f14e	0.5896195
17	0x3ee93dea	0.4555505
18	0x3ec52c99	0.38510588
19	0x3e75c12e	0.23999473
20	0xbec68555	-0.387736
21	0xbec972e6	-0.39345473
22	0x3ea923a5	0.33035007
23	0x3e7f004e	0.2490246
24	0xbecae412	-0.3962713
25	0xbe857aca	-0.26070243
26	0xbda463d7	-0.080268554
27	0x3df2b859	0.11851568
28	0xbe95c62d	-0.2925276
29	0xbe8f6a5d	-0.28010836
30	0xbe8f859e	-0.2803163
31	0xbdf1b08c	-0.11801252
32	0x3e8e0e94	0.27745497
33	0x3ec6532b	0.38735327
34	0x3d26ac16	0.040691458
35	0x3da7df23	0.08196857
36	0xbe8fafdb	-0.28063855
37	0xbe8d7a15	-0.27632204
38	0xbe766a97	-0.24064098
39	0xbe61df9e	-0.2205796
40	0x3c54c20d	0.012985718
41	0x3e0ae269	0.13562931
42	0x3e92d9c8	0.2868178
43	0x3eecc00c	0.4624027
44	0xbe30dd2a	-0.17271867
45	0xbdd65ad8	-0.10466546
46	0xbbaed78e	-0.0053357547
47	0x3c0691f7	0.008213512
48	0x3e204ff7	0.15655504
49	0xbed55788	-0.41668344
50	0x3e8e052e	0.27738327
51	0xbe8a3983	-0.26997003
52	0xbe8462b9	-0.2585657
53	0xbeb630eb	-0.35584196
54	0x3e6ac6b3	0.2292736
55	0x3e4c8577	0.19972788
56	0x3e803530	0.2504058
57	0x3e2013a9	0.156325
58	0xbdf9fa54	-0.122059494
59	0xbe29eab2	-0.16593435
60	0x3d80880b	0.06275948
61	0xbd430317	-0.04761037
62	0xbd69a9b7	-0.05704662
63	0xbde2cde4	-0.11074427
64	0xbf00b9d3	-0.50283545
65	0xbe9949e1	-0.29939178
66	0x3d061171	0.032731477
67	0x3e6569f7	0.22403704
68	0xbe2f00d8	-0.17090166
69	0xbe005d90	-0.12535691
70	0xbd07ab3a	-0.03312228
71	0x3de6b0e3	0.11264207
72	0xbe86be54	-0.26317084
73	0xbe2d4af9	-0.16923131
74	0xbdf830d8	-0.12118691
75	0xbda560fe	-0.080751404
76	0xbeaf95cf	-0.34293982
77	0xbe1b112e	-0.15143272
78	0x3c828ea0	0.01593715
79	0x3e2dfdcb	0.16991346
80	0xbee08e82	-0.43858725
81	0xbecfa9bf	-0.40559193
82	0x3e319a85	0.17344101
83	0x3e2ee110	0.17078042
84	0xbd0a8520	-0.033818364
85	0x3c9563a5	0.01823599
86	0xbda668bd	-0.08125446
87	0xbe1a5502	-0.1507149
88	0xbe9e0f65	-0.3087112
89	0xbec70553	-0.3887125
90	0x3e0aeeec	0.13567704
91	0x3c879d40	0.016554475
92	0xbe580337	-0.21094976
93	0xbe78ad94	-0.24284965
94	0xbed60738	-0.41802382
95	0xbeec35b7	-0.4613473
96	0xbe913a01	-0.28364566
97	0xbe0f16ce	-0.13973543
98	0xbe88d46e	-0.2672457
99	0xbe84838b	-0.2588161
100	0x3c5d63eb	0.013512592
101	0x3ed54163	0.4165145
102	0xbd20edaf	-0.039289173
103	0x3ee98158	0.45606494
104	0xbdb5b2a2	-0.08871962
105	0xbeea2ec9	-0.4573882
106	0x3ef077e2	0.46966463
107	0x3e0ba0a8	0.13635504
108	0x3e5b28d7	0.21402298
109	0xbe34220e	-0.17591116
110	0x3dc832f5	0.09775344
111	0xbe0d0179	-0.13770093
112	0xbe795002	-0.24346927
113	0xbe6c41a0	-0.23071909
114	0xbe9c85ec	-0.30570924
115	0xbe8d28f3	-0.27570304
116	0xbe3812e1	-0.17975952
117	0xbefe03da	-0.49612314
118	0x3dfec196	0.12439267
119	0xbe65b512	-0.22432354
120	0xbe4c1848	-0.19931138
121	0xbe876e87	-0.26451513
122	0xbea20295	-0.31642595
123	0xbe76a6b5	-0.24087031
124	0xbdae271f	-0.085035555
125	0xbe1438ac	-0.14474744
126	0x3d4e0409	0.050296817
127	0x3ccd91d4	0.02509395
128	0xbe7590e0	-0.23981047
129	0xbe8d1cdd	-0.27561083
130	0xbeb59e81	-0.3547249
131	0xbe9aab31	-0.30208734
132	0xbe96608f	-0.29370543
133	0xbee7fd1b	-0.45310292
134	0x3ea3705a	0.31921655
135	0x3e935b24	0.28780472
136	0xbf015084	-0.5051348
137	0x3eb1a06a	0.346927
138	0xbf1aa737	-0.604114
139	0x3e9c8b49	0.30575016
140	0x3d16f8d3	0.03685839
141	0x3d12e29a	0.035860635
142	0x3e3775c8	0.17916024
143	0x3df52baf	0.119712226
144	0xbdcc8e07	-0.09988027
145	0xbd1b6621	-0.037939195
146	0x3e943b91	0.28951696
147	0x3e2c8550	0.1684773
148	0xbe8d37f4	-0.2758175
149	0xbea230fc	-0.31677997
150	0xbe310a3f	-0.17289065
151	0xbe7232b8	-0.2365216
152	0xbe0c0417	-0.13673435
153	0xbefeafaf	-0.4974341
154	0x3e5dafed	0.21649142
155	0xbe7883d3	-0.24269037
156	0xbe9f4754	-0.31109107
157	0xbe97af21	-0.296258
158	0xbeaa3ba8	-0.3324864
159	0xbe92a337	-0.28640148
160	0xbd9ab6ef	-0.07554423
161	0x3e8ea94a	0.27863532
162	0xbedeaf07	-0.4349291
163	0x3e0cc5e2	0.13747361
164	0x3ce5efa2	0.028068367
165	0xbe8d8356	-0.27639264
166	0x3e42039d	0.18946691
167	0xbd39c229	-0.04535118
168	0xbd2bf0ab	-0.041977566
169	0xbe2fd1fc	-0.17169946
170	0x3d0ddfc2	0.03463722
171	0xbe143270	-0.14472365
172	0xbeb080eb	-0.34473357
173	0xbe9b5182	-0.30335623
174	0xbe964e49	-0.29356602
175	0xbe52b559	-0.20576991
176	0x3ddbf0f9	0.10739321
177	0xbe99ac36	-0.300142
178	0x3e976bd4	0.29574454
179	0xbd8176fd	-0.06321523
180	0xbe11c3ec	-0.14234895
181	0xbe9d3d9b	-0.30711064
182	0xbd7a47ce	-0.061103635
183	0xbe406cb7	-0.18791471
184	0xbe45b80f	-0.19308494
185	0xbe386a5f	-0.18009327
186	0xbe81453f	-0.25248143
187	0xbd27d7d6	-0.04097732
188	0xbe37f77d	-0.17965503
189	0xbec59c77	-0.38595936
190	0x3eaf3c6c	0.34225786
191	0x3e572c40	0.21012974
192	0xbe88beb2	-0.2670799
193	0xbdbd8358	-0.092535675
194	0xbe388209	-0.18018354
195	0x3d9d7a0e	0.07689296
196	0xbeaa3281	-0.33241656
197	0xbe6e8c86	-0.23295793
198	0xbe6a6d0f	-0.22893165
199	0xbe00fe94	-0.12597114
200	0xbed4b659	-0.4154537
201	0xbf04552a	-0.5169245
202	0x3ebe0ad1	0.37117627
203	0x3eab98f3	0.33515128
204	0xbeb14dcb	-0.34629664
205	0xbebc9e00	-0.36839294
206	0x3ddbb2ca	0.10727461
207	0x3df0c7ed	0.11756883
208	0xbd2eb70a	-0.04265503
209	0xbe4a8951	-0.19778945
210	0xbe54399c	-0.20725101
211	0xbeb86c82	-0.36020285
212	0xbec03d9a	-0.37546998
213	0xbeadff06	-0.3398363
214	0xbe074059	-0.1320814
215	0xbdabb82f	-0.083847396
216	0xbebf32c1	-0.3734341
217	0xbe83896a	-0.25690776
218	0x3c84746f	0.016168801
219	0x3dc527da	0.09626742
220	0xbea7501b	-0.32678303
221	0xbecb99c6	-0.39765757
222	0xbe7ce317	-0.24696003
223	0xbeaa5bc3	-0.33273134
224	0xbeb1d42a	-0.3473218
225	0xbe96fd88	-0.29490304
226	0xbe95aca1	-0.29233268
227	0xbe730658	-0.23732889
228	0x3f042c19	0.5162979
229	0x3ea1a150	0.31568384
230	0x3eaa2c12	0.33236748
231	0x3e33a41c	0.17543072
232	0xbe53e158	-0.2069143
233	0xbe985fce	-0.29760593
234	0x3e01913b	0.12653057
235	0xbd55f8c9	-0.052239213
236	0xbea1cc4a	-0.31601173
237	0xbf171b9d	-0.5902651
238	0x3eba27f2	0.363586
239	0x3ea03a39	0.3129442
240	0xbd8a0cf5	-0.067407526
241	0xbd7e6e80	-0.0621171
242	0x3d2f816d	0.04284804
243	0xbd27da6a	-0.04097978
244	0xbe6b2679	-0.22963895
245	0xbe336824	-0.17520195
246	0xbe6f6a53	-0.23380403
247	0xbe6e8b5c	-0.23295349
248	0xbc6b6197	-0.014366529
249	0xbe15bf52	-0.14623764
250	0xbe452c30	-0.19255137
251	0xbedc18ca	-0.42987663
252	0xbef65afb	-0.48116288
253	0xbec7378b	-0.38909563
254	0x3e68d4b7	0.22737394
255	0x3eacaa7b	0.33723816

fc.bias f4 [2]
0	0x3e186b95	0.1488479
1	0xbe4fdffa	-0.20300284

79 f4 [16, 3, 7, 7]
0	0x3c16e66c	0.00921021
1	0xbd4b905f	-0.04969823
2	0xbdc701bd	-0.097171284
3	0xbe49d029	-0.19708313
4	0xbe42ba6a	-0.19016424
5	0xbde53ea8	-0.11193591
6	0xbcae11b0	-0.021248668
7	0xb79e33a9	-1.8859124e-05
8	0xbd696a94	-0.056986406
9	0xbdf6cc95	-0.1205074
10	0xbe3c2818	-0.1837467
11	0xbe1590c2	-0.14606002
12	0xbdad0344	-0.084478885
13	0xbcaf4b23	-0.021398133
14	0x3c6a3770	0.014295444
15	0xbd8478c5	-0.064683475
16	0xbd5b37c5	-0.053519983
17	0xbdc4ffd2	-0.09619106
18	0xbd58f192	-0.052964754
19	0xbd117f8f	-0.03552204
20	0x3c205f85	0.009788399
21	0x3d2d40b0	0.04229802
22	0xbd3d7d6f	-0.0462622
23	0xbcdf8b01	-0.027287962
24	0xbce363af	-0.027757494
25	0xbd0e8f8f	-0.034804877
26	0xbcf8e167	-0.030380918
27	0xbd04f444	-0.032459512
28	0x3d9741c5	0.073855914
29	0x3d1c6cb3	0.0381896
30	0x3d520859	0.051277492
31	0x3cf3acd9	0.029745506
32	0x3d2608a8	0.0405356
33	0xba11abfa	-0.00055569375
34	0xbccd4c98	-0.025060937
35	0x3d64a190	0.05581814
36	0x3d3a8c71	0.04554409
37	0x3c551c0c	0.013007175
38	0x3cca99b6	0.024731498
39	0x3d2209cb	0.03956012
40	0x3bbdb185	0.0057889842
41	0xbcbd4081	-0.023102047
42	0x3dad11c0	0.08450651
43	0x3d45657f	0.048192497
44	0x3d0be6ca	0.034155644
45	0x3c9ae681	0.018908741
46	0x3c545f6c	0.0129622035
47	0x3c403f03	0.011733773
48	0xbbdc423f	-0.0067217643
49	0x3c6d16fe	0.014470814
50	0xbd5b873b	-0.053595763
51	0xbdb77fec	-0.08959946
52	0xbe153ad3	-0.14573221
53	0xbe23dbdb	-0.16001837
54	0xbdb271c0	-0.08713102
55	0xbb2a644e	-0.0025999728
56	0xbc1a0c1d	-0.009402302
57	0xbd643bb4	-0.055721
58	0xbda8f6ff	-0.08250236
59	0xbe07b28b	-0.13251702
60	0xbe1ca635	-0.15297778
61	0xbd92a5a6	-0.07160501
62	0xbc51f7be	-0.012815414
63	0x3b569547	0.0032742785
64	0xbd63bace	-0.055598073
65	0xbd78484c	-0.060615823
66	0xbd469aae	-0.048487358
67	0xbd8a51b7	-0.06753867
68	0x3b87a483	0.0041394844
69	0x3c50f874	0.012754548
70	0x3a421b49	0.00074045785
71	0xbcf38655	-0.02972714
72	0xbd3bc2f9	-0.045840237
73	0x3b8bae34	0.00426271
74	0x3b5e124d	0.003388542
75	0xbc479137	-0.012180618
76	0xbca508fb	-0.020145884
77	0x3d80064e	0.062512025
78	0x3d2d56b6	0.042319022
79	0x3d39c734	0.04535599
80	0x3d91f731	0.07127226
81	0x3ce18259	0.027527975
82	0x3c5cd724	0.013479028
83	0xbd5f72fd	-0.05455302
84	0x3d946081	0.07244969
85	0x3d050fdc	0.032485828
86	0x3cd3ac63	0.025839036
87	0x3b5525a5	0.0032523659
88	0x3d1d5c25	0.038417954
89	0x3a88a039	0.0010423727
90	0xbd2d3d30	-0.04229468
91	0x3d403b39	0.04693148
92	0x3d6f6f07	0.058455493
93	0x3c9d0f84	0.019172437
94	0x3b11342e	0.0022156346
95	0x3ca5dfdc	0.020248346
96	0xbc4cc9da	-0.012499297
97	0xbd310189	-0.043214355
98	0x3da537b6	0.08067267
99	0x3d0e506f	0.034744676
100	0xbb74ae96	-0.0037335507
101	0xbd0f015c	-0.034913406
102	0xbcfeb31f	-0.031091271
103	0x3d475942	0.048669107
104	0x3dd1cfbf	0.102447025
105	0x3e0ad95e	0.13559482
106	0x3ddc36b6	0.10752623
107	0x3cc8d819	0.024517106
108	0xbd01ff9f	-0.03173792
109	0x3ca09ee6	0.019607019
110	0x3de5f5a0	0.1122849
111	0x3e433edc	0.19066948
112	0x3e09cab7	0.13456236
113	0x3dccc8b1	0.09999216
114	0x3e0ca44c	0.1373455
115	0x3dfeba21	0.12437845
116	0x3de724ce	0.11286317
117	0x3e2611bb	0.16217701
118	0x3e36bccb	0.17845456
119	0x3dbb1014	0.09133926
120	0x3d9ff497	0.07810324
121	0x3e0198b3	0.12655906
122	0x3e479b4b	0.19492833
123	0x3e190cce	0.14946291
124	0x3dfdf3b7	0.124000005
125	0x3dffd41d	0.12491629
126	0x3e08e9c6	0.13370427
127	0x3e3e2fb4	0.18572885
128	0x3e5f4c24	0.21806389
129	0x3e8136ec	0.25237215
130	0x3e6d8e77	0.23198877
131	0x3e162103	0.1466103
132	0x3de50ea3	0.11184432
133	0x3e04d12d	0.12970419
134	0x3e5f13d3	0.21784906
135	0x3e45ace6	0.19304237
136	0x3e43dfc7	0.19128333
137	0x3e1b7931	0.1518295
138	0x3dbcfe53	0.09228196
139	0x3db868cf	0.09004366
140	0x3e03a5b1	0.12856175
141	0x3e23eb3c	0.16007704
142	0x3e19896f	0.14993833
143	0x3dc68d8e	0.09694968
144	0x3df54e81	0.11977864
145	0x3d9af080	0.07565403
146	0x3de2780a	0.11058052
147	0xbe952670	-0.29130888
148	0xbe0e5620	-0.13900042
149	0xbddd2d0d	-0.107996084
150	0x3c7a4f5b	0.015277709
151	0x3d4f69b1	0.050637905
152	0x3b31187f	0.0027022657
153	0xbcb1a173	-0.02168343
154	0xbe6641c5	-0.22486027
155	0xbe133452	-0.14375427
156	0xbdb359b8	-0.08757347
157	0xbcccb205	-0.02498723
158	0xbd04d7ed	-0.032432485
159	0x3cd787d0	0.026309878
160	0x3d26d6c3	0.040732156
161	0xbdf7d7ce	-0.12101708
162	0xbdb79d9f	-0.08965611
163	0xbcbefe93	-0.02331475
164	0xbda91a75	-0.082569994
165	0xbe3034a8	-0.17207587
166	0xbdff9f80	-0.12481594
167	0xbdbc91ce	-0.092074975
168	0x3d1872a7	0.037218716
169	0x3c83c11f	0.016083298
170	0xbd8c8f1b	-0.06863233
171	0xbe0a9c7e	-0.1353626
172	0xbe6456dc	-0.22298759
173	0xbe8a4f33	-0.2701355
174	0xbe4ca68b	-0.19985406
175	0xbd8100ff	-0.06299018
176	0xbc8f3cb1	-0.017484995
177	0xbc365012	-0.011127489
178	0xbca0ff0b	-0.019652864
179	0xbdc42d73	-0.09578981
180	0xbe436d07	-0.1908456
181	0xbdb1ea2c	-0.08687243
182	0xbe88a7b8	-0.2669046
183	0xbe11c5f9	-0.14235677
184	0xbceee10d	-0.029160047
185	0x3e001b1d	0.12510343
186	0x3e05217a	0.13001052
187	0x3db42822	0.08796717
188	0x3dd0778c	0.10179052
189	0xbea22675	-0.31669965
190	0xbe2e1806	-0.17001352
191	0x3cda915d	0.026680643
192	0x3e584ac1	0.21122266
193	0x3e760ec0	0.24029064
194	0x3e3234a3	0.17402892
195	0x3e46fc6d	0.1943223
196	0xbe2ce340	-0.16883564
197	0xbd3dd45b	-0.046345096
198	0x3d2c8f74	0.042128995
199	0x3e274b17	0.16337238
200	0x3e46a7fe	0.19400021
201	0x3e2314c3	0.15925889
202	0x3e3d3d57	0.1848043
203	0xbdd8cd52	-0.10586037
204	0x3d139b19	0.036036585
205	0x3e16af6b	0.14715354
206	0x3e57cedf	0.21075009
207	0x3e2bed77	0.16789804
208	0x3e1dad2c	0.15398091
209	0x3e59e042	0.21276954
210	0x3df789a1	0.120867975
211	0x3dd67cc3	0.10473015
212	0x3e1e2eb5	0.15447505
213	0x3e1b7187	0.15180026
214	0x3cb6a3ad	0.022294844
215	0xbcf566a8	-0.029956177
216	0x3d29c89a	0.041451074
217	0x3e7a760a	0.24459091
218	0x3e6a0289	0.2285253
219	0x3dd7e9b0	0.10542619
220	0x3d0ff1f1	0.035142843
221	0xbdf5670b	-0.119825445
222	0xbe7cb7f6	-0.2467955
223	0xbe066a1f	-0.1312642
224	0x3e110678	0.14162624
225	0x3d1b6898	0.037941545
226	0x3d4f2e10	0.050581038
227	0xbcf7b0a6	-0.0302356
228	0xbdeb65cd	-0.11494026
229	0xbe24fc50	-0.16111875
230	0xbdaa5baa	-0.08318265
231	0xbdf4ec90	-0.11959183
232	0xbdefd6c7	-0.117108874
233	0x3d436337	0.04770204
234	0x3df51d83	0.119685195
235	0x3e0ff687	0.14058886
236	0x3da2f4ef	0.079568736
237	0x3d846639	0.0646481
238	0xbe848a09	-0.25886562
239	0xbe377d83	-0.17918973
240	0xbd07e04e	-0.033172898
241	0x3dcd6831	0.100296386
242	0x3e27bb27	0.16379987
243	0x3dbbf697	0.09177893
244	0x3df46d4e	0.11934911
245	0xbec6fa9f	-0.38863084
246	0xbe8c10bd	-0.2735652
247	0xbdfba40b	-0.12287148
248	0xbd23125d	-0.039812434
249	0x3cbd76b4	0.023127891
250	0x3cdff5a2	0.027338807
251	0xbacc19b0	-0.001557162
252	0xbe927cf8	-0.2861097
253	0xbe4be01a	-0.19909707
254	0xbd93405f	-0.07190012
255	0xbc887d91	-0.016661437

80 f4 [16]
0	0xbfad7228	-1.3550463
1	0x3fbded66	1.4838073
2	0x3f872057	1.0556744
3	0xc03ee966	-2.9829955
4	0x3ed63c2e	0.41842788
5	0x4003adb0	2.057476
6	0x3f178d90	0.5920038
7	0x3fee6e08	1.8627329
8	0xbf2d253c	-0.6763494
9	0xbf551850	-0.8324022
10	0x401f91c9	2.493273
11	0xbf7fa87e	-0.99866474
12	0x3df56a50	0.11983168
13	0x40072fe0	2.112297
14	0x3f4dc4c0	0.8037834
15	0x3eea3248	0.45741487

82 f4 [32, 16, 3, 3]
0	0xbd80ea2f	-0.06294667
1	0xbd73711b	-0.059434038
2	0xbd29a574	-0.041417554
3	0xbd3531d0	-0.044236958
4	0xbd399814	-0.04531105
5	0xbd0540e5	-0.03253259
6	0xbc97de93	-0.018538749
7	0xbc9c4daf	-0.019080011
8	0xbc60543e	-0.01369196
9	0x3c881791	0.0166128
10	0x3ae01e5e	0.0017098894
11	0xbb448674	-0.0029987367
12	0xbbb64f06	-0.0055636195
13	0xbc422503	-0.011849645
14	0xbbc23b20	-0.0059274584
15	0x3c23fc36	0.010008862
16	0x3c0e99b0	0.008703634
17	0x3b8295f5	0.0039851614
18	0x3d6f9b11	0.058497492
19	0x3cc8efde	0.02452844
20	0x3c9542eb	0.018220386
21	0x3d0bd9a0	0.03414309
22	0x3b20a8ea	0.0024514743
23	0x3bd0c629	0.006371279
24	0x3c53acf6	0.012919655
25	0x3af52929	0.0018704283
26	0x3c5f6452	0.013634758
27	0xbcce47fc	-0.02518081
28	0xbd043c7d	-0.03228425
29	0xbcbdf9b1	-0.023190351
30	0xbd8f65f8	-0.07001871
31	0xbd916648	-0.07099587
32	0xbd8ce9dc	-0.06880543
33	0xbd1c6ffe	-0.03819274
34	0xbd5de2b5	-0.054171283
35	0xbd36eb20	-0.044657826
36	0x3d352d98	0.044232935
37	0x3d08601e	0.03329479
38	0x3c64103a	0.013919884
39	0x3b2a1784	0.0025953958
40	0xbc6e4fbb	-0.014545376
41	0xbcef3035	-0.029197792
42	0xbd882757	-0.066481285
43	0xbd3504dd	-0.04419409
44	0xbd6adc03	-0.057338726
45	0x3d94def6	0.07269089
46	0x3d1256bc	0.035727248
47	0xbc0f81f4	-0.008759011
48	0x3d5e46e0	0.05426681
49	0x3bd4da22	0.00649573
50	0x3ba8aaa6	0.005147296
51	0x3d67c67b	0.05658577
52	0x3d502da0	0.05082476
53	0x3d4bb764	0.04973544
54	0x3bb68241	0.0055697267
55	0xbc9f03f9	-0.019411074
56	0xbd531b94	-0.051539972
57	0x3cd7ba50	0.026333958
58	0xbc0a1bfa	-0.008429522
59	0xbd5c7b71	-0.05382866
60	0xba931e35	-0.0011224212
61	0xbd3af87a	-0.045647122
62	0xbd44fcc9	-0.048092637
63	0x3d0cc3f2	0.034366556
64	0x3ccfd6dc	0.025371008
65	0x3c96aa15	0.018391648
66	0xba84c223	-0.0010128658
67	0xbc4db77d	-0.012555954
68	0xb96e6068	-0.00022733363
69	0xbc90a7f3	-0.01765821
70	0xbc86ef1b	-0.016471436
71	0xbcd895eb	-0.026438674
72	0xbc521169	-0.012821534
73	0xbc871a67	-0.016492082
74	0xbba71e72	-0.005100065
75	0xbc99bff7	-0.018768294
76	0xbca9eeff	-0.020743845
77	0xbc8644f1	-0.016390296
78	0x3b2c6a2b	0.0026308398
79	0xbb56a606	-0.0032752766
80	0xbc8502ee	-0.016236749
81	0xba6a6c6d	-0.00089425483
82	0xbc8ffd22	-0.017576758
83	0xbcc0ec39	-0.02355014
84	0xbc8bac90	-0.017050058
85	0xbd135fc6	-0.03598001
86	0xbcfbae57	-0.03072278
87	0xbbd967a4	-0.0066346694
88	0xbc6fc12a	-0.014633456
89	0xbc920e45	-0.01782907
90	0x3d8dfb6d	0.06932721
91	0x3d83f6f7	0.06443589
92	0x3d595ce7	0.053067114
93	0x3d27e15b	0.0409864
94	0x3cc0488b	0.023472091
95	0x3c7c7394	0.015408415
96	0xbb9f9f63	-0.0048712953
97	0x3c41aa97	0.011820457
98	0xb79a2c48	-1.837885e-05
99	0xbc76bd97	-0.01505985
100	0xbcae18d7	-0.021252079
101	0xbc638103	-0.013885739
102	0xbd0ee157	-0.03488287
103	0xbd3ebdc2	-0.046567686
104	0xbd169c51	-0.03677017
105	0xbcade5de	-0.021227773
106	0xbd0a9033	-0.033828925
107	0xbc982f88	-0.018577352
108	0x3aa9f5d5	0.001296694
109	0xbca7d041	-0.020485045
110	0xbcd78dc7	-0.026312722
111	0xba1c21c7	-0.0005955961
112	0xbc2fff83	-0.010742071
113	0xbd0e3afa	-0.034724213
114	0xbbf3d75c	-0.0074414443
115	0x3ba5978e	0.005053467
116	0x3ace71c9	0.0015750463
117	0x3d84373c	0.064558476
118	0x3d3ca7dd	0.046058524
119	0x3d066666	0.0328125
120	0x3cde8cd5	0.027166763
121	0x3b9d6200	0.0048029423
122	0xbbfcbdfd	-0.007713078
123	0xbcab12bd	-0.020882959
124	0xbcfaa3d9	-0.030595707
125	0xbcb113c1	-0.021615865
126	0x3d2d8d3c	0.04237102
127	0x3c8cd351	0.017190607
128	0x3c8e8e7f	0.017401932
129	0x3d18dc22	0.03731931
130	0x3c9a2cb0	0.018820137
131	0x3cad1a13	0.021130597
132	0x3cb6fb9e	0.022336777
133	0x3ce3d150	0.027809769
134	0x3d32ff64	0.04370059
135	0x3d851d69	0.0649975
136	0x3d26539c	0.04060708
137	0xbc9fc00b	-0.019500753
138	0x3bd7ad63	0.0065819486
139	0xbc35453b	-0.011063869
140	0xbd88e269	-0.06683809
141	0x3d78d4d1	0.060749833
142	0x3cf3df62	0.029769603
143	0x3ad08ca3	0.0015911054
144	0x3ccaaef3	0.024741625
145	0x3d5be002	0.053680427
146	0x3d8d6ddf	0.06905722
147	0xbcc7b53e	-0.024378415
148	0xbab49939	-0.0013778574
149	0x3caad7d9	0.020854877
150	0xbca493e4	-0.020090051
151	0x3d060622	0.032720692
152	0x3c94a210	0.018143684
153	0xbb4d5408	-0.0031330604
154	0x3c3ad355	0.011402925
155	0x3c5d536f	0.013508662
156	0xbd2e1923	-0.04250444
157	0xbd562c54	-0.05228837
158	0xbdaffebc	-0.085935086
159	0xbc001775	-0.007818093
160	0xbd0daabe	-0.03458666
161	0xbd59274f	-0.053016003
162	0xbddae65c	-0.10688469
163	0xbda5a95d	-0.08088944
164	0xbda90c0a	-0.082542494
165	0xbda567d7	-0.080764465
166	0xbdad0204	-0.0844765
167	0xbdaafa92	-0.08348574
168	0xbe3588a6	-0.17727908
169	0xbe2bd0a8	-0.16778815
170	0xbe1f9a35	-0.15586169
171	0xbd9765e0	-0.07392478
172	0xbd761237	-0.060075965
173	0xbdc6f206	-0.09714131
174	0xbd9643c9	-0.07337148
175	0xbd739cc5	-0.05947568
176	0xbd604006	-0.054748558
177	0xbd272939	-0.040810797
178	0xbc1c60e2	-0.009544583
179	0xbd064579	-0.032781098
180	0xbbf2065a	-0.007386011
181	0x3ca3edd2	0.020010862
182	0xbc1cd1a3	-0.009571466
183	0xbd5fc342	-0.05462957
184	0xbd8af6bc	-0.06785342
185	0xbd8b8c9b	-0.06813928
186	0x3c594766	0.013261652
187	0x3cde1f20	0.027114451
188	0x3b338668	0.0027393345
189	0xbb4d40ed	-0.0031319216
190	0x3c65b220	0.014019519
191	0x3bd5ceff	0.00652492
192	0xbb98a330	-0.0046581253
193	0x3ca4fd8b	0.02014043
194	0xbb818a93	-0.003953287
195	0xbce720ff	-0.028213976
196	0xbc28816a	-0.010284761
197	0xbd71d357	-0.05903944
198	0x3dd5c238	0.10437435
199	0x3de4bd2c	0.11168894
200	0x3dae707d	0.08517549
201	0xbd06c8b2	-0.03290624
202	0x3b84cf64	0.004053043
203	0xbd1a2ab9	-0.0376384
204	0x3d18715a	0.037217475
205	0x3d0d4534	0.034489825
206	0x3aa3a06d	0.0012483724
207	0xbc309af3	-0.01077913
208	0xbc39379b	-0.011304761
209	0xbcd3699d	-0.025807196
210	0x3c9204c7	0.017824544
211	0xbb0245c9	-0.001987802
212	0xbc6f0125	-0.014587675
213	0xbabc951e	-0.0014387702
214	0x3becf1cb	0.0072309724
215	0xbcdf61ca	-0.02726831
216	0xbc8f5835	-0.017498115
217	0x3c7fbcf1	0.015609012
218	0xbb712d28	-0.0036800597
219	0xbd04cbe3	-0.032421004
220	0x398745e8	0.0002580129
221	0xbbad1ef6	-0.005283232
222	0xbba30899	-0.00497539
223	0x3b97b3f6	0.0046296073
224	0x3d061cfa	0.032742478
225	0x3c58589a	0.013204718
226	0x3d0b5d85	0.034024734
227	0x3c96c0bd	0.018402452
228	0xbd09d8d0	-0.033654034
229	0xbc06f86b	-0.008237938
230	0x3c62f150	0.013851479
231	0x3c552d4c	0.013011288
232	0x3cf5e357	0.03001563
233	0x3d2c0c3f	0.042003866
234	0xbd5d6cda	-0.054058887
235	0xbd0e6e00	-0.034772873
236	0xbd5377b0	-0.051627815
237	0xbd365692	-0.044516154
238	0xbcd7fc2c	-0.026365362
239	0xbd78d95e	-0.060754173
240	0xbdebfaac	-0.11522421
241	0xbd9e8da9	-0.07741863
242	0xbe0854be	-0.13313577
243	0xbcef608d	-0.029220844
244	0x38971908	7.2049035e-05
245	0xbbeb006a	-0.00717168
246	0xbd2cfa16	-0.042230688
247	0xbba8e3ce	-0.0051541096
248	0x3c43c231	0.011948154
249	0xbce33d17	-0.02773909
250	0xba00972c	-0.0004905339
251	0x3d24216d	0.04007094
252	0x3c736ac5	0.014856999
253	0x3d445d34	0.047940448
254	0x3cdff71f	0.027339516
255	0xbc013474	-0.007886041

83 f4 [32]
0	0xbe9e91b5	-0.3097054
1	0x3f7810d8	0.969007
2	0xbf3ec224	-0.74514985
3	0x3f557da4	0.8339484
4	0xbfbcfac9	-1.4764034
5	0x3fe7aa42	1.8098834
6	0xbf739983	-0.95156115
7	0x3f9a213d	1.2041394
8	0x3fd26a84	1.6438756
9	0x3f91f28b	1.1402143
10	0x3f93ad58	1.1537275
11	0xbfd1ffe0	-1.6406212
12	0xbf42cdba	-0.76095164
13	0x3f6278b5	0.88465434
14	0x3f45a72d	0.77208215
15	0x3fc473c5	1.534783
16	0x3f88e9a6	1.0696304
17	0x3fabe464	1.3429074
18	0x3fd20adb	1.6409563
19	0xbf5410d2	-0.82838166
20	0xbf969be5	-1.1766325
21	0x3fb9a195	1.4502436
22	0x4033e0c8	2.8105946
23	0x3f4f0ac0	0.8087578
24	0x3f9f37c5	1.2438895
25	0x40123f4c	2.2851133
26	0x3fdea7a2	1.7394907
27	0xbe3c65f0	-0.18398261
28	0x3fb92c42	1.4466631
29	0x404216e8	3.032648
30	0x3e1adfca	0.15124431
31	0x3fb74cae	1.4320276

85 f4 [32, 32, 3, 3]
0	0x3ba829c3	0.0051319315
1	0x3ca71eac	0.020400368
2	0x3c4ac4c3	0.012376013
3	0x3cfea6c1	0.031085374
4	0x3d07373f	0.03301167
5	0x3d2b5c51	0.041836087
6	0x3d798f1f	0.060927507
7	0x3d956f36	0.072966024
8	0x3da1282b	0.078689896
9	0xbbfcc7b9	-0.0077142385
10	0xbc436057	-0.011924825
11	0xbbb53ba8	-0.005530793
12	0x3d1d3b0b	0.038386386
13	0x3d02f87a	0.031975247
14	0x3d2796bb	0.040915232
15	0xbc85d090	-0.016334802
16	0xbc1e80a8	-0.009674229
17	0x3c22e1e3	0.009941551
18	0x3c4a87c8	0.012361474
19	0xbbf5158f	-0.0074793766
20	0xbd003e91	-0.031309668
21	0x3d009de8	0.03140059
22	0x3c8548b7	0.016270025
23	0xbb6ef30c	-0.0036460785
24	0x3d85a663	0.065258764
25	0x3d57ab5e	0.052653663
26	0x3cf0eeac	0.029410683
27	0xbc572ff9	-0.013133996
28	0xbd2b170a	-0.04177002
29	0xbd43b36b	-0.04777853
30	0x3d1a8c8c	0.037731692
31	0x3c809986	0.015698206
32	0x3bd5b358	0.0065216236
33	0x3d8cfd81	0.068842895
34	0x3d949df4	0.0725669
35	0x3d0665a6	0.032811783
36	0xbb0e0ad3	-0.0021673932
37	0xbc642cae	-0.013926668
38	0xbca817ef	-0.020519225
39	0x3bc0554f	0.0058695446
40	0xbb1d47d7	-0.0023999119
41	0xbcff3a99	-0.031155871
42	0x3ceb2e05	0.028708467
43	0x3caf55b3	0.02140317
44	0x3bc41726	0.005984205
45	0xbb84cc51	-0.0040526767
46	0x3b907734	0.0044087414
47	0xbb66ecc7	-0.0035236345
48	0x3c9c48a7	0.019077612
49	0x3c9f1445	0.019418845
50	0x3d03db99	0.032191847
51	0xba379eba	-0.0007004548
52	0x3caae6cb	0.020862004
53	0x3ce40cda	0.02783816
54	0x3cf72bf5	0.030172328
55	0x3cb5233a	0.022111524
56	0x3c23fb17	0.010008595
57	0x3d3f828c	0.04675536
58	0x3d345c88	0.044033557
59	0x3ce926fe	0.028460976
60	0x3d43a970	0.04776901
61	0x3d4632b7	0.04838821
62	0x3d00432a	0.031314053
63	0xba899aa1	-0.0010498354
64	0x3b247fbd	0.0025100552
65	0x3cde8df7	0.027167303
66	0x3cf5cc5e	0.030004676
67	0x3d439ab4	0.04775496
68	0x3d81d50a	0.06339462
69	0x3c19799f	0.009367376
70	0x3cc398b7	0.023876531
71	0x3d1a5d63	0.037686717
72	0xbbb0dee5	-0.005397665
73	0xbcb6eada	-0.022328783
74	0xbccd4ff8	-0.025062546
75	0x3cc796e4	0.024363942
76	0x3cc34d1c	0.02384048
77	0x3cba7940	0.022762895
78	0xbc8f9416	-0.017526668
79	0xbc8bed7b	-0.017081013
80	0xbc6c769d	-0.0144325765
81	0xbcdfd1b5	-0.027321676
82	0xbc5f4a45	-0.013628547
83	0xbc33e7a6	-0.010980522
84	0xbc885152	-0.016640339
85	0x3a17d47a	0.00057918543
86	0x3c34da4b	0.011038373
87	0xbc231ebe	-0.00995606
88	0x3c34dfc8	0.011039682
89	0x3c9d4527	0.019198013
90	0x3d14a935	0.03629418
91	0x3d121ce0	0.03567207
92	0x3d363b15	0.04448994
93	0x3c8af397	0.016961856
94	0x3c416668	0.011804201
95	0x3cf2470e	0.029574897
96	0xbb3ea57e	-0.002909034
97	0xbbe02527	-0.0068403664
98	0x3c043118	0.0080683455
99	0xbd05515c	-0.032548293
100	0xbc84abdf	-0.016195236
101	0xbca9610d	-0.02067616
102	0x3ae86b6d	0.0017732211
103	0x3c32636b	0.010887961
104	0x3b76b698	0.0037645455
105	0x3bb09869	0.0053892625
106	0x3bcb3b0f	0.0062021087
107	0xbaaae311	-0.0013037642
108	0x3ccb6c11	0.024831804
109	0xbc8dfd51	-0.017332705
110	0xbc152d1d	-0.009104994
111	0x3b39dabb	0.0028359133
112	0xbca9b5fa	-0.020716656
113	0x3b527a0f	0.003211621
114	0x3ce1ce1c	0.0275641
115	0x3c1595a9	0.00912992
116	0x3d1aeed3	0.037825417
117	0xbcee00a8	-0.029053047
118	0xbc922e51	-0.017844351
119	0xbce9f5ad	-0.02855953
120	0xbc5e3a3d	-0.01356369
121	0x3b135359	0.00224801
122	0x3c09cbf9	0.008410447
123	0xbc1e679c	-0.009668257
124	0x3be53a5f	0.006995484
125	0x3ca3ec2b	0.020010075
126	0x3cd0587d	0.02543282
127	0x3d251116	0.040299498
128	0x3d463528	0.048390538
129	0x3bfaec6b	0.0076575777
130	0x3cf27e05	0.029601106
131	0x3c7409e5	0.014894937
132	0x3cbaf70d	0.022822881
133	0x3ced2c99	0.02895193
134	0x3c7f2d6c	0.015574794
135	0x3bb32d46	0.0054680435
136	0xbbd767f8	-0.0065736733
137	0xbcaca7b7	-0.021076066
138	0x3cdccca4	0.026953049
139	0x3cd1b034	0.025596716
140	0x3cc6c8b7	0.02426563
141	0x3b46dad6	0.0030342839
142	0x3c730cfa	0.014834637
143	0x3ccd7636	0.025080781
144	0x3cac5e28	0.021040991
145	0x3bfddb2c	0.0077470746
146	0x3ca8c25d	0.020600492
147	0x3cf6204e	0.030044701
148	0x3cc1b35f	0.023645101
149	0x3cdda104	0.027054317
150	0x3d17c3cb	0.037051957
151	0x3ceb68e9	0.028736548
152	0x3ce0ca43	0.027440196
153	0xbbfedafd	-0.0077775703
154	0xbc831afa	-0.016004074
155	0xbd30e1d7	-0.043184128
156	0x3c0ce9cd	0.008600664
157	0x3c0acbca	0.008471439
158	0xbb6cde7c	-0.0036143353
159	0x3c285eed	0.010276538
160	0x3c962572	0.018328402
161	0x3c2dd03e	0.010608731
162	0x3cd919e3	0.026501602
163	0x3ce99126	0.028511595
164	0x3cde9134	0.027168848
165	0x3c8e25ec	0.017352067
166	0x3cd1d195	0.025612632
167	0x3d031e83	0.03201152
168	0x3bfdd96c	0.007746866
169	0x3b62c7b1	0.0034603889
170	0xbb24cc8d	-0.0025146336
171	0x3cdb3352	0.02675787
172	0x3cb20420	0.021730483
173	0xbc4ccd41	-0.012500108
174	0x3b1bd8f6	0.0023780442
175	0xbb4f033b	-0.003158762
176	0xbcc57bb7	-0.024106843
177	0x3bbc8ab9	0.0057538417
178	0xbc47e28b	-0.012200008
179	0xbcbf0530	-0.023317903
180	0x3ad784b5	0.0016442748
181	0xbc01e6bf	-0.007928549
182	0xbce032c1	-0.027367951
183	0x3d219ce8	0.039456278
184	0x3d260233	0.04052944
185	0x3c92a741	0.017902019
186	0x3d5fc3cc	0.054630086
187	0x3d85d0c6	0.06533961
188	0x3d3720e8	0.044709116
189	0xbb7d51c8	-0.0038653482
190	0xbbd3e19c	-0.0064661037
191	0x3d104c0d	0.035228778
192	0x3d1e7fad	0.03869598
193	0x3d19b610	0.037527144
194	0x3d83b222	0.064304605
195	0xbb13f230	-0.0022574775
196	0x3cc18d09	0.023626821
197	0x3d26c326	0.04071345
198	0x3cee2645	0.029070983
199	0x3d31260c	0.043249175
200	0x3d1ead1f	0.03873932
201	0x3cafd69f	0.021464644
202	0x3d161de1	0.03664959
203	0x3d233c70	0.03985256
204	0x3c3671d4	0.011135537
205	0x3d0b2fe8	0.033981234
206	0x3d3dab88	0.046306163
207	0xbc8f7f1a	-0.017516661
208	0xbc86fabc	-0.016476981
209	0xbd14c870	-0.036323965
210	0xbc0fabdc	-0.008769002
211	0x3bdef5f6	0.006804223
212	0xbbb4c77c	-0.0055169445
213	0x3b5e3c7b	0.003391056
214	0x3c24a340	0.010048687
215	0x3c2aeae9	0.0104319835
216	0x3cc26ac5	0.023732552
217	0x3991bfe8	0.00027799536
218	0x3b0e9e87	0.002176197
219	0x3d061cce	0.032742314
220	0x3caa9d6a	0.020827014
221	0x3ca04616	0.01956467
222	0xbb98f594	-0.004667947
223	0xbc5e3fe1	-0.013565035
224	0xbba6de8a	-0.0050924467
225	0x3c75890c	0.014986288
226	0x3d1f4cf0	0.038891733
227	0x3d50f8e7	0.05101862
228	0x3c696e09	0.014247426
229	0x3cd66b2f	0.026174156
230	0x3cfb7e64	0.030699916
231	0xb9c9ca9f	-0.00038488672
232	0x3bb9b8da	0.005667788
233	0x3c2b2356	0.010445436
234	0x3ce9f962	0.028561298
235	0x3ca39053	0.01996628
236	0x3d0fe8f1	0.03513426
237	0x3cfa9dd7	0.030592842
238	0x3cc8b6c6	0.024501216
239	0x3d69483d	0.056953657
240	0x3c91c7dc	0.017795496
241	0x3caeb34c	0.02132573
242	0x3d81335c	0.06308624
243	0x3d5b1bae	0.053493194
244	0x3d6fb844	0.05852534
245	0x3d647058	0.0557712
246	0xbc19e436	-0.009392789
247	0x3c29da84	0.01036704
248	0x393fda50	0.00018296507
249	0x3cc58047	0.024109019
250	0x3cdac8ed	0.026707137
251	0xbc25ec36	-0.010127118
252	0xbc12b8b3	-0.008955169
253	0x3b2640cc	0.0025368212
254	0x3c448aa2	0.011995943
255	0x3c9fc98c	0.019505285

86 f4 [32]
0	0xbf1f1f3c	-0.62157035
1	0xbe096da3	-0.1342073
2	0xbfccf728	-1.6012926
3	0xbf8633c7	-1.0484551
4	0x3fb94198	1.4473143
5	0xbe3d89b7	-0.18509565
6	0xbe9f0303	-0.31056985
7	0xbdcf9baa	-0.101371124
8	0x3f9226a7	1.1418046
9	0xbf10a6c4	-0.56504464
10	0x3f8bed94	1.0931878
11	0xbebb4c24	-0.36581528
12	0xbc896900	-0.0167737
13	0x3e985a81	0.2975655
14	0x3f266247	0.6499371
15	0xbf230d91	-0.63692576
16	0x3edd2467	0.43191835
17	0xbe06b8d0	-0.13156438
18	0xbeef1abd	-0.46700087
19	0x3f814f87	1.0102395
20	0x3f8f12ad	1.1177574
21	0x3f831a02	1.0242312
22	0xbe4f1846	-0.20224103
23	0x3e107034	0.14105302
24	0xbef8edd7	-0.48618957
25	0x3f39d8c8	0.72596407
26	0xbe46e8be	-0.19424722
27	0xbf0111fa	-0.50418055
28	0x3fa248b1	1.2678434
29	0xbf0f4751	-0.55968195
30	0xbe04af80	-0.12957573
31	0xbf690941	-0.91029745

88 f4 [32, 16, 1, 1]
0	0x3df08741	0.11744548
1	0xbe16e3b8	-0.14735305
2	0xbe3c6b3e	-0.18400285
3	0x3e11c9d4	0.14237148
4	0xbe0efbed	-0.1396329
5	0xbe3de1f9	-0.18543233
6	0xbe449e2b	-0.19200961
7	0x3e0dcb14	0.13847
8	0x3e288cbf	0.1645994
9	0x3e5c383e	0.2150583
10	0xbe015a37	-0.1263207
11	0x3e936501	0.28787997
12	0xbd12d53d	-0.03584789
13	0xbd2e795e	-0.042596214
14	0x3dc63b98	0.09679335
15	0xbe039591	-0.12850024
16	0x3dae7655	0.08518664
17	0x3e47315d	0.19452424
18	0xbdfc29cb	-0.12312659
19	0xbd583e9d	-0.052794088
20	0xbef33838	-0.4750383
21	0x3e91162e	0.28337234
22	0xbd9d43e4	-0.07678965
23	0x3e76f419	0.24116553
24	0x3c29399d	0.0103286775
25	0x3dc099c2	0.09404327
26	0x3d6aa32f	0.05728453
27	0xbdfbe7b3	-0.123000525
28	0x3d92a8ea	0.07161124
29	0xbdfa6b02	-0.12227441
30	0x3e9a20d1	0.30103162
31	0x3ef42617	0.4768531
32	0xbde6da0b	-0.11272057
33	0xbbabfbf3	-0.0052485405
34	0xbdf468b3	-0.11934032
35	0xbec391da	-0.38197213
36	0xbd702ea0	-0.058638215
37	0xbe6091a2	-0.21930555
38	0x3dbc65fd	0.0919914
39	0x3e1c79ea	0.15280882
40	0xbea1b9c2	-0.31587034
41	0xbe5640d8	-0.20923173
42	0xbddecb67	-0.1087864
43	0x3d5ed1cd	0.0543993
44	0xbe1a3c67	-0.15062104
45	0x3cbbd532	0.022928808
46	0xbe1dd228	-0.154122
47	0xbe09afd5	-0.13445981
48	0xbe9408a7	-0.2891285
49	0xbe8e71dc	-0.27821243
50	0x3e0ac447	0.13551436
51	0xbd9c58b1	-0.07634104
52	0xbe8f2685	-0.27959076
53	0x3e9a4191	0.30128148
54	0xbea9570d	-0.33074227
55	0xbe151527	-0.1455885
56	0xbd08b4b8	-0.03337547
57	0xbdb5555d	-0.088541724
58	0x3f4d17cb	0.8011443
59	0xbd25bf83	-0.040465843
60	0x3da51763	0.08061101
61	0x3f13e540	0.5777168
62	0x3ea41c82	0.32053
63	0xbea809d1	-0.3281999
64	0x3de19001	0.11013795
65	0xbdeffe41	-0.11718417
66	0xbdbded62	-0.09273793
67	0xbe6d6a24	-0.2318502
68	0xbd46735b	-0.048449855
69	0x3df79ea4	0.12090805
70	0xbdd16cfd	-0.10225866
71	0xbdb33ef8	-0.08752245
72	0x3e8ace83	0.2711068
73	0x3e8b277f	0.2717857
74	0xbe6a303a	-0.2286996
75	0x3e046f31	0.12933041
76	0x3e3b9b54	0.18320972
77	0xbde1ba18	-0.11021823
78	0x3e86fc6a	0.26364452
79	0xbe4793d7	-0.1948999
80	0x3e859f54	0.2609812
81	0xbe17dc5d	-0.14830156
82	0xbe2aa9d9	-0.16666354
83	0xbcee0cf9	-0.02905892
84	0x3d04e52c	0.032445118
85	0xbd80dda6	-0.06292276
86	0xbec5528b	-0.38539538
87	0xbd9cef77	-0.07662862
88	0x3c3267d2	0.0108890105
89	0x3dc283c7	0.09497791
90	0xbdeed592	-0.11661829
91	0x3e7f054e	0.24904367
92	0x3e1a93ab	0.15095393
93	0x3d895cd3	0.06707158
94	0xbde84cb6	-0.113427565
95	0xbe9e88d6	-0.30963773
96	0x3e7deca9	0.2479731
97	0x3e5a696c	0.21329278
98	0xbd35bd40	-0.044369936
99	0x3ea0843e	0.31350893
100	0x3d29398e	0.041314654
101	0x3e49223f	0.1964197
102	0xbe3205f2	-0.1738508
103	0x3d332967	0.043740656
104	0x3dc9e7a1	0.09858633
105	0x3e9edce8	0.31027913
106	0xbe6a7b45	-0.22898586
107	0xbd55fac2	-0.052241094
108	0x3e57c81a	0.21072426
109	0xbe94978a	-0.29021865
110	0x3e661fc8	0.22473061
111	0x3d8257c1	0.06364394
112	0x3e9626f4	0.29326594
113	0xbddbd725	-0.10734395
114	0xbe2cbfba	-0.16870013
115	0xbe40f45b	-0.18843214
116	0x3e1cd56e	0.15315792
117	0xbe83d264	-0.25746453
118	0x3f7578f8	0.9588771
119	0xbef51b0f	-0.47872207
120	0xb9ae2a84	-0.00033219543
121	0x3d930ede	0.0718057
122	0xbf0580c4	-0.52149606
123	0x3d85c916	0.06532495
124	0x3ec384f5	0.38187376
125	0xbeac0fde	-0.33605856
126	0xbe0bb03b	-0.13641445
127	0x3ea4b457	0.32168838
128	0xbe9f3a1d	-0.31099024
129	0xbe7d2e2b	-0.24724643
130	0xbf338271	-0.7012091
131	0xbf812a92	-1.0091116
132	0x3d9c5e6b	0.07635196
133	0x3f78664d	0.970311
134	0x3de373fd	0.111061074
135	0xbf96e61b	-1.1788973
136	0xbee25a8f	-0.44209716
137	0xbf1a397a	-0.6024395
138	0xbf2690b4	-0.6506455
139	0xbf0dfde9	-0.5546556
140	0x3ee4bdf7	0.44676182
141	0xbe85a818	-0.26104808
142	0x3e7e78ad	0.24850722
143	0x3ecf568b	0.40495715
144	0xbd7c9591	-0.061666075
145	0xbe75f191	-0.24017932
146	0xbe2810c7	-0.1641265
147	0x3e117ca5	0.14207704
148	0xbe5cba3a	-0.21555415
149	0x3e1d1dfa	0.15343466
150	0xbd811971	-0.06303681
151	0xbe577b6b	-0.21043174
152	0xbe09cec9	-0.13457789
153	0xbc45c3c6	-0.012070602
154	0xbbf13a82	-0.007361711
155	0x3c8be067	0.017074777
156	0x3d638b52	0.055552788
157	0xbebb8d58	-0.36631274
158	0x3b89666b	0.0041931174
159	0xbeb88150	-0.36036158
160	0xbd558e30	-0.052137554
161	0xbe76e663	-0.24111323
162	0x3e530804	0.20608526
163	0x3e8c5fe9	0.27416924
164	0x3df2e7e0	0.11860633
165	0xbf16e42a	-0.589419
166	0xbe187277	-0.14887415
167	0x3be391df	0.0069448794
168	0xbe751862	-0.23935083
169	0xbf1411f3	-0.5783989
170	0x3ef2c50a	0.47415954
171	0xbc5a264c	-0.013314795
172	0xbef46ef3	-0.47740898
173	0x3e6a3482	0.22871593
174	0xbdee779d	-0.11643908
175	0xbd4a50bb	-0.049393397
176	0xbe179423	-0.14802603
177	0x3e751640	0.23934269
178	0x3e432d47	0.1906024
179	0xbcc573b9	-0.024103032
180	0x3d4aa4b3	0.049473476
181	0x3e5feadc	0.21866935
182	0x3e70443a	0.23463526
183	0x3d87dbc3	0.06633713
184	0xbe9bc3fe	-0.30422968
185	0xbea5a3b2	-0.32351452
186	0x3dfe2551	0.12409461
187	0xbdf8c822	-0.12147547
188	0xbdcac4d9	-0.09900827
189	0x3caad7ca	0.02085485
190	0x3db8b147	0.09018188
191	0x3cde0d81	0.027106049
192	0xbe602157	-0.21887718
193	0xbe3a8d51	-0.1821797
194	0x3e3c4ad0	0.18387914
195	0x3e31b668	0.17354739
196	0x3eb2ce85	0.34923187
197	0x3e2374c7	0.15962516
198	0xbdf9bab1	-0.12193812
199	0xbead309c	-0.3382615
200	0xbea717bb	-0.32635292
201	0xbe5e17cf	-0.2168877
202	0x3ec4d880	0.38446426
203	0xbab59dd8	-0.0013856245
204	0x3e91e9ff	0.28498837
205	0x3ece269f	0.4026384
206	0x3e2c700a	0.16839615
207	0xbe811cfc	-0.25217426
208	0x3de16f33	0.11007538
209	0xbedcee0e	-0.4315037
210	0x3eacdef2	0.33763844
211	0x3f0043bf	0.5010337
212	0x3edfeaf1	0.43733934
213	0xbf5f6036	-0.8725618
214	0x3e238c18	0.1597141
215	0xbf205a7b	-0.6263806
216	0xbe6d54e9	-0.23176922
217	0xbf2cf4e0	-0.6756115
218	0xbda9fb36	-0.08299868
219	0x3e77b491	0.24189974
220	0xbe2db7be	-0.16964623
221	0xbe34727c	-0.17621797
222	0xbdf9c050	-0.12194884
223	0xbd7acfbc	-0.061233267
224	0xbf0efa46	-0.55850637
225	0xbea4555d	-0.32096377
226	0x3e9f8d8a	0.31162673
227	0xbdda786e	-0.106675014
228	0xbeece305	-0.46266952
229	0x3e5b88fe	0.21438977
230	0xbdf9e5b0	-0.122020125
231	0xbe8fbaf0	-0.2807231
232	0x3e9fdce7	0.31223223
233	0x3ec7a288	0.3899119
234	0x3e808c9e	0.25107282
235	0xbf049657	-0.517919
236	0x3eda6c91	0.42660955
237	0x3ccca392	0.02498034
238	0x3f935405	1.1510016
239	0xbe3901dd	-0.18067117
240	0xbe83c4d8	-0.25736117
241	0xbf499dc6	-0.7875637
242	0xbe4e7d88	-0.20165074
243	0x3f0ed2ee	0.55790603
244	0x3db0044a	0.08594568
245	0xbeb54bb9	-0.35409334
246	0xbe69df0a	-0.22838989
247	0xbeb71698	-0.35759425
248	0x3d378f58	0.044814438
249	0xbe9efa5f	-0.31050393
250	0xbf2c900a	-0.67407286
251	0x3d9bcb47	0.076071315
252	0xbf353fb6	-0.7080034
253	0xbf16e5d8	-0.58944464
254	0xbc59e920	-0.01330021
255	0xbe07071b	-0.13186304

89 f4 [32]
0	0x3f84ecd4	1.0384774
1	0xbfb5efe5	-1.4213835
2	0x3f819804	1.0124516
3	0xbf1995f2	-0.59994423
4	0xbf20ded6	-0.6284002
5	0x3f598564	0.8496916
6	0xbf917580	-1.1363983
7	0xbfb875fb	-1.4411005
8	0x3efeaeb6	0.4974267
9	0x3f8e76ac	1.1129966
10	0x3fec971b	1.8483614
11	0xbf497604	-0.786957
12	0xbf5067f6	-0.8140863
13	0x3fb9e544	1.4523091
14	0xbfe0d78f	-1.7565783
15	0x40660fc1	3.5947115
16	0x3fe31576	1.7740924
17	0x40274ad2	2.6139417
18	0x3fbf3c26	1.4940231
19	0xbf729a40	-0.94766617
20	0xc0284808	-2.6293964
21	0xbf25b187	-0.6472401
22	0xbf3dfb04	-0.74211144
23	0x4097faab	4.749349
24	0xbf999fd8	-1.2001905
25	0xbf3b1bc0	-0.7308922
26	0x3fb01db0	1.375906
27	0xbf8294bc	-1.020164
28	0xbed9307a	-0.42419797
29	0xc00feb6a	-2.2487435
30	0x3fd6f4c4	1.6793447
31	0xbf335f94	-0.70067716

91 f4 [64, 32, 3, 3]
0	0x3c0f0031	0.008728073
1	0xbb9f81d6	-0.0048677726
2	0x3be97579	0.0071245995
3	0x3be4f0a4	0.0069866944
4	0x3aecb9ad	0.0018060707
5	0xbaf4ca9f	-0.0018676108
6	0x3d006a4f	0.031351384
7	0x3c87ab70	0.01656124
8	0x3c5147c9	0.012773463
9	0x3bb6bd50	0.005576767
10	0xbc0c755e	-0.008572904
11	0xbc1518f9	-0.009100192
12	0x3c4e99e3	0.012609932
13	0xbba14a1e	-0.0049221655
14	0xbbda7548	-0.006666813
15	0xbb52dbfd	-0.003217458
16	0xbc63def4	-0.013908137
17	0xbc98d3b1	-0.01865563
18	0x3cfc87be	0.030826446
19	0x39a10db4	0.00030718523
20	0xbc63ad6f	-0.01389633
21	0x3c59c1d4	0.013290841
22	0x3adf37f8	0.001703023
23	0xb9ed385c	-0.00045246154
24	0x3c5a9b3b	0.013342674
25	0xba70f193	-0.0009191271
26	0xbcb04f5f	-0.021522222
27	0x3cec27de	0.028827604
28	0x3ca6fc14	0.020383872
29	0x3cc7792b	0.02434977
30	0x3c84d948	0.016216889
31	0x3ca8449b	0.020540526
32	0x3bedec71	0.007260852
33	0x3cc53d4b	0.024077078
34	0x3cc604b1	0.024172159
35	0x3cc784fe	0.024355408
36	0xbcd5ef03	-0.026114946
37	0xbd2bfeca	-0.041991033
38	0x3cfa5c98	0.03056173
39	0xbc92683f	-0.017871974
40	0xbc883ec7	-0.016631497
41	0x3ce8ad9d	0.028403098
42	0x3d0c96f8	0.034323663
43	0x3d25b630	0.04045695
44	0x3d808e92	0.06277193
45	0x3bebd60f	0.0071971486
46	0xbb1acd98	-0.0023621079
47	0xbc41b705	-0.01182342
48	0x3a99e871	0.0011742247
49	0x3b826688	0.003979508
50	0xbc61e830	-0.013788268
51	0x3bcecb76	0.0063108755
52	0xbb4af139	-0.0030966534
53	0xbc6daa18	-0.014505886
54	0xbc54a20e	-0.01297809
55	0xbc487c1f	-0.012236624
56	0xbc8d602c	-0.017257772
57	0x3b9d50d4	0.004800895
58	0x3c1fac76	0.009745708
59	0xba02b5a1	-0.0004986171
60	0x3c8332a7	0.016015364
61	0x3cba21fc	0.022721283
62	0x3c36427d	0.0111242505
63	0xbd3a90a8	-0.04554811
64	0xbce5b897	-0.02804212
65	0xbd5d6dac	-0.05405967
66	0xbc478927	-0.012178696
67	0xbc202ef3	-0.009776819
68	0x3b7a979b	0.0038237337
69	0x3c95c465	0.018282125
70	0x3c9a2aef	0.0188193
71	0x3c6c5ce0	0.01442644
72	0xbcbdb9fe	-0.023159977
73	0xbb817d23	-0.003951685
74	0xbd08f2e5	-0.033434767
75	0x3d2b626a	0.0418419
76	0x3d35a161	0.044343356
77	0x3d0d2b30	0.034465015
78	0x3d14743a	0.036243655
79	0x3cd6ec47	0.026235713
80	0x3c6348c9	0.013872334
81	0x3bca4dad	0.0061738105
82	0xb8c55e84	-9.411297e-05
83	0xbb0b7c0c	-0.0021283654
84	0x3c8e5927	0.017376496
85	0x3c49c545	0.012315099
86	0x3a2c49b1	0.000657226
87	0x3ca3f6f8	0.020015225
88	0x3c8b1ddd	0.016982013
89	0x3b6760e3	0.0035305552
90	0x3d124dc8	0.03571871
91	0x3cb175ae	0.02166256
92	0x3c163891	0.00916876
93	0x3b4f1bc9	0.0031602255
94	0x3b6f6717	0.0036529952
95	0xbc99f8fd	-0.018795485
96	0xbd41a6ea	-0.047278322
97	0xbd3c31f4	-0.045946077
98	0xbd81f8fa	-0.06346317
99	0xbb872778	-0.004124578
100	0x3b1dcbe1	0.002407782
101	0xbc7ec066	-0.015548801
102	0x3caf4ca8	0.021398857
103	0x3cb42e1b	0.021994641
104	0x3c50bfc9	0.012741038
105	0x3cacd321	0.021096768
106	0x3c97b376	0.01851819
107	0x3c5de133	0.013542461
108	0x3c97eea8	0.018546417
109	0x3c1fd1a6	0.009754574
110	0x3d04d622	0.032430775
111	0x3c8f536a	0.01749583
112	0x3cb653f6	0.022256833
113	0x3c6e4649	0.0145431245
114	0x3ba396f8	0.004992362
115	0x3c1fe5a7	0.009759343
116	0x3bf7e5eb	0.00756525
117	0x3c99703f	0.01873028
118	0xbc3f6d63	-0.011683795
119	0x3b2b859d	0.002617217
120	0xbb94252c	-0.004521033
121	0xbc9f5d2d	-0.01945361
122	0xbcb2ab51	-0.021810206
123	0xbd3988c2	-0.045296438
124	0xbd535310	-0.051592886
125	0xbd04c0ae	-0.032410316
126	0x3c7785b1	0.015107558
127	0xbbd76328	-0.0065730996
128	0x3c16541c	0.009175327
129	0x3c706a10	0.014673725
130	0xbc3cffc6	-0.0115355905
131	0x3ad19275	0.0015989082
132	0x3cf02fad	0.029319609
133	0x3bf63a1f	0.007514253
134	0x3cd3ec87	0.025869621
135	0x3d99256a	0.07477839
136	0x3c5b05d9	0.013368093
137	0x3d1af3f1	0.037830297
138	0x3caf10b6	0.021370273
139	0xbcbd0ee2	-0.023078386
140	0xbc35e946	-0.01110298
141	0xbc13bcb6	-0.00901716
142	0xbd67f95f	-0.056634303
143	0xbd1aa48c	-0.03775458
144	0x3d570b39	0.052500937
145	0x3cc56acf	0.024098782
146	0x3c3b749a	0.011441374
147	0xbba9f8b4	-0.0051871184
148	0xbca18e71	-0.019721242
149	0xbd21eb3c	-0.039530978
150	0xbced36d6	-0.028956812
151	0xbd2b561c	-0.041830167
152	0xbd603af2	-0.054743715
153	0x3c1a1a80	0.009405732
154	0x3b7dfe57	0.0038756335
155	0xbbae77d3	-0.0053243428
156	0xbc8c8f54	-0.017158188
157	0xbc099f3f	-0.008399784
158	0xbcb257b9	-0.021770345
159	0xbd63b8e9	-0.055596266
160	0xbd2acda6	-0.041700028
161	0xbd6d521e	-0.05793964
162	0x3c53b43a	0.012921387
163	0x3a27f5a1	0.0006407146
164	0xbc06da5d	-0.008230773
165	0x3b11ff7b	0.0022277522
166	0x3bd3f765	0.0064687007
167	0xbc1c45ea	-0.009538153
168	0x3c268e37	0.010165743
169	0xbb16f558	-0.002303442
170	0xbbb07da9	-0.0053860736
171	0x3b835598	0.0040080063
172	0x3c1209ab	0.008913438
173	0xbb9b8d11	-0.004747041
174	0x3d03cad8	0.03217587
175	0x3cb78aab	0.02240499
176	0x3b94d9f7	0.004542585
177	0x3cb6a4e8	0.02229543
178	0x3b681066	0.0035410165
179	0xbbb7094f	-0.0055858265
180	0x3d4ab7a9	0.04949156
181	0x3cf9a0a5	0.03047211
182	0x3ce7b18b	0.028282901
183	0x3c048109	0.008087405
184	0xbb9ea0fb	-0.0048409677
185	0xbab058f3	-0.0013454243
186	0xbc053169	-0.008129456
187	0xbd0ca016	-0.034332357
188	0xbd05960c	-0.0326138
189	0x3b18cdee	0.0023316103
190	0x3c896964	0.016773887
191	0x3c406cfd	0.011744735
192	0x3c237991	0.009977714
193	0x3c8e5316	0.017373603
194	0x3bd32cde	0.0064445576
195	0x3c568bab	0.013094823
196	0x3c00e572	0.007867204
197	0x3a3a4ae0	0.0007106494
198	0x3c3fc23b	0.011704023
199	0xbaec12a9	-0.0018010932
200	0x3c1d90c9	0.009617039
201	0x3bcb0a2b	0.0061962805
202	0x3bd5d49c	0.006525589
203	0x3cb8bcbd	0.022550935
204	0x3afc62e4	0.0019255546
205	0xbc6f59ce	-0.014608813
206	0x3c7a6373	0.0152825
207	0x3c179ba8	0.00925342
208	0xbc9707c4	-0.01843632
209	0xba5e9b93	-0.00084918103
210	0x3c46b866	0.012128925
211	0xbcfaac42	-0.030599717
212	0xbc952bd6	-0.01820938
213	0xbc7265d8	-0.014794789
214	0xbd470ab6	-0.0485942
215	0xbd5271ca	-0.05137805
216	0xbc583826	-0.013196981
217	0xbb119654	-0.0022214847
218	0xbc8eea7c	-0.017445795
219	0x3c26f34c	0.010189842
220	0x3c930abf	0.01794946
221	0xbc1e1ac7	-0.009649939
222	0x3ca94769	0.020663934
223	0x3d01c65c	0.03168331
224	0x3cc73a73	0.024319863
225	0x3b5b4f2b	0.0033463936
226	0x3bd1856b	0.0063940785
227	0xbbfd4608	-0.0077292956
228	0x3a2f5db3	0.00066896825
229	0xbc69a3dd	-0.014260259
230	0xbc87e7fe	-0.016590115
231	0x3cb79d9d	0.022414023
232	0x3c23465e	0.009965507
233	0x3ca38f5a	0.019965816
234	0x3cbcd554	0.023050942
235	0x3c51742c	0.012784045
236	0x3c931bec	0.01795765
237	0x3b0cea07	0.0021501796
238	0xbc49cdae	-0.012317104
239	0xbcb079ff	-0.021542547
240	0xbd18bfa6	-0.037292145
241	0xbd137681	-0.036001686
242	0xbd0eb8ce	-0.034844212
243	0x3c21e67b	0.009881611
244	0xbb879d62	-0.0041386345
245	0x3a8020e9	0.0009775433
246	0x3c614022	0.013748201
247	0x3b6ba834	0.0035958411
248	0x3b90b53f	0.0044161375
249	0x3cc53a19	0.024075555
250	0x3c6c60fb	0.014427419
251	0x3ca52455	0.020158926
252	0x3ca333bc	0.01992213
253	0x3c772de9	0.015086629
254	0x3cf68c3f	0.030096171
255	0x3d42e5bd	0.047582377

92 f4 [64]
0	0xbeb990f0	-0.3624339
1	0x3f637484	0.88849664
2	0xbe19c105	-0.15015037
3	0x408683fe	4.2036123
4	0xbfc08978	-1.5041952
5	0xbddf47c6	-0.109023616
6	0xbf1a60fc	-0.60304236
7	0x3c610b20	0.013735563
8	0x3ee75472	0.45181614
9	0x3f38eaf7	0.7223353
10	0xbe06ca80	-0.13163185
11	0xbef95084	-0.4869424
12	0x3f7eb39a	0.994928
13	0xbe3375ca	-0.17525402
14	0xbe6b55c4	-0.22981936
15	0xbd511478	-0.05104491
16	0x3ed444a6	0.41458625
17	0xbf09cf60	-0.53832054
18	0xbf39de9b	-0.72605294
19	0xbf102888	-0.56311846
20	0xbf377648	-0.7166486
21	0xbe99e030	-0.30053854
22	0xbea425b8	-0.32060027
23	0xbf0e687c	-0.5562818
24	0x3f9a3060	1.2046013
25	0xbf5dec2e	-0.86688507
26	0x3ec42e5e	0.38316625
27	0xbf1f6480	-0.62262726
28	0xbeacf4de	-0.3378057
29	0xbe4ce3d7	-0.20008789
30	0x3dff27dc	0.124587744
31	0x3f730410	0.94928074
32	0xbe0b2d5c	-0.13591522
33	0x3e31a5b0	0.17348361
34	0xbe92f361	-0.28701308
35	0xbf46d284	-0.7766497
36	0xbf1e57dc	-0.6185281
37	0xbe84bdd7	-0.25926086
38	0x3f3ee3f4	0.7456658
39	0xbdeac45c	-0.11463234
40	0xbf0a5104	-0.5402987
41	0x3cece9c0	0.028920054
42	0x3ea559a3	0.3229495
43	0xbf235984	-0.63808465
44	0xbda6629b	-0.08124276
45	0xbc85f100	-0.01635027
46	0xbf23b062	-0.63941014
47	0x3f9391a2	1.1528819
48	0xbd9cfd98	-0.07665557
49	0x3e8f4ab5	0.27986684
50	0xbeee7110	-0.46570635
51	0xbfc423b0	-1.5323391
52	0x3cf8bd58	0.030363724
53	0x3e9cf48f	0.30655333
54	0x3fcddbd8	1.6082716
55	0x3ee26d04	0.44223797
56	0xbf216eb2	-0.6305953
57	0x3c1c4ae0	0.009539336
58	0xbf1bb8d1	-0.6082888
59	0xbef88214	-0.48536742
60	0xbf0ec6ba	-0.5577198
61	0xbef160bf	-0.47144124
62	0xbf011dfa	-0.50436366
63	0xbed4fb8e	-0.4159817
