model/horse.onnx (onnx, 301496 bytes, 16 tensors)

fc.weight f4 [2, 256]
000000 d7 eb 8e be 71 9c 4a 3e ea da 3d be 40 16 3e 3e
       -0.27914307 0.1978624 -0.1854054 0.18563175
000010 c1 0a b5 3d 15 64 4a bd c0 fe cf bd f1 42 1d be
       0.08839942 -0.049411852 -0.101560116 -0.15357567
000020 9f f8 4d bd 9f 46 8b be 28 b7 c9 3d b1 2e 92 bd
       -0.05028593 -0.27202317 0.098493874 -0.07137812
000030 bc 5d 0a bf 26 b6 e8 be c7 27 a1 bd 70 f5 da bd
       -0.5404928 -0.45451468 -0.07868915 -0.10691345
000040 ff 98 8f 3e 1b 53 5b 3e 81 2e 9d 3e e0 30 84 3e
       0.28046414 0.21418421 0.30699542 0.2581854
000050 7b 4b b5 3e eb 3e 95 3e 6b cc 90 3e 6a 1a 97 3e
       0.3540915 0.29149565 0.2828096 0.2951234
000060 f3 7b 9b be 8d 63 ed be 06 6a 9f be f8 79 e3 be
       -0.30368003 -0.46365014 -0.31135577 -0.44428992
000070 56 85 a2 3e 47 12 bc 3e 25 69 4c 3e 43 d4 9a 3e
       0.31742352 0.36732695 0.19961984 0.30240068
000080 de 7e dc be 5d 36 c0 be 59 52 c9 bd 1c 12 45 bd
       -0.43065542 -0.37541476 -0.0983016 -0.048112974
000090 a7 be 3d 3e 08 7f da 3d 48 ec 7b 3e 1b bc 4f 3e
       0.1852976 0.106687605 0.24601853 0.202866
0000a0 b6 50 93 3e cd 67 93 3e 08 58 88 3e d0 fe 78 3e
       0.28772515 0.2879013 0.26629663 0.24315953
0000b0 bc ac 8a 3e 41 f3 2f 3e 03 10 c5 3e 5f e8 70 3e
       0.2708491 0.17182638 0.38488778 0.23526143
0000c0 4c 3b 24 be 29 07 2f be 93 0f 26 be 07 19 1d be
       -0.16038245 -0.17092575 -0.16216879 -0.15341578
0000d0 5f 62 a0 3e 38 fd 56 3e a7 fc ab 3c 21 ef 70 3d
       0.3132505 0.20995033 0.020994497 0.0588218
0000e0 b5 a8 be 3e a7 97 c5 3e f9 f9 ad 3e d7 29 c4 3e
       0.37238088 0.38592264 0.33979777 0.3831317
0000f0 19 e9 50 be 4d a8 3a be 99 ce c1 be 02 0c c9 be
       -0.2040142 -0.18228264 -0.37852934 -0.39266974
000100 3c 3b 9c bc 66 e3 22 be e9 92 73 bd d1 25 5a be
       -0.019071214 -0.15907058 -0.059466276 -0.21303488
000110 0f 3d 03 bf cc 3d f0 be 20 59 09 3e bc 8a 42 3e
       -0.51265043 -0.46922147 0.13412905 0.18998235
000120 99 b5 a2 3a bd 5d ae 3c 54 72 56 3d 19 d4 0e bd
       0.001241374 0.021284932 0.052355126 -0.03487024
000130 29 db 44 3e 32 13 44 3d 26 d5 16 3e f0 1c bf 3d
       0.19224228 0.04786987 0.14729747 0.09331691
000140 c8 da 10 bf d8 45 ec be 96 d3 43 be d7 f2 75 bd
       -0.56583834 -0.46147037 -0.19123682 -0.060046043
000150 40 96 17 3e 0b b7 ea 3d b4 59 c2 3e 6e b0 95 3e
       0.1480341 0.11460694 0.37959063 0.29236168
000160 6d 70 f3 be b0 2f e1 be 5c 88 87 bd 9f 9d f3 bc
       -0.47546712 -0.43981695 -0.06617805 -0.029738246
000170 eb 1b 95 3d 76 d3 ad 3d 4d fd 8d bd 6e 1f 85 bd
       0.072807156 0.084875986 -0.06933079 -0.06500135
000180 70 86 8a 3d 7c e3 91 3d d2 10 98 bc 26 eb d4 3c
       0.06763923 0.07123467 -0.018562708 0.025991034
000190 7b 15 df bd 1e 87 88 be de a6 cb 3d 8c 76 cd bd
       -0.10892769 -0.26665586 0.09943937 -0.10032377
0001a0 34 f5 44 be 99 11 fa bd 14 26 c5 bd f7 e0 22 be
       -0.19234163 -0.12210388 -0.096264035 -0.1590613
0001b0 44 04 e3 be cd 44 c4 be 80 36 11 3e 04 21 1f 3e
       -0.44339192 -0.3833374 0.14180946 0.15539938
0001c0 72 96 7f 3d 6a dc 8d be d8 d1 13 3e 04 5c 9e be
       0.062399335 -0.27707225 0.14435518 -0.30929577
0001d0 4d f3 dc 3d 5d c3 51 3e 87 72 23 3e a4 5b 96 3e
       0.107885934 0.20484681 0.15961657 0.2936679
0001e0 ea 9b 91 be ed c9 0f be 3a 96 35 3e 1d 45 04 3e
       -0.28439265 -0.14041872 0.17733088 0.1291699
0001f0 37 41 21 3b 8e 2f cf 3d c6 fc d5 bd a4 e4 81 bd
       0.0024605521 0.10116492 -0.10448603 -0.06342438
000200 7a 91 8a be 11 00 49 be 4b 10 5d be ad 44 8b be
       -0.27064115 -0.19628932 -0.21588247 -0.27200833
000210 b0 e9 65 3e a5 8a 37 3e 6c 19 90 3e 9c 5c b9 3e
       0.22452426 0.17923982 0.28144395 0.36203468
000220 a3 f5 c5 be 0e a5 b3 be ea ac 34 3c e4 83 b7 3d
       -0.38663968 -0.35086864 0.011027554 0.08960703
000230 32 cc 8b 3e b1 48 34 bd 6f dc 95 3e d2 a8 72 bd
       0.27304226 -0.044014636 0.2926974 -0.05924303
000240 d4 b7 5e 3d ab 34 88 3e b8 42 02 bf 5e 56 86 be
       0.05437453 0.26602682 -0.50883055 -0.26237768
000250 fe c7 03 bf f4 a0 01 bf 7c 40 32 3e 33 14 46 3e
       -0.5147704 -0.5063622 0.17407411 0.19343643
000260 5e 1f 63 3b 1b a7 8c bd 2f b8 d1 bd 71 ff e9 bc
       0.0034656147 -0.0686781 -0.10240208 -0.028564187
000270 a3 3b b5 3d 25 83 65 3d cb 21 36 3e e1 63 20 3e
       0.088492654 0.056033272 0.17786328 0.15663101
000280 66 5e 54 3e 4b 27 42 3e 74 60 2f 3e 6b 45 31 3e
       0.20739135 0.18960302 0.17126638 0.17311637
000290 69 3d f2 3c 23 72 eb 3d 94 d2 1f bd 47 ac df bd
       0.029570298 0.11496379 -0.039019182 -0.10921531
0002a0 f6 e5 42 be 7c 41 45 be d1 49 1c be f9 e9 48 be
       -0.19033036 -0.19263262 -0.15262534 -0.19620503
0002b0 e9 c3 32 bd 1c 37 08 bd b3 fe 83 bd 61 7a e5 bd
       -0.043643866 -0.03325568 -0.064450644 -0.112049825
0002c0 c3 ff 05 bf fa 62 16 bf bd 71 8e 3e c3 03 36 3e
       -0.52343386 -0.58744776 0.2782115 0.17774872
0002d0 32 c7 09 bf 9d 5c ef be e7 ea 0a be f3 12 99 bd
       -0.5381957 -0.46750346 -0.1356617 -0.074743174
0002e0 ba 0f 1a bf 98 a4 0e bf fc 08 45 bd 66 91 e8 bc
       -0.60180247 -0.557199 -0.04810427 -0.028389644
0002f0 25 c1 01 bf e9 4c cb be c3 0f 48 3e 64 34 39 3e
       -0.5068534 -0.39707115 0.19537263 0.18086392
000300 3a 44 da bd a7 c7 85 bd 6c 72 93 3e 3a 41 a7 3e
       -0.106575444 -0.06532221 0.28798234 0.3266695
000310 0e 3b 37 bd 1f 45 47 bd 2f bc a2 bd 9a df 2d be
       -0.044734053 -0.048649903 -0.079460494 -0.16979828
000320 54 c8 94 3e 11 92 aa 3e e1 f5 81 3e 7c e5 ae 3e
       0.29059088 0.33314565 0.25382903 0.34159458
000330 38 bc 2f 3e c4 17 51 3e ab b6 59 3e d1 0d 6c 3e
       0.17161644 0.20419222 0.21261089 0.23052146
000340 1c d1 80 3e f8 8a 78 3e a5 01 6d 3e a8 f1 7e 3e
       0.25159538 0.24271762 0.23145159 0.24896872
000350 7a ad 9e 3e 6a 39 e3 3e d0 25 6b 3e 23 5a a7 3e
       0.30991727 0.4437974 0.22963643 0.32685956
000360 35 cd 8f be ed 92 a2 be 4d aa 8e 3d 75 4b a0 3d
       -0.28086248 -0.3175272 0.06966076 0.07826892
000370 8e f2 b2 3e 7e e8 bd 3e 79 f4 6e bd e5 7d 0b 3a
       0.3495068 0.3709144 -0.058338616 0.0005321189
000380 19 4c bf 3e 1e 6b 97 3e d2 ff 75 3e a4 ad ec 3d
       0.37362745 0.2957391 0.24023369 0.11556557
000390 b6 f0 d7 be 14 1f e7 be 3b b7 27 3e e3 16 7e 3e
       -0.42175835 -0.45140898 0.1637849 0.24813418
0003a0 98 ce de 3e 0e f7 db 3e 45 a5 2c 3e 99 6a 03 3e
       0.43516994 0.42961925 0.1685992 0.12833633
0003b0 25 7c 6b 3e 0f 7e 94 3e 6a 91 05 3e b2 22 41 3e
       0.22996576 0.29002425 0.13043752 0.18860891
0003c0 11 74 96 ba 0f 77 20 be 57 cd be bc 58 8c 8f be
       -0.0011478682 -0.15670417 -0.023291273 -0.2803676
0003d0 84 36 8c 3b ce 2e 8b bd 08 95 88 bd 2d a5 48 3c
       0.0042789597 -0.06796037 -0.066690505 0.012246412
0003e0 92 cd cf be e6 cf f5 be 4a fe 6f 3e aa 00 14 3e
       -0.40586525 -0.48010176 0.23436847 0.14453378
0003f0 be 13 d2 3e 22 68 dc 3e c6 4e dd 3e 2e c7 d9 3e
       0.41030687 0.43048197 0.43224162 0.42534775

fc.bias f4 [2]
000000 eb f2 5e 3d f6 91 61 bd
       0.054430883 -0.05507084

79 f4 [16, 3, 7, 7]
000000 78 0a 53 3e c3 af 0e 3d 0a 29 16 be 8e 93 82 be
       0.20609462 0.03483559 -0.14664093 -0.255032
000010 2b a1 ad be b2 cd 9d be 62 2e 20 be 38 15 6a 3d
       -0.33912024 -0.30820996 -0.15642694 0.057149142
000020 2b e4 8a be 49 bb 80 be 15 02 7b be 1d 21 c3 be
       -0.27127203 -0.25142887 -0.24512513 -0.381112
000030 86 32 d2 be 73 62 95 be 31 83 94 3d ea 31 85 be
       -0.4105417 -0.29176673 0.07251585 -0.26014644
000040 40 1f a7 be c6 54 70 be a6 88 a4 be ce a1 cf be
       -0.3264103 -0.23469839 -0.32135504 -0.40553135
000050 dc 79 7f be 8a 2a 91 3e 36 9b b5 3d 5a 0a 8d 3d
       -0.2494883 0.28352767 0.08867495 0.0688674
000060 6d dd 32 3e 2e 48 c3 3d b3 4c 42 be ab c8 48 be
       0.1746728 0.095352516 -0.18974571 -0.19607799
000070 1d 93 78 3e 73 4c 6e 3e 2f c5 48 3d 2a c5 13 3e
       0.2427487 0.2327135 0.049016174 0.14430681
000080 d6 b4 37 3e ab 6f 37 be e2 97 43 be 3e 36 67 3e
       0.17940077 -0.17913692 -0.19100907 0.22579286
000090 ba 27 4b 3e da 35 fe 3d 2a 2b 66 3e df cb 1a 3e
       0.19839373 0.12412615 0.22477403 0.15116833
0000a0 2a 72 9d bc 5c 22 61 bd e0 f0 ac 3e 3b 20 af 3e
       -0.019219477 -0.05496441 0.33777523 0.34204277
0000b0 35 43 73 3e 10 0c b8 3e 00 8d 88 3e a5 dd 04 3e
       0.23756106 0.35946703 0.26670074 0.12975176
0000c0 fc 37 82 3d 6a 20 b9 3e 12 d4 80 3e 7a cc 37 3d
       0.063583344 0.36157542 0.25161797 0.04487274
0000d0 b0 cd 82 3c 7b ba 8a bd 46 23 5e bd 30 17 13 3d
       0.01596722 -0.067738496 -0.054232858 0.035910785
0000e0 fb f3 3f 3e 9a a9 8d bd 79 c2 ab bc 16 a8 b0 bd
       0.18745415 -0.069171146 -0.020966755 -0.0862581
0000f0 44 00 63 be 59 80 5d be ca cd 8b bd 7b 25 2d bc
       -0.2216807 -0.21630992 -0.068263605 -0.010568018
000100 bf 0f 72 be bc 29 86 be ab 80 f8 bd 29 61 4f be
       -0.23638819 -0.26203716 -0.121339165 -0.20251907
000110 8a d9 57 be af da 31 be 18 9a 7a 3d 8b 4a e8 bd
       -0.21079078 -0.17368577 0.06118211 -0.11342343
000120 2d b9 fc bd f6 d7 21 3c f2 f1 d5 3c 52 66 de bd
       -0.12340007 0.009878149 0.026116345 -0.1085936
000130 59 82 e2 bd 3c 58 5e be 93 fc 65 be 04 84 9b be
       -0.11060018 -0.21713346 -0.2245963 -0.30374157
000140 bc 09 eb bd 00 7a 3f bd 39 99 4c be e5 c9 1e be
       -0.11476466 -0.046747208 -0.19980325 -0.15506704
000150 83 23 78 be fb 4c 86 be 8f 9d b3 be 70 25 93 be
       -0.24232297 -0.26230606 -0.35081145 -0.287395
000160 6e 75 25 be 08 ee 81 be 0c d1 db bd a2 74 39 be
       -0.16158077 -0.25376916 -0.10733232 -0.18110898
000170 89 81 44 be 21 ed 66 be f9 cd 18 be 11 f5 40 be
       -0.19190039 -0.22551395 -0.14922322 -0.18843485
000180 d1 25 57 be 74 76 1e be c7 11 aa 3e e3 32 a0 3e
       -0.2101052 -0.15474874 0.33216688 0.31288823
000190 50 90 6b 3e 3b ef c1 3d 6e ab 9d 3c 66 f2 7f 3d
       0.2300427 0.09469458 0.019246783 0.06248703
0001a0 fa 72 8b 3e a1 60 3f 3e 36 02 cd 3d 29 d8 d1 3c
       0.27236158 0.18689205 0.10010187 0.025615769
0001b0 18 87 70 3d 15 29 0f 3d b7 e6 6e bd d5 e8 66 3d
       0.058722585 0.03495129 -0.058325496 0.05637439
0001c0 a0 6c c6 3d 04 b9 75 bc 0c 59 36 bc 7e 52 ff 3d
       0.09688687 -0.014997724 -0.011129629 0.12466906
0001d0 73 1c 8b 3d f1 51 2c 3c 3b 68 d6 3d 8b c6 08 3e
       0.06792536 0.010517583 0.10469099 0.13356988
0001e0 e6 ff f3 3d ba c7 ec 3d 0d a7 2c 3e c3 c2 59 3e
       0.11914043 0.11561532 0.168606 0.21265702
0001f0 03 58 0e 3e 79 c3 b2 3d 2b 03 cd 3d 17 41 0a 3d
       0.13900761 0.0872869 0.1001037 0.03375348
000200 3b 98 6f 3c c9 13 05 3e 32 33 01 3e 72 69 f2 3b
       0.014623697 0.12995829 0.12617186 0.007397824
000210 cf 47 45 3c bb 48 75 3d 7e c7 88 3d 8c 02 0d bc
       0.012041046 0.059883814 0.06678675 -0.008606564
000220 3a 33 c7 3d ae 09 d6 3d 7f 02 60 3a c9 e0 89 3d
       0.097265676 0.10451065 0.0008545294 0.067323275
000230 7f 7e d7 bb 14 0b 5b 3d b5 27 77 3d a3 03 f8 3d
       -0.006576359 0.05347736 0.060340602 0.12110069
000240 1c ad 0f 3e 6b 4b d2 3c ae 0a 16 3e 2e a3 80 3d
       0.1403088 0.025670728 0.14652511 0.06281124
000250 bc 28 17 3e b3 e6 74 3d c7 63 b4 3d ec 15 c6 3d
       0.14761633 0.059790324 0.088080935 0.0967215
000260 94 d3 18 3d 13 c8 88 3d 6b 8c c4 3d 62 cd 45 3e
       0.03731115 0.06678786 0.09597095 0.19316629
000270 a6 23 06 3e 95 e4 ab 3d 1c 41 f5 3d 3b 86 a3 3d
       0.13099536 0.08393208 0.11975309 0.07984587
000280 da c2 a1 3d 29 0b 9c 3d a5 92 4a 3e e7 0e 0e 3e
       0.07898493 0.07619316 0.19782503 0.13872872
000290 1b ba 0e 3e de a6 31 3e a3 78 82 3d 8b 1c b1 3d
       0.13938181 0.17348811 0.06370666 0.08648022
0002a0 bc a4 df 3d 98 66 1e 3e f6 9a ed 3d d4 c3 af 3d
       0.109200925 0.15468824 0.11601822 0.08582273
0002b0 83 e7 20 3e d8 ee a1 3d 5f 0f 84 3d c9 02 4a 3d
       0.15713315 0.07906884 0.06448244 0.049319062
0002c0 78 4f b2 3d 2e f6 8d 3d 63 c6 e1 3d 2e c0 28 3e
       0.08706564 0.06931721 0.110241674 0.1647956
0002d0 7d e1 41 3d 8d 1c 1f 3c e1 da 26 bd 9d e2 91 bc
       0.047334183 0.009711397 -0.040736083 -0.017808253
0002e0 2c 1c e2 3b 69 6e 80 3d cc d9 db 3d 9d 7a ee 3b
       0.006900331 0.06271059 0.10734901 0.0072778002
0002f0 e2 aa 41 bd 06 84 e3 bd 22 cc b5 bd 19 d1 2d bd
       -0.047282107 -0.11109166 -0.08876826 -0.04243574
000300 53 4c 53 bc ff 6a f1 3c c4 b8 82 bd fc fa 03 be
       -0.012896615 0.029469965 -0.063828975 -0.12888712
000310 5b ac b6 bc 86 1f 11 3d a8 32 93 bc 9d e2 3c bc
       -0.022298982 0.035430454 -0.01796849 -0.011528638
000320 35 ba 3b 3c a8 aa 44 bd ee ad ea bc ce 71 66 bd
       0.011457969 -0.048014313 -0.02864739 -0.056260876
000330 82 cc bc 3c 1a ab 5c bd a2 34 2f bd 99 c0 e4 bc
       0.023046736 -0.053874113 -0.042774804 -0.027923869
000340 69 f5 c4 bd 30 05 10 bd 65 7b 42 bd 52 45 c5 bc
       -0.09617121 -0.035161197 -0.04748096 -0.024080906
000350 69 31 af bc f6 bc 8c bc a6 34 45 bd 69 95 cb bd
       -0.021385865 -0.017179947 -0.048145913 -0.09940607
000360 e4 40 78 bd d3 fd 27 bd 91 c2 64 bc d8 74 6d 3b
       -0.06060876 -0.04101355 -0.013962404 0.0036232974
000370 d1 3e 41 3c 22 1f c9 3c 86 a0 88 bd ef 1a a4 bd
       0.011794762 0.024550978 -0.066712424 -0.0801295
000380 6f 5d 7a bd 16 2c c4 bd 8e 15 2a bd 27 ef 7d 3c
       -0.06112426 -0.09578721 -0.041524462 0.015498913
000390 83 c4 9e 3d f0 81 75 bd 12 42 f3 bd 15 d4 0d be
       0.077523254 -0.05993837 -0.11877836 -0.13850434
0003a0 08 bb 06 be 76 61 a3 bd 36 0b c0 bb 95 d2 9f 3d
       -0.13157284 -0.079775736 -0.0058607114 0.07803837
0003b0 da c2 f9 bc ca 3b 07 be 23 24 38 be 98 df fb bd
       -0.03048842 -0.13206401 -0.17982535 -0.122985065
0003c0 8f d1 b7 bd d6 24 c1 bc f1 e5 31 3d 27 61 28 bd
       -0.08975517 -0.023577135 0.04343218 -0.041108277
0003d0 cf 81 1c be 86 b5 93 3d 72 b5 ed 3d 17 53 c4 3d
       -0.15283893 0.07212357 0.116068736 0.09586161
0003e0 6e dc c8 3d c3 81 f1 3d e3 f1 ca 3d 79 38 11 3e
       0.098076686 0.11792328 0.099094175 0.14181699
0003f0 b4 c8 77 3d a0 33 eb 3d 40 09 96 3d fc c5 8d 3d
       0.06049414 0.11484456 0.07325983 0.06922528

80 f4 [16]
000000 6c 6a bc 3f 8d 81 2d c0 df 10 da bf 1d 37 21 3f
       1.4719977 -2.7110322 -1.7036399 0.6297472
000010 e4 5d d7 3f b4 cb ea bf c0 7e 30 bd 3a 02 03 40
       1.6825528 -1.8343415 -0.04308963 2.047011
000020 50 85 b0 3f 51 0c 98 3e 76 3f a8 3f 15 fe 13 3f
       1.3790684 0.29696897 1.3144367 0.57809573
000030 18 87 57 3f 24 2d 59 3f c4 99 ed 3e 68 72 18 40
       0.8419051 0.84834504 0.46406376 2.3819828

82 f4 [32, 16, 3, 3]
000000 11 a7 55 3d e2 6f 95 3c 33 7b 19 3b 03 dd 4d 3d
       0.05216128 0.018241826 0.002341938 0.0502596
000010 cc 3f 25 3a be fc 33 bc 16 93 b2 3c 1f 92 dc bc
       0.0006303757 -0.010985551 0.021798652 -0.026925145
000020 4b 38 b1 bc c2 dc 21 bd f5 b9 0e bd 82 d7 2b bb
       -0.021633288 -0.03951717 -0.03484531 -0.0026220982
000030 a0 6e ce bc d9 f9 0e bd 09 3d be 3c 8b b4 ce bc
       -0.025199234 -0.034906242 0.023222463 -0.025232574
000040 02 45 26 bc 6a 57 d2 3c 6e e7 8c bd ea 13 a5 bd
       -0.010148289 0.025676448 -0.06880079 -0.08060439
000050 10 70 8e ba ba dd 0f bd 9b 35 fa bc 88 b7 c2 3c
       -0.0010867137 -0.035123564 -0.03054314 0.023769155
000060 34 a9 83 bc bd d3 7c bc fb 08 36 3c 57 db ea bc
       -0.016071893 -0.015431342 0.01111054 -0.028669043
000070 0a 4b 23 bc 65 85 74 3c 6b 19 31 3c 80 70 e1 bb
       -0.009966621 0.014924382 0.010809283 -0.006879866
000080 26 b4 ce 3c 74 31 07 3c f3 82 39 3c 08 6c 4f 3d
       0.025232386 0.008251537 0.011322725 0.050640136
000090 fa fa 0c bc 8a d9 53 bc 27 c3 a5 3c 59 73 db 3c
       -0.008604759 -0.012930283 0.020234657 0.0267884
0000a0 82 d9 7f 3b 2e 01 8a 3c 48 28 65 3d c8 0f e3 3c
       0.0039039557 0.016846266 0.05594662 0.027717486
0000b0 e4 06 a7 3c ca 2e 13 bd c9 13 13 bd f5 c4 24 39
       0.020389028 -0.035933293 -0.03590754 0.00015713631
0000c0 46 fc 2b bd ce 49 35 bd b9 9d 0b 3c e6 c5 90 bc
       -0.041988634 -0.04425984 0.008521491 -0.01767249
0000d0 32 74 34 bd b1 2a 1c 3b 23 3e 0f 3d d3 4f 01 3d
       -0.044056125 0.0023829157 0.034971368 0.031570267
0000e0 5b 9a 12 3d c7 c2 0d 3d ff 66 22 3c b3 79 aa 3c
       0.035791736 0.034609582 0.0099122515 0.020809984
0000f0 1e 34 00 3b 31 6f 40 bd d2 cf 13 bd bc 70 53 ba
       0.0019562314 -0.04698104 -0.036086865 -0.000806581
000100 49 ef 04 3d aa ef b2 3c ee cc 92 3d 87 41 8f 3d
       0.032454763 0.021842796 0.071679935 0.0699492
000110 f6 a3 91 3d 69 35 e5 3d e4 00 db 3d 0b 4e c3 3d
       0.07111351 0.11191828 0.10693529 0.0953637
000120 cb e4 dd 3c 88 7f 10 3d 23 2d 6a 3d f6 e6 18 3d
       0.027086636 0.035277873 0.057171952 0.037329637
000130 8e 92 1a 3c 6e 7e 6e 3b d2 9a 9b 3a 14 0e 11 bd
       0.009434355 0.0036391276 0.0011871702 -0.035413817
000140 1e 4b b8 bc 89 72 10 3b b4 09 c2 3c 51 c3 d3 3c
       -0.022496756 0.0022040925 0.023686267 0.02584997
000150 6f 9d 38 3d 39 19 fa 3c c3 ad cf 3c 5e 7d 8d 3d
       0.045072015 0.030529605 0.02535141 0.069086775
000160 53 cc 14 3d a8 51 1d 3d 1b fe ce bc 25 01 fc bc
       0.03632767 0.03840795 -0.025267651 -0.030762265
000170 d9 e2 07 bd b6 52 ec bc 96 f1 93 bc ad d6 3f bc
       -0.033175323 -0.028848033 -0.018059533 -0.011708898
000180 16 1f 8f 3b fa 47 1e 3c 91 ec 92 3c 38 c5 10 3d
       0.0043677194 0.009660715 0.01793507 0.035344332
000190 31 6a 84 3d df 19 9e 3d 79 b9 4a 3d 09 17 8c 3d
       0.06465567 0.07719778 0.049493287 0.06840331
0001a0 ff 39 84 3d a1 40 56 3d 5d 0c 68 3d fc 39 29 3d
       0.064563744 0.05230773 0.056652416 0.041315064
0001b0 4e b1 03 3d dc 38 d3 3a ef aa 6c 3c 80 01 ff 3c
       0.032151513 0.0016114968 0.014445051 0.031128645
0001c0 ee 6f 9e ba 5a be 27 3c 46 ce 1d bb 81 e9 f2 bc
       -0.0012087801 0.010238254 -0.0024079247 -0.029652359
0001d0 b2 6d 74 3b 01 63 a0 bd d1 09 af bd 14 39 c4 bc
       0.0037296829 -0.078313835 -0.08546794 -0.023952998
0001e0 23 25 cb bd eb d4 ee bd 37 3e 2f bd 1f 44 ee bd
       -0.09919193 -0.11661705 -0.042783942 -0.11634087
0001f0 da 89 23 be df 28 82 bd 32 2f 65 bc 74 c9 b7 bc
       -0.15970555 -0.06355452 -0.013988303 -0.022434928
000200 7e c1 9e 3b 76 f0 86 3c 0c 80 6b 3a a7 cb ce 3c
       0.0048448434 0.016472083 0.0008983619 0.025243593
000210 b9 b3 7e 3a 0b aa 43 bc 1a 54 fd 3b 78 94 0e 3d
       0.0009716112 -0.011942397 0.007730973 0.03480956
000220 58 8c 1e 3c 3f b7 08 bc 2e f5 13 3d 62 bc 1e bc
       0.009677015 -0.0083444705 0.036122493 -0.009688469
000230 cd 30 d2 bc ab 1e df 3c 32 87 01 3c ce a8 c4 bb
       -0.025658036 0.027236303 0.007905768 -0.0060015684
000240 68 0d 03 3d 49 b4 e1 3c 0d a4 01 3d 99 98 96 3c
       0.031995207 0.027551787 0.03165059 0.018383311
000250 05 a6 17 3c cb ff b0 bb 19 0d 9b bb 6d 05 0c 3b
       0.009255891 -0.0054015866 -0.004731786 0.0021365539
000260 a6 79 81 bc 79 d9 1e 3c ef 3d 75 3b 12 c3 21 3c
       -0.015805077 0.009695404 0.0037420949 0.009873169
000270 b9 22 68 3d 39 eb 75 3d dd a7 73 3d 50 f4 2e 3d
       0.05667374 0.06003878 0.05948626 0.042713463
000280 32 de 45 3d 00 00 17 3d f5 73 2c 3d ab 4b 94 3c
       0.048307605 0.036865234 0.042102773 0.018102488
000290 1a 7d 71 3c 81 f6 c2 3c 38 c5 16 3d 26 e7 46 3d
       0.014739299 0.023799183 0.036809176 0.048560284
0002a0 7f fe bf 39 ee 11 d6 3b 2e c2 6c 3c 3e 0c a5 3c
       0.00036619973 0.006532899 0.014450593 0.02014744
0002b0 b1 0e 89 3b ea 86 f3 3b 47 ac 19 3b bb 41 b2 3b
       0.0041826596 0.0074318545 0.0023448633 0.0054399646
0002c0 a6 4f 25 3c d4 3a 23 bc 0b ea ff 3a 3a ca 13 3c
       0.01008979 -0.009962756 0.0019524706 0.009020383
0002d0 8d 4d a7 3c 35 aa f1 3c a5 dc d9 3c 4b dc 56 3d
       0.020422721 0.029500106 0.02659447 0.05245618
0002e0 cb e7 21 3d ec 07 0c 3d 64 b4 6b 3c e7 cd b2 3c
       0.039527696 0.034187242 0.01438627 0.021826698
0002f0 38 9a fb 3c 9b b4 09 3c 32 62 9f 3a 4b cf 28 3c
       0.030713186 0.008404876 0.0012160002 0.010303329
000300 be 65 14 3d 03 04 2a 3d 44 00 37 3d c9 99 06 3c
       0.03622984 0.041507732 0.044677988 0.008215376
000310 a6 93 91 3c 86 39 c5 3c 03 77 75 bc fc c0 07 bd
       0.0177706 0.02407528 -0.014981988 -0.03314303
000320 3e 47 1e bd 4c 66 1c bd 3a 8b ae bc bd 8c 25 bd
       -0.03864216 -0.038183495 -0.021306623 -0.04041742
000330 88 cc c4 bc 25 9d e3 3c 06 fd 05 3d cc 5a 8a 3c
       -0.02402331 0.027784893 0.032712005 0.016888998
000340 02 77 9e 3c 83 fb 7a bc fd 05 6b 3c 46 9d 1b bc
       0.019343857 -0.015318754 0.014344689 -0.009497946
000350 91 69 24 bd c0 f7 52 3c d8 9e 3d 39 3b 68 9a bc
       -0.04013974 0.012876451 0.00018083618 -0.01884853
000360 4f 19 04 bc 88 ef 68 bc 9f 37 12 bc e1 3f e6 bb
       -0.008062675 -0.014217265 -0.008924394 -0.007026658
000370 70 5b f5 b9 37 f4 5c bc 75 85 ff bc 2f 3f 89 3a
       -0.00046798168 -0.01348596 -0.031191567 0.0010471101
000380 15 65 d1 3b 42 0d 7e 3d ca ba 8d 3d 39 0b a5 3d
       0.0063902237 0.062024362 0.06920393 0.08058781
000390 64 a1 43 3d d7 af 1e 3d a0 00 32 3d ea a4 8e bc
       0.047761336 0.038741913 0.043457627 -0.017412622
0003a0 a0 01 9c 3b e7 5e bf bb ae 78 5f 3b b3 c2 69 bc
       0.004760936 -0.0058401707 0.003409903 -0.014267611
0003b0 ed df 7e ba 2c 76 5c 3b 29 fe 70 bc ba 5b 53 b8
       -0.00097226986 0.0033639772 -0.014709034 -5.0391747e-05
0003c0 97 2b 54 3c c4 ff 92 bb 3f 15 dc bc 8d 66 8e 3b
       0.012949846 -0.004486056 -0.0268656 0.004345721
0003d0 11 e7 20 3c 7b 8c 93 bc 48 ca 3a 3d 41 43 1b 3d
       0.0098207155 -0.018011322 0.045603067 0.037905935
0003e0 f5 31 b6 3c 55 1b e4 bb 0b e1 9f ba 5f 68 37 3c
       0.022240618 -0.006961266 -0.0012197805 0.011194318
0003f0 37 a6 a8 3c d7 d1 82 3c 64 4c 02 bb 43 43 e6 bc
       0.02058707 0.0159692 -0.0019881958 -0.028108245

83 f4 [32]
000000 3a 5c c3 bf 41 4c 10 c0 c7 44 93 3f 74 e2 a7 be
       -1.526252 -2.2546542 1.1505364 -0.32789958
000010 84 cb 0a be a0 ad 93 bf ac 3e 20 40 ba 5e 2d 40
       -0.13554198 -1.1537361 2.5038252 2.7089067
000020 de ea 03 40 1e 75 48 3f 4a c7 b8 bf 37 eb 96 bf
       2.0612102 0.78303707 -1.4435818 -1.1790532
000030 06 dc 81 bf 34 4e 93 bf 64 98 e2 3e 7a f6 b2 3f
       -1.0145271 -1.1508241 0.4425689 1.3981469
000040 62 ff ae bf be cd f8 3e bc 54 2c 40 a1 80 a7 3f
       -1.3671687 0.4859447 2.6926718 1.308613
000050 14 52 e6 3e 8c 54 fb be e0 09 10 40 9d be 35 40
       0.44984496 -0.49087942 2.2506027 2.839759
000060 0a f2 57 3f bc b0 13 bf 38 9b 31 c0 d6 e5 9b 3f
       0.843537 -0.5769155 -2.7750988 1.2179515
000070 50 52 99 3e 0a 18 54 bf fa 2f 4b 40 7a ee 09 40
       0.29945612 -0.8284918 3.1748033 2.1551805

85 f4 [32, 32, 3, 3]
000000 63 31 e9 bd bf ee b0 bd 45 85 b6 bd a8 2b c9 bd
       -0.11386373 -0.08639287 -0.08912138 -0.0982278
000010 c0 1b 86 bd c3 d4 ad bd c9 ef 13 bd eb f4 cb 3c
       -0.06548262 -0.08487847 -0.03611735 0.02489706
000020 37 0c 12 bc f7 7a 12 bc 07 08 a2 bc dc fe 4e 3c
       -0.008914045 -0.00894045 -0.019779218 0.012634005
000030 92 68 4d 3c 1c 3d f7 3c 57 f6 a0 3c f3 3d 12 bb
       0.012537139 0.030180506 0.019648714 -0.0022314757
000040 70 37 05 3d 66 df 93 3c 0b 1a b9 3d 5d a4 63 3d
       0.032523572 0.01805086 0.090381704 0.05557667
000050 13 67 49 bd e7 59 10 3d 11 5d 6a 3d d0 d9 c2 bc
       -0.049170565 0.035241988 0.05721766 -0.023785502
000060 69 5a f7 3c ef 27 8a 3d e7 b0 ef 3c 56 22 f0 3d
       0.030194478 0.06745898 0.029259158 0.11725299
000070 66 a2 f4 3d 4a 3f dc 3d 84 aa b5 3d 92 46 eb 3d
       0.119450375 0.10754259 0.08870414 0.114880696
000080 0d 3b de 3d 22 25 9c 3d 70 06 dd 3d 00 0c d4 3d
       0.10851107 0.0762427 0.107922435 0.10353851
000090 ef eb 27 3c e3 59 be 3c 6c d7 d6 ba c7 20 ac bd
       0.010249122 0.02323622 -0.0016391105 -0.08404689
0000a0 7e 69 1d bd 07 f2 29 bd cd d7 83 bb 72 f0 89 3d
       -0.038430683 -0.04149058 -0.004023528 0.067353144
0000b0 35 61 71 3d 91 77 ef bd d3 2b 27 bd f4 69 a8 bd
       0.058930594 -0.11692727 -0.04081328 -0.08223334
0000c0 d6 91 4a 3d ba 6b 23 3d 43 c3 58 3d 0f a9 eb 3d
       0.049455486 0.039897658 0.05292059 0.11506855
0000d0 ec e3 13 3e e9 cc ef 3d d1 67 0f be 28 bb ff bd
       0.14442414 0.117090054 -0.14004447 -0.12486869
0000e0 40 7f 06 3c d0 df ee bd 95 85 c1 bd c6 26 2e bd
       0.00820905 -0.116637826 -0.09449307 -0.042517446
0000f0 26 86 85 3c 48 15 9f 3c da 35 4e 3d d8 08 50 bb
       0.016299319 0.019419327 0.050344326 -0.0031743553
000100 56 b6 98 bd 5e c0 97 bb d3 da 44 bc 87 0a f4 bb
       -0.07456653 -0.0046310863 -0.012015062 -0.007447544
000110 70 b3 67 3d 0a 48 03 3e c9 35 09 3e d1 cb 5e 3e
       0.05656761 0.1282045 0.13399424 0.21757437
000120 5a 38 ae bc 7a df 2c bc b9 1e 6b 3d f5 20 58 3d
       -0.021267105 -0.010551328 0.057402346 0.052765805
000130 29 ff 82 3d d9 52 0f 3e 01 6a ac 3d 45 63 c6 3d
       0.06396324 0.13996448 0.08418656 0.09686903
000140 23 8f 29 3e 0f 83 04 3d 8d 65 4e 3d 96 cb 4e 3d
       0.16558509 0.03235155 0.050389815 0.050487123
000150 09 ea d4 3c 63 0e 30 3d 25 a8 58 3d db 50 90 3d
       0.025990503 0.04298247 0.05289473 0.07046672
000160 46 ea dd 3d d2 14 08 3e 1a 2a c4 bd 4a 9e df bd
       0.108357 0.13289192 -0.09578343 -0.10918863
000170 52 0d 8f bd 34 3d d7 bd a8 97 e2 bd 2c cd a3 bd
       -0.069849625 -0.105097204 -0.110640824 -0.07998118
000180 11 9d a5 bd 9c c8 ce bd 7c 20 2d bd 12 5b dc bc
       -0.08086599 -0.10096857 -0.042267308 -0.026898894
000190 46 48 3a bc fc 35 90 3b a3 78 0e 3e 75 7a 11 3e
       -0.01136977 0.0044009667 0.13913207 0.1420687
0001a0 9a ba 0c 3e 26 c0 ea 3b 32 30 cf bc e7 f8 02 3d
       0.13743058 0.007164019 -0.025291536 0.031975653
0001b0 de 82 b9 bd 92 76 03 bd dc e2 ad bc c6 9f d3 bd
       -0.09058164 -0.0320955 -0.021226339 -0.10333209
0001c0 71 09 9d bd 24 d7 31 bd b6 f7 d3 bc e9 4d d1 bc
       -0.076678164 -0.043418065 -0.025874954 -0.025549846
0001d0 20 3b 82 bc a5 09 64 bc c5 10 05 3d 6b fe 5f 3d
       -0.015897334 -0.013918315 0.032486696 0.05468599
0001e0 60 af 01 3d 20 cb 5d 3d 23 bd 59 3d ed 63 d9 3b
       0.03166139 0.054148793 0.05315889 0.0066342265
0001f0 48 07 e4 3c 1d 71 16 3d f8 a7 28 3e 17 7a 0f 3e
       0.027835503 0.036728967 0.16470325 0.14011417
000200 e1 ff d3 3d c6 08 14 3e 46 89 39 3e 4b 7d 0b 3e
       0.103515394 0.14456472 0.18118772 0.13622014
000210 95 bb b6 3d 67 12 34 3e 41 b3 06 3e 13 65 c3 bd
       0.08922497 0.17585145 0.13154317 -0.09540763
000220 59 09 d3 bd 4d 44 31 bd 2f ee 53 bd e6 0d 84 bc
       -0.10304517 -0.043278027 -0.05174082 -0.016119909
000230 1e f5 f5 3c 7c 88 34 3d 02 7c 8b 3d c7 c9 e2 3d
       0.030024108 0.044075474 0.06810762 0.11073642
000240 00 24 69 bd 2f 55 bd 3c fd 20 09 bd 94 24 2c be
       -0.056919098 0.023111908 -0.033478726 -0.16810828
000250 ad 3a 09 be 2f bd f0 bd ac c8 3a be f8 79 b7 bd
       -0.1340129 -0.11754834 -0.18240613 -0.089588106
000260 b4 ca 03 be 26 05 c4 3d ad ae f5 3d d6 55 f2 3d
       -0.12870294 0.095712945 0.119962074 0.11832778
000270 eb 7c 37 3d 9a 50 75 3d 5e 98 71 3d ea 16 d2 bc
       0.044796865 0.05989132 0.0589832 -0.025645692
000280 db f3 2c 3d b4 2b 33 3d 8e f1 13 bd da a0 5d bd
       0.042224746 0.04374285 -0.036119036 -0.054108478
000290 89 ac b1 3d 61 fd 0f be 32 c0 11 be b1 f8 59 3d
       0.086754866 -0.140615 -0.14233473 0.053215686
0002a0 6e 6d 92 3d 8d 1b 19 3e aa 91 91 3e 3d 9f 43 bd
       0.07149778 0.14951916 0.28431445 -0.047759283
0002b0 aa f4 9c bd e2 f3 c1 bb 91 17 ba 3b c8 2b 33 bc
       -0.076638535 -0.0059189657 0.005679079 -0.010935731
0002c0 cc 21 98 3d 50 89 8c 3d e9 d5 8a 3d 00 f8 a7 3d
       0.07428321 0.06862128 0.067790814 0.08201599
0002d0 c5 8f ba bd 1f fc da bd e2 cb 58 bc cd c0 7a bd
       -0.09109453 -0.106926195 -0.013232203 -0.061219025
0002e0 10 32 73 3c f2 b8 06 3e 15 97 0c 3e c0 06 67 3e
       0.014843479 0.13156489 0.13729508 0.22561169
0002f0 97 19 82 3e 0e 84 ee bd 06 e0 5b bd 33 a6 79 3d
       0.25410149 -0.11646281 -0.053680442 0.060949516
000300 86 64 01 3d 6d 32 ec 3d 3a 15 8d 3e 28 d1 4a bd
       0.031590007 0.115330555 0.27555257 -0.049515873
000310 40 dc 92 3c ad ba 2c 3e f9 2a 26 3d 74 fa 4a bb
       0.017927289 0.16868086 0.040568326 -0.0030972036
000320 de e8 12 3d 6d 94 ed bc af 8e 0a bd 5e fb 28 3d
       0.03586661 -0.029001439 -0.03382748 0.041255347
000330 89 bb 3e 3d 3f db ae 3d c9 3a 27 3e e7 2f 0e be
       0.046565566 0.085379116 0.16331019 -0.13885461
000340 1b 15 11 be 2d c4 fc bd 06 50 a7 bc 4e 78 1a bd
       -0.14168207 -0.12342105 -0.0204239 -0.037712388
000350 3c 37 a0 3c 10 1e 3b bd 01 de 9a bd c5 d6 b2 ba
       0.019557588 -0.045682967 -0.07561875 -0.0013644329
000360 ef d7 ee bd 3a 0d 90 bd 4d 4a 52 be 7c d0 11 be
       -0.1166228 -0.07033773 -0.20536156 -0.14239687
000370 36 cd 00 be f6 74 49 be de d9 e5 bd ce a2 cb bc
       -0.12578282 -0.19673523 -0.112231955 -0.024857905
000380 ad 0e c4 bd 3c 43 39 be 21 d8 e3 bd c4 28 bb bd
       -0.09573112 -0.18092054 -0.11125208 -0.09138635
000390 a9 a2 09 be f7 4e fc bd 45 20 b4 bd 01 6c 9b bd
       -0.13440956 -0.12319749 -0.087952174 -0.075889595
0003a0 1a 20 71 bd ec 43 3a bc 40 98 61 be c2 11 40 be
       -0.058868505 -0.011368733 -0.22030735 -0.18756774
0003b0 8f 73 23 be 67 2e 41 be 68 22 16 be c7 75 2a be
       -0.15962051 -0.18865357 -0.14661562 -0.16646491
0003c0 8c 72 e5 bd da 28 a6 bd bf 23 89 bd bb 3f 3e 3c
       -0.11203489 -0.081132606 -0.06696271 0.011611874
0003d0 39 d7 1f 3d b4 1b e3 3c 06 71 27 3d 9f 46 0f 3d
       0.03902361 0.02772317 0.040879272 0.03497946
0003e0 2d 30 89 3d 88 5f b8 3d b8 ee 97 3d ac 12 5b 3d
       0.06698642 0.09002596 0.07418579 0.053484604
0003f0 8d 43 99 bd 22 a0 36 bd ca ae 77 bd 8b 3d 86 bd
       -0.074835874 -0.04458631 -0.060469426 -0.06554707

86 f4 [32]
000000 fc a4 22 be 61 97 37 3f e8 93 39 3e b7 59 37 3f
       -0.15883249 0.7171536 0.18122828 0.7162127
000010 e5 69 5d bf 00 a7 33 3b d4 c6 a3 be a0 0b 3b 3d
       -0.8648971 0.0027412772 -0.3198763 0.045665383
000020 8a bf fe bd 54 fa 8d bd e8 b2 1b be b2 e2 56 bf
       -0.12438877 -0.06932512 -0.15204966 -0.8393966
000030 50 81 2f 3f 53 2c 8d be 5a 87 f5 3e c2 7c 1a 3f
       0.6855669 -0.2757288 0.47954828 0.60346615
000040 60 cd 6f be c0 43 34 bd 7d 34 d2 be 0b 33 14 bf
       -0.23418188 -0.044009924 -0.4105567 -0.57890385
000050 b8 ec 21 bf d3 df 71 3f 00 d8 82 3b 89 3e c8 3e
       -0.6325183 0.94482154 0.0039930344 0.3911021
000060 46 45 69 3f f6 fe 35 bf ac 21 14 be c2 ae b3 bf
       0.9112133 -0.71092165 -0.1446597 -1.4037707
000070 d3 e5 8c 3f 54 c4 b1 3f a7 51 72 bf f0 73 eb be
       1.1007637 1.388804 -0.9465584 -0.4598689

88 f4 [32, 16, 1, 1]
000000 a5 2d a5 bd 0f 21 bb bd 26 0a 36 bb 6c dd 69 3d
       -0.08065347 -0.09137165 -0.0027777045 0.05709593
000010 9d 24 a1 bd 0a 8d 88 3d 1d ee 58 bd e8 c5 3d 3d
       -0.078683116 0.06667526 -0.052961458 0.046331316
000020 da 53 53 be 0c b6 db bd 44 2d 85 3e 4e 4a 34 3e
       -0.20637456 -0.10728082 0.26011097 0.1760647
000030 3b 72 8a be 5c bf 1d 3d 46 2e 3b be 9c 8c d2 bd
       -0.27040276 0.038512573 -0.1827937 -0.10280725
000040 6f 15 10 3e 82 d4 7d bd 70 10 3a bd 90 ce 42 3e
       0.14070676 -0.06197024 -0.045425832 0.1902411
000050 66 7b 9c 3e 84 fd 52 3d fb c1 ee bd a6 84 22 be
       0.30562896 0.051511303 -0.116580926 -0.15870914
000060 b7 ad 4f 3d ce 23 96 3e f2 b3 1e be 47 8a 23 3e
       0.050702777 0.29324192 -0.15498331 0.15970717
000070 88 ec c6 3d 41 b3 55 3e d1 c5 2b be 74 ae 18 bc
       0.097130835 0.20869161 -0.1677468 -0.009318937
000080 62 22 f5 3d e7 71 ac 3e 7f af c8 bc a5 59 c1 3e
       0.119694486 0.3368065 -0.024497746 0.37763706
000090 04 b1 19 3e 9c 22 87 3d 38 df c8 bd bf 10 11 3b
       0.15008932 0.06598398 -0.098082006 0.0022135226
0000a0 dc 9c 02 bd 12 86 4a 3e 71 98 18 bd e4 5e 21 3e
       -0.031887874 0.19777706 -0.037254754 0.15758854
0000b0 b5 a1 6f be 8a 3e ff 3d 00 2b e3 3c 73 e5 31 be
       -0.2340153 0.124631 0.027730465 -0.17372684
0000c0 5b 53 af bc a9 09 f7 bd aa 3a 07 bc 79 1e 97 be
       -0.021402052 -0.120623894 -0.008253733 -0.29515436
0000d0 1b 03 3b 3e de 4c e0 3c 49 c5 9e 3d 13 1e a7 3d
       0.18262903 0.027380403 0.07752473 0.08160033
0000e0 b6 1d f7 3e 23 c2 65 3e de a3 87 bc ef 39 eb bd
       0.48264855 0.22437339 -0.01655763 -0.11485659
0000f0 93 36 7d 3d df 5f 22 3e 31 28 a2 bc ee a1 08 3e
       0.061819624 0.15856884 -0.019794555 0.13343021
000100 73 9d 46 3e 6e df a7 3f 77 72 2a 3f 92 b0 4a be
       0.19396 1.311506 0.6658091 -0.19793919
000110 66 d1 cd bd c0 5e 27 3f be 8f ea be a8 f8 30 3e
       -0.10049705 0.6537895 -0.45812792 0.17282355
000120 c0 2a 9c be 87 31 16 bd 80 64 85 3e 54 8f a8 3d
       -0.30501366 -0.036668327 0.26053238 0.08230463
000130 99 cd 2e be d7 8c 1b be 53 42 7f bd c1 d0 8f 3d
       -0.17070617 -0.15190445 -0.06231911 0.070222385
000140 f9 b6 a6 3c cb e3 25 be 37 29 d6 bc d9 4d a2 bd
       0.02035092 -0.16200177 -0.0261427 -0.079250045
000150 b6 46 ab 3d 6b 27 04 be 29 33 33 bd 94 f7 67 3d
       0.083630964 -0.12905662 -0.043749962 0.056632593
000160 4d d6 6b 3e 1f 95 40 3e 1c 33 3f 3c 4a e6 91 3d
       0.23030968 0.18806885 0.0116699 0.07124002
000170 57 80 3a 3d f6 1a c0 3d a4 0e 74 3d 60 ef c3 3d
       0.04553255 0.093801424 0.059584275 0.095671415
000180 b2 06 c3 bb 23 d2 16 be 1b c8 80 bb 89 a0 0e be
       -0.005951726 -0.14728598 -0.0039301044 -0.13928427
000190 1c c4 82 be 38 cc 3a be c5 ac 05 3f ea ce 9c 3e
       -0.25540245 -0.18241966 0.5221675 0.30626613
0001a0 3b c9 4a 3d ce f7 f8 be d6 ae 14 be df ef ac be
       0.049508315 -0.4862656 -0.1451982 -0.33776757
0001b0 03 af bd 3e 68 12 40 be 70 37 96 ba 3b 0b 82 bd
       0.37047586 -0.18757021 -0.0011460613 -0.06349798
0001c0 b4 09 87 3e 7b fa 4e be e6 0d 0c 3c 67 a2 47 be
       0.2637459 -0.20212738 0.0085482355 -0.19495545
0001d0 5a 6b e4 3c 08 94 a1 3d ec 16 9f be 14 4e 27 bf
       0.02788322 0.07889563 -0.31072176 -0.6535351
0001e0 98 bd 39 3e 4c 16 18 3d 3f b4 a4 3c 2b 44 29 bd
       0.1813873 0.03713064 0.02010548 -0.041324776
0001f0 18 b1 a4 bd ef b2 5a 3e 99 b6 97 be 1e 9f 06 be
       -0.080415905 0.2135732 -0.29631498 -0.13146636
000200 4a f2 73 3c 4d 74 bf bc 94 82 13 bd c5 70 7e bd
       0.014889309 -0.023370886 -0.0360132 -0.062119264
000210 e2 a0 99 3d 17 67 66 3b b7 1d f7 bd 9e 4b 18 be
       0.07501389 0.0035156661 -0.120662145 -0.14872596
000220 5a ed 64 3e 6a 92 1c 3e 66 f3 10 be 53 a3 2b 3e
       0.22356167 0.15290228 -0.14155349 0.16761522
000230 cf 53 30 bd 2b 94 0c 3e b5 0c ab bc 93 34 e4 3d
       -0.043048676 0.13728397 -0.020880083 0.1114284
000240 a9 d4 95 bd 3e ca 29 be 5b de d4 be e6 63 a8 be
       -0.07315952 -0.16581056 -0.41575894 -0.32888716
000250 15 2d 56 be 2c 50 91 3c 92 3a 00 be 4a 03 1d 3e
       -0.20915635 0.017738424 -0.12522343 0.15333286
000260 a7 d4 d7 3e 7d 29 0b 3e 56 0e 3f 3e 56 09 be be
       0.42154428 0.13590045 0.18657812 -0.37116498
000270 77 23 3d be ad 6e 4f 3e c6 84 1d 3f d4 5c 58 3e
       -0.1847056 0.20257063 0.6153072 0.21129161
000280 3c 00 83 3d d9 ef a4 3e 93 8c 07 3f 2f 75 03 be
       0.06396529 0.3221424 0.52948874 -0.1283767
000290 91 85 e9 bd fa 51 fd 3e 9a 34 ff bd 1e 64 03 bf
       -0.11402429 0.49476606 -0.12461205 -0.5132464
0002a0 78 94 de bd 21 2d 94 be cf e2 0b 3d 68 07 28 be
       -0.10868162 -0.2894068 0.03415185 -0.16409075
0002b0 d3 fe c0 3d ca 4f f7 3d 0d 7b 00 bf 18 fe 52 3e
       0.09423604 0.120757654 -0.5018776 0.20604742
0002c0 8a 8b 59 3e 31 20 52 be de 06 b0 be 4e 1c 29 bf
       0.21244636 -0.20520093 -0.3438024 -0.66058815
0002d0 95 c7 98 bc 21 2c 85 be 8b c7 10 3d b8 c2 d8 be
       -0.018649856 -0.2601023 0.03534655 -0.4233606
0002e0 1d 74 91 3d 4a ac cc 3c 10 1d 09 be 48 f4 83 3e
       0.07102225 0.024984498 -0.13389993 0.2577231
0002f0 77 b8 a4 3c 3d b9 30 be 58 95 a0 be 22 fd 06 3d
       0.020107491 -0.17258163 -0.3136394 0.03295625
000300 00 e8 b1 3d 74 f6 b5 3d b2 03 46 bd b2 e0 19 3e
       0.086868286 0.08884898 -0.048343368 0.1502712
000310 fd 0e 19 3e b3 ae 36 3c 03 c5 76 bc 7b f7 24 bd
       0.14947124 0.01115005 -0.01506162 -0.04027508
000320 14 7b 2b 3d be 25 3b 3e 4f e0 02 3e b5 77 73 3e
       0.041865423 0.18276116 0.1278088 0.23776133
000330 57 fe c2 bc 47 2d 30 3e e3 64 38 3c 52 a2 01 3d
       -0.02380292 0.17204772 0.011254522 0.03164894
000340 70 00 eb bd 96 46 1a 3f 73 2d a7 3e 0d 81 d8 3e
       -0.11474693 0.60263956 0.32651863 0.42285958
000350 f7 89 1f be 51 86 c7 3e 2c 92 f6 3d f6 3a 6b 3e
       -0.15579973 0.38969663 0.12039599 0.2297171
000360 2c 91 cb 3c 87 89 22 3e ad 76 fc be 98 44 df bc
       0.024849497 0.15872775 -0.49309292 -0.027254388
000370 5f b2 7d 3e df 6f 28 bd ea e3 02 3f b8 25 9e 3d
       0.24775074 -0.041122314 0.5112902 0.07722038
000380 2b 1a 13 3f 5f 23 eb bd a0 b1 6c be 0c c6 20 bd
       0.57461804 -0.11481356 -0.23114634 -0.039251372
000390 25 5b 2f bd 6a 5f d5 3b b9 d9 81 3e 01 36 4a 3e
       -0.04281153 0.0065116184 0.25361422 0.19747163
0003a0 24 03 8e 3e 74 c2 ae 3d 28 b8 e8 3e 2a e0 d1 be
       0.2773677 0.08533183 0.45453 -0.40991336
0003b0 e6 16 ed 3e f1 69 ac 3e e6 03 69 3d fa 61 8c 3e
       0.46306533 0.33674577 0.056888483 0.274185
0003c0 20 47 1d bc 9b 14 16 be 09 a0 30 bf 12 1a 20 be
       -0.009599477 -0.14656298 -0.68994194 -0.15634945
0003d0 cb e4 65 3e d7 4c 99 be 1e c8 f8 bd 9f 15 1e 3e
       0.22450559 -0.29941437 -0.12147544 0.15437935
0003e0 c8 54 ea 3e c5 76 b7 3c 90 9c 51 3e 98 7b cb be
       0.45767808 0.0223955 0.2046988 -0.39742732
0003f0 2b 0a 97 3c fd d3 9c 3e 16 67 d9 3d c0 1f 2d bc
       0.018437466 0.30630484 0.10615365 -0.010566652

89 f4 [32]
000000 08 e7 c0 3e cc 82 bc bf f2 06 d2 bf ee 59 cf bf
       0.37676263 -1.4727416 -1.640837 -1.6199319
000010 d6 4f 59 bf 3c e0 b8 bf 48 44 38 3f e2 b3 41 3f
       -0.84887445 -1.4443431 0.7197919 0.75665104
000020 70 52 5f bf ef 35 86 bf 4c d1 8a 3f d3 c8 e4 3f
       -0.87235165 -1.0485209 1.0845122 1.7873787
000030 3f 4c d4 bf 80 fd 2c c0 a0 65 12 c0 b0 2c 7f bf
       -1.6585768 -2.7029724 -2.2874527 -0.9967756
000040 19 91 a8 bf 4c eb 38 bf dc 27 2b bf 2a eb e4 bf
       -1.316928 -0.72234035 -0.66857696 -1.7884266
000050 64 2e 31 be b7 66 d2 3f 29 fe 0a c0 04 2f b1 3e
       -0.17302853 1.6437596 -2.1717627 0.34606183
000060 8d d7 9a 3f 00 46 04 bf 4f bf e1 3f 72 51 ab 3f
       1.2097031 -0.5166931 1.7636508 1.338423
000070 f6 89 d8 3f 38 e3 9d bf b2 f4 62 bf f1 22 c0 bf
       1.6917102 -1.2334967 -0.88654625 -1.5010663

91 f4 [64, 32, 3, 3]
000000 0c 7f ce bc 0a 51 8b bc e2 29 3f bc a0 e3 3e bc
       -0.025207065 -0.017006416 -0.0116677005 -0.01165095
000010 71 b8 4b bc c0 32 74 bc 5f 3e ca bd 21 4d 86 bd
       -0.012434111 -0.014904678 -0.098751776 -0.0655768
000020 21 fd 94 bd 43 0f 72 bc bf 9e 00 bc ea 2b b5 bc
       -0.07274843 -0.0147741465 -0.007850348 -0.022115666
000030 87 a1 7f bc 21 a9 89 3b d3 49 b7 bc 38 11 c1 3b
       -0.015602476 0.00420107 -0.02237407 0.005891945
000040 a4 c7 18 bb 80 2b 0c bd a6 21 85 bc f8 d3 eb 3b
       -0.0023312354 -0.034221172 -0.016251396 0.0071968995
000050 db f0 4e 3c 5a 08 04 be 86 77 bb bd 61 18 da bd
       0.012630667 -0.12893811 -0.09153657 -0.10649181
000060 8e a3 7b bd 2c 4b 10 bd 95 ce 0f bd 5d bc 20 3d
       -0.061435275 -0.03522794 -0.03510912 0.039242137
000070 b8 18 a2 3d e0 08 8b 3d 95 28 09 3b 01 b6 27 3d
       0.07914871 0.06788802 0.002092873 0.040945057
000080 0a 9b 62 bc 7a 15 08 3d 8f 11 02 3e b4 8e 52 3d
       -0.0138309095 0.033223607 0.1270201 0.051405624
000090 d8 74 86 3c fe 9e 2e 3d cb f0 98 bc 9f f1 7f bd
       0.016413137 0.042632096 -0.018669507 -0.062486287
0000a0 e3 b2 42 bc 0c af 81 bd c0 54 f8 bd 9e 9a b4 bd
       -0.01188347 -0.06332216 -0.1212554 -0.088185534
0000b0 9e a4 9a bd 34 44 14 3d dd b2 64 3d f4 b9 a6 3d
       -0.075509295 0.036197856 0.05583464 0.081409365
0000c0 8d 01 09 bd 91 7d 52 bc 95 31 87 bd e5 38 d9 3a
       -0.033448745 -0.01284732 -0.06601254 0.0016572742
0000d0 9c 9b cc 3d d5 62 c3 3b 25 70 8f 3c 52 ab f5 3c
       0.09990618 0.0059627094 0.01750953 0.029988918
0000e0 af 95 a2 3c ef c7 b7 bc ed c6 21 bd 3f dd 49 bd
       0.019846765 -0.022434203 -0.03949635 -0.049283262
0000f0 17 54 87 3d e3 a5 bd 3c 59 9d 5b 3d 97 60 e4 bc
       0.06607836 0.02315039 0.053616855 -0.027878089
000100 fa c5 3e bd a6 37 86 bc 2c 76 6b bd 64 c9 6f bd
       -0.046575524 -0.016383957 -0.057485744 -0.05854167
000110 d4 c3 ae bd 8e 50 e4 3c fc 88 0e 3d 7d 9e 58 3c
       -0.08533445 0.027870443 0.034798607 0.01322138
000120 9f f6 bc 3d e7 97 a4 3d 5d 7d a6 3d 86 5f b1 3c
       0.09226727 0.080367856 0.0812938 0.021651994
000130 f2 8a 1e 3d 59 4f 7d bc e7 d1 0a bd c6 70 c6 3c
       0.038706727 -0.0154608125 -0.033891585 0.024223696
000140 43 c2 f7 bc 73 07 cc 3c 26 07 66 3d a2 21 ad 3d
       -0.030243998 0.024905896 0.05615916 0.084536806
000150 70 9c 69 bd ed e9 d0 ba ca e4 ad bc 1c 48 7c bc
       -0.057033956 -0.0015938856 -0.02122726 -0.015398052
000160 53 91 77 3d eb 9d 2e 3d 77 14 06 3c 43 32 19 3c
       0.060441326 0.04263107 0.00818359 0.009350362
000170 67 de cb 3c 8a d7 42 bd b8 a7 ec bc 42 a7 22 bd
       0.024886323 -0.047568835 -0.028888568 -0.03971029
000180 be 6c 82 3c 41 73 c1 ba cf c5 13 3d bb a7 c2 bd
       0.015920993 -0.001475908 0.036077317 -0.09504648
000190 a7 64 8d bd fc 67 cd bd 42 b1 51 bd 90 09 83 bd
       -0.069039635 -0.10029599 -0.051194437 -0.06398308
0001a0 9e dd 96 bd ba 72 7d 3d 3a 62 18 3d c1 98 c9 3c
       -0.07366489 0.06187699 0.03720305 0.024608972
0001b0 fd ab 50 bc a5 e4 7d bc f0 5c 9c ba 34 5e a4 bb
       -0.012736318 -0.015496408 -0.0011929553 -0.0050161127
0001c0 60 1c 4f 3c d2 6f b2 3c 7b 2c 71 bd fb 1d 95 bc
       0.0126410425 0.021781836 -0.05888031 -0.018202772
0001d0 b2 19 20 bd 6a 70 1c bc b2 02 86 bc b7 43 c0 3a
       -0.039087005 -0.009548286 -0.016358707 0.0014668618
0001e0 d3 09 4e 3d fd b1 b2 3c 1a aa 80 3b c5 dd 97 3d
       0.050302338 0.021813387 0.0039265277 0.07415346
0001f0 7a ff 34 3d 51 3b e0 3c 96 05 fd bc 27 27 4e 3c
       0.044188954 0.027372034 -0.030886453 0.012582577
000200 5f 0f 62 3d 48 4d a9 3a 82 0e 34 3d 51 53 53 3d
       0.05519044 0.0012916708 0.04395915 0.05159313
000210 00 e7 66 bd 76 89 a9 3b 5a 53 14 3d 9c 1a 4e bc
       -0.056372643 0.0051738573 0.036212303 -0.012579586
000220 b0 ee 08 3d 51 a4 8a 3d 26 73 cc bd af fe ab bc
       0.033430755 0.06769622 -0.099829 -0.020995466
000230 67 b0 57 bd 1e 93 42 3b f9 2c 9f 3d ed 01 b8 3d
       -0.052658465 0.002968974 0.0777225 0.08984742
000240 02 de a0 bd dd e1 31 bd be d3 23 bc aa 4f d6 bd
       -0.07854845 -0.04342829 -0.009999214 -0.104644135
000250 58 93 8a bd a3 52 90 bd 0a 41 39 bc b5 47 90 3c
       -0.06766385 -0.07047012 -0.01130701 0.017612318
000260 7c be d6 b9 9a d3 6c 3d a3 3b 30 3d d8 c7 12 3d
       -0.00040959183 0.057818986 0.043025624 0.035835117
000270 0a 48 bf 3c a8 06 72 3c 69 ca eb bc 4e 92 26 3d
       0.02334978 0.014772095 -0.02878304 0.04066687
000280 5b 21 4b 3d cd b3 91 3c b4 26 54 3d 6d 55 d8 3c
       0.049592357 0.017785931 0.051794723 0.026407922
000290 7f 4a 38 3d 4c 45 11 3d ce a8 bb 3c 49 6d d0 b9
       0.04499292 0.035466477 0.02290764 -0.00039754275
0002a0 f3 c1 10 3d 5b 6a 59 3d ee 6d d7 39 97 d9 cb bc
       0.035341214 0.053079944 0.000410899 -0.024884028
0002b0 47 91 b3 3c 1b 87 a4 3d 4a 96 8b bd 6a 8f d5 38
       0.02191986 0.08033582 -0.06815775 0.000101833444
0002c0 b4 32 b1 bc 66 59 8b 3c 51 e3 ce 3d 70 11 60 3d
       -0.021630622 0.017010402 0.10101951 0.05470413
0002d0 c1 64 b0 bc 56 fb b7 bc 50 bc 3c bc 22 2d 42 bd
       -0.021532418 -0.022458714 -0.011519507 -0.047406323
0002e0 cb 70 40 bd 3f 26 91 bd 0f 3c 82 bd 4b 1c 4f bd
       -0.046982568 -0.07087373 -0.063591115 -0.05056409
0002f0 de 30 31 bc 63 5f 1b 3d 80 83 ad 3d f9 16 65 3d
       -0.0108148735 0.037932765 0.08472347 0.05593011
000300 e1 39 d7 bc 38 89 01 bd 8b cd 90 bd bb 1d 07 3d
       -0.026272716 -0.031625003 -0.07070454 0.032987338
000310 c5 f2 80 3c 91 bf bb bb fc cc 7a bd ba dc 3d bd
       0.015740762 -0.0057296236 -0.061230645 -0.04635308
000320 65 8a 5c bd 3e ba 6a bd 0b 65 27 bd ba cd 65 bd
       -0.05384292 -0.05730652 -0.040867846 -0.0561044
000330 20 6d f7 bc 40 32 85 3b 17 ac f8 bc 0d 1e 31 bd
       -0.030203402 0.004064828 -0.030355496 -0.04324155
000340 39 a5 1c 3d 13 37 2b 3d 49 5e 82 bd 83 0f ba 3c
       0.038243506 0.04180057 -0.0636564 0.022712475
000350 30 45 c9 3c 7d ca e7 bd b2 d0 9f bc 1a 37 cc bc
       0.024569124 -0.113179184 -0.019508693 -0.024928618
000360 58 48 11 3d a2 43 82 3d e5 26 fb 3c bf 54 56 b8
       0.035469383 0.06360556 0.030658195 -5.1100502e-05
000370 2a 18 02 bc c0 4c 4f bc 09 35 56 bd ce 98 3c bd
       -0.0079403315 -0.012652576 -0.052296672 -0.046044163
000380 03 a8 fc bc 60 67 e2 3c 2e 4a 7c 3d dc 10 04 3d
       -0.030841833 0.027637184 0.06159418 0.03224264
000390 51 a5 3c 3c a9 f2 af 3c bd a7 44 bc 94 00 96 bd
       0.011514024 0.021478014 -0.012002883 -0.07324329
0003a0 a2 91 84 bd 46 e7 8d bd 50 32 72 3d 44 da 7f 3d
       -0.0647309 -0.069288775 0.059130013 0.062464014
0003b0 c5 ff 81 3d c7 57 4c bd 1d b3 20 bd 8e fc d6 bc
       0.06347612 -0.0498884 -0.039233316 -0.026243474
0003c0 83 f4 c3 bd b5 81 8b bd 04 d9 4d bd 6a 4a c6 bd
       -0.09568121 -0.06811849 -0.05025579 -0.09682162
0003d0 52 55 e2 bd 69 09 8f bd 88 89 06 bd 20 00 87 bd
       -0.1105143 -0.06984217 -0.032846004 -0.06591821
0003e0 85 52 b2 bc 2b 52 83 3d 4a 9a 4e 3d 91 5a bf 3d
       -0.021767864 0.06412157 0.05044011 0.09343446
0003f0 4b 78 22 3d 25 2e 2d 3d 53 9b cd 3c 5d 79 07 bb
       0.0396655 0.042280335 0.025098478 -0.0020671703

92 f4 [64]
000000 f8 f6 3e 3d 44 60 af 3e 5c 17 94 3d 20 42 40 3f
       0.046622247 0.34253132 0.07231018 0.751009
000010 7d 8c f2 be 50 f3 91 bf 80 59 c5 be 01 bc 06 40
       -0.4737281 -1.1402378 -0.38544846 2.1052248
000020 3c e7 52 bf e1 60 eb 3e 8b 24 14 3f 31 94 12 40
       -0.82384086 0.4597235 0.5786826 2.290295
000030 a2 81 62 3f e0 60 e3 be 6f 34 8c bd c6 2b fa 3d
       0.88479054 -0.44409847 -0.068459384 0.1221538
000040 1e a3 63 be c2 20 73 bf ae 2a b5 bf 5d d1 96 3f
       -0.22230193 -0.9497186 -1.415365 1.1782643
000050 2c 60 1d bf c0 35 f5 bd ea 8c 3c bf 0c bf 1d 3f
       -0.6147487 -0.119731426 -0.7365252 0.6161964
000060 0b 83 98 bf a7 78 e1 be a5 35 0d bf 54 a4 b1 be
       -1.1914991 -0.44037363 -0.5515998 -0.34695685
000070 d2 f4 ba 3f 6c d6 cb 3f 21 a7 f8 3e 4c 0e 4a bf
       1.4605963 1.5924811 0.4856501 -0.78928065
000080 44 de cd 3e 54 66 21 bf 50 63 fd be 3d c6 b4 be
       0.40208638 -0.63046765 -0.49489832 -0.35307494
000090 e8 88 80 be 86 5b 98 bf fb 4a 95 bf ee bf 4d 3e
       -0.2510445 -1.1902931 -1.1663507 0.20092747
0000a0 b6 16 64 3f 2e 2d e6 bf ce 0f 39 3f b3 7b 35 bf
       0.89097154 -1.7982538 0.7228974 -0.70891875
0000b0 69 51 1d bf 85 31 e9 be 88 06 79 3e ba 7e e2 bd
       -0.6145235 -0.45545593 0.24318898 -0.110593274
0000c0 2e 46 07 be b0 0e 59 3d 56 43 f7 3f 2b 93 64 be
       -0.13210365 0.052992523 1.9317424 -0.22321765
0000d0 70 00 d3 be 28 db a2 3f a4 cd 8a 3e c4 09 2e 3e
       -0.4121127 1.2723131 0.27110016 0.16995913
0000e0 3e bb 67 be bb e6 39 bf ff d9 22 bf 38 42 94 3f
       -0.22630021 -0.7261769 -0.63613886 1.1582708
0000f0 8f 2d 3d 3f ff 02 c4 3e b7 8f 30 bf 3f 3a ef 3f
       0.7389764 0.38283536 -0.6896929 1.868965
