model/horse_made_of_clouds.onnx (onnx, 301496 bytes, 16 tensors)

fc.weight f4 [2, 256]
000000 b0 34 9a bd 68 55 7f 3e 68 c0 e2 bd f9 21 b3 3e
       -0.075295806 0.24934924 -0.11071855 0.34986857
000010 bc 83 d6 3d ea ce df bd 39 87 38 3d ff da 8b be
       0.10474345 -0.109281376 0.045050833 -0.27315518
000020 dc 02 31 bd b1 46 59 3d a0 6d ad 3d 7a 01 b4 3b
       -0.043215618 0.053045932 0.08468175 0.00549334
000030 25 70 3c be 2d 89 d0 bd ab 16 1e 3d 3a b2 3e bc
       -0.18402155 -0.10182414 0.038595837 -0.011639172
000040 c4 27 d9 bd 77 7c 17 be 54 16 e1 bd be e1 f4 bd
       -0.10603288 -0.14793573 -0.10990587 -0.119571194
000050 b7 8e a4 bd ab 57 99 bd 9a 3f 4e 3d 42 cd d8 3d
       -0.08035033 -0.074874245 0.050353624 0.10586025
000060 d7 66 b5 3d c7 c0 cd 3d 89 fd 42 3e 22 27 41 3e
       0.08857506 0.10046535 0.19042028 0.18862584
000070 a3 d5 07 3e 13 0f 29 be c6 f9 8b bd 99 2a b4 be
       0.1326509 -0.16509657 -0.0683475 -0.3518875
000080 6f ab 7f 3e db cc a8 3e 0d 13 06 3f 81 0d e9 3e
       0.2496774 0.32968792 0.5237282 0.45518115
000090 b9 ce 73 3e 16 df 41 3e 4f f9 f4 bd 9b 00 46 be
       0.23809327 0.18932757 -0.11961614 -0.19336168
0000a0 13 01 3a 3d 3a 8b c3 3c c0 37 b2 3e 1a 0f b2 3e
       0.04541118 0.0238701 0.3480816 0.34777147
0000b0 cf d9 0f be 4f 5e 9c be a0 fe 96 bd 8d c4 8e be
       -0.14047931 -0.30540702 -0.073727846 -0.2788433
0000c0 0d f8 ca be 41 fd 14 3f 34 ec 99 be 75 d2 26 3f
       -0.39642373 0.58198935 -0.3006302 0.6516488
0000d0 27 2b 23 be 8c 92 08 be ef 56 3d 3e 14 37 71 3e
       -0.1593443 -0.13337153 0.18490194 0.23556167
0000e0 17 b6 9d bc 25 83 b6 38 b4 1e 88 bd 1e 9b 95 bd
       -0.019251866 8.702864e-05 -0.06646481 -0.07304977
0000f0 d5 23 8b be 77 79 6b be dc 05 b6 bd 15 ef 1e 3c
       -0.27175775 -0.22995554 -0.08887836 0.009700556
000100 bd 24 84 be b7 2f 22 3f 25 0e 35 be 69 a8 23 3f
       -0.2580928 0.6335406 -0.17681177 0.6392885
000110 15 3e 89 be b2 09 a4 bd 21 c3 e3 3e 20 59 c7 3e
       -0.26805177 -0.08009662 0.4448481 0.38935184
000120 69 e8 10 3e c1 a9 62 be 2d 85 97 3d f7 04 90 be
       0.14151157 -0.22135068 0.07398448 -0.28128788
000130 e7 3a c4 bb a2 76 a4 bc 9c 0f 63 3e 79 90 9c 3e
       -0.005988467 -0.0200761 0.22173923 0.30578974
000140 00 d5 0d bd 24 42 26 3d b9 a5 d5 3c 04 2a 38 3d
       -0.03462696 0.04059042 0.02608 0.044961944
000150 64 bc b6 be 90 37 0a bf 31 26 98 be 42 a9 cc be
       -0.35690606 -0.5399103 -0.29716638 -0.39972883
000160 5b 72 a2 3d 5b 47 f6 3d 85 bf 5e 3e 51 ac 88 3e
       0.07931968 0.12025329 0.21752746 0.26693967
000170 e0 7f 43 3c 7c 5b af bb 72 6e 00 be 3b 07 d6 bd
       0.011932343 -0.005351482 -0.12542132 -0.10450598
000180 3d 80 96 3c 94 79 db bd d2 5d 1b be b6 4a 85 be
       0.018371696 -0.107165486 -0.15172508 -0.26033562
000190 36 e7 ea bd b8 64 e7 bd 28 06 07 3e 91 0a a5 3d
       -0.11469881 -0.112985075 0.13185942 0.08058656
0001a0 a7 51 5f be 3a 14 78 be 47 5f 0d be f1 69 42 be
       -0.21808492 -0.24226466 -0.13805877 -0.18985726
0001b0 d3 43 63 be 13 40 79 be 19 6a 8f bc 32 84 61 be
       -0.22193842 -0.24340849 -0.017506646 -0.22023085
0001c0 e5 5e f1 bd af f0 5e be a0 37 f8 bd 78 a5 45 be
       -0.11785678 -0.21771501 -0.121199846 -0.19301403
0001d0 76 39 7b bc 5d eb 19 bc 64 4f aa bd 0d c1 0b be
       -0.015333524 -0.009394494 -0.08315924 -0.13647862
0001e0 48 49 ea bd ce b8 82 be 71 2a 55 be fa 0f da be
       -0.114397585 -0.2553162 -0.20816971 -0.42590314
0001f0 2a 26 1d 3c d3 70 c7 bd 86 b3 29 3d 8e b0 4e be
       0.009591619 -0.097383164 0.041430973 -0.20184538
000200 88 fd 37 3b ac d7 16 bd 79 0c 9e bd 1d b2 bf bb
       0.00280747 -0.036826774 -0.07717223 -0.00585009
000210 18 21 81 bd 19 71 23 3c 7e 9d 2e bd 86 c7 47 3c
       -0.0630514 0.009975695 -0.042630665 0.012193566
000220 06 86 a0 3e ae 43 4b 3e 78 41 0c 3f b3 0c e0 3e
       0.31352252 0.19850037 0.547874 0.4375969
000230 f5 98 a0 be 4b 77 a7 be 9b ff 09 3f d0 38 f2 3e
       -0.31366697 -0.327082 0.5390565 0.4730897
000240 9b 2f ec 3d fa 7f 41 3d 1d 94 34 3e 28 ba 54 3e
       0.115325175 0.04724119 0.17634626 0.20774138
000250 03 5a fc be 57 e2 fc 3e 68 aa 8d be e8 60 19 3f
       -0.49287423 0.49391434 -0.27669072 0.5991349
000260 b9 aa 3c 3e 30 dd 48 3e eb b9 37 3e 71 75 e2 3d
       0.184245 0.19615626 0.17942016 0.110575564
000270 e1 55 b1 bd 99 93 31 be d5 3c 9b be e7 f5 e1 be
       -0.08658958 -0.1734146 -0.3031985 -0.4413292
000280 31 36 2b 3e 42 84 3a be 35 8a 5f 3d 86 e6 a3 be
       0.16719891 -0.18214515 0.054575164 -0.32011813
000290 b9 e2 19 3e 59 c4 61 3c 6f 6e b9 3e 93 a0 b5 3e
       0.15027894 0.013779723 0.36217067 0.3547407
0002a0 fc 06 80 be 48 a3 68 be 5e 0b 96 ba 98 a8 c0 3d
       -0.2500533 -0.22718537 -0.001144748 0.09407157
0002b0 3b f8 1c be 2a b7 8a be 74 47 9b be ab c4 e2 be
       -0.15329067 -0.27092868 -0.30327952 -0.4429067
0002c0 90 b2 ca 3d 2b f7 9f bd 98 3f 71 bd 20 0c d3 be
       0.09897339 -0.078108154 -0.05889854 -0.41220188
0002d0 29 96 8f bd 68 4e a5 bd 43 eb 77 be dc 66 ca be
       -0.07011063 -0.080715954 -0.24210839 -0.395316
0002e0 25 40 05 3d ef fe 02 3f 30 16 26 3b 28 f5 f9 3e
       0.032531876 0.5117025 0.0025342815 0.48819852
0002f0 51 a3 33 be 53 b3 83 be 6c c1 02 be 75 b2 98 be
       -0.17542769 -0.2572275 -0.12769097 -0.29823652
000300 56 55 9a 3e 64 df c9 3e 72 5d 3c 3e b4 bf 50 3e
       0.3014323 0.39428246 0.18395022 0.20385629
000310 96 b0 ee be f2 9a a2 be b5 1c ee bc 29 09 5f bd
       -0.466191 -0.3175884 -0.029066423 -0.054452095
000320 ff 86 54 3d 69 0f 80 3d 3f 2f 67 bd 39 a5 ea bc
       0.051886555 0.06252939 -0.05644154 -0.028643237
000330 90 e3 60 3e 1f d4 47 3e 98 fc 87 3e 68 55 56 3e
       0.21961808 0.19514512 0.265599 0.20931017
000340 fd cf 42 bd 89 e1 6b be f6 f2 8b be f6 e4 e8 be
       -0.047561634 -0.23035254 -0.27333802 -0.45487183
000350 b4 68 69 3e ec c4 7f 3e 39 f8 c4 3d 1c 14 48 3d
       0.22793847 0.24977463 0.09617657 0.048847303
000360 09 e3 40 3d 1d 16 ee bd fb 81 2b be 22 fb 95 be
       0.047091518 -0.116253115 -0.16748802 -0.29293162
000370 b9 b2 a1 be 25 22 5b be cb 5b a8 3c 5e f4 38 3d
       -0.31581667 -0.21399744 0.020551583 0.04515492
000380 42 c3 23 3e dc 16 59 3e cb a9 4b be 9b 95 df be
       0.15992454 0.21200126 -0.1988899 -0.43668827
000390 6e e6 87 3d 85 7c f3 bd a6 34 fa bd 49 12 6e be
       0.06635748 -0.118889846 -0.12217073 -0.23249163
0003a0 ac a3 a0 3d 89 5b 10 be ec 4a 29 3c 7e 0c 6e bd
       0.07843718 -0.14097418 0.010332804 -0.058117382
0003b0 55 0d 06 be c5 16 3a bd b1 95 82 3e 98 6a 8e 3e
       -0.13091023 -0.04543187 0.2550483 0.278157
0003c0 0f cc ad 3e 87 3e d3 3e 58 c3 4e 3e 10 4a 45 3e
       0.33944747 0.41258642 0.20191705 0.19266534
0003d0 6a 24 ae 3d 9d 55 09 3e fd db aa 3e 21 0b d2 3e
       0.08503039 0.13411565 0.33370963 0.41024116
0003e0 2f ba 46 3d 03 07 fd bd ea 64 34 be 74 78 cb be
       0.048517402 -0.12354853 -0.1761662 -0.39740336
0003f0 e6 ef 8d 3d 0e 3a c5 bc 73 f4 32 be 83 0c a5 be
       0.069305226 -0.024075534 -0.17476062 -0.32236108

fc.bias f4 [2]
000000 71 fb c3 bd 13 65 9a 3d
       -0.09569443 0.075388096

79 f4 [16, 3, 7, 7]
000000 4c 71 c9 bc d3 96 0a be e6 12 19 be 84 32 01 be
       -0.024590157 -0.13534097 -0.14948615 -0.12616926
000010 0a 60 88 bd 52 85 9c bd c0 fa 4e bd 40 43 e1 bd
       -0.06658943 -0.07642616 -0.050532103 -0.10999155
000020 78 91 40 be 1c 90 66 be 61 f6 64 be 25 2e 61 be
       -0.18805492 -0.22515911 -0.22359611 -0.21990259
000030 21 00 06 be 96 93 04 be 1b f2 83 bd 5b 32 18 be
       -0.13085987 -0.12946925 -0.06442662 -0.14862959
000040 44 b9 40 be 4a e1 3c be 49 9e 1f be 17 4a 29 be
       -0.18820673 -0.18445316 -0.15587725 -0.1653217
000050 52 c8 73 bd b9 fc 1c 3a e6 1c 98 bc 48 80 80 bd
       -0.059517212 0.00059885863 -0.018568467 -0.06274468
000060 5d 50 19 bd 31 8e 53 bc 08 1c 14 bd 14 be 05 bd
       -0.037430156 -0.012912319 -0.036159545 -0.032651976
000070 e1 73 23 bb 4f fb bb 3c ff 60 a8 3d aa 8a 04 3e
       -0.0024940895 0.022946982 0.082216255 0.12943521
000080 69 de 06 3e 07 55 c1 3d a3 21 e0 3c 58 c7 9a 3d
       0.1317078 0.09440046 0.02735979 0.07557553
000090 27 a9 32 3e 26 6b 41 3e ab c2 58 3e 32 26 6f 3e
       0.17447339 0.1888853 0.2116801 0.23354414
0000a0 02 c2 0d 3e fb b2 cc 3d 7f 01 bb 3d b6 9e ee 3d
       0.1384354 0.09995075 0.09131145 0.116513655
0000b0 84 8f 3b 3e 03 0c 19 3e d6 b2 08 3e ec ae a9 3d
       0.18316466 0.14945988 0.1334947 0.08285317
0000c0 7c 39 15 3e 0e 89 36 bd 70 45 cc bd df 92 8e bd
       0.1457271 -0.0445643 -0.09974182 -0.06961607
0000d0 57 19 aa bd 2c 61 82 bd 55 61 17 bd 3a bb c8 bc
       -0.083056144 -0.0636619 -0.036958057 -0.02450334
0000e0 ed 57 f8 bd fb d3 0a be 7d 6c 2a be 03 d9 14 be
       -0.121261455 -0.13557427 -0.16642947 -0.14535908
0000f0 48 ff e3 bd f0 35 ea bd 65 a9 5f bd 79 79 50 bd
       -0.111326754 -0.11436069 -0.054604907 -0.050897095
000100 47 3a 02 be fa 70 f0 bd a2 b6 d5 bd ed c6 b7 bd
       -0.12717544 -0.117402986 -0.10435225 -0.08973489
000110 b5 a3 f8 bd 16 a8 67 bd 75 fb cc bc 4e e6 1f bd
       -0.121406 -0.056556784 -0.025022248 -0.039037995
000120 30 d0 8c bd 0f bb a1 bd af 5b 80 bd cf fd 4c bd
       -0.06875646 -0.07897007 -0.06267487 -0.05004674
000130 e8 f2 14 bd 41 22 24 bd 48 a0 9e bd f2 14 07 bd
       -0.036364466 -0.04007173 -0.07745415 -0.03297896
000140 45 88 28 bb 73 84 ab 3c e3 52 02 bc 22 02 bc bd
       -0.0025715989 0.02093718 -0.007954332 -0.09180094
000150 73 6d 6f bd b3 f4 a1 bb 17 fb 9a 3d 94 4b 50 3d
       -0.05845399 -0.0049425005 0.07567423 0.050853327
000160 07 60 eb 3c 3a 8f af bc 51 d5 3a bd 0c dc 9f bc
       0.028732313 -0.0214306 -0.04561359 -0.019514106
000170 8f ca 73 3c 9c 16 93 3c fb 98 10 3b 6f 75 b1 bc
       0.014879837 0.017955117 0.002206384 -0.021662442
000180 4a da 2c bd 14 1f 28 bb fb c8 19 3d 12 2a cc 3c
       -0.042200364 -0.002565329 0.037545186 0.024922404
000190 64 24 64 3d ac 1d 9a 3d ed ae a8 3d 54 98 99 3d
       0.055698767 0.07525191 0.082364894 0.074997574
0001a0 53 d9 a6 3d 38 fd 53 3d 3e 4f 56 3d 05 e7 92 3d
       0.0814692 0.05175516 0.052321665 0.0717297
0001b0 51 62 04 3d a4 22 6d 3d a4 66 98 3d be 30 35 3d
       0.032320324 0.057894364 0.07441452 0.044235937
0001c0 bc a7 06 3e a3 ae a3 3d be 81 05 3e f5 91 06 3e
       0.13149923 0.07992294 0.13037774 0.13141616
0001d0 d4 ce ef 3d 19 62 9f 3d d4 38 c6 3d d4 47 0f 3d
       0.11709371 0.077823825 0.09678808 0.03498061
0001e0 ae 52 33 3d da 9e 0c 3d 73 7f 64 3c 6e 2a de 3c
       0.04378002 0.03433118 0.013946402 0.027119841
0001f0 3f e4 ca 3a e5 22 0a 3d 9e 31 db 3c 54 37 0e 3d
       0.00154794 0.033724684 0.026757058 0.034720734
000200 ea bd 46 3d 84 d1 98 3d 31 70 88 3d 34 ef 89 3d
       0.04852096 0.07461837 0.06662024 0.067350775
000210 f1 db 94 3c 46 2d 07 3d 38 ae 5e 3d 6c a1 01 3e
       0.018171282 0.03300216 0.054365367 0.12659234
000220 bb a0 d3 3d df 9b bf 3d b6 ce 9a 3c 8f 88 d4 3c
       0.10333391 0.09355902 0.018897396 0.025944022
000230 e2 57 29 3d 15 ce cb 3c 0e 7a 1b 3d 3a 4a e3 bc
       0.041343577 0.024878541 0.037958197 -0.027745355
000240 79 dc 48 bd 17 c4 01 bc ff 43 2a 3d 34 d5 81 bd
       -0.049038384 -0.007920287 0.041568752 -0.063394934
000250 88 dc 3e bc 64 af 80 3d 56 c4 25 3d b3 8a b4 3d
       -0.011649258 0.06283453 0.040470444 0.08815517
000260 23 f4 3e 3d 78 27 1e 3d 09 e2 e8 bd 58 21 ff 3c
       0.046619546 0.03861186 -0.11371238 0.03114383
000270 42 de cb 3d 9d b4 04 3e 6c 4c 1d 3e cf 0d 8f 3d
       0.09954502 0.12959523 0.15361184 0.06985056
000280 fc d9 aa 3c e9 d7 48 3d 92 41 00 3e 07 c3 75 3e
       0.020855896 0.049034033 0.12525013 0.24000178
000290 98 19 7b 3e 4a 27 84 3e 95 f4 81 3e b6 d3 c8 3d
       0.24521482 0.25811225 0.25381914 0.09806006
0002a0 4e 21 e7 3d cb 56 0d 3e 34 d4 5d 3e 9c c1 78 3e
       0.11285649 0.1380264 0.2166298 0.24292606
0002b0 b7 7e 80 3e 74 09 2f 3e 32 42 a3 3d 83 51 4a 3c
       0.25096676 0.1709345 0.0797161 0.0123485355
0002c0 d6 8b 30 3d 49 6f 9d 3d 8f 9e 32 3e ca ff fb 3d
       0.043102108 0.076872416 0.17443298 0.12304647
0002d0 90 56 15 3d 59 e3 db 3c d9 c2 f6 bc 6d b5 f9 bc
       0.036459506 0.026841806 -0.030122207 -0.030482018
0002e0 0e 9b f4 3c 8d ae 34 3d a5 68 29 3d aa bf bd bc
       0.029859092 0.044111777 0.041359562 -0.023162682
0002f0 33 95 6d bc cf c9 aa bd 29 58 3e bd 23 89 07 bd
       -0.014500904 -0.08339273 -0.046470795 -0.03308977
000300 04 20 21 bd cf 64 a8 bd 59 4d a5 bd 1d 1e ac bc
       -0.039337173 -0.08222353 -0.080713935 -0.021010453
000310 89 f5 8b bd 91 79 8d bc 22 2b c9 bc 50 dc 19 3d
       -0.068339415 -0.017269881 -0.0245567 0.037563622
000320 4f 63 b2 b9 ef 30 79 ba 4a a2 d5 bc 90 ad 91 bd
       -0.00034024796 -0.0009505888 -0.026078362 -0.071131825
000330 b9 c9 06 3d 79 d1 cc 3d 7e 15 ee 3d e1 cd 43 3d
       0.03290722 0.10000891 0.11625193 0.047803763
000340 6d db 66 bd 0f 87 25 bd 2f 09 8a 3d 50 fb 13 3e
       -0.056361604 -0.040412005 0.06740033 0.14451337
000350 da a5 53 3e b1 41 57 3e 4a 1f 51 3e c3 a7 46 3e
       0.20668736 0.21021153 0.20422092 0.19399934
000360 73 65 db 3d cb 27 94 3d f0 3b a3 3c 53 3a b2 3d
       0.10712709 0.072341524 0.019926041 0.08702531
000370 bb f3 e5 3d 0a 41 c5 3d 3d cd 0a 3e b6 4e 91 3d
       0.112281285 0.09631546 0.13554855 0.07095091
000380 0c 5e 43 3d 02 a8 f0 3c bc 93 a0 3c 26 cb 4f 3d
       0.047697112 0.029376987 0.019601695 0.050730847
000390 9c 9b d1 3c ed 80 f1 3b ff 94 88 bc ee b1 bf bc
       0.025586896 0.0073701055 -0.01667261 -0.023400273
0003a0 8a 41 0c bd 09 b7 59 bd aa a5 de bc de 9d 62 bd
       -0.03424219 -0.05315307 -0.027178604 -0.055326335
0003b0 8b f7 0b bd ca 84 62 bd cd fc 2f bd 51 82 9f bd
       -0.034171622 -0.05530242 -0.0429657 -0.07788528
0003c0 d0 64 cf bd ae 2a f3 bd fa 75 00 be 1b d9 e5 bd
       -0.1012665 -0.11873375 -0.12545004 -0.1122305
0003d0 46 5f a1 bd 44 e0 39 3d df a4 4e 3d 85 f4 79 3d
       -0.078795 0.045379892 0.050450202 0.061024208
0003e0 ae de df 3c 06 fc 38 3d 4f be 13 3d fb 6d 58 3d
       0.027327862 0.045162223 0.036070164 0.05283926
0003f0 bb 66 a1 ba 73 29 67 3d a3 cc 6e bb 9e db 10 3c
       -0.0012313941 0.056436013 -0.003643789 0.008841423

80 f4 [16]
000000 94 50 94 be be 0b 2d c0 f1 94 b4 be 67 1a 2e c0
       -0.28967726 -2.7038417 -0.35269883 -2.7203615
000010 32 fb 0f 40 42 5a 20 c0 a8 0e e9 be db ac 63 bf
       2.2497067 -2.505509 -0.45518994 -0.8893563
000020 59 82 96 bf 38 97 52 bd ab ee b9 3f c8 ca 3b bf
       -1.1758529 -0.051413745 1.4525961 -0.73356295
000030 08 26 07 40 33 b6 53 40 e4 d5 0a c0 16 fe 59 bf
       2.1116962 3.3079956 -2.1693048 -0.8515333

82 f4 [32, 16, 3, 3]
000000 a1 c5 25 bc 6c c3 f6 ba 7c ee b5 bb cb 47 b8 3b
       -0.010117919 -0.0018826551 -0.005552111 0.0056237928
000010 2c be c8 3c 19 c0 93 3c 5b 76 29 bc 7b d1 0f bc
       0.024504744 0.018035935 -0.01034316 -0.008777971
000020 40 77 48 bc d8 5a 46 bd 9b c1 52 bd d4 6a 0b bd
       -0.012235463 -0.04842648 -0.051454168 -0.034037426
000030 97 fa 31 3c 9b ce ff 3c c1 d7 e7 3c 84 73 9d 3b
       0.010862968 0.031226447 0.028301122 0.0048050303
000040 c1 05 ad 3c 80 36 5d 3c 87 5a d3 bc 22 9a df bc
       0.021120908 0.013501763 -0.025800003 -0.027295176
000050 ea 64 03 bc ac f6 a5 3c 28 e7 18 3d b1 ff 17 3d
       -0.008019665 0.020259224 0.037329823 0.03710908
000060 70 4b 2d 3d 6c 0d 23 3d aa 52 4b 3d f3 a0 f3 3b
       0.04230827 0.039807722 0.04963938 0.007434958
000070 20 34 a9 3c cc 79 c2 3c 30 d9 0e 3b 0a 09 95 3c
       0.020654738 0.023739718 0.0021796934 0.018192787
000080 30 41 ec 3c 75 23 00 3c 0d d5 41 ba fb 02 b0 3b
       0.028839678 0.007820954 -0.0007394113 0.005371449
000090 db f8 eb bb 6a 72 22 bc c4 93 0f bc d0 b9 df 3b
       -0.0072012967 -0.009914974 -0.008763257 0.0068275705
0000a0 27 d8 da 39 71 02 48 3c 30 bd 4c 3c 1c 94 46 3a
       0.00041741246 0.012207613 0.012496278 0.00075751706
0000b0 2c 37 b1 bb bf 9f 9c bc 32 91 86 bc 27 72 b5 bb
       -0.0054081883 -0.019119142 -0.016426656 -0.0055372897
0000c0 79 0f 2d bc 12 2c 65 3b e6 8d c2 ba 4f 85 0e bd
       -0.010562771 0.0034968895 -0.0014843314 -0.0347951
0000d0 f2 11 55 bc 96 ed 6a bc b3 01 a9 3c 04 bb 08 3d
       -0.013004767 -0.014338871 0.020630693 0.033381477
0000e0 29 92 d7 3c 1f 1e fe 3b b6 d2 db 3c 9a 22 90 3c
       0.026314812 0.0077550556 0.026833873 0.017594624
0000f0 63 dc 83 bc ce 1c 11 bc 2e 03 0f bc 20 a0 53 bc
       -0.0160963 -0.008856965 -0.008728785 -0.012916595
000100 4f 01 bc bb c7 c9 b8 bb af fd 6b 3c a2 2c 06 3d
       -0.0057374607 -0.005639288 0.014403745 0.03275741
000110 9b 59 ef 3c 65 03 53 bc 45 5a a6 3b e1 cd 65 3c
       0.029217532 -0.012879227 0.005076679 0.014026136
000120 2c ee 3a 3c c5 f4 1b 3c 02 ce 63 3c 0b 43 0b 3c
       0.011409324 0.009518807 0.013904097 0.008499871
000130 15 8a ad 3c ed 7a 19 3d 22 3a b5 3c 41 06 8c 3c
       0.021184007 0.037470747 0.022122446 0.017092826
000140 d2 41 b6 3c c8 26 2f bb 8b ab bd 3b 5b 6d 4e 3b
       0.022248182 -0.0026725996 0.005788272 0.0031498286
000150 99 c7 7a 3c 10 74 d4 3c 9e 0f 48 3c 0c f2 1f 3c
       0.015306377 0.02593425 0.012210755 0.009762298
000160 73 f5 32 3c 7a 62 61 3b 46 07 b7 3c d6 84 47 3c
       0.0109227775 0.0034390972 0.022342335 0.012177667
000170 1f e9 ad 3c 7e e5 98 3c f1 64 4d 3c 1d 4e d1 3b
       0.021229325 0.018664118 0.012536273 0.0063874857
000180 6c 81 40 3b b6 51 2c 3c 46 a4 36 bc 72 e2 3d bc
       0.0029374016 0.010517528 -0.011147564 -0.011589633
000190 5f a1 74 bc 1a b5 0b bc c7 e8 2a bc 69 f7 69 3c
       -0.014931052 -0.008527065 -0.010431475 0.014280179
0001a0 49 2c 85 3c 5a 48 ae bc 2c 7a 2f 3c 7b 34 85 3c
       0.016256468 -0.021274734 0.01071028 0.016260376
0001b0 12 ce 3a bc c8 dd f2 bb 90 c0 98 bc e3 64 78 bc
       -0.01140167 -0.0074116923 -0.018646508 -0.015160772
0001c0 ea 41 bd bb ca 36 10 bc 04 a1 0d bd 26 62 5b bc
       -0.00577568 -0.008802125 -0.034577385 -0.0133901
0001d0 18 fa 9d bc 6c 86 c4 3b f9 01 f9 ba da d7 47 39
       -0.019284293 0.0059974696 -0.001899778 0.0001905853
0001e0 ab f1 9b bc d9 57 20 bc f1 7f 61 bc 3f 7e 71 bc
       -0.019036135 -0.0097865695 -0.013763414 -0.014739572
0001f0 84 78 fb bb 95 3a 7a bc a8 2b 11 3c 8d 30 35 3c
       -0.0076742787 -0.015272756 0.008860506 0.011058939
000200 63 7b fa 3c ae 48 85 3c 13 dd 66 3c 3c 83 00 3d
       0.030576413 0.016270008 0.014090794 0.031375155
000210 43 c8 c0 bb 71 01 45 3b ce fb f8 3a ef 6e ac bc
       -0.005883248 0.0030060674 0.0018995942 -0.021048991
000220 7a ba 8c bc b8 b5 83 bc 98 6f 1b 3b c3 ec de 3b
       -0.017178763 -0.016077861 0.0023717638 0.0068031265
000230 a5 7a c5 bc b2 cd b7 ba bd 59 cb 3b a6 89 c2 bc
       -0.024106333 -0.0014023094 0.006205766 -0.023747277
000240 85 2a e9 3c d1 e7 54 3c 7e 58 26 3c 31 0a 96 3c
       0.028462658 0.012994722 0.010152934 0.018315407
000250 8a ad 77 ba 94 89 73 bb c8 f2 0c 3d 30 94 9d 3b
       -0.00094481616 -0.003716086 0.03441122 0.004808925
000260 13 2c b0 3c dd 6e 0b bd 7e 17 b8 bc 6d 60 3a bd
       0.021505391 -0.034041274 -0.02247214 -0.045502115
000270 42 3c ae bb 97 5b c7 3b 3c d3 61 bc 55 9e c6 bc
       -0.005317242 0.0060839164 -0.013783272 -0.02424542
000280 63 be 8d bc 70 0e be bc a7 cc 94 bc 9b d9 f1 bb
       -0.017302698 -0.023200244 -0.018163992 -0.007380677
000290 28 89 23 bd 93 a9 59 3d c8 4a 35 3d d6 49 f9 3c
       -0.039925724 0.053140234 0.04426077 0.030430716
0002a0 08 41 d0 3c 7e 66 ba 3c a5 8e 17 3c 09 a1 a2 3c
       0.025421634 0.02275395 0.009250318 0.019852178
0002b0 58 54 d7 3c 6c c8 b2 3c 2e 8d ab 3b ab ba bb 3c
       0.026285335 0.021824084 0.005235336 0.022916159
0002c0 b6 6f 83 3c 21 f4 56 bc c3 c4 20 bc ed db 0f 3b
       0.016044479 -0.013119728 -0.009812537 0.0021951154
0002d0 a9 ae 6c 3b 80 e7 15 b8 23 07 b3 bb 98 63 86 3b
       0.0036114848 -3.573997e-05 -0.0054634972 0.004101228
0002e0 a6 f1 75 ba 8e 23 00 ba 47 6b 04 bc c3 76 07 bd
       -0.0009382017 -0.00048881106 -0.008082218 -0.033072244
0002f0 30 20 f3 bc 26 58 ec bc 29 5e 0f bb 18 a2 fe 3a
       -0.029678434 -0.028850626 -0.0021876192 0.001942697
000300 5f 62 30 bd 45 0e d3 bc 8f 3a 2f bd 66 ee 15 bd
       -0.043062564 -0.02576364 -0.042780455 -0.036604308
000310 88 dd 3a bd 77 67 51 bd 72 fa 92 3c 87 dd 40 3c
       -0.045621425 -0.051124062 0.017941687 0.011771566
000320 85 75 fb 39 0a c9 1f bb 76 b1 70 bc 7d ea 0b bd
       0.0004796201 -0.0024381303 -0.0146907475 -0.034159172
000330 21 86 2b bc 4b 80 88 bc 7c e1 a3 bc 75 87 9f 3c
       -0.010468991 -0.016662737 -0.02000498 0.01947377
000340 3c 2b 87 3c e9 da 32 3c 8c 57 e1 bc df 97 20 bd
       0.016500108 0.01091645 -0.027507566 -0.039207336
000350 12 62 4f bd 6b df 54 bd e7 57 96 bd ff 1c b7 bd
       -0.050630637 -0.05197088 -0.07340985 -0.089410774
000360 1d d3 1f 3c 18 40 a5 3c 8e d2 b8 3c 19 bd 0b 3d
       0.009754923 0.020172164 0.022561338 0.034115884
000370 25 fc 11 3d 98 ac 38 3d 64 08 ef 3a 94 a3 9f 3c
       0.035640854 0.045086473 0.0018236754 0.01948718
000380 da 48 41 3c 13 25 37 bb 16 05 24 bc 42 f8 b7 bc
       0.011797154 -0.0027945682 -0.010010978 -0.022457246
000390 ab 9c 43 bb 81 ba c5 bc e4 ee 36 bd 47 5c d8 bc
       -0.002984802 -0.024136784 -0.044661418 -0.026411189
0003a0 12 59 46 bd b7 28 39 bd 79 9d db bc f6 c5 06 bd
       -0.048424788 -0.045204844 -0.026808487 -0.032903634
0003b0 1a 97 a1 bc 1c f6 cb bc bd f9 17 bd de 15 d8 bc
       -0.019725371 -0.024897628 -0.037103403 -0.026377615
0003c0 73 b9 ac 3c ee aa 78 3c 21 bd 17 3c 19 57 3e 3d
       0.021084523 0.015177472 0.0092614 0.04646978
0003d0 45 6d 05 3d 9b dc 1a 3c 1f 4e 1f 3b ba 84 55 ba
       0.03257491 0.0094520105 0.0024308038 -0.0008145083
0003e0 a7 8a 88 bc 2a 27 37 bb ee 9c 1f bc 99 dd 71 bc
       -0.016667677 -0.0027946928 -0.009742005 -0.014762306
0003f0 fa 11 71 bd 1a 56 93 bd b4 9a 66 bd ee 7b 50 bc
       -0.058855034 -0.07194157 -0.05629988 -0.01272486

83 f4 [32]
000000 b3 28 46 bf a6 ad f8 3e b5 0b 17 bf c0 c2 2d 3e
       -0.7740585 0.48569983 -0.5900224 0.16968822
000010 86 7c 7b 3f e2 93 80 bf 40 e2 2a 3c 56 0b e1 3f
       0.9823688 -1.004513 0.010429919 1.7581584
000020 76 65 8c bf 14 32 11 3f de cf 36 bf 40 8d bf 3c
       -1.0968463 0.5671704 -0.7141093 0.023382783
000030 b2 ef 82 3e 06 a3 d7 3e 56 ec d0 3e 39 16 c4 3f
       0.25573498 0.42116565 0.4080531 1.5319282
000040 1a 1d a8 bf 68 fb d4 3d 9c 27 f2 bf 08 b6 93 bf
       -1.3133881 0.103995144 -1.8918338 -1.1539927
000050 c8 c5 bc bd 0a d3 ac bf cb c0 ff 3e e9 79 8a 3f
       -0.09217411 -1.3501904 0.49951777 1.0818454
000060 03 ad ba bf a2 83 c1 3e f0 62 01 c0 b0 c1 18 3f
       -1.4584049 0.3779574 -2.0216637 0.59670544
000070 97 91 4e 3f b7 93 25 bf c0 5a 46 bf 82 22 c9 3f
       0.806909 -0.6467852 -0.77482224 1.5713656

85 f4 [32, 32, 3, 3]
000000 fc 65 50 bd 97 de 6d bd 7c e0 57 bd 7a b2 3c 3d
       -0.05087851 -0.058073606 -0.05270432 0.046068646
000010 14 16 de 3d b1 ba c9 3d 36 9e 22 3e 36 98 e2 3d
       0.10844055 0.09850062 0.15880665 0.11064188
000020 9f 1b 03 3e 04 10 05 be 00 a6 ec bd 95 01 55 be
       0.12803505 -0.1299439 -0.115550995 -0.20801385
000030 50 f2 81 3d 24 fc 45 3d 65 11 52 bd bc 52 a9 3d
       0.063450456 0.048336163 -0.05128612 0.082677335
000040 ab 10 37 3d 26 9d bb 3b 75 ab f0 bd 37 d9 8c bd
       0.04469363 0.0057255207 -0.11751453 -0.06877368
000050 2d cc e9 bd 77 0f bd bd 74 d8 65 bc a3 26 78 bd
       -0.114158966 -0.09231465 -0.014028657 -0.06058372
000060 de 3e e7 bd 62 74 ea bb be f2 e1 3c 84 41 df bd
       -0.11291288 -0.007154987 0.027581569 -0.10901168
000070 91 ca dc bd 15 c6 1e be ea 21 c7 3c eb 3a 6a 3c
       -0.10780824 -0.1550525 0.024308164 0.014296274
000080 07 79 a4 bd 40 04 88 3d 8e 64 46 3d f5 68 71 3d
       -0.08030897 0.066414356 0.04843574 0.058937985
000090 cb a2 01 bd 4b 2a 93 3d 93 c6 dd 3c 51 37 16 3d
       -0.031649392 0.07185801 0.027072227 0.036673848
0000a0 fb 03 cb 3d e9 99 9e 3c d6 50 90 bc 63 bc 7a bc
       0.099128686 0.0193605 -0.01761667 -0.015303704
0000b0 d6 2a bb bc e0 ac 19 bd c6 87 2e bd 5f 5e 36 bd
       -0.022847574 -0.037518382 -0.042609952 -0.044523593
0000c0 95 2a 9e bd 59 b4 b9 bc c6 3b 9f 3d 1d 32 c1 bd
       -0.07722966 -0.022669004 0.07775073 -0.094333865
0000d0 a7 d8 18 bc cb d9 80 3d 7b e0 72 3e 5a a2 3f 3d
       -0.009328998 0.06291541 0.23718445 0.04678569
0000e0 5d 0e c6 3d 1c 24 2f 3e 8a 69 e0 bd e4 b4 08 be
       0.09670708 0.17103618 -0.1095763 -0.13350254
0000f0 b7 52 b2 3d 1e 60 e5 3a 43 a1 85 bb 85 83 51 be
       0.08707183 0.0017499959 -0.004078062 -0.20460327
000100 b7 66 ea bd c8 b3 b5 bd 4b 42 12 be 3f 22 4e bd
       -0.114453726 -0.08872181 -0.14283101 -0.05032563
000110 d6 0e ac bc 94 c6 7c 3d a4 5b 69 3d da cd 21 3d
       -0.021003168 0.061712816 0.05697216 0.039502956
000120 a4 56 2f bd 94 d9 00 bc 01 27 cc 3c 67 9f 34 bd
       -0.042807236 -0.007864375 0.024920942 -0.04409733
000130 7b 70 86 3d 84 a2 c5 3d 74 a6 12 bc d6 3b e4 3d
       0.06564423 0.09650138 -0.008950818 0.11144225
000140 f6 45 0a 3e 5d e7 ab 3d 90 82 3c 3d bd ab 9c 3d
       0.1350325 0.083937384 0.04602295 0.07649944
000150 d2 e2 09 3e fd 71 32 3d 3a e4 d0 3d d6 ae 86 3e
       0.13465431 0.04356574 0.10199781 0.26305264
000160 4a 0d 84 3e 6a 86 86 3e a5 7c fc bd 81 41 aa bd
       0.2579139 0.26274425 -0.123284616 -0.08313275
000170 a6 4b 98 bd d4 a7 96 3b 23 dc 5c 3c 83 44 88 3d
       -0.07436304 0.0045976434 0.013480219 0.066536926
000180 fd 20 d8 3d 61 1f 06 3e 9f 4e 1b 3e ab 47 97 bc
       0.10553167 0.13097908 0.1516671 -0.018466791
000190 52 a0 7f 3c d9 56 f4 bd c7 2c 23 bc 6e 8a 58 bc
       0.015602188 -0.119306274 -0.009959406 -0.013216598
0001a0 1c a2 2c be df 09 0d be cc 74 01 be f4 7d 21 be
       -0.16858715 -0.13773297 -0.1264221 -0.15770704
0001b0 c8 e1 80 3d 8b 26 ca bd 5d 62 ac bd e2 9f 3e bc
       0.06293064 -0.09870633 -0.08417199 -0.011634799
0001c0 22 62 da bd 2c 82 7a bd 2f a9 fd 3d 8b de e0 3b
       -0.106632486 -0.061159298 0.12385785 0.0068624667
0001d0 93 f3 00 3c e8 4e 54 bd e3 39 76 bd c4 54 0f 3d
       0.007870573 -0.051833063 -0.0601138 0.03499295
0001e0 6e 69 34 3c a0 27 a3 3c b3 b2 88 3d 7f ce 95 3c
       0.0110114645 0.019916356 0.06674709 0.018286942
0001f0 b3 23 68 3d 43 45 11 3d ac f3 fc 3c fe ec 57 bd
       0.05667467 0.035466444 0.03087791 -0.052716248
000200 51 4d 72 be e2 da 3d 3e 35 94 93 3d ef 87 aa bd
       -0.23662306 0.18540528 0.072060026 -0.083267085
000210 a9 8b ac 3d 3c da 8e 3d 25 96 bb 3d 0d 0b 09 be
       0.084250756 0.06975219 0.09159497 -0.13383122
000220 c7 f8 f6 bd fa 24 c6 bd 58 1e 94 bd 1b b2 88 bc
       -0.12059169 -0.096750215 -0.0723235 -0.01668649
000230 49 ba b3 3b d4 8e 82 3c 8a 16 39 3d 58 3f 62 3c
       0.0054848534 0.015937246 0.04518751 0.013809048
000240 7c ad 79 3b bd 6c 10 3c 66 c1 aa 3c a9 2c 9d 3c
       0.003809779 0.008814988 0.020844173 0.019186335
000250 9e ba a6 bc 9e 7c c1 bb e1 e2 2e bd d5 f8 08 bb
       -0.020352658 -0.005904748 -0.042696837 -0.0020900269
000260 ce 2e ca 3c 46 03 9f bc 7c c8 a0 ba 39 da 43 bc
       0.024680521 -0.01941074 -0.001226678 -0.011953884
000270 75 1c a3 bd ad c6 9d bd 6c e4 45 bd 6d 9f dd bc
       -0.07964412 -0.0770391 -0.048313543 -0.02705356
000280 93 db 97 bc 87 f5 1c bd 34 c4 28 be 0a 41 06 be
       -0.018537318 -0.03832009 -0.16481096 -0.13110748
000290 22 f4 d2 bd 69 b9 bd bc 0a 00 47 bd cb 42 df 3c
       -0.10300471 -0.0231597 -0.04858402 0.027253529
0002a0 c7 d7 c1 3d 80 d7 0b 3e f3 78 fe 3d e6 f3 42 ba
       0.094649844 0.13656425 0.12425413 -0.00074368564
0002b0 1b 60 13 3c 55 d8 a6 3b 6f d5 9e bc b3 6d e5 ba
       0.008995081 0.0050917068 -0.019388882 -0.0017504006
0002c0 03 19 96 3d 31 8e 29 3c fd a0 d9 3d 31 1a 57 3e
       0.07328989 0.0103488425 0.10626409 0.21006085
0002d0 90 ee 25 bd f2 8b 2e bc b4 33 bd 3b 1c a3 be bd
       -0.040510714 -0.010653483 0.0057739858 -0.093084544
0002e0 59 cd 30 bd 62 89 22 bd c9 fe c8 bd ac 19 a5 bd
       -0.043164585 -0.0396818 -0.098142214 -0.08061537
0002f0 03 ba ec bd de b5 47 3d 18 8b fe 3c 33 65 77 3c
       -0.115589164 0.048757426 0.031072184 0.015099811
000300 78 cf c9 3d 06 28 7f 3c c9 e7 79 3d 6f a5 60 3e
       0.09854025 0.015573507 0.061012063 0.21938108
000310 ba 57 65 3e 44 ab 45 3e 6e b1 2e bd 86 59 35 b9
       0.22396746 0.19303614 -0.04264968 -0.00017294855
000320 c7 86 2c bc 7a 20 df 3d 28 e8 fa 3d 2b 15 cc 3d
       -0.01053018 0.10894866 0.122513115 0.09964975
000330 d1 4a aa 3d 83 73 63 3d ad a6 ce 3c cf 56 0f be
       0.08315051 0.055530082 0.025225962 -0.13997959
000340 a5 dc b0 bd ed 6c 28 be 3d b1 5a 3e 3f fa d6 3d
       -0.086358346 -0.16447802 0.21356674 0.104969494
000350 01 99 4a bd e5 4f 49 3e 98 1b ca 3d 94 e6 08 bc
       -0.049462322 0.19659384 0.09868544 -0.008355755
000360 10 2e 65 bd 32 23 1b bd f9 92 50 bd 64 e3 de bd
       -0.05595213 -0.03787536 -0.050921414 -0.10883215
000370 40 be b4 bd 57 64 8d bd 2e 9c a4 bd c3 ae be bc
       -0.0882535 -0.06903904 -0.080376014 -0.023276692
000380 06 c9 83 3c cd 2b d8 bc ef be bf bd b7 18 17 be
       0.016087066 -0.026388073 -0.093625896 -0.14755522
000390 67 c1 b2 3c 60 a7 8a 3c 19 31 8e bd 48 9c 46 3d
       0.021820737 0.016925514 -0.069429584 0.048488885
0003a0 f6 12 4e 3d 36 f5 fd 3c b8 6f 30 bb 53 d8 8b bd
       0.05031105 0.031000715 -0.0026922058 -0.0682837
0003b0 f0 88 71 bd 9d d1 0c bd 28 43 13 be 2f 27 82 bd
       -0.058968484 -0.03437959 -0.14381087 -0.0635513
0003c0 95 f6 49 3e 38 49 22 3e da ea 2a 3e 3f 33 36 be
       0.1972297 0.15848243 0.16691151 -0.17792986
0003d0 a8 15 3a be 47 0c dc bd 2b c0 62 bd 56 6f 1f bd
       -0.18172324 -0.10744529 -0.055359047 -0.038924538
0003e0 c2 e3 69 bc 98 6b e5 bd e8 34 08 be c9 97 f7 bd
       -0.014275493 -0.112021625 -0.13301432 -0.120894976
0003f0 0a 79 00 be 67 ef 99 bc 1a 43 c5 bd a1 3f 13 bd
       -0.12546173 -0.018790914 -0.09631939 -0.035949353

86 f4 [32]
000000 86 70 71 3e 50 a3 eb be 34 a3 a8 bf a2 6c 04 be
       0.2357808 -0.46023035 -1.3174806 -0.12932065
000010 d4 ea 2c bf e0 d5 ba be 6a 26 9a bf dc f5 87 be
       -0.6754582 -0.364913 -1.2042973 -0.26554763
000020 61 82 1c 3f e0 e5 42 3d 4e ea c3 be 6a f9 f7 be
       0.6113644 0.047582507 -0.38264698 -0.48432475
000030 c6 05 99 3f c7 8d 12 bf b4 9e ae be 95 c4 43 bf
       1.1954887 -0.57247585 -0.34105456 -0.76471835
000040 7e 8e 63 bf d6 fd da be f1 c4 f8 3e a2 a2 b7 bf
       -0.888893 -0.42771786 0.48587754 -1.4346507
000050 6c a0 7a 3d b8 4e f9 be f5 8c 74 3e de f6 7b 3e
       0.061188146 -0.4869287 0.23881896 0.24605891
000060 db d2 3a bd fc d6 03 bf c6 8f c6 3e 14 bf 5c bf
       -0.045611244 -0.51499915 0.38781565 -0.8622906
000070 e1 ff 95 3f 5a 11 9e 3e 3b 2d 4a bf be a0 ce 3f
       1.1718713 0.30872613 -0.78975266 1.6142805

88 f4 [32, 16, 1, 1]
000000 20 22 75 bd 77 70 ec 3c e5 f3 96 3e 01 78 02 bf
       -0.059846997 0.028862221 0.29482952 -0.5096436
000010 f5 77 f4 bd 84 5c 06 ba 22 c2 5e 3e 1a 40 fb 3e
       -0.119369425 -0.000512548 0.21753743 0.49072343
000020 cd 8a 13 bf 90 49 92 3e 07 02 b2 3e a9 2f c2 3d
       -0.5763367 0.2857175 0.34767172 0.09481747
000030 56 26 f4 3d 08 78 b4 3d 4e 9a 7e be 62 53 34 3e
       0.119213745 0.08811957 -0.2486355 0.17609933
000040 14 c0 13 be 5a 7c 78 bb 36 c3 e2 bd 87 01 9d bd
       -0.1442874 -0.0037915916 -0.1107239 -0.07666307
000050 b2 dd 70 be 96 48 bc 3c b5 91 af 3d b0 e7 4d be
       -0.2352207 0.02298383 0.08572713 -0.20107913
000060 e9 1e b4 be 2b d5 f9 bd 52 b5 ac 3e b8 b3 12 be
       -0.35179833 -0.12198862 0.33732086 -0.1432637
000070 36 98 50 3e ec 41 c3 3e 8f 5e b1 be 6c 20 67 be
       0.20370564 0.38136232 -0.34642455 -0.22570962
000080 8c 41 85 be 90 0c 1d 3f a8 fc 7f bd cf 81 5f 3e
       -0.2602657 0.61347294 -0.06249681 0.21826862
000090 1f 22 f5 bd ab 2d 64 3e af 36 ec 3d 9e 18 c3 3c
       -0.11969399 0.22283046 0.115338676 0.02381545
0000a0 2a c1 35 bd 4a 37 d1 3d dc 23 89 be bf 20 a4 be
       -0.04437367 0.10215624 -0.2678517 -0.32056233
0000b0 39 44 be 3d ec 42 54 bc a0 95 47 3e 0b 7f 21 3e
       0.09290356 -0.012955409 0.19490671 0.1577112
0000c0 6b fe a6 bc f5 e4 52 bd c6 61 c2 bb c1 7c dc bc
       -0.020384988 -0.05148788 -0.0059320657 -0.026914956
0000d0 5d 6c ab bd c9 b1 24 3e 08 5a 77 3e af e9 91 3e
       -0.08370278 0.16083445 0.24155438 0.284986
0000e0 31 4c 4e be 3e 26 83 3c f3 4b 33 3e a5 b1 4e 3d
       -0.20146252 0.016009446 0.17509441 0.050462384
0000f0 5b b8 4f bd a8 0c e6 3d 00 b3 91 bc e0 07 b2 bd
       -0.050712924 0.11232883 -0.01778555 -0.08692908
000100 6c 2a d1 bc 12 07 9d be a0 dc b9 be 78 3e a6 bd
       -0.025532924 -0.30669457 -0.36301136 -0.08117384
000110 ff 84 b1 3e f8 d4 92 be 23 0c c3 be 34 46 16 bd
       0.3467178 -0.28678107 -0.38095197 -0.036688045
000120 86 d0 54 bd 04 4b 83 be 08 f1 8b be fc db 0c be
       -0.051956676 -0.2564317 -0.2733233 -0.13755792
000130 db 68 ce 3c d6 fb e4 bd 18 5f ff 3c 55 41 2a bd
       0.025196483 -0.111808464 0.031173274 -0.04156621
000140 ff b0 b0 ba 93 33 79 3d 73 7c 49 be 11 33 94 be
       -0.0013480483 0.0608402 -0.1967638 -0.2894521
000150 83 5f 72 bd 93 5b 04 3e a3 b6 02 3b 2d 2f c9 3d
       -0.05917312 0.12925558 0.0019945286 0.09823451
000160 9c e6 c5 be d6 de 54 3e 11 c4 11 3f fa f0 85 3d
       -0.38652503 0.2078813 0.569398 0.06540103
000170 99 aa 06 3d 24 f6 94 3e cd f7 40 be b8 83 9e be
       0.03287754 0.2909404 -0.18844528 -0.30959868
000180 51 7b 7d bd 76 30 65 3d c8 2b 0b bd 30 08 86 be
       -0.06188518 0.05595442 -0.0339773 -0.26178122
000190 e7 40 20 be a4 b6 45 bd 67 e3 ed 3d 37 b6 bc bd
       -0.15649758 -0.048269883 0.11615639 -0.09214442
0001a0 54 78 3c bf f0 82 10 be 06 54 5a 3e 36 a2 48 be
       -0.73621106 -0.14112449 0.21321115 -0.19593129
0001b0 0a a5 cf 3e db 24 90 3e 7f 43 d8 be c7 24 ca be
       0.40555602 0.28153118 -0.42238995 -0.39481184
0001c0 e4 45 f0 3b 0e 60 fa 3c a4 58 50 3e 89 41 aa 3d
       0.0073325504 0.03056338 0.20346314 0.08313281
0001d0 90 12 cf bd c3 61 91 3d fd 04 2a bc 44 9e 87 3e
       -0.101109624 0.07098725 -0.010377166 0.26487935
0001e0 26 77 ea 3d 9a c4 b4 bd 6f ec fb bd bc 9c 11 3e
       0.11448507 -0.08826561 -0.123009555 0.14219946
0001f0 58 0b a4 bc df d9 1c 3c 4d a8 0c 3d 41 ae 3e be
       -0.02002494 0.009573429 0.03434019 -0.1862116
000200 2a 33 98 3d bc e1 db 3d c7 11 af 3c 6a c3 70 3c
       0.07431634 0.10736415 0.021370782 0.014695028
000210 7a c1 66 bd a0 06 d2 3d b6 fa 0d 3d 1c 30 9d 3d
       -0.056336857 0.1025517 0.034662925 0.07675192
000220 60 de 6b 3d ad 0b ef bd 8a 0a 0a 3c e0 c9 0a 3e
       0.05758512 -0.11672149 0.008425364 0.13553572
000230 61 cc be bc 8d ce f0 3c 56 c7 79 3b ea 5e 12 bc
       -0.023290815 0.029395366 0.0038113198 -0.008933762
000240 e9 61 85 3d ad 78 c6 be 71 b0 64 ba c6 56 74 3e
       0.065128155 -0.38763943 -0.00087238016 0.23861226
000250 e3 30 5a be d5 a7 85 be 76 7f cf 3d 3c 32 ac be
       -0.21307711 -0.26104608 0.10131733 -0.33632076
000260 fb 5f 25 3e 32 7e 74 be 06 50 0d bf 30 92 27 3e
       0.16149895 -0.23876265 -0.5520023 0.1636436
000270 87 2a 8a be 1d 9d 3c be 4b f2 a2 3d 54 9d 01 be
       -0.2698557 -0.18419309 0.0795637 -0.12657672
000280 81 ce 1b bf 05 bd f2 3e df 7d 94 be b0 21 30 be
       -0.60861975 0.47409835 -0.29002282 -0.17200351
000290 6f 18 42 be 55 7b a2 3e 27 33 35 3e 78 24 92 3e
       -0.18954633 0.3173472 0.17695294 0.28543448
0002a0 2d 5f 87 be 4e 2c 87 3d 87 79 43 bd 47 a4 30 bd
       -0.264398 0.06600247 -0.04772332 -0.043125417
0002b0 a4 bc 31 3e df d3 96 be ad 89 a1 be c2 f5 11 bf
       0.17357117 -0.2945852 -0.3155035 -0.5701562
0002c0 75 9d b0 be af 9c 39 be 5b f4 0c be 6a 92 4e 3c
       -0.3449513 -0.18126176 -0.13765089 0.01260815
0002d0 42 f3 30 bd df a3 32 3e 69 56 13 3e 87 eb 89 be
       -0.04320074 0.17445324 0.14388432 -0.26937506
0002e0 92 d8 9d be 13 32 ae 3d 1f 17 7b 3e b3 e3 ae be
       -0.30829293 0.08505645 0.24520539 -0.34158096
0002f0 d1 56 0d 3e 0f 8c 63 3e 99 9e 13 be 2a 88 5d be
       0.13802649 0.22221397 -0.14415969 -0.21633974
000300 f7 82 aa 3d c7 e8 7a 3e c4 bf b7 3e c7 a3 78 3d
       0.08325761 0.2450286 0.35888493 0.060703065
000310 d6 e3 28 be c6 c1 b4 3d 6b 5a 7f bc 41 f9 bb 3e
       -0.16493163 0.08826022 -0.015585522 0.36713603
000320 ba 0d 9f bd 9e 9a 95 3d de 46 34 3e 4b 62 3b 3e
       -0.0776629 0.073048815 0.17605159 0.18299215
000330 90 51 47 be 0f 4b 04 be ef 5c 27 3a bc 3f 7f bd
       -0.19464707 -0.12919258 0.00063843926 -0.06231664
000340 e8 9c 8a be 95 79 71 be 74 0b c2 3c dc a7 8f bd
       -0.27072835 -0.23581536 0.023687102 -0.070144385
000350 71 15 b2 be f8 05 e1 3d 92 eb 93 3d cf a0 de bc
       -0.34781983 0.109874666 0.07222666 -0.027176289
000360 f9 04 83 bd a5 fa a6 bd d0 34 46 3d ef 80 ae be
       -0.06397433 -0.081532754 0.04839021 -0.34082744
000370 e0 11 01 3d 9b d7 b7 3e 64 a8 a0 be 2d 75 6e be
       0.031511188 0.3590668 -0.31378472 -0.23286887
000380 f8 63 56 3d cb c9 07 be 62 65 2a bd 60 7c 3e 3e
       0.05234143 -0.13260572 -0.041600592 0.18602133
000390 c7 fc 0c be e3 59 a0 3d 66 a6 80 3c ac 36 31 be
       -0.13768302 0.078296445 0.015704345 -0.17306012
0003a0 67 87 82 3d 6b f8 b8 3d 8e 74 5b be 5b 0f 0a bd
       0.06373482 0.09031757 -0.21431181 -0.03370605
0003b0 62 a3 4b be 70 67 00 bf df 0e a9 3e 92 a2 02 be
       -0.19886544 -0.50157833 0.33019158 -0.12757328
0003c0 fd ee 5f 3c 6e 65 a3 3e 56 b8 83 3e 95 5c d0 3c
       0.013667819 0.31913322 0.25726575 0.025434772
0003d0 eb d5 9c 3d 04 11 cf 3d 2f 94 b1 3e 4e 7a 49 3e
       0.07657989 0.10110667 0.34683368 0.19675562
0003e0 f9 71 3b 3d 1c 6d 56 3e f8 e3 77 be 32 60 f8 3d
       0.04576299 0.2094006 -0.24208057 0.12127723
0003f0 dd 0c e3 bd 48 1c 20 be 4c e3 07 bd bb 60 97 3e
       -0.11086438 -0.15635788 -0.03317575 0.29565987

89 f4 [32]
000000 13 18 c2 bf f2 26 6d be 4e 04 36 bf d9 72 96 bf
       -1.5163597 -0.23159388 -0.7110032 -1.1753799
000010 07 60 91 3f f8 cd 85 bf 14 50 2e be c6 44 92 be
       1.135743 -1.0453482 -0.17022735 -0.28568095
000020 62 2e f2 be c2 32 a0 3f 0f 6b 33 3f d8 19 b0 3d
       -0.47301012 1.251549 0.70085233 0.08598679
000030 39 68 a3 bf 5c e3 69 3e ac 66 88 3f 92 38 d6 bf
       -1.2766181 0.22840637 1.0656333 -1.6736014
000040 2c 90 51 be 9e 0e 32 3f fe e6 89 bf c8 bc 93 bf
       -0.20465153 0.69553554 -1.0773618 -1.1541986
000050 57 70 1f 3f 6c ad b7 3d 25 d3 81 3f 20 79 56 bf
       0.6228079 0.089686245 1.0142561 -0.8377857
000060 c4 52 92 be a0 87 28 40 f6 f0 66 bf 60 4f c7 bf
       -0.2857877 2.633278 -0.9021143 -1.5571098
000070 da 72 e3 be 82 b2 49 be 8e f2 84 bf 6b 3d 4d bf
       -0.44423562 -0.19697002 -1.0386522 -0.8017184

91 f4 [64, 32, 3, 3]
000000 d1 9a 1f 3c 56 f9 11 3c 09 76 4f 3b 26 68 0b 3c
       0.009741501 0.008909544 0.0031656048 0.008508718
000010 1d c3 64 3c b7 56 17 3c 13 97 16 3c db 30 8f 3a
       0.013962534 0.009236983 0.009191292 0.0010924594
000020 af 8e 28 3c 7d 9f 87 3b 97 1d dd 3b da 7e fd 3b
       0.010287925 0.0041388855 0.006747912 0.007736069
000030 fd a4 c0 3b 68 1a e1 3b 00 dc 08 3c 5a 97 dc 3a
       0.005879043 0.006869603 0.008353233 0.0016829774
000040 22 8a 28 3c 66 11 db 3b ea d0 b6 bb f2 c1 0b bb
       0.01028684 0.0066854237 -0.0055791037 -0.0021325317
000050 23 b4 ac 39 43 81 b8 bb 09 75 50 bb ee a0 c3 bb
       0.0003294061 -0.0056306436 -0.003180804 -0.005970112
000060 b9 85 0d bb a0 80 53 bb fa bf 32 bb bf 87 d6 bb
       -0.0021594597 -0.0032272711 -0.0027275071 -0.006546944
000070 6a 70 ae bb 15 7b 96 bb ee 4b 01 3b ce f9 1a 39
       -0.0053234594 -0.0045923092 0.0019729096 0.00014779644
000080 7c 06 f6 3a b1 bf d7 3b 68 d7 70 3c ff da 40 3c
       0.0018770243 0.0065841307 0.014699794 0.011770963
000090 d4 22 70 bc 27 43 7e bc 0f 81 62 bc f9 49 0e bc
       -0.014656741 -0.01551894 -0.013824715 -0.008684629
0000a0 98 31 b9 bb 34 65 bf bb e1 4b 41 bc c9 e7 4a bc
       -0.005651664 -0.005840922 -0.011797876 -0.012384363
0000b0 5d a9 06 bc aa 6d e9 3a 67 cd 1f b9 da cd aa 3b
       -0.00821909 0.0017809172 -0.0001523994 0.0052125277
0000c0 4b 05 21 3c d4 68 14 3c c9 ec 57 3b 70 85 e8 3b
       0.009827922 0.009058196 0.0032947531 0.007095985
0000d0 37 d9 13 3c ff c6 8d 3b 06 98 92 bb 46 43 17 ba
       0.009023956 0.0043267007 -0.004473689 -0.00057702174
0000e0 d2 88 d6 bb aa df 9d 3b 79 98 2e 3c 6c 35 83 3b
       -0.006547072 0.0048179226 0.0106564695 0.004004171
0000f0 70 bc 86 39 0a 54 eb 3a 1f 43 c4 3b ef b8 e2 bb
       0.0002569887 0.0017954123 0.005989447 -0.0069190185
000100 71 66 1d bc f3 0d 1b bc db 56 99 3b 3e d2 31 3b
       -0.0096069435 -0.009463775 0.0046795434 0.002713337
000110 3c be a6 3a 42 1b f7 bb 0e e6 c1 3a 88 6a fd 3a
       0.0012721489 -0.007541091 0.0014793293 0.0019334117
000120 6e 82 fa ba a6 67 2f 3b 8e a8 ad ba 34 77 c7 3b
       -0.0019112357 0.002676466 -0.0013249086 0.006087208
000130 ef 3a f4 3a 04 e6 07 3c 4e 20 4d ba 7e db d6 3b
       0.0018633286 0.008294586 -0.0007824943 0.006556927
000140 b1 5b b3 3b 27 ac f8 ba 32 25 b0 3a b3 5f 50 3b
       0.005473577 -0.0018972204 0.001343882 0.0031795322
000150 3b c4 96 b9 0d 66 42 3b b0 38 68 bb 70 ca 5c bb
       -0.00028756433 0.0029662878 -0.003543418 -0.0033689998
000160 82 af 14 bb 6e 0b 3e bb f6 92 eb 3b 14 bc 13 3c
       -0.0022687619 -0.0028998512 0.00718915 0.009017009
000170 82 ca c0 3b ca 4f d9 3b 41 20 23 3c dd 65 e0 3b
       0.005883516 0.006631826 0.00995642 0.0068480805
000180 34 01 10 3c 27 21 ee 3a 07 8d 1a 3c 76 3b a7 3b
       0.008789349 0.0018167839 0.009433038 0.005103524
000190 cf 18 68 3c 41 12 53 3c a8 e5 eb 3b 6d a8 71 3c
       0.014166071 0.01288277 0.007199008 0.0147496285
0001a0 e2 88 6f 3c ad 40 26 3c 38 4c 20 3c 54 e8 a9 3b
       0.014620038 0.010147256 0.009783797 0.0051851664
0001b0 5a fa d3 bb 23 23 b3 ba 43 69 29 3a dc 07 61 bb
       -0.006469053 -0.0013667088 0.00064625236 -0.003433696
0001c0 f7 c5 6e 3b a8 94 84 3b dd b5 10 bb 1e fa d0 3b
       0.0036433914 0.0040460415 -0.0022081055 0.0063774725
0001d0 63 4f 65 3b 66 a2 53 3b ce ac 24 3c c0 eb b5 3b
       0.0034989945 0.0032292842 0.0100509655 0.005551785
0001e0 54 fd 4a 3b cc a4 df 3b 72 1b b3 3b 2a bf 07 3b
       0.003097375 0.0068250652 0.005465918 0.0020713308
0001f0 b4 7c 2b 3c b5 2d c7 bb 95 f6 b0 bb 11 ae 25 bb
       0.010466743 -0.0060784467 -0.0054004886 -0.0025280754
000200 18 2d 8e bb af 54 33 3b da 2b 62 3b 80 a2 82 ba
       -0.0043388717 0.0027363708 0.0034511 -0.0009966642
000210 c4 aa 80 3b 29 52 97 b9 cf e2 22 bb 4b 9b bd bb
       0.003926607 -0.00028862178 -0.0024854427 -0.0057863346
000220 9b f2 81 bb 4c 8e ac bb 68 f2 0f bc d7 bc 2a bc
       -0.0039656884 -0.0052659865 -0.0087858215 -0.0104209995
000230 81 3a 19 bc d1 f5 75 bb 59 42 cb ba 29 2e 66 bb
       -0.009352327 -0.0037530551 -0.0015507444 -0.0035122728
000240 bd 0f ca bb 64 53 e0 ba ed 3c 03 bb b6 7c 57 3b
       -0.006166427 -0.0017114696 -0.0020025328 0.003288073
000250 72 f2 85 b8 af 94 9e ba 5c 54 a3 3a c6 17 43 bb
       -6.387093e-05 -0.0012098755 0.0012461054 -0.0029768809
000260 a4 cf dd 3a 15 3a b3 bb 5b 73 b4 ba 74 88 d9 bb
       0.0016922844 -0.0054695704 -0.0013767289 -0.006638581
000270 de dc f1 bb 57 4b d7 bb b6 2d dc bb 5a cc 4d bc
       -0.0073810657 -0.0065702605 -0.0067193164 -0.012560928
000280 1b 7c c6 bb 17 48 94 bb 8c 46 22 3c 00 7d f1 3b
       -0.006057275 -0.0045251953 0.009904515 0.0073696375
000290 43 41 3e 3c 81 1c 7a 3b 7d 99 4f 3c 3c 89 39 3c
       0.011612239 0.0038163962 0.012670872 0.011324223
0002a0 99 b1 b2 3b dc 98 5a 3c a3 74 c3 3b 8e e3 37 bc
       0.0054533 0.013342109 0.005964832 -0.011223687
0002b0 50 fb 02 bc 9a 4c 0a bc 46 8f 8b bb b2 4e f5 bb
       -0.007994488 -0.008441115 -0.004259023 -0.007486188
0002c0 93 2b 92 bb 1f fd db bb 2a 62 ef bb c3 10 36 bb
       -0.004460761 -0.006713524 -0.0073054032 -0.0027780987
0002d0 e1 0b 41 bc cf 57 a4 bb d1 49 20 bc b3 14 f7 bb
       -0.011782617 -0.0050153504 -0.009783224 -0.0075403093
0002e0 f1 12 39 bc fe 0b 64 bb 2e 08 eb bb 11 4a 1d bb
       -0.01129602 -0.0034797187 -0.007172606 -0.0024000446
0002f0 7f 71 4b ba b4 35 1f 3b a4 c3 61 3c 9e 39 0e 3c
       -0.00077607477 0.0024293484 0.0137795545 0.008680729
000300 eb 0b cc 3b c1 0c 59 3c 52 5a 6c 3c a7 f6 f0 3b
       0.0062270067 0.01324767 0.014425831 0.007353622
000310 2b f6 33 3c 21 b6 80 3c f9 2c 12 3c fb 0a 28 3c
       0.010983984 0.015711846 0.008921855 0.010256524
000320 ef 41 52 3c 52 eb 0b 3c 4e cf 38 3c e5 f2 d4 3b
       0.012833103 0.008539991 0.011279894 0.006498682
000330 f5 95 1b 3c 43 bb 6c 3c c0 13 3f 3c a3 32 e8 3b
       0.009496202 0.014448944 0.011662424 0.0070861145
000340 2d f7 eb 3a e3 70 c9 3b fe 7c f1 3a 05 80 a0 3b
       0.0018002741 0.0061474903 0.0018424091 0.0048980736
000350 a6 b2 bc 3b 94 71 5b 3c 03 98 2c 3c 48 e2 79 3c
       0.0057586012 0.013393778 0.010534289 0.015251704
000360 f6 ae 3d 3b 4f 04 e3 3b 73 32 5e 3b 2d 44 9a 3b
       0.0028943396 0.006928004 0.0033904582 0.004707834
000370 65 04 02 3c 12 b0 f4 3b dc 52 f3 3b 95 e5 22 3c
       0.007935618 0.0074672783 0.007425649 0.009942432
000380 3a 00 02 3c 33 90 a1 3a d4 69 ae bb d2 db 5e 3b
       0.007934624 0.00123263 -0.0053226743 0.0034005535
000390 e5 31 45 3b 8d 30 b9 b8 00 90 65 3b af 96 96 3a
       0.0030089554 -8.830531e-05 0.0035028458 0.0011488999
0003a0 b9 29 ab 3b 02 c3 8f 3a 1b 10 3d 3b d1 3d 2a 3c
       0.0052234796 0.0010968151 0.002884871 0.010390715
0003b0 29 b1 56 3a 98 53 2a 3c 33 50 5e 3c 66 d9 4a 3c
       0.0008189851 0.010395907 0.013568926 0.012380933
0003c0 86 5b 5e 3b a2 8b 42 3c 81 0b 59 3c 5b ef 41 3b
       0.0033929064 0.011874111 0.013247372 0.002959213
0003d0 70 c7 31 3c dc b9 26 3c 01 71 24 3c 93 19 cd 3b
       0.010850772 0.010176148 0.010036708 0.006259152
0003e0 3a 62 34 3c 93 c4 2c 3b ac 57 25 3c d8 ba 5f 3b
       0.011009747 0.0026362285 0.010091703 0.0034138467
0003f0 6b 66 61 bb 03 fa c1 bb 2f 4a b2 bb 2a 23 18 3b
       -0.0034393321 -0.0059196963 -0.0054409723 0.0023214319

92 f4 [64]
000000 7e f5 93 bf 8e b0 a1 3d 91 59 70 bf 74 89 aa 3e
       -1.1559293 0.07895003 -0.9388667 0.33307993
000010 b4 dd 32 be 24 cc d2 3e f6 03 9d 3d c2 1f 26 bf
       -0.17467386 0.41171372 0.07666771 -0.6489221
000020 e0 f1 8d be bf c9 90 bd ac 88 53 3f af 8a a2 bf
       -0.27723598 -0.0706973 0.8263042 -1.2698573
000030 0b 5a f9 be e9 5a ae be 95 d5 91 3f 2f fa 92 3e
       -0.4870151 -0.34053734 1.1393305 0.287065
000040 a0 16 c4 3e 79 07 07 bf 95 82 29 bf ca 2a d7 be
       0.38298512 -0.5274578 -0.6621488 -0.42024833
000050 6e 0f cb be 38 c1 2c 3f 21 20 ad 3f 40 bc da bd
       -0.3966021 0.6748233 1.352543 -0.10680437
000060 71 66 80 bf ec 8b 33 3f b4 cd 6b be 0e d2 56 bf
       -1.0031263 0.7013538 -0.23027688 -0.8391427
000070 f0 60 93 3e 9e 57 23 3f 2e 3a 2f 3f 78 5f 05 bf
       0.28784895 0.6380557 0.6844815 -0.520988
000080 18 53 7f bf 44 b3 52 3f a3 71 0f bf 48 66 64 bf
       -0.99736166 0.8230479 -0.5603277 -0.8921857
000090 3c 8d e5 3e c7 00 13 3f 09 66 95 3f e8 56 b4 bd
       0.44834316 0.5742306 1.1671764 -0.088056386
0000a0 94 3d 6e 3f 34 fc 5b be 04 1b 45 bf 98 11 8a 3f
       0.9306271 -0.21482927 -0.7699435 1.0786619
0000b0 44 72 b2 3d 6a 13 9b 3f 99 05 0e 3f b4 25 49 bf
       0.08713201 1.21153 0.5547729 -0.78573155
0000c0 22 d7 98 3e 70 93 d0 3f 9c 59 e0 be 02 1b 08 bf
       0.29851633 1.6294994 -0.43818367 -0.5316621
0000d0 90 24 f3 3c 9d 12 df 3f 42 30 35 bf 50 bb 83 3c
       0.02968052 1.7427555 -0.7077676 0.016080528
0000e0 4c 87 8c be 8c 19 93 be c8 df 18 bf 66 96 6e 3f
       -0.27446973 -0.28730428 -0.59716463 0.9319824
0000f0 80 17 7f 3c ba 30 27 bf e7 12 28 3f 68 59 d3 bd
       0.015569568 -0.65308726 0.6565384 -0.10319787
