model/lion.onnx (onnx, 301496 bytes, 16 tensors)

fc.weight f4 [2, 256]
000000 4a 2c 97 3e e5 85 9b 3e 61 da 11 3e 0d 16 eb 3d
       0.29525977 0.3037559 0.14243461 0.11478815
000010 a9 e7 8d 3c c6 cc e4 bc 7a f8 ac bd 0a 6a c7 bd
       0.017322378 -0.027929675 -0.08445831 -0.09737022
000020 21 fb 6e bd 18 d8 ed bd 0e 90 14 3d 60 f4 b0 bd
       -0.058344964 -0.11613482 0.036270194 -0.08640361
000030 15 65 3c be 26 6e 51 be 48 77 99 bd 26 1e 21 be
       -0.18397935 -0.20452175 -0.07493454 -0.15734157
000040 08 58 48 bd 8e 39 22 be c5 10 65 3c 44 f1 12 be
       -0.04891208 -0.15842268 0.013981049 -0.14349848
000050 88 3d d4 bd c5 ca 9c be f7 f7 f2 bd 84 ba 9c be
       -0.10363299 -0.3062345 -0.11863702 -0.3061105
000060 33 46 ae bd db fb 80 bd 41 74 01 be 05 24 41 be
       -0.08509483 -0.062980376 -0.12642004 -0.18861397
000070 9d 88 55 be 3f 7c 01 be 0d e6 a8 bd dc d7 22 be
       -0.20852895 -0.12645052 -0.08247004 -0.15902656
000080 18 f9 e6 3e 53 67 21 3f 38 d2 13 be 17 ce 49 bc
       0.45111918 0.63048285 -0.14435661 -0.012317202
000090 12 cb 24 be f7 c5 6b be 6e c5 0e be 6b 59 33 be
       -0.1609309 -0.23024736 -0.13942501 -0.17514579
0000a0 d6 1a 9b be 70 6d 7a 3c 55 85 a7 be 1c 59 c6 3d
       -0.30293912 0.015284881 -0.32718912 0.09684965
0000b0 cc a6 9b be b4 49 da bd 46 5c 07 be 67 75 a3 bd
       -0.30400693 -0.10658589 -0.13218793 -0.07981377
0000c0 98 3c ae 3e 5a 5d ca 3e c7 83 c2 3d 09 04 b3 3d
       0.34030604 0.39524347 0.09497791 0.08741004
0000d0 bf 67 e5 3c fc fe 6e 3c f6 b0 ef 3d 61 84 0a 3e
       0.028003572 0.01458716 0.117036745 0.13527061
0000e0 ee f2 77 3e 49 50 61 3e 54 79 9e 3d bb 75 f2 3d
       0.24213764 0.22003283 0.07737985 0.118388616
0000f0 c9 0e 60 bd 7f c3 b0 bd ba cd 2a be 13 f6 bf bd
       -0.0547016 -0.08631038 -0.16680041 -0.09373107
000100 11 eb 9d bd fc 4b 2a be 7a 16 75 be 65 d5 0b be
       -0.07710851 -0.16630548 -0.23934355 -0.13655622
000110 30 12 e9 3e 97 b4 de 3e 59 fc f0 3d cd ba 60 3e
       0.45521688 0.43497154 0.117668815 0.21946259
000120 6f db ec ba f6 11 18 be 38 01 dd bd b3 fe 53 be
       -0.0018070767 -0.14850602 -0.10791248 -0.20702629
000130 27 46 f9 bd e6 b1 54 be de 70 f3 bd df d5 2f be
       -0.121715836 -0.20770988 -0.11886762 -0.17171429
000140 32 f1 de bd ab c8 04 be 4d 5e 83 be 79 7f a7 be
       -0.10885848 -0.12967174 -0.25657883 -0.3271444
000150 bd a4 3b 3e 68 f3 9f 3e f2 10 1e 3e 53 51 4e 3e
       0.18324561 0.31240392 0.15436152 0.2014821
000160 5e dc a3 bd f8 4f 4d be 13 73 ad bd 66 ce 54 be
       -0.08001016 -0.20050037 -0.08469214 -0.2078186
000170 e2 b0 28 3e 8d 58 62 3e e2 80 09 be bb b5 e1 bd
       0.16473725 0.22104092 -0.13428071 -0.110209905
000180 2f c9 1b be 62 2a 09 be c8 50 f2 bd 02 e4 13 be
       -0.15213464 -0.13395074 -0.11831814 -0.14442447
000190 e7 90 a7 3e 93 ba 89 3e 14 7b 0f 3e 99 18 be 3d
       0.3272774 0.26900157 0.14011794 0.092820354
0001a0 9d c5 f4 3d 87 71 ea 3e 6b be be be 52 9d 9c bd
       0.11951754 0.4578974 -0.37254652 -0.07647194
0001b0 d9 45 ce bd 72 6b 64 be 5c 51 8a bd 32 e0 6d be
       -0.10071916 -0.22306612 -0.06753799 -0.23230055
0001c0 5c e4 a9 bc 81 16 c3 be d0 74 30 3c 84 89 a4 be
       -0.020738773 -0.38103107 0.010770038 -0.32136166
0001d0 84 34 a8 be ea 1d 42 be 0b 2f 82 3e 8a 13 86 3e
       -0.32852566 -0.18956724 0.25426516 0.26186782
0001e0 bf 05 4b 3d bc 7b 71 3d 75 7c 2e 3e 10 76 24 3e
       0.049566027 0.058955893 0.17039664 0.16060662
0001f0 29 96 4f 3e 9a 0d 62 3e a6 80 1e 3e a3 5a 8f 3d
       0.20272125 0.22075501 0.15478763 0.069997095
000200 de 86 93 3e ab 81 a8 3e 8e f5 33 3e 13 e7 19 3e
       0.28813833 0.3291143 0.1757414 0.15029554
000210 23 87 64 3e 71 f4 e3 3d 67 f4 57 3e 62 cc a3 3c
       0.22317176 0.11130608 0.21089326 0.019994918
000220 f3 4c 92 be 5f 11 02 bf 4f a6 12 be 80 82 66 be
       -0.28574333 -0.50807756 -0.14321254 -0.2251072
000230 ec 15 1a be 77 94 42 be eb 53 2d be c8 19 75 be
       -0.15047425 -0.19001947 -0.16926543 -0.23935616
000240 96 c9 05 3e 34 19 b6 be 86 e5 d1 3d d4 8d b2 be
       0.1306518 -0.35566103 0.10248856 -0.3487383
000250 ee d1 89 3e 5d fd 15 3e a7 9b c7 3d 13 31 93 3d
       0.26917976 0.14647432 0.09746485 0.071870945
000260 f0 5e 54 be 8f 71 44 be 1b b3 4f be a6 78 0a be
       -0.20739341 -0.19183944 -0.20283167 -0.13522586
000270 d5 b2 4c 3e 51 cf 11 3e 22 01 b4 3c 44 70 c8 bd
       0.19990094 0.14239241 0.021973196 -0.09787038
000280 59 aa d9 3c 36 26 8e be 1c 52 69 bd e6 76 ac be
       0.026570486 -0.27763528 -0.05696307 -0.33684462
000290 69 e3 5e bd 09 60 28 bd a4 6c 93 3e b8 f8 94 3e
       -0.054416094 -0.04110721 0.28793824 0.29096007
0002a0 35 91 8c be fa 8b 59 be 1c fa 94 be dd 05 b0 be
       -0.27454534 -0.21244803 -0.29097068 -0.34379473
0002b0 8f 03 56 3d 53 35 88 3d 63 ce 12 3e 6c 6c cf 3d
       0.052249487 0.06650796 0.14336543 0.10128102
0002c0 3b cb 2e be 83 67 a9 bd 4e 83 e6 bd 66 aa b7 bd
       -0.17069714 -0.082716964 -0.11255513 -0.08968048
0002d0 ef ce 6f 3e 6f ed ee 3d 5a d7 2d 3e 9a dd ad 3d
       0.23418783 0.116663806 0.16976681 0.08489533
0002e0 fb 34 a0 bd 42 a1 ac bd 28 50 7b be 71 2a 78 be
       -0.07822605 -0.08429195 -0.24542296 -0.2423494
0002f0 75 48 c8 be e1 b4 c1 be aa 22 65 bd c9 80 49 be
       -0.3911778 -0.37833312 -0.05594126 -0.19678034
000300 54 d0 a0 3e 87 ec 9a 3e a4 df 8e 3e aa 45 a1 3e
       0.31408942 0.3025858 0.27905 0.31498462
000310 2f 32 94 be 8c 2c 87 3d 90 74 1e be 75 ad ff 3d
       -0.28944537 0.066002935 -0.15474153 0.12484256
000320 da 76 03 be a6 de 0b be 84 8a 70 be 3a 52 72 be
       -0.12838307 -0.13659152 -0.2349034 -0.2366418
000330 e9 9f 7c be 59 e2 4f be 00 ab 93 be 58 06 aa be
       -0.24670376 -0.20301189 -0.288414 -0.33207965
000340 d6 67 cc bd 93 ea 0c bd ea 6b 3a be 2e db c3 bd
       -0.09980743 -0.034403395 -0.18205228 -0.095632896
000350 b7 08 14 bd e8 c5 b7 be a8 5a 9d 3d f0 46 2b be
       -0.036141124 -0.35893178 0.07683307 -0.1672628
000360 18 df 6e bd 42 2b b6 bc b0 3e 34 bd 00 16 8f bd
       -0.058318228 -0.022237424 -0.044005096 -0.06986618
000370 b3 03 97 be f2 55 ca be fb 7d 78 be 3f b8 b5 be
       -0.2949501 -0.39518696 -0.24266808 -0.3549213
000380 c0 35 c1 3d 27 08 dc be 2a f3 1d 3e d7 20 d4 be
       0.0943408 -0.4297497 0.15424791 -0.41431305
000390 9d da d5 be e7 54 9c be a0 ec 30 be 85 5e 2a be
       -0.4176835 -0.30533525 -0.17277765 -0.16637619
0003a0 97 e6 4d be 86 9b 97 be 63 13 1f be f0 98 54 be
       -0.20107494 -0.29610842 -0.15534739 -0.20761466
0003b0 a6 4a 94 bd c2 0c 44 be 29 9d 36 be 0d 6d 36 be
       -0.072408006 -0.19145492 -0.1783339 -0.17815037
0003c0 fc de ae be 0b 7d 47 be a2 66 e9 bc ad 1d 9e 3d
       -0.341545 -0.19481294 -0.028491322 0.07720504
0003d0 97 29 49 3d d7 b6 a5 bd 0d 6a 4a 3d 54 a2 43 3c
       0.04911193 -0.080915146 0.049417544 0.0119405575
0003e0 f8 72 15 3e 1a 15 59 3d b6 43 07 3e b3 f3 db 3d
       0.14594638 0.05299864 0.13209423 0.10739841
0003f0 64 23 8a be 26 10 bf bc 65 3d 63 be 84 ce c9 3d
       -0.26980126 -0.02332313 -0.22191389 0.09853843

fc.bias f4 [2]
000000 f2 4b 59 3e cf 74 4e be
       0.21220377 -0.20161746

79 f4 [16, 3, 7, 7]
000000 96 53 63 be 18 e3 66 bd 1a 44 a0 3e be e5 33 3d
       -0.22199854 -0.056368917 0.31301957 0.04392027
000010 85 64 4f bd f6 87 9f 3e ac 1d c7 3e 96 8f 00 be
       -0.050632972 0.31158417 0.38889825 -0.12554774
000020 c7 ec 80 bd f1 3e cd 3e 91 93 a6 3d 53 6f d8 3d
       -0.06295162 0.40087083 0.08133615 0.105681084
000030 e6 90 ce 3e 03 c1 fa 3e 58 0b 3e be af f1 13 be
       0.40344924 0.4897538 -0.18559015 -0.14447664
000040 4e 23 e7 3c 6f 1d c6 3c 0d 20 08 3e 73 a4 e8 3e
       0.028215077 0.024183957 0.13293476 0.45437965
000050 61 ea c9 3e e7 12 f9 be 98 e0 af be b0 44 bc bd
       0.3943663 -0.48647234 -0.3435104 -0.091927886
000060 49 78 a3 bc 88 84 0a 3e 90 da 72 3e 07 61 b2 3e
       -0.019954817 0.13527119 0.23716187 0.3483965
000070 43 87 d7 be 6f 55 c4 be 1e d3 83 bd b0 55 25 3d
       -0.42095384 -0.3834643 -0.06436752 0.04036492
000080 6a 02 80 3e 51 e0 fe 3d ab f2 74 3e 5a 91 9e be
       0.25001842 0.12445129 0.23920695 -0.3097027
000090 22 4a 14 bf c2 68 a4 be 85 0e 21 be 63 71 dd 3d
       -0.5792562 -0.32111174 -0.15728195 0.108126424
0000a0 a8 0c 5e 3e 16 0c 88 3d b8 60 9f be 86 04 0a bf
       0.21684515 0.0664293 -0.31128478 -0.5391315
0000b0 c6 b9 14 bf 5d 52 af be 17 aa 1f 3e ee a4 18 3e
       -0.5809597 -0.34242526 0.15592228 0.14906666
0000c0 ea 32 1a 3e fc 06 99 3e 92 61 b1 3e 21 c8 f5 3e
       0.15058485 0.2988814 0.34644753 0.4800425
0000d0 87 77 d6 be 5a fb 5b bf dc 96 11 bf c6 f8 33 be
       -0.41888067 -0.8593041 -0.5687082 -0.17575368
0000e0 5d 11 b5 3e 86 c7 c7 3e 92 0c 93 3e a3 2e 10 bf
       0.3536481 0.39019412 0.28720528 -0.5632116
0000f0 a9 d8 5e bf 71 cb f5 be 42 1d 26 bd 7b d7 21 3f
       -0.8704935 -0.48006776 -0.040555246 0.6321942
000100 59 06 6d 3e 36 4a 7a 3d 03 c4 c5 be ff bd 28 bf
       0.23146953 0.06110593 -0.38626108 -0.6591491
000110 1d db 9a be 1a 94 68 3d 6f 54 06 3f 5c a0 2e 3e
       -0.30245295 0.056781866 0.52472585 0.1705336
000120 c3 8f 8c bd 68 d4 cb be 5f b9 ea be a6 f6 0a be
       -0.06863358 -0.3981049 -0.45844552 -0.13570651
000130 b4 af 87 3d 4a 98 0b 3f c3 34 8c 3e d2 da ae 3d
       0.066253096 0.5452925 0.27384004 0.085378304
000140 3e f5 38 be b1 2a a5 bd 8d e5 6a be 65 a9 0e 3e
       -0.18062302 -0.08064783 -0.22939129 0.13931806
000150 5f af 23 3f 72 ed 87 3e ae e1 31 3d 04 be 5e be
       0.6393947 0.26548344 0.043428116 -0.21752173
000160 c1 37 02 3c 51 5c cc 3c 73 ab 85 3b 5f 28 2e 3f
       0.007947863 0.024946364 0.004079276 0.6803035
000170 17 3e 61 3e 34 e8 80 b8 59 63 9c be 7d 56 12 bd
       0.21996342 -6.146767e-05 -0.30544546 -0.035727013
000180 b8 95 40 3e 3e a5 86 3e 7e f0 95 bc c3 49 8c 3e
       0.18807113 0.26297945 -0.018303152 0.27400026
000190 cf 6b 00 3f 49 07 51 be 22 f9 3c bf bc 22 ff be
       0.501645 -0.20412935 -0.73817647 -0.49831188
0001a0 11 47 e9 bd d8 ba ac 3e 9a db 09 3f 99 61 fc 3e
       -0.11390508 0.337363 0.5385071 0.4929321
0001b0 87 1e 8b be e8 85 1d bf 25 3c a3 be 44 57 01 be
       -0.27171728 -0.6153245 -0.31881824 -0.12630945
0001c0 a6 0c 2f 3f 40 c4 18 3f cb 20 d2 3e 55 25 31 be
       0.68378675 0.59674454 0.41040644 -0.17299397
0001d0 ce d7 11 bf 9c 2e 8d be ea 9a 5d bd f2 52 d1 3e
       -0.56969917 -0.27574623 -0.054102816 0.40883595
0001e0 85 a4 96 3e 93 d4 13 3e f1 9a 6b be 9e a9 e5 be
       0.29422393 0.1443656 -0.23008324 -0.4485597
0001f0 dd 56 a4 be 94 ad 82 bd d0 b2 16 3f 8a 80 cf 3e
       -0.3209752 -0.06380764 0.58866596 0.40527755
000200 6f 0d 8a 3e d4 63 64 be 63 03 58 be 46 4e cc be
       0.26963374 -0.22303706 -0.21095042 -0.39903468
000210 b1 fb 10 be a8 47 0b 3f e7 e1 9e 3e 33 65 66 3e
       -0.14158513 0.54406214 0.31031725 0.22499542
000220 f3 b6 13 be c8 f4 4a be 58 f1 3c be 21 2a d0 bd
       -0.14425258 -0.19819939 -0.1845144 -0.101642855
000230 55 ba 55 3f 6b ca c3 3e 34 89 4c 3c 50 c8 92 be
       0.83487445 0.3824037 0.012483884 -0.2866845
000240 19 de 3a bd 3e ce fa 3d 68 c7 07 3b d2 fd 0d 3d
       -0.045621965 0.12246369 0.002071822 0.03466589
000250 4d 3d e1 3c 71 f1 47 bb 4f db 86 b9 e7 c2 b7 3c
       0.02749505 -0.00305089 -0.0002572187 0.022431804
000260 9f 6f 33 3c b5 1a 8c 3d 43 cf 18 3d 83 bc f9 3c
       0.0109519055 0.068410315 0.037307035 0.030485397
000270 ad 4d 0f 3d ca 43 88 3c b9 5c 47 bc ec f5 01 bb
       0.034986187 0.016633887 -0.012168103 -0.0019830419
000280 2a 8f 1d 3d 26 a2 06 3d d0 3f 03 bb 75 22 19 3d
       0.03846661 0.03286948 -0.002002705 0.037386376
000290 a0 31 24 bc da 7d 8d 3c 46 83 05 3c 53 03 0b 3d
       -0.010021597 0.017271925 0.008148974 0.033938717
0002a0 79 e9 2b 3d ea 37 14 3d 44 1a 0b 3d a9 c6 27 bc
       0.041970704 0.036186136 0.033960596 -0.010240235
0002b0 33 77 50 3c 8e 60 b3 3c 78 96 45 3d 7e 0a 56 3c
       0.012723732 0.021896627 0.0482392 0.013064025
0002c0 de c9 f3 bb 95 76 64 3c 93 71 84 3c 22 89 78 bb
       -0.007439836 0.013944288 0.016167438 -0.0037923534
0002d0 11 bb 22 bc 45 39 81 3d 6d be 0e 3d e5 14 5b 3d
       -0.009932295 0.063097514 0.034849573 0.053486723
0002e0 66 8f 45 3d 39 53 2c 3d 92 a1 54 3c 8f c1 08 3b
       0.04823246 0.042071555 0.0129779745 0.0020867323
0002f0 c6 2f 55 3d 16 5f 63 3a 11 e0 1e 3d 43 8e d5 3c
       0.052047513 0.00086735317 0.038787905 0.026068812
000300 25 a5 84 3c 2f 44 93 3c 9e 2b e0 3c a0 62 b4 3b
       0.016192028 0.017976848 0.027364548 0.005504921
000310 ef 09 e8 3c f4 bb d2 3c c7 3e 00 3d bb d1 2d 3d
       0.02832505 0.025724389 0.03130987 0.042436343
000320 5f 6f 58 bc 9f 31 59 3c ad 4d 8a 3d 84 5a 23 3d
       -0.013210147 0.0132564595 0.06753097 0.039881244
000330 38 76 2e 3d 74 2e 1f 3d 8f ee 8c 3b c5 af 1e bc
       0.04259321 0.03886266 0.0043008993 -0.009685461
000340 79 35 e5 3c 3f c6 8d 3d 1b 28 8f 3d 9d fe c1 3c
       0.0279796 0.06922578 0.069900714 0.02368098
000350 6c eb a0 3c 36 fd 2e bc aa 85 b8 3b 23 dc 58 3d
       0.019643508 -0.010680487 0.0056311684 0.052944314
000360 fe 07 07 3e d3 72 58 3d 97 9b 04 bc 18 04 42 3d
       0.13186643 0.05284388 -0.008093736 0.047367185
000370 1f c6 05 3d 1a 39 50 3c f9 be 3f 3d 71 82 0e 3e
       0.032659646 0.012708927 0.046812985 0.13916947
000380 cd 80 28 3d 45 00 92 3c 19 13 16 3a b7 0e 5b 3c
       0.04113846 0.017822394 0.00057248917 0.0133702075
000390 ba b6 8d 3c e7 5a 48 3d dc 5c e5 3d c2 b2 02 3d
       0.017299045 0.048914816 0.11199352 0.031908758
0003a0 e9 88 2c 3c 57 b0 58 3d e0 4a b7 3c 09 95 5c bb
       0.010530689 0.052902546 0.02237457 -0.0033658168
0003b0 d2 ce dd 3c 09 c8 05 3e 60 f0 23 3b e7 d0 04 3b
       0.027076159 0.13064589 0.00250151 0.0020266117
0003c0 d5 16 5c 3d 7f 5b 81 3b 77 86 09 3d eb 19 23 3c
       0.05373271 0.0039476748 0.0335755 0.00995491
0003d0 c4 93 c4 3c 79 42 91 3d 71 3f 4a 3c e6 43 94 3c
       0.023996241 0.07092757 0.012344227 0.018098783
0003e0 70 3d 10 3d 75 c4 8e ba 21 a8 2b 3d b5 a0 43 3d
       0.03521484 -0.0010892289 0.041908387 0.047760684
0003f0 89 bf f1 3c 57 5c 0f 3c da 95 89 b9 af f1 b0 bb
       0.029510276 0.008750043 -0.00026242324 -0.0053999047

80 f4 [16]
000000 15 3b b4 be c1 e0 e5 bf 68 85 ce 3f 68 08 a1 3f
       -0.35201326 -1.7959214 1.6134462 1.258069
000010 dc 3e 4a 40 04 65 e2 3f 37 90 f2 3f 87 63 8a be
       3.1600866 1.7687078 1.8950261 -0.27029058
000020 cc 5d 56 bf 1b 31 45 3e 70 ee c4 bf ef 6a b0 3e
       -0.8373687 0.19257013 -1.5385265 0.34456584
000030 c0 48 62 3f 39 69 2d be 33 22 3b bf af 0c 00 c0
       0.8839226 -0.1693467 -0.7309906 -2.0007741

82 f4 [32, 16, 3, 3]
000000 dc cd 5f 3d f9 35 ed bd c4 9c da bd 7a 4e 00 3c
       0.054639682 -0.1158256 -0.10674432 0.00783121
000010 e8 9d 4c be 08 b1 06 be 46 4f bf bc 80 9a 36 be
       -0.19982111 -0.1315347 -0.02335323 -0.17832375
000020 b7 dc 31 be d3 6d bd 3d ab 57 13 3d 83 9f 81 3c
       -0.17369352 0.09249463 0.03597228 0.015823131
000030 de 2d 8e bb e9 cf 3c bc f0 7b 30 bd f3 4f 55 bd
       -0.004338964 -0.011524179 -0.043086946 -0.0520782
000040 48 42 44 bd 85 b0 08 bd fd 76 e3 bc 8f ef 5d bc
       -0.047914773 -0.033371467 -0.027766699 -0.013545885
000050 27 f2 af 3c c7 8f 10 bd 8b aa 91 bc fc 01 ed 3c
       0.021477772 -0.035293367 -0.017781517 0.02893161
000060 a0 49 ec 3c a7 cc dd ba 36 64 84 bc 58 8e 24 3c
       0.0288437 -0.0016921953 -0.016161066 0.010043703
000070 fe 2f 89 bc 6f f8 ac bd 56 49 42 bd ef 14 aa bd
       -0.016746517 -0.084458224 -0.04743322 -0.08304774
000080 2a 3d e2 bd 26 52 8d bd 54 8a b7 bd 3e b1 ec bd
       -0.11046822 -0.06900434 -0.08961931 -0.11557244
000090 5e af 86 bd ca 58 7b bc b0 03 3c bd e9 e0 bd bc
       -0.065764174 -0.015340993 -0.045901954 -0.023178535
0000a0 33 65 c6 3b 2c 83 a7 3c cb a6 b5 3d 11 c2 d5 3d
       0.0060545444 0.02044829 0.08869704 0.10437406
0000b0 ae f5 74 3d b0 e9 03 bd e3 4e 16 3d a6 e2 09 3d
       0.05980461 -0.032205284 0.036696326 0.033663414
0000c0 eb b1 2e 3b 82 2f 1b 3d 68 18 1b 3d f9 7e 85 3b
       0.002665634 0.037887104 0.037865072 0.004073974
0000d0 92 13 4c 3d 52 1a f6 3c a6 ee fc 3d 61 8b c1 3d
       0.04982335 0.030041847 0.12350206 0.094504125
0000e0 6f 03 33 3d 36 72 01 3d e5 e3 bc 3d cc c8 00 bc
       0.043704446 0.03160306 0.09223155 -0.007860374
0000f0 06 7f 45 3c 71 2f 02 3b 7e cb ae bd bb 9b 3e 3d
       0.0120542105 0.0019864703 -0.08534907 0.046535235
000100 70 0e 0d 3d 00 af 3a bd 37 1e bc bc 9d 77 0b bd
       0.034437597 -0.04557705 -0.022963626 -0.03404962
000110 4a 70 b5 bd a5 0a 77 bd f8 10 82 bd 32 d4 84 bd
       -0.08859308 -0.060312886 -0.06350893 -0.064857855
000120 ec e1 f4 3d 81 e4 f3 3d 85 c8 ff 3c 2e 5e 60 3d
       0.11957154 0.11908818 0.031223545 0.054777317
000130 15 bc 0e 3d f3 19 de bc 68 df 8d bd df 51 a7 bd
       0.034847338 -0.027111983 -0.06927377 -0.081699125
000140 80 9f 3b bd 18 ce 0c bd 85 f9 85 bc 5f 9d 5d bc
       -0.045806408 -0.034376234 -0.016354332 -0.01352629
000150 19 b0 8e bd 47 9e 3e bd fb 5c cb bc e5 f5 5b bd
       -0.06967182 -0.046537664 -0.02482461 -0.0537013
000160 3c 53 d6 bd c7 1c 56 3c c9 20 cd 3d 95 20 93 3d
       -0.104650944 0.0130683845 0.10016019 0.07183949
000170 2f fe a4 3c 46 9b c1 3c ba 31 98 3c cf e6 1d bd
       0.020140735 0.02363361 0.018578399 -0.038550194
000180 93 14 e6 bd 80 71 a9 bd b4 b5 8f bd 19 ef 47 3e
       -0.11234393 -0.082736015 -0.07017079 0.19524802
000190 1e a3 44 3b 86 ca 09 be 97 ff 00 3e 26 50 d7 bc
       0.0030004452 -0.13456163 0.125975 -0.026283335
0001a0 8a 6f 04 be 7f cf 83 3d f3 2d bc bd e6 70 1b be
       -0.12933174 0.06436061 -0.091884516 -0.15179786
0001b0 d4 c4 72 bd b3 7a 27 3d 12 db 5f 3d dd c2 4d bd
       -0.05926974 0.0408885 0.05465228 -0.050234664
0001c0 dc 6a 43 3c 7b d4 a4 3b 76 7b 18 bd ac e5 2e 3c
       0.011927333 0.0050302125 -0.037227117 0.010674875
0001d0 a9 8f 38 bd 99 e0 04 bd f2 46 98 bc 4b df 36 bd
       -0.04505888 -0.032440756 -0.018588517 -0.044646543
0001e0 fa 1c 4b 3d 89 3c 77 3d c8 b5 8a 3d 06 db d2 3d
       0.04958818 0.060360465 0.06772953 0.10295682
0001f0 c2 32 d3 3d 90 bb 1b 3e f9 08 85 3d 4d 15 22 3d
       0.10312416 0.15208268 0.06495852 0.039571095
000200 15 48 e4 bc 03 26 05 3d a7 62 4f 3b 88 4d 8d bd
       -0.027866403 0.032506954 0.0031644495 -0.068995535
000210 37 42 66 bc 0f a5 17 bd b5 f6 56 bd 5a b3 3e bd
       -0.014053873 -0.037022647 -0.052481372 -0.04655776
000220 27 27 93 bd bf 9a 46 be 96 53 0b bc 48 10 c3 bd
       -0.07185202 -0.19394968 -0.008503815 -0.0952459
000230 40 24 47 be 3f 44 a7 3c 35 db b7 bc 02 25 c5 bc
       -0.19447422 0.020418284 -0.022443393 -0.024065498
000240 5b eb 0f 3d 31 e2 1e 3d 76 38 3f 3d 09 e6 b0 3a
       0.03513656 0.03878993 0.046684705 0.001349629
000250 f4 ec f8 3a 76 a7 84 3d 18 10 6e 3d cd 52 18 3d
       0.0018991516 0.06477253 0.058120817 0.03718834
000260 3a 2c b9 3d 4c dc 93 bc bb 95 b9 bc c3 a6 87 3d
       0.09041639 -0.018049382 -0.022654405 0.06623604
000270 ff ef 39 bc e7 fe 8d 3c 15 a2 91 3d 6e 7b 24 bd
       -0.011348723 0.017333461 0.07110993 -0.040156774
000280 d0 ff d1 bc 6a 67 27 3d ec c7 5f 3d 5d be 97 3d
       -0.025634676 0.040870108 0.05463402 0.07409356
000290 f6 49 ee 3d bb a5 a5 3d c2 fa 4e 3d 13 b4 e7 3d
       0.11635201 0.08088251 0.05053211 0.11313643
0002a0 63 0b 98 3d 47 85 12 3d 58 84 1f 3d df 5a ec 3d
       0.07424047 0.035771634 0.038944572 0.1154077
0002b0 be a5 01 3e dc 0b 9f 3d ba 5f bd 3d e4 7e b9 3d
       0.12660882 0.07765934 0.09246774 0.090574056
0002c0 b4 b2 8c 3d b7 fd 7e 3d fb e3 c5 3d 0c 84 ab 3d
       0.068700224 0.06225368 0.096626244 0.08374795
0002d0 72 3c 5a 3d d5 6b a9 3d 03 19 bc 3d b0 f4 7a 3d
       0.0532803 0.082725205 0.09184458 0.06126851
0002e0 d9 4f 8d 3d 08 4c cb 3d 6b 08 4a 3d d9 c3 50 3d
       0.06899995 0.09926611 0.049324434 0.050968025
0002f0 be 29 be 3c 28 16 6a bb 5c a8 9f 3d 28 18 46 3d
       0.023213264 -0.0035718773 0.07795784 0.04836288
000300 74 a7 5d bc ee 0b 9f 3d 77 ae cf 3d 2c 94 ac 3c
       -0.0135286935 0.07765947 0.101406984 0.021066748
000310 05 cb 8a 3d ee 17 9f 3d 13 d5 58 3d 9e 1b b9 3d
       0.06777004 0.07768236 0.05293758 0.09038471
000320 ac 93 85 3d 06 47 69 3d 9c 8b c7 3d e7 44 6a 3d
       0.06522307 0.0569525 0.09743425 0.057194617
000330 84 5e 77 3d 23 69 81 3d 5b e3 8f 3d 06 aa 3c bd
       0.06039287 0.06318881 0.070257865 -0.046060584
000340 66 c4 b2 bc 70 b6 63 3d d2 be 3b bd c9 0e 59 bc
       -0.021822166 0.055593908 -0.045836277 -0.013248154
000350 0e 43 25 3d f4 a5 55 bd c9 e0 44 b8 df 12 3d 3c
       0.04034715 -0.05216022 -4.693939e-05 0.011540144
000360 08 cd dd 3c a6 15 0f 3d 80 a9 63 3d c3 b9 4c 3c
       0.027075306 0.034932755 0.05558157 0.012495461
000370 59 ce 26 3d 05 8e c5 3d 98 3b e3 bb 46 37 21 3d
       0.040724132 0.09646229 -0.0069345944 0.039359353
000380 f4 78 89 3d 5f 41 ff bd b5 ba ec bc b4 21 0d be
       0.06712523 -0.124636404 -0.028897623 -0.13782388
000390 b2 98 0d be 63 71 f6 bc 83 1d ed bc 00 3f 8f bd
       -0.1382778 -0.030083364 -0.028944736 -0.06994438
0003a0 8e 22 a5 3c 1a 5e f3 3c 1c 3d 1c 3d ee 5d 07 3d
       0.020158079 0.029707957 0.038144216 0.033048563
0003b0 5e d5 c0 3d f3 24 d4 3b 1a 01 b4 3c 0c 98 d2 3d
       0.094156966 0.0064741313 0.021973182 0.10282907
0003c0 17 1a 90 bc 36 15 40 3c a7 3c 52 3d a8 ab cd 3b
       -0.017590566 0.011723807 0.051327374 0.0062765665
0003d0 c5 76 37 3c db 15 ff 3d 92 21 2d bd f5 4e 71 3c
       0.01119775 0.124553405 -0.042268343 0.0147282975
0003e0 80 93 b7 3d 38 bc a3 3c 81 0b 76 3d 8a 32 4b 3d
       0.0896368 0.01998721 0.060069565 0.049608745
0003f0 82 5c 9f 3d 0a f4 f3 3d d4 40 d7 3d fa 9e 1b 3d
       0.07781316 0.11911781 0.10510412 0.03799341

83 f4 [32]
000000 6c 8d 4f 3f fe 27 59 c0 93 4a ed 3e 0f de 26 bf
       0.8107517 -3.393066 0.46345958 -0.65182585
000010 7b 69 c3 3e 21 8d f1 be f5 64 03 3f 1b ad 0a c0
       0.38166413 -0.47177985 0.51325923 -2.1668155
000020 01 31 38 bf 56 b3 8c 3e 0b 62 44 be 79 73 52 bf
       -0.71949774 0.27480572 -0.19178025 -0.8220745
000030 32 08 b8 bf 62 43 8a 3f fa 22 0a 40 b2 ad 87 3f
       -1.4377501 1.0801814 2.1583848 1.0599883
000040 0d 59 e9 bf dc f8 bd 3e 4b cb 59 be ee 19 2d 3e
       -1.8230301 0.37103927 -0.21268956 0.16904423
000050 32 7c 20 be ea d5 2b bf a8 2e 1d bd aa ed 9e bf
       -0.15672377 -0.6712328 -0.038374573 -1.2416279
000060 16 b6 b9 3f 62 5c 0f bf 71 4d 8f 3e 2e dd 72 3f
       1.4508693 -0.5600034 0.2798877 0.94868743
000070 9a 2c 40 3e d2 d4 c0 bf e6 dd 24 bf b4 b9 ed 3e
       0.18767014 -1.5064948 -0.6440109 0.46430743

85 f4 [32, 32, 3, 3]
000000 ad 6c 89 bd 6c 98 52 bd ca c9 a9 3c 00 02 34 bd
       -0.067101814 -0.051414892 0.020726103 -0.04394722
000010 40 f4 00 bd fa 54 9e 3c 8a 5b f8 bc a5 72 b3 bc
       -0.031482935 0.01932763 -0.030317087 -0.021905253
000020 5d 77 02 3d f5 56 a7 3c 1a 35 ce 3c 5a 28 70 3c
       0.031852115 0.020427207 0.025171805 0.014658058
000030 83 86 99 bc 35 10 bf bb 63 b9 e4 bb 76 c8 e8 bb
       -0.018740898 -0.0058307895 -0.0069801076 -0.007103975
000040 1b 4c a7 bc 29 8a 95 3b 2b ed f1 bc 2a 5a 20 bd
       -0.020422032 0.004563589 -0.029532036 -0.039148487
000050 a4 c7 02 bd 7b 08 48 bc 8e e8 9f bb cb f4 27 bb
       -0.031928673 -0.012209053 -0.0048800176 -0.0025628086
000060 e9 59 a7 bc 18 54 e4 bc 3e 45 02 bc 90 5f 98 3b
       -0.020428615 -0.02787213 -0.007951079 0.004650064
000070 af 35 85 3b 8a 44 a4 3c 34 0f 52 3c c6 99 a5 3b
       0.0040652375 0.020052213 0.0128210075 0.0050537316
000080 0c ac 0d bc f9 56 d0 3b 23 d6 78 bb dd 0a 45 3b
       -0.008646976 0.006358024 -0.0037969432 0.003006629
000090 a2 a2 85 bc 40 9e 32 bc 3d f9 ac 3b 1c 5b 2e bc
       -0.0163129 -0.010901988 0.005278735 -0.010641839
0000a0 54 4f ef bb 83 06 5d 3c 11 19 db bc 2c fc a6 bc
       -0.007303158 0.013490322 -0.026745351 -0.020383917
0000b0 de c5 50 bc d5 0f be 3c 77 86 86 bc b3 bd 96 bb
       -0.012742488 0.023200909 -0.01642154 -0.0046002506
0000c0 e1 60 60 3d 3b 86 94 3c 20 df ea 3c ec 17 1c 3d
       0.05477989 0.018130412 0.028670847 0.03810875
0000d0 9d 52 04 3c e7 b3 39 3d 73 97 9b 3b df d7 a0 3c
       0.008076337 0.045337584 0.0047482788 0.019634185
0000e0 ca a1 95 3c 5a ef b8 3c e2 78 16 3d e4 96 01 3d
       0.018265624 0.02257507 0.036736377 0.03163804
0000f0 b1 a2 fb bc 16 eb bc bc 9f 8a 68 bc ee f4 dd 3b
       -0.030717226 -0.023061316 -0.014193206 0.0067735827
000100 c5 4b 63 3c 21 9a 97 3c e6 0a 0d bc 54 d8 5b 3c
       0.013873045 0.018506112 -0.008608555 0.013418276
000110 a7 cc c6 3c 80 e6 04 3c 78 34 cd 3c cc f2 43 3d
       0.024267508 0.008111596 0.025049433 0.04783897
000120 d5 eb 5c bd 69 ce 77 bc 3d 68 3a 3c c9 9d 39 bb
       -0.053935844 -0.015124896 0.011377391 -0.0028322807
000130 3f 90 aa 3c 14 83 ac 3d 20 fb 60 bb 8f 97 51 3c
       0.020820735 0.08423439 -0.003432937 0.012792482
000140 22 73 94 3d fa 5e 01 bd b2 05 d5 bc 21 50 99 ba
       0.07248522 -0.031584717 -0.026003692 -0.0011696854
000150 9d 5f ac bc 9f 44 49 3b 6b f1 08 3c 6c 07 96 bc
       -0.021041686 0.0030711067 0.00835834 -0.018314086
000160 84 67 58 3c 0d ab e3 3c 76 a1 d1 bc 75 4a ed 3c
       0.013208274 0.027791524 -0.025589686 0.028966168
000170 09 44 99 3d 3d 01 57 bd c1 90 6a 3c 0c 75 1a 3d
       0.0748368 -0.052491415 0.014316739 0.03770928
000180 dd 48 04 bd 54 f9 8b bb 1e 42 29 3d ce 58 90 bc
       -0.03229605 -0.0042716656 0.04132282 -0.01762047
000190 7d 27 aa 3b d0 1b 04 bb fa 0d 8f bb b6 45 98 3c
       0.0051926957 -0.002015818 -0.00436568 0.018587928
0001a0 49 22 53 3c ac 05 a4 3c 6b d3 33 3d eb 60 0c 3d
       0.012886592 0.020022236 0.043902796 0.034272116
0001b0 a3 b7 3d bc 5e 1e b8 bc 91 59 ca 3b e6 cb ae bc
       -0.011579427 -0.022475418 0.006175228 -0.02133746
0001c0 c9 93 bd bc fb 98 1c bc 1f 40 1e bb 12 8e 92 bc
       -0.023141759 -0.009557958 -0.0024147106 -0.01789001
0001d0 b8 67 3e 3c 52 d8 5d bd a9 e9 c2 bc f4 fc 69 bc
       0.011621408 -0.054161377 -0.023793058 -0.0142815
0001e0 c4 60 ae bc d7 f7 c0 bb 67 b5 c4 ba 1e cb 19 bd
       -0.021286376 -0.00588892 -0.0015007675 -0.037547223
0001f0 62 a6 94 bc 27 8e 70 3b 4a be 5a bb 42 07 c5 bc
       -0.018145744 0.0036705823 -0.0033377581 -0.024051312
000200 3d d7 31 3a a4 e7 11 3c 83 44 41 3b 7e d0 bb 3c
       0.0006784087 0.008905325 0.00294903 0.022926565
000210 94 02 84 3c 8a 09 e0 3c 52 22 7c 3c c3 de 17 bb
       0.01611451 0.027348299 0.015389042 -0.0023173548
000220 ce 4d 2e bc c4 8a a8 3b fa 42 7f bc d7 e9 00 3c
       -0.010638667 0.0051434953 -0.015579933 0.007868252
000230 de 22 30 3c b4 b2 53 bd 0b d0 91 bc 76 43 9d bb
       0.0107505005 -0.051684096 -0.017799398 -0.0047993017
000240 34 bd dc bc 9f b8 df bb c2 5a 87 bb d1 f7 9b 3c
       -0.026945688 -0.0068274285 -0.004130692 0.019039067
000250 26 45 98 3b 53 1d dd 3c 7e 82 c2 3c bd 55 f2 3c
       0.004646915 0.026991522 0.023743864 0.029581899
000260 3d 3c 46 3d f5 ea 39 bd 12 37 0a bd 91 d9 e1 bc
       0.04839729 -0.045390088 -0.033743925 -0.027569564
000270 19 c0 05 bd 84 90 0b bd 4b ad e0 bc 35 7b 25 bd
       -0.0326539 -0.034073368 -0.027426383 -0.040400703
000280 06 df 30 bd 66 ec 15 bd 6a 55 10 bd 5e f6 1b bc
       -0.04318144 -0.0366024 -0.035237707 -0.009519188
000290 4e 65 a9 b9 df a8 3b bd 97 a7 fb bc 53 23 42 bc
       -0.0003230967 -0.045815345 -0.030719562 -0.011849242
0002a0 fa 69 5a bd b9 ad 2b bd 7b bc c2 bb 38 9b 47 bb
       -0.053323723 -0.04191372 -0.005942879 -0.0030457508
0002b0 b8 03 96 bc 7f f8 12 bd 15 51 0d 3c 8c d7 92 bc
       -0.01831232 -0.035881516 0.0086252885 -0.017925046
0002c0 19 fc 36 bc fc 7b 33 bd a0 da 1e bd b8 d7 db bc
       -0.011168503 -0.043819413 -0.038782716 -0.026836261
0002d0 4b 83 b6 bc ab 22 49 39 b2 a2 b5 bc 2a 30 2d bc
       -0.022279402 0.00019181769 -0.022172306 -0.010570565
0002e0 b8 b7 10 3d 13 d9 2c 3b 2f d0 de bc 0e 9f e5 ba
       0.035331458 0.0026374504 -0.027198879 -0.0017518715
0002f0 97 99 b1 bb 1e a8 9f 3c 3d 46 1e 3b c7 a6 c6 3c
       -0.0054199207 0.019489344 0.0024150752 0.024249448
000300 2d bc 7c 39 09 17 bc bc c7 ce 27 3c 6e ee b2 3c
       0.00024102694 -0.022960203 0.010242171 0.021842208
000310 21 f5 db bc d6 ac a1 3a 21 c7 1a bd 9f e5 fd bc
       -0.026850285 0.0012334834 -0.03778756 -0.030993281
000320 b5 d2 f3 bc 38 4c cf bc 8a 33 d1 bb ac 57 22 bb
       -0.029763559 -0.025304899 -0.0063843178 -0.0024771495
000330 52 0f 2b bd 5f c1 e8 bc 4c 78 19 bc a4 52 0d bc
       -0.041762657 -0.028412519 -0.00936706 -0.00862566
000340 5d 43 16 3d 23 c3 85 3d e9 ae 7b bd 85 83 05 bd
       0.036685336 0.0653136 -0.061446104 -0.03259613
000350 76 13 dc bc c7 2e e2 3b ee 92 81 3d b1 9b 49 3d
       -0.026864748 0.006902549 0.06326853 0.049220745
000360 b5 43 49 3c c9 7d 01 bc 6f 35 0c bc 5a 48 71 3c
       0.012284209 -0.007903525 -0.008557661 0.014726723
000370 1e a6 11 3c d5 78 f2 3a 1c 9f 9b 3a 34 5b 5c 3c
       0.008889703 0.0018499146 0.001187298 0.013449479
000380 89 64 65 3c af 31 f0 bc ee fd 4c 3d 16 06 54 3d
       0.01400102 -0.029320566 0.050046854 0.051763617
000390 ee 84 05 bd 6f 8b 78 3d 35 73 28 3d 80 e9 3a bd
       -0.032597475 0.06067985 0.041125495 -0.04563284
0003a0 98 53 17 3d 3a 6a 4e 3d 95 26 e0 3b 5f 14 91 3b
       0.036944956 0.050394274 0.006840537 0.0044274773
0003b0 a7 cf 28 bb 09 60 5a 3c f2 62 b4 ba 05 5a 56 bc
       -0.0025758536 0.013328561 -0.0013762398 -0.013082986
0003c0 58 9e 13 3c ba 9c 11 ba 72 30 e1 bb be 2f 20 bc
       0.00900992 -0.0005554665 -0.00687223 -0.009777008
0003d0 b7 89 45 bc 80 06 89 bc d8 39 47 3c 0e 06 49 3d
       -0.01205676 -0.016726732 0.012159787 0.04907804
0003e0 00 ec fd 3c b9 f4 8b bc 5a 2c bb 3c 44 b0 c1 3c
       0.030996323 -0.017084466 0.022848297 0.02364362
0003f0 55 68 b8 3c 44 52 24 3c 64 2c bb ba 9b 5e 5f 3c
       0.022510687 0.010029379 -0.0014280197 0.013633396

86 f4 [32]
000000 a4 9b d7 bd 40 fe ad bd 5e b9 6d be 9c 76 f9 3d
       -0.10527733 -0.0849576 -0.23215243 0.12180826
000010 60 d2 48 bc f8 ac 2f be 7a 14 82 3e 98 49 ce bd
       -0.012257189 -0.17155826 0.25406247 -0.10072631
000020 ff c3 97 bf ca 23 05 be b8 a4 8c bd ee d4 3d 3f
       -1.1856688 -0.13001934 -0.06867355 0.7415303
000030 4f 58 f7 be ac 0b f6 3e ea 3b 8c bf 3a 13 39 bf
       -0.48309562 0.4805578 -1.0955784 -0.7229496
000040 dd 8d e3 3e 37 7e 08 3f 9b 04 0e 3f cd a6 cc bf
       0.4444417 0.5331759 0.5547578 -1.5988404
000050 1d e2 69 3f 32 de 07 3f f2 90 41 bf a5 1d 47 3f
       0.91360646 0.5307342 -0.75611794 0.7777961
000060 1b 27 bc bd e0 a8 7a 3f d4 00 0b 3e f4 d4 7d 3e
       -0.09187146 0.9791393 0.13574535 0.24788266
000070 6a 34 80 3f 9a ba b4 3f d8 b0 e9 3e 5b cb 0f be
       1.0015996 1.4119446 0.45642734 -0.14042418

88 f4 [32, 16, 1, 1]
000000 19 57 00 be 1f 23 7d 3e c5 a9 a3 be 1a 44 8e 3e
       -0.12533225 0.24720429 -0.3196546 0.27786332
000010 65 8f 6f be 64 af 4e 3e 42 fd a3 3e 8c 52 0d 3e
       -0.23394544 0.20184094 0.32029158 0.1380102
000020 77 09 c5 3e a4 eb 02 be ca 73 6b 3e 20 d9 c8 3e
       0.38483784 -0.12785202 0.22993389 0.39228153
000030 cb 50 aa 3d 06 fe c1 3d 20 cb 4f 3e 81 2d ca 3d
       0.08316191 0.09472279 0.2029233 0.098719604
000040 80 24 d2 be cf e6 ad 3e aa 0c 25 3f b3 5e d2 bd
       -0.41043472 0.33965155 0.6447245 -0.10271969
000050 7a 80 46 3d fa 37 24 3f 8e 40 17 bf 85 b2 03 bf
       0.04846237 0.64147913 -0.5908288 -0.51444274
000060 c3 a4 c2 be 87 27 09 bf 6c 0e 7d 3d 51 bf 69 be
       -0.38016328 -0.5357594 0.061781332 -0.22826888
000070 8c 94 29 3d 0f 14 84 3e 65 63 28 be 8c 4d 37 3f
       0.04140143 0.25796553 -0.16444166 0.716027
000080 f9 58 4a 3f b0 b4 d5 3e ee a2 b6 bd 98 d5 a2 3d
       0.7904201 0.41739416 -0.08917795 0.07950896
000090 86 8d 9c 3e d9 d1 e6 be 71 f9 a2 be ff ae 1f 3d
       0.30576724 -0.45081976 -0.31830934 0.03898525
0000a0 38 ed 2c bd f8 ac 1d 3f 2a f4 ab 3e 0e e6 a9 bd
       -0.042218417 0.61592054 0.3358472 -0.082958326
0000b0 a2 a1 65 be a1 ba 7c bd df 5d 1a 3e 72 08 ef be
       -0.2242494 -0.06170142 0.15074871 -0.4668613
0000c0 73 cb 36 3e 9b 67 7b 3e db 4e 42 3e 86 c0 46 be
       0.17851047 0.24551241 0.18975393 -0.1940938
0000d0 a0 e2 19 3c 50 fa eb 3e 88 16 d2 be dd 1f 10 be
       0.0093924105 0.4608941 -0.41032815 -0.14074655
0000e0 73 fe 8b 3e dc 95 a7 be 96 a5 0a bd 02 46 0d bf
       0.27342567 -0.3273152 -0.03384932 -0.5518495
0000f0 a3 26 63 3e 7b e8 b4 3e a8 c7 90 3e aa f6 77 3e
       0.22182707 0.3533362 0.28277326 0.24215189
000100 91 00 18 3f c5 d6 97 3e c4 76 4c bd 1d 34 de be
       0.59375864 0.29656044 -0.04991795 -0.43399134
000110 74 82 a2 be 52 db 01 bf 72 ad 62 be 7e f6 33 3e
       -0.31740153 -0.5072528 -0.22136477 0.17574498
000120 15 7b b9 3e 96 f9 e6 3e e0 11 83 3e 97 95 94 3e
       0.36226717 0.45112294 0.25599575 0.29020378
000130 d7 50 4a be 09 a9 46 bc 8b 05 be bc 71 8c 04 bf
       -0.197574 -0.012125262 -0.023196002 -0.51776797
000140 51 f3 95 3d 4b ff b8 be ba 39 d9 be 51 29 25 be
       0.073217995 -0.36132273 -0.42426854 -0.16129042
000150 6d 39 d6 be 7e 5d fe be 16 40 03 bf e7 f9 7e bd
       -0.41840687 -0.49680704 -0.5126966 -0.062250044
000160 47 04 50 3d 7a 93 6a 3e 52 86 95 be 5e 61 97 bd
       0.05078533 0.2290782 -0.2920404 -0.07391618
000170 5d fe 22 bd 46 b0 80 be 00 34 ee bc 3d 33 13 3d
       -0.03979336 -0.25134486 -0.02907753 0.035937537
000180 5f da b9 bc 2a ec 0d be 0d dd 5f be f5 b7 25 be
       -0.022687135 -0.1385962 -0.21861668 -0.16183455
000190 67 a4 88 be e9 f4 b4 be fe 8f 89 be 9f 4a 99 3d
       -0.2668793 -0.35343102 -0.2686767 0.07484936
0001a0 6e 07 13 be e7 41 2c bd 56 a3 92 3d 67 48 00 be
       -0.14358303 -0.042055037 0.0716006 -0.1252762
0001b0 37 78 17 bd ff d4 cd be ad e1 1a 3b 1f e0 2b 3e
       -0.03697988 -0.40201566 0.0023633048 0.16784714
0001c0 d8 da 62 3e 5e b6 d7 3c d6 61 2f 3e a0 49 0e bd
       0.22153795 0.026332077 0.17127165 -0.034738183
0001d0 a0 04 92 3e 0c 64 69 3e af 5c 0e be 80 bb 51 be
       0.28519154 0.22792071 -0.13902543 -0.20481682
0001e0 f2 66 61 be 21 cd 20 3e 8c fb 06 be 29 57 b0 3e
       -0.22011927 0.1570325 -0.13181895 0.34441498
0001f0 78 d1 00 bd c8 a9 49 bd d6 3c 99 bd dc 59 06 bf
       -0.031449765 -0.04923418 -0.07482307 -0.52480865
000200 59 16 c0 be 40 25 77 be e0 a1 8d be a5 58 b1 3d
       -0.3751705 -0.24135303 -0.27662563 0.08659486
000210 d7 83 1c bd 9b 31 c5 3c 61 82 a2 3e e4 f0 2e be
       -0.03821167 0.024071505 0.31740096 -0.1708408
000220 84 25 0b be 4a ce 03 be 8a cc ac be 50 58 90 be
       -0.1358853 -0.12871662 -0.337498 -0.28192377
000230 16 72 49 bd cd 0d e3 bd c9 0e ad be 85 6c 7a be
       -0.049181066 -0.11086617 -0.33800343 -0.2445546
000240 a0 c2 01 be 09 bc 56 3e 56 98 42 be d1 35 b1 3d
       -0.126719 0.20970167 -0.19003424 0.08652843
000250 2b 9e 1d be 80 d0 95 bd fd 06 3a be 66 bd 26 3e
       -0.15392368 -0.07315159 -0.18166728 0.16283187
000260 fe 11 0b 3e d3 66 aa be 4b c9 77 3e 54 95 a3 3d
       0.13581082 -0.33281574 0.24197881 0.079874665
000270 b5 24 7c 3e 91 a7 de bc ea e7 9f 3e b1 3d b2 3d
       0.24623378 -0.027179511 0.31231624 0.08703173
000280 b6 db df 3d f1 5a 51 3c 78 de d7 3e c3 13 b7 3d
       0.109305784 0.01277803 0.42161918 0.08939316
000290 8f 08 27 bd d7 71 fb bd 02 64 54 be 9b d2 d5 3d
       -0.040779646 -0.122775726 -0.20741275 0.104405604
0002a0 b0 39 1a 3e 06 27 99 3c e0 0a d5 3e f5 cd fd 3d
       0.15061069 0.018695366 0.4160986 0.12392799
0002b0 ad 91 06 3d 9d c5 48 bf 0b 5e 53 3e c7 5f be 3d
       0.03285377 -0.78426534 0.20641343 0.09295612
0002c0 bc 83 ff 3e 28 52 8e be 9d 90 63 bd db 29 81 3e
       0.49905193 -0.27797055 -0.055557836 0.25227246
0002d0 d6 75 a5 3e 10 52 80 3d b7 16 e2 3d 98 1c dd 3d
       0.32316464 0.06265652 0.11039489 0.107964694
0002e0 22 57 ca 3d d2 3d d4 3e b7 bb 52 be 74 1b 16 3f
       0.098799005 0.41453415 -0.2057942 0.5863564
0002f0 c9 55 63 be cb 16 74 3d dd 6c ae be d0 02 b3 be
       -0.22200693 0.05959205 -0.3406743 -0.34963083
000300 d7 12 cf 3d c3 76 f2 3e a2 a2 43 bd 85 7b 38 3e
       0.10111015 0.47356233 -0.04776252 0.18015869
000310 ee 1d 90 be 77 d9 d0 bc 9b 26 94 3d f8 e8 06 3b
       -0.28147835 -0.02549432 0.07233926 0.0020585638
000320 da 48 49 3e c9 db 5c 3d f9 b6 81 bc e6 39 f1 be
       0.19656697 0.05392054 -0.015834318 -0.47114486
000330 09 8d 68 bd df 49 f4 be 1c c1 b3 3e cd db 83 3e
       -0.056775127 -0.4771261 0.35108268 0.25753632
000340 e9 cf b0 bc 89 c6 fc bd f5 c6 c3 be ae d7 93 be
       -0.021583514 -0.12342555 -0.3823773 -0.28875488
000350 fa 0d f2 be 6b c1 71 be c4 ed c5 be 22 f4 ad 3d
       -0.47276288 -0.2360894 -0.38657963 0.0849383
000360 14 90 9c bd 2e 6f 8e 3e 43 de 14 be c2 f6 42 3e
       -0.07644668 0.27819198 -0.14537911 0.19039443
000370 8e 96 a7 bd a0 a9 01 bf 54 6b 87 3d 31 1b 8a 3e
       -0.08183013 -0.5064945 0.06612268 0.2697387
000380 82 f2 69 bf 80 1a f4 3d eb 58 49 3e ab ff e7 be
       -0.9138566 0.11919117 0.19662826 -0.45312247
000390 be f6 89 be 70 f0 d9 3d 70 f4 e8 bc c7 66 8a be
       -0.26946062 0.10641563 -0.02843687 -0.27031538
0003a0 17 85 01 3c 56 1e 68 be 07 24 c1 3e b4 fd 75 3e
       0.007905266 -0.22667822 0.377228 0.24022561
0003b0 20 04 5b 3e 83 ca ad be 95 44 00 3d ca 76 01 bf
       0.21388292 -0.33943567 0.031315405 -0.5057188
0003c0 82 f2 cd 3b 9b a1 d2 3d bc 8a 46 be 8c 4d bc 3d
       0.0062850127 0.1028473 -0.1938886 0.091944784
0003d0 a2 e3 a2 bd 54 79 e7 3d 6a 3f 0b 3e b9 04 38 3e
       -0.07953574 0.113024384 0.1359841 0.17970552
0003e0 4c 96 15 3f 67 f9 5a bd 1e 8c b2 3e 1d d9 27 3e
       0.5843246 -0.053460505 0.34872526 0.16391416
0003f0 2f d4 f6 bd e5 4b 31 3e 9c 21 9a 3e 66 fc 9a 3c
       -0.120521896 0.17314108 0.30103767 0.018919181

89 f4 [32]
000000 79 de 9e bf f2 ed 54 be 81 5f b7 bf e8 b2 44 bf
       -1.2411643 -0.20793894 -1.432602 -0.7683549
000010 f0 7a fc be 95 70 bb 3f dc ff 85 3f 8d c0 67 bf
       -0.49312544 1.4643732 1.0468707 -0.90528184
000020 70 a2 b1 3f 2c fb 6a bd cb 52 99 be 02 75 dd bf
       1.3877697 -0.057368442 -0.2994598 -1.7301333
000030 e4 12 a8 3e b8 85 81 3f 29 25 a0 3f d6 b2 de bf
       0.32826912 1.0118933 1.251134 -1.7398326
000040 e0 46 fa bf c4 79 c6 be 06 46 c1 3f fe 64 ba bf
       -1.9552879 -0.38764775 1.5099494 -1.456207
000050 55 78 97 3f c0 93 80 3f f8 c9 0d bf 10 f3 ad 3f
       1.1833597 1.004509 -0.55386305 1.3589802
000060 93 b6 06 40 4d 15 0d be 77 27 87 bf 8c b6 e9 bd
       2.1048934 -0.13777657 -1.0558919 -0.11411771
000070 e3 26 3b 3f ad fb d3 bf 2a 74 a5 3f 29 77 6b bf
       0.7310621 -1.656118 1.2926075 -0.919787

91 f4 [64, 32, 3, 3]
000000 12 87 0e bd 56 7e 98 3c 12 45 65 3c d3 57 66 bd
       -0.03479678 0.01861493 0.013993518 -0.0562361
000010 01 7c cb b9 53 92 92 bc 25 e9 ce bc 34 55 e6 3c
       -0.00038811567 -0.017892038 -0.025257656 0.0281168
000020 39 d8 34 3d bd 39 88 bc 4e 9c ee bc b3 ac df bc
       0.04415152 -0.016629094 -0.029127266 -0.02730403
000030 52 c7 bf 3a ad 74 35 bb df 55 16 bc 88 2b 30 bd
       0.0014631546 -0.0027687952 -0.009175747 -0.043010265
000040 09 5b d8 bc 28 c3 a3 bc c6 08 39 bc db a9 13 bc
       -0.026410596 -0.019990519 -0.011293596 -0.009012665
000050 a9 ed f8 bc 5a fa a9 bc fc 91 e1 bc 9d 92 98 bd
       -0.030386763 -0.02074926 -0.027535431 -0.07449839
000060 3a 86 87 bd 2d 21 9e bd cb 50 e2 bd d8 d9 23 bd
       -0.066173986 -0.077211715 -0.11050566 -0.040002674
000070 f3 bf 01 bd 5e 74 ce 3c a4 a7 22 bd b5 44 27 3d
       -0.031677198 0.025201973 -0.039710656 0.04083701
000080 62 74 40 3c a9 07 86 bd f3 a0 02 bd d4 16 09 3c
       0.011746498 -0.0654443 -0.031891774 0.008367259
000090 23 68 d6 3c dd d7 9e 3d bc d3 98 bc a7 61 ee 3b
       0.026172703 0.077560164 -0.01865565 0.0072748247
0000a0 cb f1 8b 3d ef eb b5 bb 89 87 a1 3c 9a 8d 84 3d
       0.06833228 -0.005551807 0.019717949 0.06472321
0000b0 85 dd 9a bc 76 9f 8f bd ff 66 73 bc f9 60 dc bc
       -0.018904457 -0.07012837 -0.014856099 -0.026901709
0000c0 04 45 11 bd 40 08 22 b6 6f b0 4a bc 70 c4 c2 bc
       -0.03546621 -2.4144683e-06 -0.012371167 -0.02377531
0000d0 7d 47 4e 3c 9f f2 a8 3b 54 c4 4f bd f7 b6 a9 bd
       0.012590286 0.005155876 -0.050724342 -0.08286851
0000e0 ce b6 0d bd a3 cf 5f bd dc 39 a0 bd 86 2a 12 bd
       -0.034598164 -0.054641377 -0.07823536 -0.035685085
0000f0 76 c2 b8 ba e7 11 8a bd 6a ed 81 bc 25 f6 99 3b
       -0.001409604 -0.06741696 -0.015860278 0.004698532
000100 3d 14 b1 3d c5 06 97 3d d3 09 08 bc 1c fd 1a 3d
       0.08646438 0.07374338 -0.0083031235 0.03783904
000110 d2 12 7d 3b 0d 6e b7 bc 1e e2 ab 3c bc bd 7a 3c
       0.0038615954 -0.022391343 0.020981845 0.015304025
000120 07 ca 4c bd ad c2 28 bd cb 0b b2 3a 54 20 6f b9
       -0.049997356 -0.041201282 0.0013583837 -0.0002280486
000130 f8 74 de bb 8a 29 09 3c e6 62 c0 bc db 2e 4b bc
       -0.006788846 0.00837172 -0.023484658 -0.012401308
000140 11 67 64 3a 98 87 a3 bc 94 4c fc bb 7c 46 0b bc
       0.0008712868 -0.019962117 -0.0076995585 -0.0085006915
000150 34 c5 68 bc 1b 0c 68 ba cc 37 c8 3b 58 79 b0 bc
       -0.014207173 -0.00088519015 0.006110167 -0.021542236
000160 a5 40 90 3b 41 92 00 3d e2 ea 65 bd c5 a8 82 bc
       0.0044022375 0.03138948 -0.056132205 -0.015949616
000170 b8 7c aa 39 1a a0 82 bd 93 49 14 3b 80 56 be 3c
       0.0003251785 -0.06378193 0.0022626861 0.023234606
000180 b7 2b 01 3a cd ed 52 3d fa 8d 65 3d 22 60 1c 3d
       0.00049274735 0.051496316 0.056043603 0.038177617
000190 93 f9 1e 3e 1c 44 62 3d 3f 08 12 3d 53 64 f3 3d
       0.15524893 0.055240735 0.035652395 0.1188437
0001a0 59 db 57 3c 89 89 36 bc 1f ee be 3d d3 d8 0c bd
       0.013174855 -0.011141189 0.09322762 -0.034386467
0001b0 79 f2 89 3c de 59 92 bd 3f 61 a4 3b 87 5e 8c bd
       0.016839253 -0.07146047 0.0050164755 -0.06853967
0001c0 2e cb 4a bd 61 ce ec 3c 3a 70 90 bd 2a 46 db bb
       -0.049510173 0.028907003 -0.070526555 -0.006691714
0001d0 06 81 8e 3d 1e 80 53 bd bd c9 59 3c 83 93 64 bb
       0.06958203 -0.051635854 0.013292727 -0.0034877963
0001e0 ed b6 24 bd e8 09 1e bc ca 74 b2 bc 24 73 c3 bb
       -0.040213514 -0.0096459165 -0.021784205 -0.0059646536
0001f0 3e b2 8f ba da b5 84 bb 59 32 0c bd ab bc b1 3c
       -0.0010963154 -0.0040499987 -0.034227703 0.02169641
000200 b5 83 f0 bb 0e 3d 0e bd 74 9d 0a 3d 9d 02 0b 3c
       -0.0073399195 -0.034726195 0.033841565 0.00848451
000210 60 0e 51 bc 9b b0 b8 3d a2 0f 69 3d 09 a7 39 bc
       -0.012759775 0.0901806 0.056899674 -0.011331328
000220 76 ec d2 3b 85 3c 39 3d 25 13 ce bc 7b 5e b8 3b
       0.0064368797 0.04522373 -0.025155613 0.0056264973
000230 b5 31 11 3c 76 bf 10 bd 8e c3 3d b9 6f 48 bc 3c
       0.008861949 -0.03533884 -0.00018097294 0.022983758
000240 a4 8b 03 bb a0 05 e8 3c 13 e0 2d 3d b0 b9 bb bc
       -0.0020072246 0.028322995 0.042450022 -0.022915691
000250 a5 3b a5 3c 6f d6 9e bb c6 1f 70 bd b4 ad 69 3b
       0.020170042 -0.00484734 -0.05862405 0.0035656514
000260 fb a6 03 bd 9a 0e 20 3c 39 b9 6b 3c 50 6d c0 3c
       -0.032141667 0.009769106 0.014387422 0.023489624
000270 e9 bc 5c bc 98 cb 2e 3d ba 84 62 3c fd c3 a1 bb
       -0.013472774 0.04267463 0.01382559 -0.0049366937
000280 5e ed 82 3c 02 2b 8e 3d f4 c3 77 3c d6 2b ff 3b
       0.015982326 0.06941797 0.015122402 0.007787208
000290 36 66 d1 bc 9b 4e 88 bc cf 1e 95 bc 32 1c 97 bd
       -0.025561433 -0.016639045 -0.018203167 -0.07378425
0002a0 aa ee 2a 3b c1 ec a4 bc d9 9f 36 bd 5a 28 05 bd
       0.0026082196 -0.020132424 -0.044586036 -0.032509185
0002b0 d0 8a 5a 3a 40 6b 1c 3d 54 6c 68 bd 14 cf a7 bc
       0.0008336725 0.03818822 -0.056743935 -0.020484485
0002c0 99 f3 03 3d b1 4a af bd 11 f5 84 bd 53 ad 45 bc
       0.032214735 -0.08559168 -0.06492055 -0.0120652495
0002d0 d3 21 d2 bb d5 79 d2 3d 11 54 05 3c 46 fe 6d 3c
       -0.0064127236 0.10277144 0.008137719 0.014525956
0002e0 e4 22 dc 3d f5 f2 ad 3c 69 0b e7 3c 96 91 b2 3d
       0.10748842 0.021234015 0.028203683 0.087191746
0002f0 2a e3 fa bb ea e9 99 bd 9e 78 65 bd ce 92 3c bd
       -0.0076564746 -0.07515319 -0.056023233 -0.04603844
000300 f8 2a 88 bd 0c 48 c0 bd 6a 32 c7 bc c5 56 d7 bc
       -0.06648821 -0.09388742 -0.024316031 -0.026286492
000310 62 e8 95 bd 80 da 91 3a 0c f1 92 bc 63 e9 9a 3c
       -0.07319714 0.001112774 -0.017937206 0.018910116
000320 bf c8 1d 3c a1 67 51 bd 34 c3 98 3c 33 36 2c 39
       0.009630381 -0.05112422 0.018647768 0.00016423389
000330 a0 93 f4 bc ae 6f 92 3d c8 ec 76 3d 41 01 9e bd
       -0.02985555 0.071502075 0.060284406 -0.07715083
000340 2c 2a b4 bd 6d c6 36 bd 06 ac 95 bd 86 f5 09 be
       -0.08797106 -0.044622827 -0.073082015 -0.13472566
000350 95 2a c1 bc 3c 81 6d bd 4e 0d f5 bd e7 38 06 bd
       -0.023579875 -0.057984576 -0.11965428 -0.03276911
000360 ba 29 23 bd b4 b4 89 bd e7 5a a0 bc 0d ef 84 bd
       -0.039834715 -0.067239195 -0.019574596 -0.06490908
000370 b3 6b 41 bd ea df ea bc 6e 08 46 bd e5 58 ce bc
       -0.04722185 -0.028671224 -0.048347883 -0.025188873
000380 f9 e9 01 3b ae e1 f7 bd 2b e6 82 bd 6c 02 74 bd
       0.0019823296 -0.12103592 -0.06391557 -0.059572622
000390 f2 e8 93 bd 8b 6d 23 bd 24 e6 f4 bc ef 9a 0e bd
       -0.07222165 -0.03989939 -0.029894896 -0.034815725
0003a0 47 18 52 bc 64 09 be ba f9 da a6 3c 75 a1 89 3d
       -0.012823171 -0.0014498648 0.020368086 0.067202486
0003b0 97 d7 12 3d 9e f4 f7 3b ea d0 34 3d 15 2b a3 3c
       0.035850134 0.0075670024 0.04414455 0.019918004
0003c0 43 6d 3b 3b 08 01 70 3d a4 d2 1c 3b 30 45 56 3d
       0.002859906 0.058594733 0.0023929263 0.052312076
0003d0 82 27 71 3d 1a 84 9b bc d3 f0 e0 3c 63 e2 c6 3c
       0.05887557 -0.01898389 0.027458584 0.024277871
0003e0 ad 60 2b bd c5 81 d1 3c 56 bc bb 3c ac 70 37 bc
       -0.041840244 0.025574574 0.022916954 -0.011196297
0003f0 65 89 b5 bc 15 35 28 3d 18 eb 58 bc b5 c5 d9 bb
       -0.022160241 0.041066248 -0.0132396445 -0.006645883

92 f4 [64]
000000 52 22 20 be cd 70 3a 3f 00 9b c2 3e c7 8a 82 3e
       -0.15638092 0.7282837 0.3800888 0.25496504
000010 da 60 53 be 9e 6e 03 bf e6 ef 2d bf c6 bd 31 bf
       -0.20642415 -0.51340663 -0.6794418 -0.69430196
000020 4d 65 20 bf 23 3f 96 3f 6c f9 93 3f b9 60 07 bf
       -0.6265457 1.1738018 1.1560493 -0.5288196
000030 3a 9d 1f bf 96 c1 07 3f 3f 72 22 bf 29 eb d5 3f
       -0.62349284 0.53029764 -0.63455576 1.671239
000040 d6 e1 ca 3e 53 6a 45 bf 5a ab 69 3f 9c 17 1f 3f
       0.39625424 -0.7711536 0.91277087 0.621454
000050 d1 94 fa be ce 12 90 3f 20 5a 0a 3d 9f 01 28 bf
       -0.48941663 1.1255739 0.033777356 -0.65627474
000060 b4 aa 64 bf 92 ea e2 bd b3 9d 99 3f fa 76 8c bf
       -0.8932297 -0.11079897 1.2001251 -1.0973809
000070 b4 23 2b 3e 0c ac a6 3f 1c 3f 30 bf 8e 9d 8e 3e
       0.16712838 1.3021255 -0.688463 0.2785458
000080 56 57 5c 3e 60 62 c7 3e 6e e4 a2 be 7e 81 3f be
       0.21517691 0.38942242 -0.31814903 -0.18701741
000090 45 47 88 3f 36 2b 14 bf a4 d2 a3 3d 5c 45 8d 3e
       1.064675 -0.57878435 0.07999161 0.2759198
0000a0 36 a7 66 3f c7 e4 f3 be a6 e2 72 bf e8 8a 70 bf
       0.90098894 -0.4763548 -0.9487709 -0.93961954
0000b0 be d8 94 bf cf ae 08 3f 0e 22 28 bf 58 7c 14 bf
       -1.1628644 0.53391737 -0.65676963 -0.58002234
0000c0 c2 06 80 3d d9 81 1e 3f f0 8b f2 3c 68 e8 92 3f
       0.06251289 0.6191688 0.029607743 1.1477175
0000d0 3c 2d 1c bf 18 c6 60 3f 78 0e 40 bf 31 19 75 3f
       -0.6100652 0.8780227 -0.7502208 0.95741564
0000e0 e7 74 1e bf 0e 1a 57 bf 1d 71 1e 3f ee f0 8a 3f
       -0.6189713 -0.8402413 0.6189135 1.0854776
0000f0 f4 20 0c bf 28 c8 cf 3e 26 bd 8d 3f 16 b8 39 bf
       -0.5473778 0.40582395 1.1073349 -0.7254652
