model/lion_with_mane_on_its_neck.onnx (onnx, 301496 bytes, 16 tensors)

fc.weight f4 [2, 256]
0	0xbd80091e	-0.06251739
1	0xbd6f83e5	-0.058475394
2	0xbd74fba0	-0.05981028
3	0xbd670ec2	-0.05641056
4	0xbe60291b	-0.2189068
5	0xbe5cae97	-0.21550976
6	0xbe487eb6	-0.19579586
7	0xbe3bcb26	-0.18339214
8	0x800019ea	-9.296e-42
9	0x800019ea	-9.296e-42
10	0x800019ea	-9.296e-42
11	0x800019ea	-9.296e-42
12	0x93310573	-2.2343228e-27
13	0x93310573	-2.2343228e-27
14	0x93310573	-2.2343228e-27
15	0x93310573	-2.2343228e-27
16	0x3e1e32d5	0.15449078
17	0x3e31174e	0.17294046
18	0x3e05cca0	0.1306634
19	0x3e24a4a1	0.16078426
20	0x3df65b23	0.12029102
21	0x3e225441	0.15852453
22	0x3de9b605	0.114116706
23	0x3e050f59	0.12994136
24	0x80001432	-7.245e-42
25	0x80001432	-7.245e-42
26	0x80001432	-7.245e-42
27	0x80001432	-7.245e-42
28	0x962376f2	-1.3204568e-25
29	0x962376f2	-1.3204568e-25
30	0x962376f2	-1.3204568e-25
31	0x962376f2	-1.3204568e-25
32	0x3dd3fb62	0.10350682
33	0x3dbef9fc	0.093250245
34	0x3df5833e	0.11987923
35	0x3dff289e	0.12458919
36	0x99755cfe	-1.2684983e-23
37	0x99755cfe	-1.2684983e-23
38	0x99755cfe	-1.2684983e-23
39	0x99755cfe	-1.2684983e-23
40	0x39202e65	0.00015276072
41	0x39202e65	0.00015276072
42	0x39202e65	0.00015276072
43	0x39202e69	0.00015276078
44	0x194996b2	1.0421889e-23
45	0x194996b2	1.0421889e-23
46	0x194996b2	1.0421889e-23
47	0x194996b2	1.0421889e-23
48	0x3dda9492	0.10672869
49	0x3de9785b	0.11399909
50	0x3dde68bc	0.1085982
51	0x3dd75aa2	0.10515334
52	0x3e50686d	0.20352335
53	0x3e58aa16	0.21158633
54	0x3e3f761d	0.186974
55	0x3e4ffc3e	0.20311067
56	0x3e0ecb09	0.1394464
57	0x3e026e6f	0.1273744
58	0x3e0c7498	0.13716352
59	0x3e06dfef	0.13171361
60	0x80107d1e	-1.514252e-39
61	0x80107d1e	-1.514252e-39
62	0x80107d1e	-1.514252e-39
63	0x80107d1e	-1.514252e-39
64	0x9dc375c8	-5.1737853e-21
65	0x9dc37217	-5.1734036e-21
66	0x9dc2fa04	-5.1609883e-21
67	0x9dc2e981	-5.159281e-21
68	0x1672f1f6	1.9624954e-25
69	0x167296e2	1.9596215e-25
70	0x1674df14	1.9780554e-25
71	0x16747bfa	1.9749283e-25
72	0xb8dd66e0	-0.00010557263
73	0xb8dd66e0	-0.00010557263
74	0xb8dd66e0	-0.00010557263
75	0xb8dd66e0	-0.00010557263
76	0xbc9c1dbf	-0.019057153
77	0xbc9c90ae	-0.019111957
78	0xbc979b6c	-0.018506728
79	0xbc9326b8	-0.017962798
80	0x3cef7c55	0.02923409
81	0x3cffae8c	0.03121116
82	0x3c261be1	0.010138483
83	0x3c45e325	0.012078081
84	0x0000101d	5.78e-42
85	0x0000101d	5.78e-42
86	0x0000101d	5.78e-42
87	0x0000101d	5.78e-42
88	0xbda7d9d9	-0.08195848
89	0xbdcdf3f3	-0.10056295
90	0xbd9e8426	-0.07740049
91	0xbdb2004d	-0.086914636
92	0xbd057e8f	-0.0325914
93	0xbd06c875	-0.032906014
94	0xbcf422f3	-0.029801821
95	0xbcfd7a5d	-0.030942136
96	0x27fac016	6.95972e-15
97	0xa8ff48ac	-2.8342204e-14
98	0x299e61ae	7.033554e-14
99	0x285a791a	1.2127691e-14
100	0x830deb46	-4.1706257e-37
101	0x830deb46	-4.1706257e-37
102	0x830deb46	-4.1706257e-37
103	0x830deb46	-4.1706257e-37
104	0x800019e1	-9.284e-42
105	0x800019c1	-9.239e-42
106	0x800019b0	-9.215e-42
107	0x800019f3	-9.309e-42
108	0x83619811	-6.629612e-37
109	0x83619811	-6.629612e-37
110	0x83619814	-6.6296134e-37
111	0x83619814	-6.6296134e-37
112	0x3d17e6bc	0.03708528
113	0x3d1e1965	0.038598437
114	0x3d0a824d	0.03381567
115	0x3d03794b	0.032098096
116	0xbe63d473	-0.22249012
117	0xbe76acb8	-0.24089324
118	0xbe3b6f08	-0.18304074
119	0xbe5b57ef	-0.21420263
120	0xafa8e94f	-3.0724798e-10
121	0xafa8e94f	-3.0724798e-10
122	0xafa8e94f	-3.0724798e-10
123	0xafa8e94f	-3.0724798e-10
124	0xb465d6ca	-2.1405427e-07
125	0xb465d6ca	-2.1405427e-07
126	0xb465d6ca	-2.1405427e-07
127	0xb465d6ca	-2.1405427e-07
128	0x3dad0f04	0.0845013
129	0x3d882881	0.066483505
130	0x3d9ceb87	0.07662111
131	0x3d73e982	0.059548862
132	0x3d548577	0.051885094
133	0x3d81eeeb	0.06344398
134	0x3d543f17	0.05181798
135	0x3d6addb5	0.057340343
136	0x3e00aa27	0.12564908
137	0x3d987a27	0.07445174
138	0x3dfd720c	0.12375268
139	0x3d729b9e	0.05923044
140	0x3dac3a3d	0.084095456
141	0x3dac518d	0.08413992
142	0x3d959119	0.07303066
143	0x3da3ca2d	0.07997546
144	0x24297467	3.674463e-17
145	0x22d5045f	5.7738394e-18
146	0xa3fc55b1	-2.7358186e-17
147	0xa47d5df9	-5.4940228e-17
148	0xa8e72222	-2.5660955e-14
149	0xa8e72222	-2.5660955e-14
150	0xa8e72222	-2.5660955e-14
151	0xa8e72222	-2.5660955e-14
152	0xb5a47179	-1.2251977e-06
153	0xb5a47179	-1.2251977e-06
154	0xb5a47179	-1.2251977e-06
155	0xb5a47179	-1.2251977e-06
156	0x3e0d9e9a	0.13830033
157	0x3dec23b7	0.115302496
158	0x3e143f8b	0.14477365
159	0x3ddaffdf	0.10693335
160	0x3e1a6f04	0.15081412
161	0x3e317a67	0.17331849
162	0x3e143b99	0.1447586
163	0x3e1ead50	0.15495801
164	0x3e074667	0.1321045
165	0x3dd67700	0.10471916
166	0x3deefd52	0.11669411
167	0x3d8c83ab	0.06861051
168	0xbd853077	-0.065033846
169	0xbd815f1c	-0.06316969
170	0xbda99128	-0.082796395
171	0xbdb708d3	-0.0893723
172	0x8000c680	-7.1208e-41
173	0x8000c680	-7.1208e-41
174	0x8000c66e	-7.1183e-41
175	0x8000c66e	-7.1183e-41
176	0x3e5dfd0a	0.21678558
177	0x3e20efa5	0.15716417
178	0x3e54b277	0.20771204
179	0x3e3108ff	0.17288588
180	0xacd91f41	-6.170981e-12
181	0xacd91f41	-6.170981e-12
182	0xacd91f41	-6.170981e-12
183	0xacd91f41	-6.170981e-12
184	0xbddb9084	-0.107209235
185	0xbda7d1ef	-0.081943385
186	0xbe150b52	-0.145551
187	0xbdfaa9be	-0.12239407
188	0xa66e2993	-8.262918e-16
189	0xa66e2993	-8.262918e-16
190	0xa66e2993	-8.262918e-16
191	0xa66e2993	-8.262918e-16
192	0x8a2dd15d	-8.369024e-33
193	0x8a2dd15d	-8.369024e-33
194	0x8a2dd15d	-8.369024e-33
195	0x8a2dd15d	-8.369024e-33
196	0x99a1dac3	-1.6735367e-23
197	0x99a1dab1	-1.6735339e-23
198	0x99a1d2ec	-1.67322e-23
199	0x99a1d220	-1.6731879e-23
200	0x3e461789	0.19344915
201	0x3e36516e	0.178045
202	0x3e4286a6	0.18996677
203	0x3e441716	0.19149432
204	0x880a1cc5	-4.1561683e-34
205	0x880a1cea	-4.1561853e-34
206	0x880a1830	-4.1556297e-34
207	0x880a17b1	-4.1555714e-34
208	0xbe4a187e	-0.19735906
209	0xbe54aa75	-0.20768149
210	0xbe4b816a	-0.19873586
211	0xbe266e07	-0.1625291
212	0x07b026d4	2.6504358e-34
213	0x07b026d4	2.6504358e-34
214	0x07b026d4	2.6504358e-34
215	0x07b026d4	2.6504358e-34
216	0xbd872429	-0.06598694
217	0xbd8dae23	-0.069179796
218	0xbdb7b386	-0.08969788
219	0xbdaa54f9	-0.083169885
220	0xb916e7f6	-0.00014391527
221	0xb916e7f6	-0.00014391527
222	0xb916e7f6	-0.00014391527
223	0xb916e7f6	-0.00014391527
224	0x3c4c1d20	0.012458116
225	0x3c543591	0.012952224
226	0x3c4aaa8f	0.012369766
227	0x3c533756	0.012891611
228	0xbe463b25	-0.193585
229	0xbe27c81a	-0.16384926
230	0xbe359d4a	-0.17735782
231	0xbe2c1dc2	-0.16808227
232	0x3c4e020a	0.012573728
233	0x3c54a5bd	0.012978968
234	0x3c52a36f	0.012856348
235	0x3c53534b	0.012898277
236	0x9b09cef8	-1.139925e-22
237	0x9b09cef8	-1.139925e-22
238	0x9b09cef8	-1.139925e-22
239	0x9b09cef8	-1.139925e-22
240	0x3ccf851f	0.025332032
241	0x3ce063eb	0.027391395
242	0x3cccce33	0.025000667
243	0x3cdbb5ae	0.02682003
244	0x3c99f6da	0.018794466
245	0x3c9abd53	0.018889105
246	0x3c57b07a	0.013164634
247	0x3c0a25b1	0.008431838
248	0xbdca7d5a	-0.0988719
249	0xbdef96ee	-0.116987094
250	0xbdfc64a1	-0.12323881
251	0xbe11feb9	-0.14257325
252	0xbe08c22c	-0.1335532
253	0xbe092d59	-0.13396205
254	0xbe2d4475	-0.16920646
255	0xbe26e060	-0.1629653

fc.bias f4 [2]
0	0x3d10f0ed	0.035386015
1	0x3ce9b96a	0.028530795

79 f4 [16, 3, 7, 7]
0	0xbd146368	-0.036227614
1	0xbe2aa54f	-0.16664623
2	0xbe22d121	-0.15900089
3	0xbdc2300c	-0.094818205
4	0xbe86fd56	-0.26365155
5	0xbe1af7d3	-0.151336
6	0xbe4fb5c1	-0.20284177
7	0x3c3ac194	0.011398692
8	0x3cbbd1d2	0.022927199
9	0x3e2d9590	0.16951585
10	0x3e10d2ab	0.14142863
11	0xbdef83ab	-0.116950355
12	0xbd893d82	-0.06701185
13	0x3e00b457	0.12568794
14	0xbd61c216	-0.055116735
15	0x3e2fe734	0.1717804
16	0x3e77344d	0.24141045
17	0x3cafbccf	0.021452336
18	0x3b7e6e87	0.0038823204
19	0x3cc4e267	0.024033738
20	0x3e5d11f1	0.21588875
21	0x3e5f8b40	0.21830463
22	0x3e529b25	0.20566995
23	0x3e38fca5	0.18065126
24	0x3d36ebb6	0.044658385
25	0xbdae9340	-0.085241795
26	0xbd69718e	-0.05699306
27	0x3e01eabb	0.12687199
28	0x3e43af04	0.19109732
29	0x3e093cdb	0.13402121
30	0x3e6ebd1b	0.23314326
31	0xbd5f137a	-0.054461934
32	0xbd801fe4	-0.06256083
33	0xbccbe5f1	-0.024889918
34	0x3e12f621	0.14351703
35	0xbd8f533b	-0.06998297
36	0x3ca7f2ae	0.02050146
37	0x3dbea966	0.09309654
38	0xbe7b5fff	-0.24548338
39	0xbea42ab8	-0.32063842
40	0xbe820087	-0.25391027
41	0x3adff423	0.0017086308
42	0xbd82048f	-0.06348526
43	0x3d0388bd	0.032112826
44	0xbe1e763c	-0.1547479
45	0xbe553892	-0.20822361
46	0xbe901318	-0.28139567
47	0xbe57378f	-0.21017288
48	0xbd13295d	-0.03592812
49	0x3d115153	0.035477947
50	0xbe323528	-0.1740309
51	0xbe8a29ac	-0.26984918
52	0xbe01bbb6	-0.12669262
53	0xbe7262fd	-0.23670574
54	0xbe5c9d15	-0.21544297
55	0xbe715787	-0.23568545
56	0xbde01c6d	-0.10942922
57	0xbdcb1d2c	-0.099176735
58	0x3d5b6a62	0.05356825
59	0xbd9146c6	-0.07093577
60	0xbd2b5cad	-0.04183643
61	0xbd6e8378	-0.058230847
62	0x3e353919	0.17697562
63	0xbe158c4d	-0.14604302
64	0xbd3cc4c9	-0.046086106
65	0x3d6ed3f1	0.05830759
66	0x3e18bb5c	0.14915222
67	0xbda33c5d	-0.07970498
68	0xbd2588ad	-0.040413547
69	0x3e76e230	0.24109721
70	0xbd2025bc	-0.039098486
71	0xbd2d2399	-0.042270277
72	0x3e151f16	0.1456264
73	0x3db9fcdf	0.090814345
74	0x3c88ebf4	0.016714074
75	0x3d8f402a	0.0699466
76	0x3d089e49	0.033354077
77	0x3d898ee9	0.06716711
78	0x3df7a94d	0.120928384
79	0x3e0fe7fd	0.1405334
80	0x3e46e0f9	0.19421758
81	0x3ddc51bb	0.10757776
82	0xbb228bde	-0.0024802606
83	0x3e31c25c	0.17359298
84	0x3ba32426	0.0049786745
85	0xbcaf94fb	-0.021433344
86	0x3da725fe	0.08161543
87	0xbd06554a	-0.03279618
88	0xbe2e9166	-0.17047653
89	0xbdb5fd95	-0.088862576
90	0xbcab6b1d	-0.020925099
91	0xbd8a488d	-0.06752119
92	0xbd130662	-0.03589476
93	0xbc247299	-0.010037088
94	0x3cccc2e2	0.024995271
95	0x3c3dcfa2	0.011585148
96	0x3db6dfac	0.08929381
97	0x3e0c095d	0.13675447
98	0xbe596f21	-0.21233799
99	0xbe6c93ca	-0.23103252
100	0xbe7ee1e2	-0.24890855
101	0xbdbf5e62	-0.09344174
102	0xbe1753e0	-0.1477809
103	0xbe5d3e86	-0.21605882
104	0xbdd20069	-0.102539845
105	0xbe37f475	-0.17964347
106	0xbe34e1e3	-0.17664294
107	0xbdd530d2	-0.10409702
108	0x3d325f30	0.04354781
109	0xbd2fe951	-0.042947117
110	0x3cb9dcc5	0.022688279
111	0xbc423023	-0.011852297
112	0xbe9d0a64	-0.3067199
113	0xbdf975a4	-0.12180641
114	0x3d488cdc	0.04896246
115	0x3dc44ee8	0.09585363
116	0x3deb8e13	0.11501708
117	0x3e1cd900	0.15317154
118	0x3de6b328	0.1126464
119	0xbe3ffab0	-0.18747973
120	0xbd395bb0	-0.045253456
121	0x3db2adb0	0.087245345
122	0x3e52a902	0.20572284
123	0x3e1512dc	0.14557976
124	0x3d8614f0	0.06546962
125	0x3e1d50e6	0.15362892
126	0xbdd7bfae	-0.10534607
127	0x3d836fa7	0.0641778
128	0x3e66b96b	0.22531669
129	0x3e5b1ed5	0.2139848
130	0x3e107eb6	0.14110836
131	0x3e128306	0.14307794
132	0x3e2c0d0c	0.16801852
133	0xbda32791	-0.07966531
134	0xbde981b8	-0.11401695
135	0x3d235879	0.039879296
136	0x3e2be25e	0.16785571
137	0xbcaf594c	-0.021404885
138	0xbd152bf9	-0.03641889
139	0x3d2a4e40	0.04157853
140	0xbdaae48a	-0.083443716
141	0x3cd1ece5	0.025625655
142	0x3de16ded	0.11007295
143	0x3c51d244	0.012806479
144	0x3d1a058b	0.037602942
145	0x3de10c10	0.10988629
146	0x3e01ccd3	0.1267579
147	0x3d418b8b	0.04725222
148	0x3dbf778d	0.093489744
149	0x3dbfacb2	0.09359111
150	0x3d8b2b9e	0.06795429
151	0x3d99f77d	0.07517908
152	0x3d51cb8f	0.05121952
153	0x3dba4154	0.090944916
154	0xbd18e653	-0.03732903
155	0x3d0ae79e	0.033912294
156	0x3c259906	0.010107284
157	0x3cd94292	0.026521001
158	0x3d4c7b68	0.049922377
159	0x3d2fef90	0.042953074
160	0x3d9a2df7	0.07528298
161	0xbda21a3f	-0.07915162
162	0xbd5873b0	-0.052844703
163	0xbcc664fa	-0.024218071
164	0x3ba931cb	0.0051634065
165	0x3c8b346c	0.01699277
166	0x3d0a2a14	0.033731535
167	0x3d7c75b1	0.061635677
168	0xbd930135	-0.071779646
169	0xbda71b60	-0.08159518
170	0xbde0486e	-0.10951315
171	0xbd9b36d0	-0.07578814
172	0xbcf91f71	-0.0304105
173	0x3d264997	0.040597524
174	0x3d9cbcd5	0.07653204
175	0xbd8a4148	-0.06750733
176	0xbd8d3af1	-0.06896008
177	0xbdd209be	-0.102557644
178	0xbda5e09c	-0.080994815
179	0xbd8b0298	-0.06787604
180	0xbcc6ec36	-0.024282556
181	0x3cb2dfe0	0.021835268
182	0xbd9678c3	-0.07347252
183	0xbd215cc8	-0.039395124
184	0xbd839ddc	-0.06426594
185	0xbd2aaea5	-0.04167046
186	0xbcfaa2c7	-0.030595196
187	0xbd1a2f67	-0.037642863
188	0xbc7271d8	-0.01479765
189	0xbdbfceb3	-0.093655966
190	0xbc1abc3c	-0.009444293
191	0x3ce66b26	0.028127264
192	0x3bf1788e	0.0073691076
193	0xbbe91950	-0.007113613
194	0xbd573beb	-0.052547377
195	0xbcadb0a6	-0.021202397
196	0x3d856f60	0.06515384
197	0x3dbb0176	0.09131138
198	0x3db38f3b	0.087675534
199	0x3d643dce	0.055723004
200	0x3d857c68	0.06517869
201	0x3d0b4774	0.03400369
202	0x3d8efd36	0.0698189
203	0x3c55a56f	0.013039931
204	0x3d845a46	0.06462531
205	0x3d3a2025	0.04544081
206	0x3d5d4ce2	0.0540284
207	0x3d53821c	0.051637754
208	0x3d1d4507	0.038395908
209	0x3d7d8e28	0.06190315
210	0xbcee5538	-0.02909337
211	0x3bea6efe	0.0071543446
212	0x3be3ab45	0.006947907
213	0x3ccf764f	0.025324969
214	0x3cba37ca	0.02273168
215	0x3d252a8d	0.040323783
216	0x3d31ed67	0.043439295
217	0xbcc75ad8	-0.02433531
218	0xbd4474e7	-0.04796305
219	0xbd9228c8	-0.07136685
220	0xbd1486b6	-0.036261283
221	0xbc92ca89	-0.017918842
222	0x3d1fb00c	0.03898625
223	0x3d886e28	0.06661636
224	0x3b822f07	0.0039728913
225	0xbd1aa3e6	-0.037753962
226	0xbdb4f74f	-0.08836233
227	0xbda4f098	-0.08053702
228	0xbd9ff93a	-0.07811208
229	0xbd0db274	-0.034594014
230	0x3cf29312	0.029611144
231	0xbbf9609a	-0.0076103928
232	0xbc29b17e	-0.010357259
233	0xbcc88077	-0.02447532
234	0xbcc171e9	-0.023613887
235	0xbd4afd87	-0.04955819
236	0xbd62f84e	-0.055412583
237	0xbb7643e3	-0.0037577085
238	0xbc20b36f	-0.009808405
239	0x3aa0d2a7	0.001226981
240	0x3c07de1b	0.0082927
241	0xbaf25011	-0.0018486996
242	0xbca0ee6d	-0.01964494
243	0xbd74b229	-0.05974022
244	0xbd88a4b0	-0.06672037
245	0x3d7d3f8a	0.061828174
246	0x3de30c4d	0.110863306
247	0x3d990252	0.07471146
248	0x3d90eceb	0.070764385
249	0x3d5e9f43	0.054351103
250	0x3cf063b4	0.029344417
251	0x3d23c595	0.03998335
252	0x3ce27b78	0.027646765
253	0x3db2111e	0.08694671
254	0x3d7cc8be	0.06171488
255	0x3d416967	0.04721966

80 f4 [16]
0	0x3e9c96d2	0.30583817
1	0xbd7cf85e	-0.0617603
2	0x3eb82357	0.35964462
3	0x3dd512d8	0.10403985
4	0xbeab2bf8	-0.33431983
5	0xbf05030d	-0.5195778
6	0x3eea9abe	0.45821184
7	0x3c8c4d10	0.01712659
8	0x3df5dd11	0.12005056
9	0xbe4af760	-0.19820929
10	0xbe77e435	-0.24208148
11	0x3f11cd18	0.56953573
12	0x3e3c47d6	0.18386778
13	0x3f0f2d22	0.5592824
14	0x3de47724	0.11155537
15	0x3ea3ec45	0.32016197

82 f4 [32, 16, 3, 3]
0	0xbd23d01b	-0.039993387
1	0xbcc23d3b	-0.023710838
2	0x3c106eed	0.008815509
3	0xbd074e97	-0.033033933
4	0xbc559272	-0.013035404
5	0xbb18da31	-0.0023323412
6	0xbc780bfc	-0.015139576
7	0x3b8266a5	0.0039795213
8	0x3be42915	0.006962905
9	0x3b9d4839	0.0047998694
10	0x3c957bd0	0.018247515
11	0x3ce14749	0.027499812
12	0xbc0445fa	-0.008073324
13	0x3bf8a946	0.0075885383
14	0x3bff88d7	0.007798295
15	0x3b8ecea5	0.00435813
16	0xb8b5fd70	-8.677959e-05
17	0xbc4c4c6a	-0.01246939
18	0xbbe11ea6	-0.0068701087
19	0x3b20d55e	0.002454124
20	0x3bef99bf	0.007312029
21	0xbc32263c	-0.010873374
22	0xbb59ac8f	-0.0033214425
23	0xbc4ba348	-0.012429066
24	0xbc084e61	-0.008319468
25	0x3ae83fc3	0.0017719198
26	0x3b2f3605	0.002673508
27	0x3b23da51	0.0025001953
28	0x3ac26763	0.0014831837
29	0x3b087a21	0.0020824748
30	0xbb56523a	-0.003270282
31	0xba210798	-0.0006142794
32	0x3b8832be	0.0041564396
33	0x3ba1b017	0.0049343216
34	0x3b804430	0.0039143786
35	0xb722f804	-9.713698e-06
36	0xbd8cca32	-0.06874503
37	0xbcf41ae3	-0.029797977
38	0x3b27a178	0.002557842
39	0xbd327242	-0.043565996
40	0x3b15c712	0.002285425
41	0x3c3515b7	0.0110525405
42	0x3c8bd60f	0.017069845
43	0x3d544caa	0.051830925
44	0x3d7d66ac	0.061865494
45	0x3c8c6b3b	0.017140975
46	0x3d1d1f0e	0.038359694
47	0x3c975f82	0.018478159
48	0xbbf50b42	-0.0074781487
49	0xbd4f0a65	-0.050547022
50	0xbd68c593	-0.056829046
51	0xbcc1c53e	-0.023653623
52	0xbc8ae65d	-0.016955549
53	0xbca80d50	-0.02051416
54	0x38c93234	9.593778e-05
55	0x3c49957d	0.012303707
56	0x3c0bfd03	0.008544209
57	0xbb5e4998	-0.0033918377
58	0x3c1e347b	0.009656067
59	0x3bae96ab	0.0053280196
60	0xbc28a136	-0.010292342
61	0x3c336de2	0.010951491
62	0x39ebc157	0.00044966742
63	0x3b22de02	0.0024851565
64	0x3b6db5ab	0.0036271613
65	0x3c1fbe9a	0.009750033
66	0xbb0ff7d3	-0.0021967783
67	0xb9360ea0	-0.00017362321
68	0x3b688564	0.0035479898
69	0xb94262d9	-0.00018538105
70	0x39b4e0a3	0.00034499643
71	0x3ac0d5db	0.0014712171
72	0xbcb11772	-0.021617625
73	0xbc6673d0	-0.014065698
74	0xbc344498	-0.011002682
75	0xba3b4034	-0.0007143051
76	0x3b01e44c	0.0019819913
77	0xbb7f0536	-0.0038913018
78	0xbb0e81a6	-0.0021744757
79	0x3c3672f6	0.011135807
80	0x3c40a6aa	0.011758486
81	0xbc9cff9c	-0.019164853
82	0xbc92041c	-0.017824225
83	0xbb80e978	-0.0039340816
84	0xbcacfc3c	-0.021116368
85	0xbc08ef52	-0.00835784
86	0xbc600684	-0.013673428
87	0xbc2dede8	-0.010615803
88	0x3ce1ffc6	0.027587783
89	0x3ccdd161	0.025124254
90	0xbca8b027	-0.020591808
91	0xbbfe43cd	-0.0077595473
92	0x3be35a68	0.0069382675
93	0xbb8551c6	-0.004068586
94	0xbc040ffb	-0.008060451
95	0xbce3e20c	-0.027817748
96	0xbcd37873	-0.02581427
97	0xbd085346	-0.03328254
98	0xbd212b4c	-0.03934793
99	0xbcbe8445	-0.02325643
100	0x3bf342e5	0.007423746
101	0x3c1e8aaa	0.009676615
102	0xbd188804	-0.03723909
103	0xba85c84c	-0.0010206788
104	0xbcbca2b8	-0.02302681
105	0xbd2c5f14	-0.04208286
106	0xbc5d8fab	-0.013523023
107	0xbcc7c88e	-0.024387624
108	0x3cd41835	0.025890449
109	0x3d03aeab	0.032149
110	0xbc753c97	-0.014968059
111	0x3d76e1b4	0.06027384
112	0x3cc55d57	0.02409236
113	0xbcd4f3b8	-0.02599512
114	0x3d268f8b	0.040664237
115	0x3c780a80	0.015139222
116	0xbcc1e319	-0.023667859
117	0x3ae3a11c	0.001736674
118	0x3c3f2ed0	0.011668876
119	0x3c2e8d17	0.010653756
120	0xbbd5f6ab	-0.0065296493
121	0x3be0043e	0.006836443
122	0xbab49dbe	-0.0013779921
123	0xbc4efe21	-0.012633831
124	0x3c157cc1	0.009123982
125	0xbb73230f	-0.0037099754
126	0xbc59d6a7	-0.013295806
127	0xba87247f	-0.0010310559
128	0x3b3dbc70	0.0028951429
129	0xbc3c3fa1	-0.01148978
130	0x3b36d896	0.0027900091
131	0xbb8f6578	-0.0043761097
132	0x3c527a84	0.012846593
133	0x3d477385	0.048694152
134	0x3d1b3fec	0.037902758
135	0x3c5937f4	0.013257969
136	0x3c701cfc	0.014655348
137	0x3c85e23d	0.01634323
138	0x3c1b47d2	0.0094775725
139	0x3babde9a	0.005245042
140	0xbbc89ddd	-0.0061223344
141	0xbc1ae8c9	-0.009454914
142	0xbc9c43bb	-0.019075265
143	0xbd043e75	-0.032286126
144	0x3a6b2021	0.0008969326
145	0x3d0702b0	0.032961547
146	0x3d8fd56d	0.070231296
147	0x3b5925ac	0.0033134026
148	0x3bf894c5	0.007586094
149	0x3cc05643	0.023478633
150	0x3c7ebbed	0.015547735
151	0x3cb7a7a9	0.022418814
152	0x3c5214a1	0.012822301
153	0xbc132abc	-0.008982357
154	0xbcb467f4	-0.022022225
155	0xbd19af3d	-0.037520636
156	0x3b16bc23	0.0023000322
157	0xbb5f7504	-0.0034096846
158	0xbc3365df	-0.010949581
159	0x3c88c6a6	0.016696285
160	0x3cb322eb	0.021867236
161	0x3ca042c4	0.019563086
162	0xbc6d9c65	-0.014502619
163	0xbc42f5cf	-0.011899426
164	0x3c709c4f	0.014685704
165	0x3ada190f	0.0016639548
166	0x3c5dff47	0.013549632
167	0x3cb67392	0.022271905
168	0xbcb49e77	-0.022048218
169	0xbc8f719b	-0.017510226
170	0x3c322e59	0.010875308
171	0xbae4e008	-0.0017461786
172	0x3b58c7dd	0.0033078112
173	0x3be8478d	0.0070886076
174	0xbbd0bb2f	-0.0063699703
175	0xba24ceb7	-0.00062869064
176	0x3b01b5bd	0.0019792162
177	0xbbd93cbf	-0.006629556
178	0xbb5f5b7b	-0.0034081626
179	0x39c10285	0.00036813706
180	0xbb9961af	-0.0046808342
181	0xb9ff57ab	-0.00048702708
182	0xbd2333f5	-0.039844472
183	0xbc845702	-0.01615477
184	0x3c397140	0.011318505
185	0xbd046019	-0.03231821
186	0xbc9db4df	-0.019251285
187	0xbb199d03	-0.0023439534
188	0xbca33bb7	-0.019925935
189	0xbd1cdb21	-0.038294915
190	0xbd809621	-0.06278635
191	0xbd09755c	-0.03355919
192	0x3c355078	0.0110665485
193	0xbb9f09d6	-0.0048534675
194	0x3d2b2048	0.041778833
195	0xbd05e408	-0.03268817
196	0x3cbd39c7	0.02309884
197	0x3d4f3707	0.050589588
198	0xbb4207db	-0.0029606733
199	0x3c079aa3	0.008276614
200	0x3c0855f9	0.008321279
201	0x3b0032e2	0.0019561579
202	0x3bcc068f	0.006226368
203	0x3b9fa701	0.0048722033
204	0xbbebcc94	-0.0071960185
205	0x3be03e68	0.006843377
206	0x3bc8ed69	0.006131817
207	0xbbe332e6	-0.006933558
208	0x3b7bf04a	0.0038442784
209	0x3b8de363	0.004330085
210	0xbb8b2514	-0.0042463634
211	0x3c1aa49e	0.009438662
212	0x3c288b87	0.010287172
213	0xbb334d4c	-0.0027359305
214	0x3c546810	0.012964264
215	0x3c7225d5	0.014779528
216	0xbb2a864d	-0.002601999
217	0xbb238c87	-0.0024955587
218	0x38ff49e4	0.00012173111
219	0x3c1469d2	0.009058433
220	0x3c220806	0.009889608
221	0x3c1e858b	0.009675394
222	0xbb31a555	-0.0027106602
223	0x3ba6a00a	0.005084996
224	0x3b268ee6	0.0025414764
225	0xbc3e0156	-0.011596998
226	0xbbbe26db	-0.005802972
227	0x393d8ed4	0.00018077652
228	0x3c592bab	0.01325504
229	0x3c908bba	0.017644752
230	0x3c7e7077	0.015529743
231	0xba8b9f99	-0.0010652422
232	0x3b464790	0.0030255057
233	0x3bee8bc5	0.0072798454
234	0x3a38ffe4	0.00070571736
235	0xbbfed553	-0.007776895
236	0xbd13cb8b	-0.036082786
237	0x3c8ffb18	0.017575786
238	0xbc37c7aa	-0.011217037
239	0xbc0a3a50	-0.008436754
240	0x3b32c820	0.0027279928
241	0x3c1bc4e2	0.00950739
242	0x3d175da7	0.03695455
243	0xbcda4109	-0.02664234
244	0xbd3df9f4	-0.046380952
245	0xbd294080	-0.041321278
246	0xbc6dcbb3	-0.014513898
247	0xbb07fb7a	-0.0020749257
248	0x3c61036e	0.013733728
249	0x3bee000b	0.0072631887
250	0x3cd910be	0.026497241
251	0x3d244a41	0.040109877
252	0xbd53df55	-0.051726658
253	0xbcff64c5	-0.03117598
254	0x3bf518d0	0.0074797645
255	0xbd360df9	-0.04444692

83 f4 [32]
0	0x3dcb1547	0.09916168
1	0xbda88607	-0.08228689
2	0x99c39caf	-2.0225811e-23
3	0xb68e1ac3	-4.2350453e-06
4	0x3c3c40ec	0.011490088
5	0x3e1513b2	0.14558294
6	0xbc9540c8	-0.018219367
7	0x3ddefbbc	0.10887858
8	0x3d7fcfa1	0.06245387
9	0xbdeab14e	-0.114595994
10	0xbc104939	-0.00880652
11	0x3e3feca9	0.18742622
12	0x3e6dbb10	0.2321589
13	0x3db4abe4	0.08821848
14	0x3e98a337	0.29812023
15	0xb850846f	-4.9714403e-05
16	0x39c309d1	0.00037200612
17	0xb5eaee7e	-1.7503769e-06
18	0xb607e1be	-2.0247967e-06
19	0x3e55d980	0.20883751
20	0x3e1cf7c2	0.15328887
21	0xbe3d9fbc	-0.18517965
22	0x3e5e064a	0.21682087
23	0xbe38c154	-0.18042499
24	0xbd9c5788	-0.07633883
25	0x3c075248	0.0082593635
26	0xbdcb46a4	-0.09925583
27	0xbce08d13	-0.02741102
28	0x2c869729	3.825291e-12
29	0xbcbc5ec8	-0.022994414
30	0x3cf45602	0.029826168
31	0xbe05183c	-0.12997526

85 f4 [32, 32, 3, 3]
0	0xbe16dae6	-0.1473194
1	0xbdbd7d3f	-0.092524044
2	0xbd560b58	-0.052256912
3	0xbcca5d37	-0.024702651
4	0xbca86112	-0.0205541
5	0x3d364a13	0.044504236
6	0xbc16152f	-0.009160324
7	0xbcd3dce0	-0.025862157
8	0x3c27bacc	0.010237407
9	0xbdd59233	-0.10428276
10	0xbe20e8ed	-0.15713854
11	0xbddc599e	-0.107592806
12	0xbb52a877	-0.003214387
13	0xbc0bc1c7	-0.008530087
14	0x3cd08342	0.025453214
15	0xbd2da048	-0.042389184
16	0xbcdc36d6	-0.026881617
17	0xbd45504a	-0.048172273
18	0x80000da8	-4.899e-42
19	0x00001d1d	1.0444e-41
20	0x800026b3	-1.3883e-41
21	0x8000416b	-2.3468e-41
22	0x00003d5d	2.2013e-41
23	0x8000293a	-1.479e-41
24	0x80000f72	-5.541e-42
25	0x000034a5	1.8885e-41
26	0x80008294	-4.6843e-41
27	0x0f3c7480	9.291553e-30
28	0x80004dbb	-2.7884e-41
29	0x8002a532	-2.42932e-40
30	0x8000b7e3	-6.5966e-41
31	0x0000d474	7.6214e-41
32	0x80007ed7	-4.5502e-41
33	0x0ebad568	4.6058043e-30
34	0x80001ca7	-1.0279e-41
35	0x8000858d	-4.7909e-41
36	0xbe0d2a5e	-0.13785693
37	0xbc2883d4	-0.0102853365
38	0x3eba37bf	0.36370656
39	0x3cb32eea	0.021872956
40	0x3d3c86a5	0.046026845
41	0x3e537c74	0.20652944
42	0xbe0b18d0	-0.13583684
43	0xbe115e72	-0.14196184
44	0xbd5dc31d	-0.054141153
45	0xbcc320bb	-0.023819318
46	0x3d3641da	0.044496395
47	0x3d775622	0.060384877
48	0x3e45efc6	0.19329748
49	0x3e6021e8	0.21887934
50	0x3e7dbdd3	0.24779443
51	0x3d350eeb	0.04420368
52	0x3d2dde97	0.042448606
53	0x3d4ceab6	0.050028525
54	0x39a224cc	0.00030926464
55	0x3b032cc3	0.0020015694
56	0x3b28bd28	0.0025747512
57	0x3ac07b04	0.0014685099
58	0x3839137c	4.4125583e-05
59	0x3a018643	0.0004940966
60	0x3b11bf29	0.0022239184
61	0x3a621199	0.0008623838
62	0x3a3c75b4	0.000718917
63	0xbc8e6bc7	-0.017385377
64	0x3d8eb550	0.06968176
65	0x3e2f5f55	0.1712621
66	0xbe11bccb	-0.14232175
67	0xbe1471c5	-0.14496525
68	0xbcbf3faa	-0.023345787
69	0x3e0e2e4f	0.13884853
70	0xbcfae164	-0.030625053
71	0xbc96dee0	-0.018416822
72	0x3bdc6d17	0.0067268717
73	0xbdf9f4a7	-0.12204867
74	0xbeae0f88	-0.33996224
75	0xbd8742f0	-0.06604564
76	0x3cd0c6b4	0.025485374
77	0xbd0f0359	-0.034915302
78	0xbdd4131d	-0.10355208
79	0x3d0e1295	0.03468569
80	0x3e66acc0	0.22526836
81	0xbcce9354	-0.025216736
82	0xbd7825c3	-0.060582887
83	0xbd6f14ea	-0.058369555
84	0xbd78f7d4	-0.060783222
85	0xbd19971f	-0.037497636
86	0xbd1b4105	-0.037903804
87	0xbd95d591	-0.07316125
88	0xbd0c6feb	-0.03428642
89	0xb94af32b	-0.00019354808
90	0xb98f086b	-0.00027281357
91	0x3a6063db	0.00085598015
92	0x3a9af074	0.0011820928
93	0x3acac189	0.0015469055
94	0x3a90bce6	0.0011042624
95	0x3aa002bd	0.0012207847
96	0x3b2df9ab	0.0026546519
97	0x3b5bc860	0.003353618
98	0x3b876a27	0.0041325274
99	0xbe79793e	-0.24362656
100	0xbb54bd45	-0.0032461446
101	0x3d356870	0.044289052
102	0xbe7d5157	-0.2473806
103	0x3c7a73b4	0.015286375
104	0x3e933cbc	0.28757274
105	0x3dd5aeef	0.104337566
106	0x3d28f43f	0.041248556
107	0x3e1e2649	0.15444292
108	0x3e2542c9	0.16138758
109	0x3d1713bd	0.03688406
110	0x3e74ce50	0.23906827
111	0xbda042be	-0.0782523
112	0xbe57796f	-0.21042417
113	0x3cde2226	0.027115893
114	0xbb790546	-0.0037997528
115	0xbe1f66ad	-0.15566511
116	0xbe07b492	-0.13252476
117	0xbda72ea6	-0.08163194
118	0x3ca4c373	0.020112729
119	0x3e583263	0.21112971
120	0xbe2fe7d5	-0.1717828
121	0xbd719fb4	-0.058990195
122	0x3d20bfa8	0.039245278
123	0xbd81910b	-0.06326493
124	0xbdb9db60	-0.090750456
125	0xbdacacab	-0.08431371
126	0x3e3faa19	0.18717231
127	0xbc9f49d7	-0.01944439
128	0xbd86dfda	-0.06585665
129	0xbd31147f	-0.043232437
130	0xbdcd25eb	-0.10016998
131	0xbdbc9175	-0.09207431
132	0xbdbf5523	-0.093424104
133	0xbdb501e4	-0.08838251
134	0xbbca54ba	-0.006174651
135	0xb779030b	-1.4842265e-05
136	0xb72a2124	-1.0140506e-05
137	0xb701cea0	-7.737108e-06
138	0xb6c3cb11	-5.835093e-06
139	0xb6812b8d	-3.8495696e-06
140	0xb62e7c7f	-2.6000487e-06
141	0xb819f28a	-3.6703925e-05
142	0xb826b9cb	-3.9750517e-05
143	0xb815d935	-3.5726658e-05
144	0x3a2ca3ff	0.00065857166
145	0x3a76d367	0.00094156567
146	0x3a551c8f	0.0008129561
147	0x39997215	0.00029267432
148	0x3a18780f	0.000581623
149	0x3a398a27	0.0007077776
150	0x3929c986	0.0001619217
151	0xb7ae3f82	-2.077199e-05
152	0x38284be7	4.012501e-05
153	0x150a64b9	2.7948334e-26
154	0x94e41a49	-2.3032484e-26
155	0x94146e31	-7.493822e-27
156	0x13228c15	2.051634e-27
157	0x09e64544	5.5435623e-33
158	0x93ac297b	-4.3459807e-27
159	0x195407d3	1.0961723e-23
160	0x15335dc5	3.6222733e-26
161	0x14c3c6e4	1.9768417e-26
162	0x00000914	3.257e-42
163	0x80008552	-4.7826e-41
164	0x000069e5	3.7988e-41
165	0x000010e4	6.059e-42
166	0x800024ff	-1.3272e-41
167	0x80008f18	-5.1332e-41
168	0x80002089	-1.1671e-41
169	0x800056a3	-3.108e-41
170	0x80008beb	-5.0193e-41
171	0xbdf5b780	-0.119978905
172	0xbe03be43	-0.12865548
173	0xbe058e0b	-0.13042466
174	0x3e22e09d	0.15905996
175	0x3d4c320b	0.049852412
176	0x3d6031ca	0.054734983
177	0x3dfde3a1	0.123969324
178	0x3da19234	0.07889214
179	0x3e0ad2e3	0.1355701
180	0x3ea43719	0.32073286
181	0x3e6f356c	0.23360223
182	0x3e16e7c9	0.14736857
183	0xbd26c9cf	-0.040719803
184	0x3cf164ba	0.029466975
185	0x3e0fd4a6	0.14045963
186	0xbeddf520	-0.43351078
187	0xbe564904	-0.20926291
188	0xbe4591fd	-0.19293971
189	0xbcd7e234	-0.02635298
190	0xbd1faa27	-0.03898063
191	0xbdd34bdb	-0.10317203
192	0xbc6f3b7c	-0.0146015845
193	0xbbb23dfb	-0.0054395176
194	0xbd955ca3	-0.0729306
195	0x3d1c28a7	0.038124707
196	0x3d689caa	0.05679003
197	0x3cd36def	0.025809256
198	0xbde932ff	-0.1138668
199	0x3b1050d0	0.0022020824
200	0xbd35d70e	-0.044394545
201	0xbe0858ec	-0.13315171
202	0xbe10d165	-0.14142378
203	0xbe15130a	-0.14558044
204	0xbde59632	-0.11210288
205	0x3ccae0f1	0.024765464
206	0x3d398bd9	0.045299385
207	0xbd68d668	-0.0568451
208	0xbd7a9434	-0.061176494
209	0xbdf47a42	-0.11937381
210	0xbdc136ea	-0.09434302
211	0xbdb53b14	-0.08849159
212	0xbd217547	-0.039418485
213	0xbe49e546	-0.19716367
214	0xbe4a4aa4	-0.19755036
215	0xbe18f136	-0.14935765
216	0x3d277a40	0.04088807
217	0x3d0292b7	0.0318782
218	0xbc03c741	-0.008043111
219	0x3bea71c8	0.007154677
220	0xbbb5fb38	-0.0055536292
221	0x3b5b2482	0.0033438508
222	0xbd152ce2	-0.036419757
223	0xbcd5d072	-0.026100371
224	0xbbd4f313	-0.0064987033
225	0xbc4e673a	-0.012597853
226	0xbb706ac6	-0.0036684736
227	0x3a822a53	0.0009930826
228	0xbc30c993	-0.010790247
229	0xbbd5975c	-0.0065182876
230	0x3ae1aea4	0.0017218185
231	0xbcbb5690	-0.022868425
232	0xbcb79042	-0.022407655
233	0xbbef3b74	-0.0073007885
234	0xbd5a6dcc	-0.053327367
235	0xbc1db800	-0.009626389
236	0x3d12140a	0.035663642
237	0x3dcb3e3a	0.09923978
238	0x3e01110e	0.12604162
239	0x3ddac1fa	0.10681529
240	0x3d3d70f9	0.046250317
241	0x3cc94fac	0.024574123
242	0x3c8c3a18	0.017117545
243	0x3af72567	0.0018855751
244	0xbbb7e9db	-0.0056125945
245	0xbbce94fe	-0.0063043823
246	0xbc0250d8	-0.007953845
247	0xbbafffc1	-0.0053710644
248	0xbb642ee7	-0.0034817995
249	0xbb7bcd5f	-0.0038421971
250	0xb9e09378	-0.00042834482
251	0x3a03420a	0.0005007094
252	0xacea2b61	-6.655496e-12
253	0xac89bf7a	-3.9150324e-12
254	0xacb04349	-5.009691e-12
255	0xac5f27d1	-3.1712309e-12

86 f4 [32]
0	0x3e84d964	0.25947106
1	0xafa6025f	-3.019691e-10
2	0xb08d32da	-1.0273553e-09
3	0xb53022fe	-6.561603e-07
4	0x3d4ac823	0.04950727
5	0xa68d5f71	-9.80971e-16
6	0x3e64ced4	0.22344524
7	0x3e8b2f6c	0.27184618
8	0x2e00734f	2.9206245e-11
9	0xbf077222	-0.5290853
10	0x3d09aa10	0.03360945
11	0xbd7d48dc	-0.061837062
12	0x3e2825bc	0.16420645
13	0x3de8f5b8	0.11374992
14	0x3ae5486c	0.0017492897
15	0xb556e767	-8.0057947e-07
16	0x91a360ef	-2.5776605e-28
17	0x804d25b6	-7.084861e-39
18	0x8d975a28	-9.327798e-31
19	0x3e358dda	0.17729893
20	0xbe55be85	-0.20873459
21	0x3ea63b3c	0.32467067
22	0x3e33e3b7	0.17567335
23	0xbd90d091	-0.07071031
24	0x3daefa1a	0.08543797
25	0x3c886e00	0.016654015
26	0x39315671	0.00016912237
27	0xa12b3531	-5.800745e-19
28	0x3e87050c	0.26371038
29	0x3d4b913c	0.049699053
30	0xb611500f	-2.1653284e-06
31	0x3e8e73e4	0.27822793

88 f4 [32, 16, 1, 1]
0	0xbd5dadad	-0.05412071
1	0x3bb35c5b	0.005473656
2	0xbdc28204	-0.09497455
3	0xbae347ec	-0.001734016
4	0xbce38507	-0.027773393
5	0xbcb05c52	-0.021528397
6	0xbc1638af	-0.009168788
7	0xb8c7ff17	-9.5365736e-05
8	0xbcac2ba6	-0.021016907
9	0xbc4f1ba7	-0.01264087
10	0xbcbc40bc	-0.022980087
11	0xbd60fd15	-0.054928858
12	0xbcc47889	-0.023983257
13	0x3cc9c8e7	0.02463193
14	0xbc97d3cf	-0.018533615
15	0xbc30c6f1	-0.010789619
16	0x80000000	-0.0
17	0x00000000	0.0
18	0x00000000	0.0
19	0x80000000	-0.0
20	0x80000000	-0.0
21	0x00000000	0.0
22	0x00000000	0.0
23	0x80000000	-0.0
24	0x80000000	-0.0
25	0x00000000	0.0
26	0x00000000	0.0
27	0x00000000	0.0
28	0x00000000	0.0
29	0x80000000	-0.0
30	0x80000000	-0.0
31	0x80000000	-0.0
32	0x80000000	-0.0
33	0x00000000	0.0
34	0x80000000	-0.0
35	0x80000000	-0.0
36	0x00000000	0.0
37	0x00000000	0.0
38	0x00000000	0.0
39	0x80000000	-0.0
40	0x00000000	0.0
41	0x00000000	0.0
42	0x00000000	0.0
43	0x00000000	0.0
44	0x80000000	-0.0
45	0x00000000	0.0
46	0x00000000	0.0
47	0x00000000	0.0
48	0x00000000	0.0
49	0x80000000	-0.0
50	0x80000000	-0.0
51	0x00000000	0.0
52	0x00000000	0.0
53	0x00000000	0.0
54	0x80000000	-0.0
55	0x80000000	-0.0
56	0x80000000	-0.0
57	0x00000000	0.0
58	0x80000000	-0.0
59	0x80000000	-0.0
60	0x00000000	0.0
61	0x00000000	0.0
62	0x80000000	-0.0
63	0x00000000	0.0
64	0xbdd88e57	-0.10574024
65	0x3cb207ba	0.0217322
66	0xbcb3d06b	-0.021949967
67	0xbd6b4196	-0.057435594
68	0x3df0bb46	0.117544696
69	0xbdb84b0f	-0.08998691
70	0xbdedb7f2	-0.116073504
71	0xbda19b2c	-0.07890925
72	0x3d9ea347	0.077459864
73	0xbcc69b0b	-0.024243852
74	0x3b001de4	0.0019549066
75	0x3e3d2441	0.18470861
76	0x39179fca	0.00014460008
77	0xbe1f2b48	-0.15543854
78	0xbc5f8bc8	-0.013644166
79	0xbd82ab3b	-0.06380316
80	0x80000000	-0.0
81	0x80000000	-0.0
82	0x80000000	-0.0
83	0x00000000	0.0
84	0x80000000	-0.0
85	0x80000000	-0.0
86	0x00000000	0.0
87	0x00000000	0.0
88	0x80000000	-0.0
89	0x80000000	-0.0
90	0x00000000	0.0
91	0x00000000	0.0
92	0x80000000	-0.0
93	0x80000000	-0.0
94	0x80000000	-0.0
95	0x80000000	-0.0
96	0x3e20ac03	0.15690617
97	0x3e00b6cd	0.12569733
98	0x3e26390c	0.16232699
99	0x3d6dfacd	0.05810051
100	0xbd619107	-0.05506995
101	0x3e2ae8a4	0.16690308
102	0x3ddc1d99	0.10747833
103	0x3ca2ce93	0.019873893
104	0x3d422404	0.04739763
105	0x3da138e2	0.07872178
106	0x3dd56d32	0.10421218
107	0x3da78157	0.081789665
108	0x3d86df1a	0.06585522
109	0x3dcad81e	0.09904502
110	0x3dd380e1	0.10327316
111	0x3d63c734	0.055609897
112	0x3d9b94cb	0.075967394
113	0xbd1ef05b	-0.03880344
114	0xbd5506c9	-0.052008424
115	0x3bbffcc3	0.005858989
116	0x3cd5febe	0.026122447
117	0x3d89290c	0.06697282
118	0xbd82d314	-0.06387916
119	0x3b87a629	0.004139681
120	0x3a95c776	0.0011427242
121	0xbd2c3dd1	-0.04205114
122	0xbe0d5995	-0.13803704
123	0xbc1f5528	-0.009724893
124	0x3c9d48ee	0.019199815
125	0xbd135751	-0.035971943
126	0xbc281c7d	-0.010260698
127	0xbd6b0034	-0.05737324
128	0x00000000	0.0
129	0x80000000	-0.0
130	0x80000000	-0.0
131	0x00000000	0.0
132	0x00000000	0.0
133	0x80000000	-0.0
134	0x80000000	-0.0
135	0x80000000	-0.0
136	0x80000000	-0.0
137	0x80000000	-0.0
138	0x80000000	-0.0
139	0x80000000	-0.0
140	0x80000000	-0.0
141	0x80000000	-0.0
142	0x80000000	-0.0
143	0x00000000	0.0
144	0x3d8397d3	0.064254425
145	0xbcb95ce8	-0.022627309
146	0x3d56c87d	0.052437294
147	0x3cef0dae	0.029181328
148	0xbe056b05	-0.13029106
149	0x3e00ab14	0.12565261
150	0x3d820005	0.0634766
151	0x3c59b345	0.01328737
152	0x3cae9ae3	0.02131409
153	0xbb2751be	-0.00255309
154	0x3df0cd9b	0.11757966
155	0x3d8f99b8	0.070117414
156	0xbd1daa38	-0.03849241
157	0x3d8dda88	0.06926447
158	0xbd4a591b	-0.049401384
159	0x3da9a020	0.082824945
160	0x3ddaadb2	0.10677661
161	0x3d1fe96c	0.039040968
162	0x3e584e53	0.21123628
163	0x3cbcd487	0.02305056
164	0xbddde21a	-0.10834141
165	0x3dec9b36	0.11553042
166	0x3d846c4a	0.06465967
167	0x3cbcacab	0.023031553
168	0x3d98665e	0.074414
169	0x3cd03761	0.025417032
170	0xbd051e48	-0.03249958
171	0x3c721753	0.014776069
172	0x3e17e695	0.14834054
173	0x3db87328	0.09006339
174	0xbd2ffeb7	-0.042967524
175	0x3d29017d	0.041261185
176	0xbde4b4d8	-0.11167306
177	0xbd466384	-0.04843475
178	0xbd8a6a8c	-0.067586035
179	0xbcadd2b0	-0.021218628
180	0xbcf0cf40	-0.0293957
181	0xbd1eda39	-0.038782332
182	0xbb1574a1	-0.0022805112
183	0xbc96ae04	-0.018393524
184	0xbc305455	-0.010762294
185	0xbda04f20	-0.07827592
186	0xbc3cbf8a	-0.011520276
187	0xbd515df3	-0.051114988
188	0x3d947976	0.07249729
189	0x3d50f27b	0.051012497
190	0xbd5e66ff	-0.054297443
191	0xbd188851	-0.037239376
192	0x3cb16f02	0.021659378
193	0x3d3bedc1	0.045881037
194	0x3d836c6e	0.06417166
195	0x3842fe64	4.6490124e-05
196	0x3a6d9b37	0.00090639613
197	0xbd264bfd	-0.04059981
198	0xbdb09f1d	-0.086240984
199	0xbd8dd34e	-0.06925069
200	0x3ccaacd1	0.024740608
201	0x3d951ae0	0.072805166
202	0x3e74579b	0.23861544
203	0x3b5aee8d	0.0033406348
204	0x3e1e1251	0.15436675
205	0xbdfc03a1	-0.1230538
206	0x3d967b12	0.073476925
207	0xbc41f604	-0.01183844
208	0xbd561264	-0.052263632
209	0xbbde8c9f	-0.0067916657
210	0xbcc0365a	-0.023463417
211	0xbb624b2b	-0.0034529667
212	0xb98ff024	-0.00027454004
213	0xbd9b54ad	-0.0758451
214	0xbc80b078	-0.015709147
215	0x393c903b	0.00017982807
216	0xbca6d7cd	-0.020366574
217	0xbd3abdf8	-0.045591325
218	0xbdbb2ee3	-0.09139802
219	0xbb7369b7	-0.0037141868
220	0x3d27129d	0.040789235
221	0xbbb9eef9	-0.0056742397
222	0xbc2a9b9c	-0.010413077
223	0xbd040c48	-0.032238275
224	0x353f3fd8	7.124595e-07
225	0x358be192	1.0421957e-06
226	0x350d165d	5.2559136e-07
227	0x3504d756	4.9487187e-07
228	0xb50c7944	-5.233053e-07
229	0xb4d69e95	-3.997599e-07
230	0x35390aab	6.8933394e-07
231	0x34862628	2.4987207e-07
232	0xb3f70619	-1.1502943e-07
233	0xb53d83fa	-7.060004e-07
234	0x34029823	1.216254e-07
235	0x35b56e40	1.3517638e-06
236	0x36284265	2.5072598e-06
237	0x359223ae	1.0888232e-06
238	0xb44b32f8	-1.892439e-07
239	0x3605aa79	1.9917773e-06
240	0x00000000	0.0
241	0x80000000	-0.0
242	0x00000000	0.0
243	0x00000000	0.0
244	0x80000000	-0.0
245	0x00000000	0.0
246	0x80000000	-0.0
247	0x00000000	0.0
248	0x80000000	-0.0
249	0x00000000	0.0
250	0x00000000	0.0
251	0x80000000	-0.0
252	0x00000000	0.0
253	0x80000000	-0.0
254	0x00000000	0.0
255	0x00000000	0.0

89 f4 [32]
0	0x3d84fac0	0.06493139
1	0xafa6025f	-3.019691e-10
2	0xb08d32da	-1.0273553e-09
3	0xb53022fe	-6.561603e-07
4	0x3d8e53b9	0.069495626
5	0xa68d5f71	-9.80971e-16
6	0xbf182d86	-0.59444463
7	0x3c75d2c0	0.01500386
8	0x2e00734f	2.9206245e-11
9	0xbe8ae8e3	-0.27130803
10	0xbed9915a	-0.42493707
11	0x3da8f282	0.0824938
12	0xbe769f9c	-0.24084324
13	0x3cb74538	0.022371873
14	0x3ae8d7bd	0.001776449
15	0xb556e767	-8.0057947e-07
16	0x91a360ef	-2.5776605e-28
17	0x804d25b6	-7.084861e-39
18	0x8d975a28	-9.327798e-31
19	0xbc959b85	-0.018262634
20	0x399e1340	0.0003015045
21	0xbe7aa8e6	-0.24478492
22	0xbe3cd804	-0.18441778
23	0xbd98bf00	-0.07458305
24	0x3e8b6a6e	0.27229637
25	0xbe264381	-0.16236688
26	0x392dd6c7	0.00016578576
27	0xa12b3531	-5.800745e-19
28	0x3c498b68	0.012301303
29	0xbdd36cf4	-0.103235155
30	0xb611500f	-2.1653284e-06
31	0x3e00eee0	0.12591124

91 f4 [64, 32, 3, 3]
0	0x80000000	-0.0
1	0x00000000	0.0
2	0x00000000	0.0
3	0x00000000	0.0
4	0x00000000	0.0
5	0x00000000	0.0
6	0x00000000	0.0
7	0x00000000	0.0
8	0x80000000	-0.0
9	0x00000000	0.0
10	0x80000000	-0.0
11	0x00000000	0.0
12	0x00000000	0.0
13	0x80000000	-0.0
14	0x00000000	0.0
15	0x80000000	-0.0
16	0x00000000	0.0
17	0x80000000	-0.0
18	0x00000000	0.0
19	0x80000000	-0.0
20	0x80000000	-0.0
21	0x00000000	0.0
22	0x00000000	0.0
23	0x80000000	-0.0
24	0x00000000	0.0
25	0x80000000	-0.0
26	0x80000000	-0.0
27	0x00000000	0.0
28	0x00000000	0.0
29	0x00000000	0.0
30	0x80000000	-0.0
31	0x00000000	0.0
32	0x80000000	-0.0
33	0x00000000	0.0
34	0x80000000	-0.0
35	0x80000000	-0.0
36	0x00000000	0.0
37	0x00000000	0.0
38	0x80000000	-0.0
39	0x00000000	0.0
40	0x00000000	0.0
41	0x00000000	0.0
42	0x00000000	0.0
43	0x80000000	-0.0
44	0x80000000	-0.0
45	0x80000000	-0.0
46	0x80000000	-0.0
47	0x80000000	-0.0
48	0x00000000	0.0
49	0x80000000	-0.0
50	0x00000000	0.0
51	0x00000000	0.0
52	0x80000000	-0.0
53	0x80000000	-0.0
54	0x00000000	0.0
55	0x00000000	0.0
56	0x00000000	0.0
57	0x80000000	-0.0
58	0x00000000	0.0
59	0x00000000	0.0
60	0x80000000	-0.0
61	0x00000000	0.0
62	0x80000000	-0.0
63	0x00000000	0.0
64	0x00000000	0.0
65	0x80000000	-0.0
66	0x00000000	0.0
67	0x80000000	-0.0
68	0x80000000	-0.0
69	0x00000000	0.0
70	0x00000000	0.0
71	0x80000000	-0.0
72	0x80000000	-0.0
73	0x00000000	0.0
74	0x80000000	-0.0
75	0x00000000	0.0
76	0x00000000	0.0
77	0x00000000	0.0
78	0x00000000	0.0
79	0x00000000	0.0
80	0x00000000	0.0
81	0x80000000	-0.0
82	0x00000000	0.0
83	0x80000000	-0.0
84	0x80000000	-0.0
85	0x00000000	0.0
86	0x80000000	-0.0
87	0x80000000	-0.0
88	0x80000000	-0.0
89	0x80000000	-0.0
90	0x00000000	0.0
91	0x80000000	-0.0
92	0x80000000	-0.0
93	0x80000000	-0.0
94	0x00000000	0.0
95	0x00000000	0.0
96	0x00000000	0.0
97	0x00000000	0.0
98	0x80000000	-0.0
99	0x80000000	-0.0
100	0x80000000	-0.0
101	0x00000000	0.0
102	0x80000000	-0.0
103	0x80000000	-0.0
104	0x00000000	0.0
105	0x00000000	0.0
106	0x80000000	-0.0
107	0x80000000	-0.0
108	0x00000000	0.0
109	0x00000000	0.0
110	0x00000000	0.0
111	0x00000000	0.0
112	0x80000000	-0.0
113	0x00000000	0.0
114	0x00000000	0.0
115	0x00000000	0.0
116	0x00000000	0.0
117	0x00000000	0.0
118	0x80000000	-0.0
119	0x80000000	-0.0
120	0x00000000	0.0
121	0x00000000	0.0
122	0x00000000	0.0
123	0x00000000	0.0
124	0x00000000	0.0
125	0x00000000	0.0
126	0x80000000	-0.0
127	0x00000000	0.0
128	0x80000000	-0.0
129	0x00000000	0.0
130	0x80000000	-0.0
131	0x00000000	0.0
132	0x80000000	-0.0
133	0x80000000	-0.0
134	0x80000000	-0.0
135	0x80000000	-0.0
136	0x00000000	0.0
137	0x80000000	-0.0
138	0x80000000	-0.0
139	0x00000000	0.0
140	0x00000000	0.0
141	0x00000000	0.0
142	0x80000000	-0.0
143	0x00000000	0.0
144	0x00000000	0.0
145	0x00000000	0.0
146	0x00000000	0.0
147	0x80000000	-0.0
148	0x00000000	0.0
149	0x00000000	0.0
150	0x80000000	-0.0
151	0x80000000	-0.0
152	0x00000000	0.0
153	0x80000000	-0.0
154	0x00000000	0.0
155	0x00000000	0.0
156	0x00000000	0.0
157	0x80000000	-0.0
158	0x80000000	-0.0
159	0x00000000	0.0
160	0x00000000	0.0
161	0x00000000	0.0
162	0x80000000	-0.0
163	0x00000000	0.0
164	0x00000000	0.0
165	0x80000000	-0.0
166	0x00000000	0.0
167	0x00000000	0.0
168	0x80000000	-0.0
169	0x80000000	-0.0
170	0x80000000	-0.0
171	0x80000000	-0.0
172	0x00000000	0.0
173	0x80000000	-0.0
174	0x00000000	0.0
175	0x00000000	0.0
176	0x00000000	0.0
177	0x80000000	-0.0
178	0x80000000	-0.0
179	0x00000000	0.0
180	0x80000000	-0.0
181	0x00000000	0.0
182	0x00000000	0.0
183	0x00000000	0.0
184	0x80000000	-0.0
185	0x80000000	-0.0
186	0x00000000	0.0
187	0x80000000	-0.0
188	0x00000000	0.0
189	0x00000000	0.0
190	0x00000000	0.0
191	0x80000000	-0.0
192	0x00000000	0.0
193	0x80000000	-0.0
194	0x00000000	0.0
195	0x00000000	0.0
196	0x00000000	0.0
197	0x00000000	0.0
198	0x80000000	-0.0
199	0x80000000	-0.0
200	0x80000000	-0.0
201	0x00000000	0.0
202	0x00000000	0.0
203	0x00000000	0.0
204	0x00000000	0.0
205	0x00000000	0.0
206	0x80000000	-0.0
207	0x00000000	0.0
208	0x00000000	0.0
209	0x00000000	0.0
210	0x00000000	0.0
211	0x80000000	-0.0
212	0x80000000	-0.0
213	0x00000000	0.0
214	0x00000000	0.0
215	0x00000000	0.0
216	0x80000000	-0.0
217	0x80000000	-0.0
218	0x00000000	0.0
219	0x80000000	-0.0
220	0x80000000	-0.0
221	0x00000000	0.0
222	0x00000000	0.0
223	0x00000000	0.0
224	0x00000000	0.0
225	0x80000000	-0.0
226	0x00000000	0.0
227	0x80000000	-0.0
228	0x80000000	-0.0
229	0x00000000	0.0
230	0x80000000	-0.0
231	0x80000000	-0.0
232	0x80000000	-0.0
233	0x00000000	0.0
234	0x00000000	0.0
235	0x00000000	0.0
236	0x80000000	-0.0
237	0x80000000	-0.0
238	0x00000000	0.0
239	0x80000000	-0.0
240	0x80000000	-0.0
241	0x00000000	0.0
242	0x00000000	0.0
243	0x80000000	-0.0
244	0x00000000	0.0
245	0x00000000	0.0
246	0x80000000	-0.0
247	0x00000000	0.0
248	0x00000000	0.0
249	0x80000000	-0.0
250	0x80000000	-0.0
251	0x00000000	0.0
252	0x00000000	0.0
253	0x80000000	-0.0
254	0x00000000	0.0
255	0x00000000	0.0

92 f4 [64]
0	0x007a7d7f	1.124895e-38
1	0xb8054b7a	-3.1779964e-05
2	0xa09555fc	-2.5298482e-19
3	0x9eb4cb0c	-1.914222e-20
4	0xbe72f129	-0.23724808
5	0xb181cf45	-3.777958e-09
6	0x3e8c360c	0.27384984
7	0xbe415cf4	-0.18883115
8	0xbe418e56	-0.18901953
9	0x3b6c98e0	0.0036101863
10	0x3a044b4e	0.00050466217
11	0xbdd599a0	-0.10429692
12	0xb8947933	-7.079765e-05
13	0x0f2881aa	8.308012e-30
14	0x39e4caf7	0.0004363877
15	0xb65c14f4	-3.279475e-06
16	0x2f900b60	2.620153e-10
17	0xb3945a08	-6.9081636e-08
18	0x3c37f66a	0.011228183
19	0xbb3fd19d	-0.0029269226
20	0x06fe42a5	9.5642106e-35
21	0x80012184	-1.03859e-40
22	0xb7ac80aa	-2.0563912e-05
23	0xbd77c8b0	-0.060494125
24	0xb85a9dbb	-5.212215e-05
25	0xb3b5cdfa	-8.465936e-08
26	0xbe2e861c	-0.17043346
27	0x9c4a9b34	-6.703679e-22
28	0xbda68084	-0.08129981
29	0x002fb378	4.38065e-39
30	0xb7613247	-1.3422751e-05
31	0xadff9a6f	-2.9058726e-11
32	0x9c3810ed	-6.090237e-22
33	0xb892fd6f	-7.009028e-05
34	0xaeb99522	-8.439317e-11
35	0xb7adfa9c	-2.0739906e-05
36	0xa61d0271	-5.4473626e-16
37	0x3a37b807	0.0007008318
38	0x3e380d81	0.17973901
39	0xbe827d92	-0.25486428
40	0xbe7aeb79	-0.24503888
41	0x9b000b80	-1.0591628e-22
42	0xbe77802a	-0.24169984
43	0x9c717fba	-7.9905294e-22
44	0xaa340ab2	-1.5990922e-13
45	0x2d545b83	1.20711245e-11
46	0x8000ce95	-7.4108e-41
47	0x000c236c	1.114733e-39
48	0xad3c95c8	-1.0719821e-11
49	0xb51736a3	-5.633139e-07
50	0xbd4717e4	-0.04860677
51	0x80148a8e	-1.886414e-39
52	0x397db710	0.00024196156
53	0x8000faae	-8.9927e-41
54	0x9db0e42a	-4.682273e-21
55	0xa9f4c069	-1.08691546e-13
56	0x9f33ba1a	-3.8058664e-20
57	0x3a5f76b0	0.0008524461
58	0xbe630727	-0.22170697
59	0xb8687623	-5.5423134e-05
60	0xbcb24961	-0.021763505
61	0x820c1cf4	-1.0293885e-37
62	0x367185d8	3.5989706e-06
63	0xbd2f2e1e	-0.04276859
