model/lion_with_open_eyes.onnx (onnx, 301496 bytes, 16 tensors)

fc.weight f4 [2, 256]
00000000: d965 15be 08b2 d1bd 3caf 23be c663 02be
00000010: 4c00 2abe 614f 1fbe f9f4 16be 7f34 02be
00000020: 84ff 468a eb03 478a 4701 478a 5406 478a
00000030: 2b8a ea8f 2b8a ea8f 2b8a ea8f 2b8a ea8f
00000040: 7d7c 2c3e 6a19 163e 181e 073e cf05 d73d
00000050: 3021 8c3d 3616 b53d 423d 7e3d efcf 8d3d
00000060: f0e1 2db8 eee1 2db8 f0e1 2db8 f0e1 2db8
00000070: 9827 0080 9827 0080 9827 0080 9827 0080
00000080: daf1 2aa4 daf1 2aa4 daf1 2aa4 daf1 2aa4
00000090: eeb3 12b2 eeb3 12b2 eeb3 12b2 eeb3 12b2
000000a0: e3fc ef9c e3fc ef9c e3fc ef9c e3fc ef9c
000000b0: 3d81 0380 3d81 0380 3d81 0380 3d81 0380
000000c0: 1b0e 2b3e 4d52 343d 8394 2a3e 8c32 8a3c
000000d0: 0a21 673e dcbe 553e 010c 413e 7983 2d3e
000000e0: 4581 6f3d d350 5a3d d0ff 553d 73cb 393d
000000f0: f342 f200 5650 f200 f342 f200 d63e f200
00000100: 5207 a33d 95c1 a03d 0572 6c3d 55cc 503d
00000110: bf16 0000 4420 0000 2e1d 0000 0c1f 0000
00000120: 5abe 0884 79bf 0884 63bf 0884 7ac0 0884
00000130: 148a a0bd 975b a5bd 7829 9cbd 1f60 8bbd
00000140: 88f1 bc36 1ef6 bc36 faf2 bc36 fefc bc36
00000150: aa04 2233 4504 2233 aa04 2233 4504 2233
00000160: b8d7 5c3d 784a b03b dafa 5d3d c5dd a53b
00000170: ed62 13be ab65 29be 7c3a d7bd d402 0dbe
00000180: f05c 438a f05c 438a f05c 438a f05c 438a
00000190: a256 0080 e256 0080 3766 0080 2c56 0080
000001a0: 2d00 7a31 2d00 7a31 2d00 7a31 2d00 7a31
000001b0: ff13 8321 ff13 8321 ff13 8321 ff13 8321
000001c0: c1f8 008c b2f8 008c b5f8 008c b2f8 008c
000001d0: c6f6 39be 2aeb 4abe 2f0c 35be 6a4e 5abe
000001e0: b527 3a3e b70b 303d 9ff5 303e e4b6 7a3c
000001f0: 54e8 31b7 54e8 31b7 54e8 31b7 54e8 31b7
00000200: eb3f c23d 32c7 013d bfd9 a83d c3c6 823c
00000210: 4a59 693d 406c e83d e07c 923d 2462 f03d
00000220: eddf fe3c 6313 3a3c fece fd3c 6064 b33b
00000230: 3b66 173e 9f3c 093e 10e7 0b3e ca8e 183e
00000240: 7a6e 292c ffc0 282c f66f 292c 8dbd 282c
00000250: f840 b588 f840 b588 f840 b588 f840 b588
00000260: 5eb7 dd8e 5eb7 dd8e 5eb7 dd8e 5eb7 dd8e
00000270: f681 a73d fedd 973d bc54 af3d ac04 993d
00000280: 7e3d 5c3e c1b5 203e d823 593e a181 083e
00000290: ff69 233e f14e 843d fa9c 1c3e 1dbb e03c
000002a0: bd01 3bbe c057 2ebe 1d62 12be 8ff3 0fbe
000002b0: d901 0aba d901 0aba d901 0aba d901 0aba
000002c0: a2f0 7e3e dff2 ba3d 3b78 763e 810e ec3d
000002d0: d910 d62d d910 d62d d910 d62d d910 d62d
000002e0: 2f8b 16be 5907 b6bd 656c 25be 2264 e8bd
000002f0: 781e 9aa8 781e 9aa8 781e 9aa8 781e 9aa8
00000300: 50ee eab3 50ee eab3 50ee eab3 50ee eab3
00000310: 0066 4e3d b03a 493d 9d72 1f3d b0f1 023d
00000320: 9bf3 863e 8a57 333e 4251 7f3e 45bc 313e
00000330: 5e44 9db9 5f3d 9db9 5943 9db9 373b 9db9
00000340: 592e dcbd f399 c7bd 9b10 fcbd 48c5 abbd
00000350: f494 01a0 79ba 01a0 ae59 01a0 2e7e 01a0
00000360: 195d 9abd 2629 a2bd 4546 abbd 0871 9dbd
00000370: 3423 0080 3423 0080 3423 0080 3423 0080
00000380: fd9b 5515 fd9b 5515 fd9b 5515 fd9b 5515
00000390: 9125 e6bd 5fe4 90bc 0015 febd cad5 28bd
000003a0: 52ba 5589 52ba 5589 52ba 5589 a1ba 5589
000003b0: 6816 0080 6816 0080 7316 0080 6816 0080
000003c0: 76c8 a7b5 76c8 a7b5 7ac8 a7b5 76c8 a7b5
000003d0: 08fa 813e dfd9 e73d 7866 623e 5f94 743d
000003e0: 47d0 0bbe cf8f 2dbe e34f 12be a1fe 2ebe
000003f0: 1c09 b9bd 74b3 cebd c1a3 c9bd dbe5 d2bd
-0.14589633 -0.10239035 -0.15984815 -0.12733373 -0.16601676 -0.15557624 -0.14741887 -0.12715338
-9.5814104e-33 -9.582238e-33 -9.581742e-33 -9.582692e-33 -2.3127402e-29 -2.3127402e-29 -2.3127402e-29 -2.3127402e-29
0.16844364 0.14658132 0.13195074 0.10499155 0.068422675 0.08842127 0.06207014 0.06924426
-4.1456835e-05 -4.1456828e-05 -4.1456835e-05 -4.1456835e-05 -1.4204e-41 -1.4204e-41 -1.4204e-41 -1.4204e-41
-3.706773e-17 -3.706773e-17 -3.706773e-17 -3.706773e-17 -8.53923e-09 -8.53923e-09 -8.53923e-09 -8.53923e-09
-1.5881063e-21 -1.5881063e-21 -1.5881063e-21 -1.5881063e-21 -3.21868e-40 -3.21868e-40 -3.21868e-40 -3.21868e-40
0.167046 0.0440238 0.16658215 0.016869806 0.22571197 0.20873588 0.18852235 0.16944684
0.05847289 0.053299736 0.052245915 0.04536004 2.2248207e-38 2.2253009e-38 2.2248207e-38 2.2246731e-38
0.079603806 0.07849423 0.057725925 0.050976116 8.16e-42 1.1575e-41 1.0468e-41 1.1138e-41
-1.6074128e-36 -1.6074643e-36 -1.6074604e-36 -1.6075104e-36 -0.07838836 -0.0807411 -0.07625097 -0.06805443
5.6309545e-06 5.6314884e-06 5.631123e-06 5.632289e-06 3.7722806e-08 3.7722447e-08 3.7722806e-08 3.7722447e-08
0.053916663 0.005379971 0.05419431 0.0050618374 -0.14393206 -0.1654269 -0.10509202 -0.1377061
-9.406388e-33 -9.406388e-33 -9.406388e-33 -9.406388e-33 -3.1078e-41 -3.1168e-41 -3.6668e-41 -3.0913e-41
3.6379888e-09 3.6379888e-09 3.6379888e-09 3.6379888e-09 8.882198e-19 8.882198e-19 8.882198e-19 8.882198e-19
-9.935618e-32 -9.9356e-32 -9.935604e-32 -9.9356e-32 -0.18160543 -0.1981627 -0.17680429 -0.21318975
0.1817921 0.042979922 0.17281197 0.015302394 -1.0604115e-05 -1.0604115e-05 -1.0604115e-05 -1.0604115e-05
0.09484848 0.031684108 0.08244657 0.015963918 0.05696992 0.11348772 0.07152724 0.11737469
0.031112636 0.011357161 0.03098249 0.005474612 0.14785092 0.13402031 0.13662362 0.1489822
2.4077671e-12 2.398137e-12 2.4078495e-12 2.3979458e-12 -1.0908815e-33 -1.0908815e-33 -1.0908815e-33 -1.0908815e-33
-5.4657282e-30 -5.4657282e-30 -5.4657282e-30 -5.4657282e-30 0.08179085 0.074153885 0.08561084 0.07471594
0.21507832 0.15694334 0.2120508 0.133307 0.15958403 0.064603694 0.15294257 0.027432973
-0.18262382 -0.17025661 -0.1429524 -0.14057754 -0.00052645575 -0.00052645575 -0.00052645575 -0.00052645575
0.24896482 0.09128355 0.24069302 0.11526204 2.4336465e-11 2.4336465e-11 2.4336465e-11 2.4336465e-11
-0.14701532 -0.0888812 -0.1615463 -0.11347224 -1.7110648e-14 -1.7110648e-14 -1.7110648e-14 -1.7110648e-14
-1.0939823e-07 -1.0939823e-07 -1.0939823e-07 -1.0939823e-07 0.050390244 0.049128234 0.038927663 0.031968772
0.2635773 0.17513862 0.24933341 0.17356975 -0.0002999631 -0.000299911 -0.0002999555 -0.00029989492
-0.107510276 -0.0974616 -0.12307855 -0.08387238 -1.097601e-19 -1.0988424e-19 -1.0956398e-19 -1.0968474e-19
-0.07537288 -0.07918005 -0.08363012 -0.076875746 -1.2629e-41 -1.2629e-41 -1.2629e-41 -1.2629e-41
4.313806e-26 4.313806e-26 4.313806e-26 4.313806e-26 -0.11237634 -0.01768702 -0.12406349 -0.04121951
-2.572655e-33 -2.572655e-33 -2.572655e-33 -2.5726695e-33 -8.038e-42 -8.038e-42 -8.053e-42 -8.038e-42
-1.2500811e-06 -1.2500811e-06 -1.2500816e-06 -1.2500811e-06 0.2538607 0.113208525 0.22109401 0.05971181
-0.1365367 -0.1694939 -0.14288287 -0.1708932 -0.090349406 -0.10092822 -0.09845687 -0.10297748

fc.bias f4 [2]
00000000: c5dc 5ebc 3824 a23d
-0.01360244 0.079170644

79 f4 [16, 3, 7, 7]
00000000: 0c78 2fbe d86e 35be 26ce 1d3c ec18 273e
00000010: 7491 8fbc 4375 ce3c 33f8 1ebe b9d9 a23a
00000020: 9a70 203d 4207 583e a34c 503e 2624 893d
00000030: 68f9 9dbb 6eb6 853d 4448 823d 011f 3a3e
00000040: aa02 113e 033a 09bd 9e2d b73d 0f51 f13d
00000050: 90bf 473e 8e8a 653e dc7c fb3d b4b8 80bb
00000060: 0f22 3dbe d22c 53be 8171 41bc 3394 3f3e
00000070: deb6 033e ee24 9cbc eaff b9bd 05de d3be
00000080: c11c 88be 01a9 bdbd ce38 dc3d c8c7 ce3d
00000090: fb6b 123d 076e abbd 75cf bbbe 766c 86be
000000a0: fadc c4bd 4211 503e 6bfc 0c3e 2cfa 183e
000000b0: 7f75 1bbe 8e9c 3abe 8c70 a6bd e11e 7e3d
000000c0: 4df6 883e 71f8 f8bd 8d19 06be 5aa9 b2bd
000000d0: 0c14 c93d ff7d 52bd e136 06be 3051 72be
000000e0: 24a8 6cbd e694 173d 004f 283e 415e ab3c
000000f0: c837 f83d ba58 ecbc f8c7 ab3d cf52 a33c
00000100: 0739 7d3d 3167 9f3c c269 aa3d 2f82 2abd
00000110: d54d bebc f990 113e bbc6 e93c 082c a5bc
00000120: 5bb2 023c b405 0ebe befb 22be f821 c33c
00000130: 41d7 a13c cbf2 5e3d 4dce 8d3d 0e25 e4bd
00000140: 12d8 4ebe 639c 1fbe 8eae fdbd cca9 553d
00000150: f03a 1d3e c941 143d df12 abbd c52e 41be
00000160: c638 14be c523 43bb c5d4 be3d b03b b93d
00000170: ea09 c43d 2313 a1bc 31ef 7eb8 5f07 003e
00000180: a8d0 6d3e 3aac 923e 877d aebe 9e62 43be
00000190: 1437 cabd 2cef 423d bc12 a1bd d5a2 77be
000001a0: 4665 2abe bd28 babd e126 dfbb aa11 3b3c
000001b0: c184 a13d 6018 313d 7458 1bbd da33 10be
000001c0: b361 c0bd 2f09 323b 2953 b0ba cd47 d13c
000001d0: 8d93 b03d 9fe8 a63d 405b a5bc fc22 b1bd
000001e0: 2a1f 75bc 8a78 16bd 2387 24bd f675 42bd
000001f0: b22a 2dbc 2f84 b63d 7f8a 9bbd 7302 143d
00000200: 1b97 c4bc 1e3d 1dbe 45b3 d5bd 7447 f9bc
00000210: 3c3d c23c 20c9 7e3d c47b 83bd 6e47 e2bd
00000220: 711f 5ebd d0ae 26bd 7ab6 7c3a f8ec ad3d
00000230: 701e fa3b e132 883d 680a 8e3c dd54 fabc
00000240: 9433 f63d 46b3 4d3e f969 523e ddd5 a0bc
00000250: 5c09 4a3d 426d 323d aafd a8bc ad78 4abb
00000260: 449c b0bc 653e f53c 02e2 e0bd 69a3 0bbc
00000270: c3a6 9d3b 1709 053d 9c5e 153d 14fe 513d
00000280: 635d 7c3d ef0d 62bd 3aeb 743c c9ff 133e
00000290: ebb3 503e 3d35 243e 2eae b83d a9f7 a03d
000002a0: 7d7d 8bbd 25f3 1dbd dbd8 503c 196e af3c
000002b0: d69e 583b 7fa4 073d 9623 273c 845c b9bd
000002c0: 21e6 ecbc 2766 ebbb 40fe 0bbc 9435 863c
000002d0: 5dda ad3c 2139 b1bd d518 25bd f02b ee3c
000002e0: 372f 0ebc 7e47 0dbc 8efa fbbb cade 30bc
000002f0: 6acc d7bd 2e30 d4bd af1b 583d c839 233e
00000300: 14ff 053e 17fd a63d 3762 153c ba6b 5e3d
00000310: 8ebd 0abd 22e6 583d 7dca b93c 2af9 11bd
00000320: 275b 323b 1e92 14bd 1792 d5bc 1d39 97bd
00000330: b330 0e3d fea6 7a3d 6b4c a13d 737f 4b3d
00000340: 2304 0f3d 6acf 8f3b ff8e d1bb 8388 bc3d
00000350: 8184 473e 05dd 803e d896 473e 69f7 f33d
00000360: c3f3 1d3d c552 86bd 748e c6bc 6365 2b3d
00000370: 2813 d43d 6934 8b3d 36a7 613d e7aa 4aba
00000380: 433a 41bd a42b aebc a37c 84bd 6525 79bd
00000390: 1ea3 c7bc 3f11 02ba 88a1 76bd 7e3b e7bb
000003a0: 8493 663d 9edd bc3c 7903 d73b 5d3b 99bd
000003b0: b028 73bd 3fea 66bd 2758 93bd 9238 efbb
000003c0: 86b2 27ba 0c2a 5c3d f479 7c3c a737 1abd
000003d0: 6a6e e0bd cd7d e0bb 7d81 933d 3a21 153a
000003e0: 9771 073d 2136 2a3d a12e 1b3d 2748 fdbb
000003f0: 2fa3 89bc 688c b03d 13e5 ef3d 264b 083e
-0.17135638 -0.17718065 0.009631669 0.163181 -0.017525412 0.0252024 -0.15524368 0.0012424506
0.039169885 0.21096519 0.20341735 0.06696348 -0.0048209913 0.06528936 0.0636144 0.1817589
0.14161173 -0.03350259 0.08944248 0.11783039 0.19506669 0.22416136 0.122796744 -0.0039282683
-0.18470024 -0.20622566 -0.011806847 0.18708877 0.12862727 -0.019060578 -0.09082015 -0.41380325
-0.26584437 -0.092607506 0.10753022 0.10096699 0.03574751 -0.083705954 -0.36681715 -0.26254624
-0.096124604 0.20319083 0.13768165 0.14939183 -0.1518154 -0.18223783 -0.08126935 0.062041167
0.26750413 -0.121567614 -0.13095684 -0.087237075 0.09818277 -0.05138969 -0.13106872 -0.23663783
-0.05777754 0.037007235 0.16436386 0.020918967 0.121200144 -0.028850902 0.083877504 0.019936947
0.061821964 0.019458385 0.08320953 -0.04162806 -0.023230473 0.14215459 0.028537145 -0.020162597
0.007977094 -0.13869363 -0.15916345 0.023819908 0.019755961 0.054430764 0.069241144 -0.1113988
-0.20199612 -0.15587 -0.12386809 0.052163884 0.15354514 0.03619555 -0.08353209 -0.18865497
-0.14474782 -0.002977596 0.09317926 0.090445876 0.095722035 -0.019662445 -6.0781083e-05 0.12502812
0.23224127 0.28647023 -0.34080145 -0.19080588 -0.098737866 0.047591373 -0.078649014 -0.24183209
-0.16640195 -0.090898015 -0.0068100546 0.011417786 0.07886649 0.043236136 -0.037926152 -0.1408228
-0.09393635 0.0027166118 -0.0013452518 0.025546933 0.08621893 0.08149838 -0.020185113 -0.08649251
-0.014961043 -0.03673605 -0.04016794 -0.047475778 -0.010569261 0.08911931 -0.075947754 0.03613515
-0.023997834 -0.15355346 -0.104345836 -0.03042958 0.02371084 0.062203526 -0.06420091 -0.110487804
-0.054229204 -0.040694058 0.0009640228 0.08492464 0.007633023 0.066503294 0.017338946 -0.030558044
0.120215565 0.20087919 0.20548238 -0.019633228 0.049325332 0.043561228 -0.020628769 -0.0030894682
-0.021558888 0.029936979 -0.109806076 -0.008522847 0.0048111393 0.032479372 0.03646718 0.0512677
0.061612498 -0.05518907 0.0149486605 0.14453043 0.20381133 0.16035934 0.09017597 0.078597374
-0.06811044 -0.03856196 0.012747015 0.021414803 0.0033053658 0.03311586 0.010201355 -0.09050849
-0.028918328 -0.0071838084 -0.008544505 0.01638297 0.021222288 -0.086534746 -0.040306885 0.029073685
-0.008678249 -0.008623002 -0.0076897806 -0.010795305 -0.10537036 -0.10360752 0.052760776 0.1594001
0.13085586 0.08153742 0.0091176545 0.054301955 -0.03387218 0.052953847 0.022679562 -0.035638012
0.0027214976 -0.03627216 -0.026070638 -0.0738394 0.034714412 0.061194412 0.07875904 0.049682092
0.034916054 0.0043887394 -0.0063952203 0.09205725 0.1948414 0.25168625 0.19491136 0.11912424
0.038562547 -0.06558756 -0.024237849 0.041844737 0.10355216 0.06797106 0.055091105 -0.0007731155
-0.047174703 -0.021261044 -0.06469085 -0.060826678 -0.024369773 -0.00049616763 -0.060212642 -0.0070566526
0.056293026 0.023054894 0.0065616933 -0.07482026 -0.059364974 -0.05637574 -0.07194548 -0.007300445
-0.00063971465 0.053751037 0.015409935 -0.03765073 -0.1095856 -0.006850934 0.07202432 0.000568885
0.033067312 0.041555528 0.037886266 -0.0077295485 -0.016801445 0.0862053 0.11713614 0.13309917

80 f4 [16]
00000000: 2a73 af3e 59a6 69bf 5aeb 063e a832 083e
00000010: 04fa be3c 2cc2 15bf cae1 053f 1283 5dbf
00000020: a823 3dbe 3a06 77bd dafc 193f 1879 c0be
00000030: 92bd d73d debc 74bf 90f0 153f 854d 073f
0.3426755 -0.9126945 0.13175717 0.13300574 0.023312576 -0.5849941 0.5229765 -0.8652812
-0.18470633 -0.060308672 0.60151446 -0.37592387 0.105342045 -0.9560069 0.58570194 0.5285266

82 f4 [32, 16, 3, 3]
00000000: c748 7cbd d23d 92bd 8640 a9bc 974a 41bd
00000010: 6d61 24bd ac93 a7bc e60e 3b3b 98aa ba3c
00000020: 2cb7 143d 6cb0 ae3d 0881 943d 1100 84bc
00000030: 997f b63d 5694 313d f866 c2bc 1ba9 42bd
00000040: fbb1 3339 8e79 40bd 74b2 00bd 84e6 563d
00000050: 613f dd3c 998f 18bd 8959 223c 286b 0a3d
00000060: 6727 ceb8 375c 463c 319a 7c3d c4e9 753b
00000070: 2b6a a13d 5406 223d 519c 74bd a975 3f39
00000080: 4e32 2a3d 37e0 89bd 9501 a2bc e013 ae3c
00000090: 2224 13bd a1b5 40bd 4cf0 01bd 70f3 6bbc
000000a0: 8e09 d4bc ef48 fcbc 2e16 2f3c f049 c23c
000000b0: 1887 a33c d7d2 9c3d 7736 0a3d d5f0 b3bd
000000c0: abf4 63bd 95ba 44bd ade2 7cbd 8844 0abd
000000d0: 16f8 cabc 4d4b ecbc fff8 5fbd 7c93 fcbc
000000e0: 23a2 b53b 1b71 3dbd 4a24 5dbc 27e7 fa3c
000000f0: ecd6 94bc d05a 3d3c 81f4 523d 20ee 9c3d
00000100: 3933 e03d 28c0 5a3c 5e10 0e3c 57bb 42bb
00000110: 9adf 10bd 8ae0 fdbc 6ad0 95bc a4e1 a9bc
00000120: bcd0 d1bd 5ea1 23bd 2085 08bc 49a8 64bd
00000130: 852a 21bd 5a61 f1bb d275 d7bc 5089 5f3c
00000140: 1067 833d 8d97 1fbc 8d2b d8bd 12a8 d2bd
00000150: 82e7 12bd 07ec ccbd b654 92bd b5d9 853d
00000160: 0bfc e53b 420a 273d dc86 143d f162 543d
00000170: 4e3f 22bb 2493 00bc 669d d83c 16e5 35bd
00000180: 1d35 81bc 41f7 773d bf32 423c 9188 af3d
00000190: 2b94 b63d ef9e 853c 76fe 89bb 1497 99bc
000001a0: d4f9 11bc c5a5 0cbd 135e 30bd db75 f1bb
000001b0: d0c6 db3d e740 f73d 56a7 d9bb 673f be3c
000001c0: 3e75 103d 817d c8bd bb8b bdbd a9e3 9fbd
000001d0: 2011 dabd 2954 5fbd 00ce e0bb c485 543d
000001e0: b2a6 1fbd 575b 593b 246b a9bb 5ce1 8abd
000001f0: b193 063a f6ff 143c 5181 f73c 62f6 113d
00000200: 6162 5e3d f7ee 5e3c 0b2b 3b3c bcef 033d
00000210: b924 ba3c a12f f23c 4c52 2b3d da1e b5bc
00000220: d4f4 fdbb bda6 83bc 750b f73b 9a52 ffbc
00000230: 7c84 5dbc e39e cdbc 1aca 3cbd 6f01 433c
00000240: 3eca 923c 2a0c c8bc 9a98 ec3a a821 8d3c
00000250: 3187 2ebd 57db 213c d767 b33b c702 6ebd
00000260: fa90 a9bd a3d3 e1bc 99ec 9d3b ac35 a5bc
00000270: c7fa f9bd d714 b4bd 99fe 32bd 21cb f8bc
00000280: 0dbe 50bd 4fad 2dbc 5b4e a2ba 4bc5 963d
00000290: 46ea 5a3d a502 d23c ba6f 883d fe21 833c
000002a0: 89a0 1c3d 0e79 87bb 0da2 4d3c 3fd1 ccbb
000002b0: 8c1a 693c 020d 51bd a3d4 af3d 2189 183c
000002c0: 84f2 e7bc 2fd7 993d b8c4 893c c49b a2bd
000002d0: 45ca 1c3d 5f91 023c e68f 3b3d 1194 96ba
000002e0: 67eb f23b e096 613c b7ae 733a 661b b3bc
000002f0: 4b95 8cbd 2c06 86bc 28e7 95bd 4c18 02bd
00000300: d6b2 b63d a42f b7ba e211 613c 3dbb 793c
00000310: 9b5d e9bc b5df 94bd e786 9dbd 8d54 1dbc
00000320: 4610 2d3d b083 6e3d ed08 d63c c473 a13d
00000330: 18cc 213d a390 c6bd 158d 80bd e008 58bd
00000340: e0d5 3dbd 5edf 51bd d6d2 97bd 0a94 e4bc
00000350: ccec 91bd 6419 1b3d 29ba 623d 7013 453d
00000360: dab4 663d 1b1e 5f3d 5f0f e03d 7a74 1e3d
00000370: 3001 3f3c 4cf8 02bc 0122 29bc 43b0 b1bd
00000380: 3d7e ffbd fcec 183d b562 c33c 4139 073d
00000390: 96ce 313d a81f 5f3d f97c 39bd b08a 123d
000003a0: a6d4 53bb fee6 c6bd 96ba 753c fb51 53bd
000003b0: a248 943b 66c1 71bc 0fc1 edbd 2a47 fdbd
000003c0: ea5c d3bc 8426 c2bd 30b9 00be 3c9a 44bd
000003d0: 2538 d3bd cc81 59bd a811 b8bc 3226 5ebc
000003e0: a3a6 9dbb a3a7 923d e0d5 183d dab4 683c
000003f0: f206 673d 3183 4bbc e040 c1bd cb3c 9c3c
-0.061592843 -0.071406975 -0.02066065 -0.047190275 -0.040131975 -0.020456158 0.0028542816 0.022786424
0.0363075 0.085297436 0.07251173 -0.016113313 0.08911056 0.043354355 -0.02373074 -0.047524553
0.00017137073 -0.046990924 -0.031420186 0.05246593 0.02700776 -0.03724632 0.009909042 0.0337936
-9.830185e-05 0.012106947 0.061670486 0.0037523368 0.07881578 0.039556816 -0.059719387 0.00018259011
0.04155188 -0.06732219 -0.019776145 0.021249712 -0.03592313 -0.047048215 -0.031723306 -0.014401302
-0.025883462 -0.030796496 0.01068644 0.023716897 0.019961879 0.07657402 0.033743348 -0.087861694
-0.055653255 -0.0480295 -0.061739612 -0.033756763 -0.0247765 -0.0288445 -0.05468082 -0.030832045
0.00554301 -0.046250444 -0.0134974215 0.0306278 -0.018168889 0.011557296 0.05150271 0.07662606
0.1094727 0.013351478 0.008670894 -0.0029713714 -0.035369493 -0.030990858 -0.018287856 -0.020737477
-0.10244891 -0.039948814 -0.008332521 -0.05582455 -0.03934719 -0.0073663415 -0.026301298 0.013643578
0.06416142 -0.009740722 -0.10555182 -0.10285963 -0.035865314 -0.10005956 -0.071450636 0.06535665
0.0070185713 0.040781267 0.036261424 0.05185217 -0.002475697 -0.007847581 0.02644224 -0.044407926
-0.015772397 0.060538534 0.011852919 0.0857097 0.089149795 0.016311137 -0.0042112423 -0.018748797
-0.008909661 -0.034337778 -0.043058466 -0.007368786 0.1073128 0.12072926 -0.0066422625 0.023223592
0.03526806 -0.09789563 -0.09255167 -0.078070946 -0.106477976 -0.05452362 -0.0068604946 0.05188538
-0.038977332 0.0033166015 -0.005170243 -0.06781265 0.0005133702 0.009094229 0.03021303 0.03563536
0.05429304 0.013606778 0.011423836 0.03221105 0.022722589 0.029563727 0.04182653 -0.022109438
-0.007750133 -0.016070718 0.0075392076 -0.031167317 -0.013520356 -0.025100177 -0.046091177 0.011902197
0.017918702 -0.024419863 0.001805085 0.017227963 -0.042609397 0.009878955 0.005475025 -0.058108117
-0.08279605 -0.027566737 0.0048194644 -0.020167194 -0.12206035 -0.087930374 -0.043699834 -0.030370297
-0.050962497 -0.010600402 -0.0012382971 0.073618494 0.053446077 0.025636027 0.06661935 0.01600742
0.038239036 -0.004134304 0.012550843 -0.00625053 0.014227521 -0.051037796 0.08585479 0.009310038
-0.028313883 0.07511746 0.016817436 -0.07939866 0.038278837 0.0079692295 0.04579153 -0.0011488219
0.007413316 0.013768882 0.0009295749 -0.02186365 -0.06864413 -0.016360365 -0.0731948 -0.031761453
0.08920829 -0.001397599 0.013737174 0.015242395 -0.028487017 -0.07269231 -0.07691746 -0.009602678
0.042251848 0.058231056 0.026127303 0.07883409 0.03950128 -0.09695556 -0.06276909 -0.05274284
-0.046346545 -0.05123841 -0.07413261 -0.027902622 -0.071252435 0.03786601 0.055353317 0.04811424
0.056324817 0.05447207 0.10940432 0.0386853 0.011657998 -0.007993769 -0.010323049 -0.086761974
-0.1247525 0.03733538 0.023850778 0.033013586 0.043409906 0.05447355 -0.0452852 0.035776794
-0.0032322793 -0.09712027 0.014998099 -0.051591855 0.00452526 -0.014755582 -0.11609089 -0.12367089
-0.02580114 -0.094800025 -0.12570643 -0.04799865 -0.10313443 -0.0531023 -0.022469357 -0.013558911
-0.0048111244 0.071608804 0.037313342 0.014203275 0.056403108 -0.012421415 -0.09436202 0.019071957

83 f4 [32]
00000000: 519f 973e 800a b13e 4ac2 8ebe 0e27 4d3e
00000010: 5d82 8a3e 8a6b db3b e878 e3be 5225 233e
00000020: fc00 0080 4662 263e 2c76 b7be 161a bc3e
00000030: 48a4 1d3d bad9 943e 060e 153e 9015 34be
00000040: 80d1 25bb 781e 973d 35ae 8cbd acfc 153f
00000050: ce9f b9be 3e80 62ba 3e79 b33d aaa8 13be
00000060: 307a bb3d 272a 9dbe 4df4 cf1f 9d49 f6b2
00000070: 840b 05be e745 5bbd 5c14 d83e 50c9 ff3b
0.29613736 0.34578323 -0.27882606 0.2003443 0.27052584 0.0066961693 -0.44428182 0.15932205
-3.53e-43 0.16248426 -0.35832345 0.36738652 0.03848675 0.29072362 0.14556131 -0.1758635
-0.0025301874 0.07378858 -0.06869165 0.5858867 -0.36254734 -0.00086403254 0.087633595 -0.14419809
0.09154165 -0.30696222 8.807207e-20 -2.8671645e-08 -0.12992674 -0.05353346 0.42203033 0.0078059807

85 f4 [32, 32, 3, 3]
00000000: 7383 0f3d c966 b93c f18a e93d e054 683d
00000010: 3d59 8dbd e61c 00bd f38d 08bd 5985 9ebd
00000020: a8f8 cbbd 6231 97bd 966d acbb 3b66 2f3e
00000030: 1abd 59bb 4313 953a 30ea c73c 8b6d 2fbe
00000040: de88 54be 941e 1bbe af93 c3bc 114f 0c3d
00000050: ec99 6a3c a6d4 f4bc 9f33 0dbd 335c b13b
00000060: 95db e1bd 2106 e4bd 5763 c7bd eaff 103d
00000070: 2e48 863d 8750 ea3a 9afd a3bd 935c a6bd
00000080: 45f6 d9bd 21b2 cdbc 140b 10bd 3b19 55bc
00000090: 897e d1bb b06b 8abc b56a bebd 5b3f 883d
000000a0: 4737 f13c d7a1 0abd 5bfa 05be 15ca 11be
000000b0: 79eb 29be 3fef b8ba 08e2 b2ba 99e2 e8ba
000000c0: d229 60ba 060c b9ba ef90 18bb 8593 63ba
000000d0: 264c b5ba 9cb8 12bb d4f4 3ebd a4b6 84bd
000000e0: 85fb b8bd 0c3e 633d 31cb a53d cbac ee3c
000000f0: 772e 7ebb b63f 43bd 4275 aebd 0be2 f83c
00000100: 3a6e c53d c12f d0bb eeae 9abd 8032 08bd
00000110: 5193 a53b c9a1 a2bb 0871 ad3d 2ca3 163e
00000120: a0a8 0080 c912 0000 6735 0080 8fcb 0000
00000130: ff15 0080 5a68 0080 9b87 0000 f32b 0080
00000140: a2e3 0080 fc2c 2c3d 445b 1e3d db36 6c3d
00000150: c3af ee3b a19f 15bc 4add 3cbc cf5c 93bd
00000160: 9c79 c8bd f981 9dbd 6dbf 7bbd 5e1b 12bd
00000170: 4c88 23bd 5b69 08bd 6dd8 18bd fac8 c5bb
00000180: 4f8e 113d 1de1 4cbc 4633 983d a615 d63d
00000190: ec5a c63d 5063 ab3d f695 543d 6bfd 8b3c
000001a0: 4a44 8e3c f443 a93d 1859 403d 5599 443d
000001b0: aeaf 82bd 1d9c bebd 6da3 b13b 6aaa 49bd
000001c0: dc80 bcbb 57a5 bb3d 2bfc a73d 5f54 f83d
000001d0: 0b61 ca3d db10 883d 9af6 9bbd 743e e2bd
000001e0: 785e a53d b2d0 98bd bb1a 99bd f8b3 0dbd
000001f0: 665e f5bd 2067 84bd d591 903b 2328 5d3d
00000200: 1705 923c 687c 41bd f491 7abc 71bb 34bc
00000210: a697 ca3c b059 e6bb 958e 363d afd8 8cbd
00000220: f055 0cbd b231 ddbd e764 563d 4ad5 d83d
00000230: 05a6 173d 34c6 eabd 42d2 b1bd 6ebf d9bd
00000240: e853 8cbd 64f8 963c b45b 6f3d 7368 0ebb
00000250: a7b7 39bc adab 12bd e2f8 81bb 9b23 1a3c
00000260: 86aa 75bc 67fd cf3c 6762 d1bc a9a2 ab3b
00000270: 5545 60bc 9c10 ab3c c939 cb3c d1cc 8e3d
00000280: 0014 b03d b7d9 2a3b 8014 043c 2d9e b53b
00000290: a29b 9d3b 72bc 3dbc 9b5e 81bc 6fe0 92bc
000002a0: 7fcf 64bc b43e 83bc 49ee 8dbc 58fe f13d
000002b0: ecea af3d 2e67 9d3d 0606 d93d c494 223d
000002c0: 27ec e73c 048a 0f3e 1eee 173d eca2 4ebc
000002d0: ca0f b1bc 8880 52bc 68ef 95bc aa8f a8bc
000002e0: 0d22 e8bc a25b ccbc e70f 13bd 66c8 7fbd
000002f0: ba4d 12bd c9fe 98ba 6f19 46ba 5445 44b9
00000300: d395 7fba 955f 53ba f279 42ba e0f3 b0ba
00000310: 2e6d b3ba 5177 9aba adb4 a2bc cad4 3cbd
00000320: dc40 b13d 3897 e43c 7057 253d cacb f23d
00000330: 6497 ba3d efad 9b3c 28b6 b9bc b07c 9bbd
00000340: f731 20bd 50be aebd 5fc6 a9bd 2f83 82bd
00000350: 67cf 09be a2e6 793b 747e 033d b025 64bd
00000360: 7d98 863c 4ab5 733c 7d77 d2bb 1671 3cbd
00000370: 5e09 2bbd 5884 2ebd d055 873c 31b3 1bbd
00000380: a895 c7bd 0638 60bd 572c 19bd 0ccd 2dbd
00000390: 98e0 ddbd 6228 5dbd 3049 9bbd 2a05 2d3c
000003a0: 5ea3 db3b 2962 89ba 5cdc 9f1f 2e5a 721f
000003b0: 1a5c 101f 9e82 3e1e 874a 7515 81b0 a79e
000003c0: acee 861d b757 7b9e 5618 1a9f 9cad 6b80
000003d0: ed57 8582 af38 6c82 a81d 2282 fed3 0080
000003e0: e8dc 0703 35cd 9b82 a798 c882 1a13 5202
000003f0: 57af b23d 8d15 6f3d af5d 123d ebbf f53d
0.03503747 0.02263202 0.11403454 0.056721568 -0.069017865 -0.03127756 -0.0333385 -0.07740278
-0.09959537 -0.07382466 -0.005262087 0.17128842 -0.0033224286 0.0011373538 0.024403661 -0.17131631
-0.20755336 -0.15148383 -0.023874132 0.03425509 0.014318924 -0.029886555 -0.034473058 0.0054126023
-0.1102821 -0.111339815 -0.097357444 0.03540031 0.06556736 0.0017876782 -0.08007355 -0.08123126
-0.10642675 -0.025109353 -0.035166815 -0.013006504 -0.006393258 -0.016897053 -0.092976965 0.06652709
0.029445304 -0.03384575 -0.13083784 -0.14237244 -0.16593732 -0.0014109387 -0.0013647685 -0.0017767727
-0.00085511536 -0.0014117963 -0.0023279747 -0.0008681345 -0.0013831898 -0.0022387868 -0.046620205 -0.064801484
-0.090323485 0.055479094 0.08095396 0.029135128 -0.003878502 -0.04766818 -0.08518459 0.030381223
0.09640165 -0.006353349 -0.075528964 -0.033251286 0.005052962 -0.004963134 0.084688246 0.14710683
-6.0491e-41 6.739e-42 -1.9157e-41 7.3023e-41 -7.891e-42 -3.7434e-41 4.8646e-41 -1.5766e-41
-8.1659e-41 0.042035088 0.038661256 0.0576695 0.007284136 -0.009132297 -0.011527369 -0.07195436
-0.0978882 -0.07690806 -0.061461855 -0.03567063 -0.039924905 -0.0333036 -0.037315775 -0.006035921
0.035536107 -0.012504843 0.07431655 0.10453348 0.09685311 0.08368552 0.051900826 0.017088613
0.017366547 0.08264914 0.046959966 0.04799779 -0.063811645 -0.0930712 0.005421093 -0.049234785
-0.005752666 0.091623954 0.08202394 0.121254675 0.09881791 0.0664384 -0.07615395 -0.11047068
0.08074659 -0.074616805 -0.074758016 -0.03459546 -0.11980896 -0.06464982 0.004411916 0.053993355
0.017824693 -0.047237784 -0.015293587 -0.011031018 0.024730515 -0.0070297346 0.04456957 -0.068772666
-0.034261644 -0.10800494 0.05234232 0.10587557 0.037023563 -0.114635855 -0.086826816 -0.106322154
-0.06851941 0.018428989 0.058437064 -0.0021729737 -0.01133529 -0.035808254 -0.0039664367 0.009407903
-0.014994269 0.025389386 -0.025559617 0.0052378965 -0.013688405 0.020881943 0.024807828 0.069726594
0.08597565 0.002606971 0.008061528 0.0055425377 0.0048098126 -0.011580573 -0.015792182 -0.017929284
-0.013965487 -0.01602111 -0.017325537 0.1181609 0.0858973 0.076856956 0.10596852 0.039692655
0.028310848 0.14017493 0.03709232 -0.012612086 -0.021613974 -0.012848027 -0.018302634 -0.020576317
-0.02833655 -0.024946038 -0.035903838 -0.062446974 -0.035718657 -0.0011672612 -0.00075568905 -0.00018717843
-0.00097498036 -0.0008063254 -0.0007418684 -0.0013500415 -0.0013689154 -0.0011784827 -0.019861544 -0.04610137
0.08654949 0.027904138 0.04036659 0.11855276 0.09110907 0.019003836 -0.022669867 -0.07592142
-0.03911015 -0.08532393 -0.082897894 -0.063726775 -0.13458024 0.0038131853 0.032103017 -0.055700004
0.016430134 0.014874766 -0.0064229355 -0.046006285 -0.04175698 -0.04260668 0.01652041 -0.038012687
-0.097453415 -0.054740928 -0.0373958 -0.042431876 -0.108338535 -0.05399359 -0.07582319 0.010560313
0.0067028245 -0.0010481525 6.7703673e-20 5.1320088e-20 3.056937e-20 1.0085527e-20 4.9536148e-26 -1.7754813e-20
3.5716286e-21 -1.3305968e-20 -3.26309e-20 -9.888677e-39 -1.959306e-37 -1.7354809e-37 -1.1910391e-37 -7.6048e-41
3.9926522e-37 -2.2892986e-37 -2.9474977e-37 1.5433845e-37 0.0872485 0.05837016 0.035733875 0.11999496

86 f4 [32]
00000000: f1f4 303e df22 b23e 2d62 d3be 9044 dbbd
00000010: ea21 a03d 28fb a63e 00ed 823f d58b bdbd
00000020: 90d9 dbba f1c7 db3e e4bc 0f3e 7a2c 873e
00000030: 7494 ce3e 30f4 a43c 104a d63a 398a 3c39
00000040: 9000 0000 cd22 e6b8 300e 54be 6314 52b7
00000050: ed32 e9b4 248f e63e 1c4e 03ae 37fa 1e3e
00000060: d2b9 d4bc 72e5 b9bd d252 a7b8 7e0f 283e
00000070: 41e1 7cbe e403 d23e b282 97bd 18b7 a6bd
0.17280938 0.3479223 -0.4128584 -0.10706437 0.078189686 0.32613492 1.0228577 -0.092551865
-0.0016773213 0.4292598 0.140369 0.2640112 0.40347636 0.020135969 0.0016348977 0.00017980569
2.02e-43 -0.00010973737 -0.20708537 -1.2521722e-05 -4.3436685e-07 0.45031083 -2.9855327e-11 0.15525137
-0.025967512 -0.09076966 -7.978607e-05 0.1641216 -0.24695303 0.41018593 -0.07397975 -0.08140391

88 f4 [32, 16, 1, 1]
00000000: 77d8 043d dd2c a63c b520 963a add7 903c
00000010: 1e57 7f3c 04ac ea3c 586c a9bb ad25 7b3c
00000020: 52cd 133d 968e c23c 9c96 093d 4a13 a23b
00000030: 49ac 0a3c c3b4 253d 5825 5dbc 98c7 1e3d
00000040: ad20 563d e251 353e 4da5 dc3d 4b07 8c3d
00000050: 5914 d03c d790 0dbe c042 083d 0d17 923d
00000060: 0f22 e93d 6386 653d 4b56 00be 87d5 06be
00000070: a1e7 fabd bf26 e13d cdc1 eebd de48 7ebe
00000080: c308 25bd 22c5 e4bc 6cdb 02be bc9b d6bc
00000090: 6c53 023b d212 d9bc 46e8 e7bb d880 8fbe
000000a0: f16b f1bd 3574 00be 83bb 4dbd f5dc 60be
000000b0: 6f29 28be 288e 93bd 0faf 893d 732f 53be
000000c0: 72f6 2ebb 2b14 8b3b f261 223b 15a6 833a
000000d0: 185c 033b e821 d6ba 7425 73ba be4e da3a
000000e0: ccd5 df39 5656 123b b5df 023b 5cae f53a
000000f0: e906 32bb 3e29 433b fc21 17bb 4fbf 99bb
00000100: 4ae0 b7bc 2229 2dbc 8386 df3c 4e35 be3d
00000110: 1fe9 1a39 f4c2 743d 067f 53bd 644d ff3c
00000120: 80b3 6e3d e7a9 69be 46af 173d 7cb3 833d
00000130: 6cce a13c 078b 9bbd d2c3 e3bb 851d 273d
00000140: e9b8 c33d f4e7 37be 1b6e 24bd 632f acbc
00000150: fedd eebd 2e53 c13d 3400 2a3d 14d0 59bd
00000160: 9d6d 2d3c 8fbc 003e bcac 983d 169e 623d
00000170: dd06 393d 54b7 e13c 7c37 11bd 910b 3b3d
00000180: 91bc 9c3d de77 333e 56ba 7f3e 4ed2 41bd
00000190: 089b a2be b88e 5b3e 28fd 223e 806d 9fbc
000001a0: f31b 043e 0b98 99bb 8e6a 713e c37b 343e
000001b0: 0c24 913d 14ce a43e 9d1d d3bd c15a 2ebe
000001c0: 0f08 8e3d 501d f3bd c4bc 853c 13a6 103d
000001d0: 7bdc 3f3c b462 ea3d 6f12 bc3b b0bc 70bd
000001e0: a1dc 80bd c7ce 47bd c775 11be 7bef 8dbc
000001f0: 54e2 d5bd 936f c8bd c44a 773d 604b ac3c
00000200: b0f6 5c3b 60ae f5ba 2d57 663a 1e6c 323b
00000210: b476 7339 80db 00bb 9e7e 383b b909 37ba
00000220: 81a9 9d39 6844 843a 927d dc3a 99e1 81ba
00000230: fa3b 433b 7d1e 18bb 74da 363b f752 a43b
00000240: 4b43 d4bc 351f 9d3b 9b1c 5a3d 14f6 e23d
00000250: e385 cebc 0801 313d b2d8 11bd 5f43 be3c
00000260: 78dc 25bd 506f 7ebd 6eb7 acbd cb0b c83c
00000270: 8b4a 583d faf9 8d3a 073f 88bd ba0b 1dbe
00000280: b7f8 a23d 699f a63d b736 c63d c73f 0bbe
00000290: d5ad 94b8 47a5 adbd 646f 24bd 2f77 403d
000002a0: 1249 853d bc2b 91bc 1a95 eabc 58ca a43a
000002b0: 8afa 233e 2ae8 7f3d 5c91 a4bd 447f 04be
000002c0: 0183 e4bd aac5 a0bd d67c c3bd 4b44 903d
000002d0: e4db 3a3d c7d6 37be 183b 7b3d ee4c 3fbe
000002e0: 2c98 03be 9b13 b8bc f27a 343d dc72 f2bd
000002f0: e3e0 7e3e 732b b13d d972 2dbc e6ca ef3c
00000300: d082 c8bd e123 1dbc 0334 523d 305f 843b
00000310: 0c37 48bd 6bd2 2ebd 3bda 4fbd c8e7 14bd
00000320: ceae ddbb 69b9 a4bd 3049 013e c159 1c3d
00000330: 28d0 7b3d 5405 ff3b 45e7 0bbd c632 c7bd
00000340: 5301 dcbd 19ee 553e e34c 67be 95ae b33e
00000350: 7838 14be 9a39 613e 2919 16be 31aa b23d
00000360: f311 77be 6466 5fbe ba71 96bd 503b bf3e
00000370: c18f 693e d9db 58bd c425 9fbd 6d0b d9be
00000380: 8593 32b5 c23a 9ab6 b89d edb4 55e9 48b6
00000390: d91f c9b5 5ee4 28b5 449c 51b6 495f a5b5
000003a0: c2b3 60b6 c365 9ab6 b192 44b7 56b1 a2b6
000003b0: 6755 52b7 82f0 72b6 c44b 62b6 9269 8cb7
000003c0: 3db0 4713 63c6 8894 d4b6 f790 0b2d a092
000003d0: 6b6b 9212 d38f b194 dc07 9113 3309 8194
000003e0: 75d9 2c94 078f 3114 dded 7c13 16af 1494
000003f0: cd01 ba13 feee d494 cff7 0014 c086 a514
0.032433 0.020285064 0.0011453839 0.017680967 0.015584735 0.028646477 -0.0051703863 0.015328807
0.03608448 0.02374963 0.033590898 0.004946147 0.008463928 0.04045559 -0.013497673 0.038764566
0.052277256 0.17707017 0.10773716 0.068373285 0.025400328 -0.13824783 0.033266783 0.07133303
0.11383449 0.056036364 -0.12532918 -0.13167392 -0.12251211 0.10993718 -0.11658058 -0.24832484
-0.04029156 -0.027926032 -0.12779015 -0.026197307 0.001988615 -0.026498232 -0.0070772497 -0.28027987
-0.11788166 -0.1254433 -0.050227653 -0.21959288 -0.16422056 -0.072048485 0.06722843 -0.20623569
-0.0026697186 0.0042443476 0.0024777618 0.0010044003 0.0020043906 -0.0016337009 -0.00092752953 0.0016655547
0.00042693166 0.0022329292 0.0019969766 0.001874398 -0.0027164763 0.002977922 -0.0023061028 -0.004691995
-0.022445817 -0.010568889 0.02728582 0.09287511 0.00014773429 0.059756234 -0.05163481 0.031164832
0.058276653 -0.22818719 0.03703239 0.06430718 0.01975175 -0.07594877 -0.006950834 0.040799636
0.09556753 -0.17959577 -0.040144067 -0.02101869 -0.116634354 0.094396934 0.0415041 -0.053176954
0.010585216 0.1257193 0.074548215 0.055326544 0.04517256 0.027553238 -0.035453305 0.045665327
0.07653154 0.17526194 0.24973425 -0.047319703 -0.31758904 0.21441162 0.15916884 -0.019461393
0.12901287 -0.0046873144 0.23575804 0.17625336 0.070869535 0.32188475 -0.10308383 -0.17026807
0.06935131 -0.11870825 0.016325362 0.03531463 0.0117102815 0.114446074 0.005739502 -0.058773696
-0.062920816 -0.048781183 -0.14205085 -0.017326107 -0.10443559 -0.09786906 0.060374036 0.021032035
0.0033716373 -0.0018743984 0.0008786794 0.0027225087 0.00023218506 -0.0019662082 0.0028151642 -0.0006982345
0.00030071664 0.0010091187 0.0016822091 -0.0009909152 0.0029790387 -0.0023211532 0.0027901204 0.005014773
-0.025910994 0.00479498 0.053249937 0.11082092 -0.025210327 0.043213874 -0.035607047 0.023225484
-0.04049346 -0.062117875 -0.08433424 0.024419686 0.052805465 0.0010831945 -0.066526465 -0.15336505
0.07957595 0.08135874 0.09678405 -0.13598548 -7.089569e-05 -0.0847879 -0.040145293 0.046988662
0.06508078 -0.01772105 -0.02863555 0.001257251 0.16013542 0.06247727 -0.080355376 -0.12939173
-0.111577995 -0.078502014 -0.09545295 0.07044276 0.04561986 -0.17953025 0.061335653 -0.1868169
-0.12851018 -0.022470286 0.044062562 -0.11838314 0.24890475 0.086508654 -0.010586464 0.029271554
-0.097905755 -0.009591074 0.051319133 0.0040396675 -0.04888062 -0.04268114 -0.05074523 -0.036353856
-0.006765223 -0.08043177 0.12625575 0.038171533 0.06147781 0.0077826176 -0.034156103 -0.09726481
-0.1074244 0.20891608 -0.22587924 0.35094133 -0.14474666 0.2199463 -0.14658035 0.08723868
-0.24127941 -0.21816403 -0.0734591 0.3734994 0.22808744 -0.052944038 -0.07770875 -0.4239153
-6.6524836e-07 -4.596398e-06 -4.4259446e-07 -2.993814e-06 -1.4984936e-06 -6.2917195e-07 -3.1234385e-06 -1.232119e-06
-3.3483234e-06 -4.6014043e-06 -1.1716665e-05 -4.848621e-06 -1.253686e-05 -3.6200804e-06 -3.3720726e-06 -1.673846e-05
2.5204223e-27 -1.381074e-26 -9.7706013e-29 -1.0108524e-27 9.240376e-28 -1.7929161e-26 3.6610896e-27 -1.30293e-26
-8.726667e-27 8.9644235e-27 3.1924147e-27 -7.50662e-27 4.6954777e-27 -2.1500795e-26 6.51122e-27 1.6713892e-26

89 f4 [32]
00000000: 0b4d 02be 7a75 e2bb 31ad 143f 087d 12bd
00000010: 72bf 36bd ebf6 17be 6b66 3bbf 2a5d e13d
00000020: d247 80bb 9009 cc3b b293 06be 6066 763b
00000030: d4e4 453d e458 d1bc 9952 183b 398a 3c39
00000040: 9000 0000 cd22 e6b8 982e d33b 6314 52b7
00000050: ed32 e9b4 62c6 80be 1c4e 03ae 09e7 19be
00000060: e80b 9fbc 520d 1bbd d252 a7b8 c0c0 bfbb
00000070: f655 5dbe cae8 2a3e b024 40bf be1d 6a3d
-0.12724702 -0.006910977 0.5807677 -0.03576377 -0.04461617 -0.14840285 -0.7320315 0.11004098
-0.0039148116 0.006226726 -0.13142279 0.0037597641 0.04831393 -0.025555082 0.0023242591 0.00017980569
2.02e-43 -0.00010973737 0.0064447634 -1.2521722e-05 -4.3436685e-07 -0.25151354 -2.9855327e-11 -0.15029539
-0.019414857 -0.0378545 -7.978607e-05 -0.005851835 -0.21614823 0.16690364 -0.7505598 0.05715727

91 f4 [64, 32, 3, 3]
00000000: 691b b9b8 9abd 8db8 7ee1 89b7 c11a ddb5
00000010: 8c20 76b7 1c11 0d38 74be 1cb8 d538 9cb8
00000020: d418 01b8 98ef b337 e6b6 be37 18cd 84b7
00000030: e696 6438 0f52 1c38 34d8 db37 d80e 8937
00000040: 6320 94b6 1b67 1e35 0010 6039 23c1 8139
00000050: a0ce b039 0c4a 2a39 9404 3039 ce77 9a39
00000060: c27e 1839 a053 4039 7d9b 7d39 d7a1 7738
00000070: ac58 7f38 e8eb 5538 1eac 8e37 8a0c a735
00000080: 130c 2db7 04e6 4938 017d 8938 c1d2 7b38
00000090: 4034 4f39 1de1 8136 c945 0f39 fb49 3339
000000a0: 47b9 47b8 b241 ca38 46e8 3f39 9ee3 8fb6
000000b0: 7f26 1939 dda6 04b5 6cd7 deb7 9787 bab8
000000c0: dc64 b138 860f cd37 1d32 f837 9a6a 55b8
000000d0: 480e c4b7 75f9 69b8 2bc9 5ab7 62ef 05b9
000000e0: aa5d 67b9 0728 09b8 8bfe 04b9 6417 5db9
000000f0: 72c4 55b8 5431 f7b8 56fc 89b9 ec58 9738
00000100: 1019 9138 56c9 e138 5a50 13b8 98f1 05b8
00000110: 813f 9437 6794 4db8 514a 13b8 9294 5737
00000120: 4aff 52b7 7867 4fb7 ab20 21b7 387a beb7
00000130: ba70 c5b7 a4f2 acb7 cc98 93b7 bcc8 93b7
00000140: 0cbb 81b7 8729 1439 4409 fc38 596f 2b38
00000150: 8ea1 a038 9320 8a38 1c16 2337 2dbe 0a38
00000160: b16f b737 da54 93b7 24fe cf37 b152 1337
00000170: 07a2 98b6 a71f 5c38 d4fa e436 722a 3037
00000180: d24b ca37 19b7 d136 9f61 2c37 11b0 83b8
00000190: d1b4 ddb7 1c2e 45b8 f9b9 beb8 1ba3 b3b8
000001a0: eaf4 cdb8 2f67 d8b7 0aa8 c637 a24e 9db7
000001b0: 59fe b438 50fe 5a38 72fb 3238 a0bd e037
000001c0: f22c 6035 5a79 7e37 f614 4738 0115 6238
000001d0: 95f4 7b38 1bf8 9238 1d25 1439 22fa 2239
000001e0: 2df8 b038 382f 2a39 50ed 1139 8872 6e38
000001f0: 17bb ad38 474c 8f38 5db3 d2b6 0836 d5b6
00000200: 3905 b7b6 b5ee aab6 d68b 31b6 266e 10b6
00000210: 69a4 9fb6 d762 20b6 8fe9 00b6 867b 6735
00000220: d479 8a34 d479 8a34 dfa0 ca34 59ea 08ab
00000230: 40ea 08ab dfa0 ca34 65ea 08ab 4fea 08ab
00000240: d30a 0080 bd03 0000 0204 0000 6307 0000
00000250: c009 0080 b30c 0080 4906 0000 b50c 0000
00000260: 180a 0080 717c d92a a08d b4aa a08d b4aa
00000270: 902f 5b29 bba1 bea0 04a2 bea0 902f 5b29
00000280: 9ea2 bea0 61a2 bea0 590b 18b8 10a0 5937
00000290: 0f93 5f37 acf4 4fb8 26dc a936 5288 0037
000002a0: c97e 8bb8 6f85 c9b7 7a4b 78b7 c77c 0180
000002b0: 906a 0080 906a 0080 cc4b 0100 e801 0000
000002c0: cb00 0000 cc4b 0100 d500 0000 8102 0000
000002d0: a522 039e bfeb 4c1e bfeb 4c1e f2c0 fe1d
000002e0: 1510 d411 ee10 d411 f2c0 fe1d ca10 d411
000002f0: 7310 d411 9b0a ad38 439a 9e38 b8c0 8d38
00000300: 78a9 2039 479c 0239 d66e 0839 39f7 c338
00000310: af68 0839 d6d6 8638 b80c 0080 e800 0080
00000320: 320f 0000 180f 0080 0b06 0080 7c01 0000
00000330: c60f 0000 bc07 0000 360d 0080 bc13 a338
00000340: eb46 0138 0727 6fb7 51dd e738 3fbc 8a38
00000350: 4c28 d537 9831 5238 8d11 5538 4c7c 2638
00000360: 7f55 9bb8 94e5 7738 75a4 9f38 2ac0 2ab8
00000370: 01cf 0d38 0ccc 1f38 2bd1 c3b7 2fe5 3db6
00000380: c65a 8037 9711 c138 736b bc38 fa60 9938
00000390: 383d 8cb7 cc35 41b8 dcab 98b7 91ff 5f38
000003a0: 0e42 b538 ef0e 9138 677b 6d25 9437 1fa5
000003b0: 9437 1fa5 e085 ae24 582d 3a9a 4a2d 3a9a
000003c0: e085 ae24 252b 3a9a 052b 3a9a c37b 24b8
000003d0: b7da 49b8 b720 2ab8 c151 42b8 4921 10b8
000003e0: 0427 78b7 ba1e 08b6 64c1 5237 204b 8438
000003f0: 1cc6 2bb8 fa7a 8cb8 434d c5b7 3f8f 15b8
-8.826593e-05 -6.75872e-05 -1.6436676e-05 -1.647357e-06 -1.46703205e-05 3.3632954e-05 -3.737067e-05 -7.4492455e-05
-3.077912e-05 2.1450032e-05 2.2734934e-05 -1.583113e-05 5.449997e-05 3.726972e-05 2.6207512e-05 1.6338585e-05
-4.414514e-06 5.9009625e-07 0.00021368265 0.00024748695 0.00033723284 0.00016240048 0.00016786373 0.0002946243
0.0001454307 0.000183417 0.00024185884 5.9040114e-05 6.087932e-05 5.1002862e-05 1.7007867e-05 1.2446119e-06
-1.0314415e-05 4.8136353e-05 6.555953e-05 6.0039343e-05 0.00019760523 3.870706e-06 0.0001366354 0.0001709833
-4.761785e-05 9.644347e-05 0.00018301708 -4.2882302e-06 0.00014605558 -4.941665e-07 -2.6564776e-05 -8.894427e-05
8.458804e-05 2.4445133e-05 2.958724e-05 -5.0882438e-05 -2.3371671e-05 -5.5783854e-05 -1.3040651e-05 -0.00012773045
-0.0002206477 -3.2700624e-05 -0.00012683326 -0.00021084916 -5.096611e-05 -0.00011787066 -0.0002631868 7.216804e-05
6.918807e-05 0.00010766338 -3.5122364e-05 -3.1934673e-05 1.7672546e-05 -4.901402e-05 -3.5116744e-05 1.284959e-05
-1.25764145e-05 -1.2362252e-05 -9.603954e-06 -2.2706678e-05 -2.3536722e-05 -2.0616986e-05 -1.7594917e-05 -1.761724e-05
-1.5465099e-05 0.0001412985 0.00012018022 4.0873278e-05 7.6594864e-05 6.58642e-05 9.720705e-06 3.307888e-05
2.186731e-05 -1.7563278e-05 2.4794666e-05 8.781136e-06 -4.5488155e-06 5.2481566e-05 6.8241297e-06 1.05003e-05
2.4115583e-05 6.2500008e-06 1.0274728e-05 -6.279362e-05 -2.6429452e-05 -4.7011403e-05 -9.094546e-05 -8.565766e-05
-9.8207805e-05 -2.5797255e-05 2.3681689e-05 -1.8752475e-05 8.630445e-05 5.2212097e-05 4.2672684e-05 2.6791182e-05
8.3511907e-07 1.5167834e-05 4.746482e-05 5.390216e-05 6.0070848e-05 7.008036e-05 0.00014128206 0.00015542706
8.43856e-05 0.00016230054 0.00013916683 5.6850287e-05 8.284131e-05 6.832979e-05 -6.2793683e-06 -6.3541847e-06
-5.454433e-06 -5.094184e-06 -2.645645e-06 -2.1521787e-06 -4.757709e-06 -2.389939e-06 -1.9209435e-06 8.6233956e-07
2.5793145e-07 2.5793145e-07 3.774248e-07 -4.864213e-13 -4.8641993e-13 3.774248e-07 -4.8642194e-13 -4.8642075e-13
-3.883e-42 1.341e-42 1.438e-42 2.65e-42 -3.498e-42 -4.556e-42 2.255e-42 4.558e-42
-3.621e-42 3.8633292e-13 -3.2072695e-13 -3.2072695e-13 4.8669022e-14 -3.2294276e-19 -3.2294465e-19 4.8669022e-14
-3.2294863e-19 -3.2294705e-19 -3.6250192e-05 1.2971475e-05 1.33260755e-05 -4.9580514e-05 5.062221e-06 7.661134e-06
-6.651652e-05 -2.4023202e-05 -1.4799525e-05 -1.36597e-40 -3.8227e-41 -3.8227e-41 1.19026e-40 6.84e-43
2.84e-43 1.19026e-40 2.98e-43 8.98e-43 -6.9422466e-21 1.0848421e-20 1.0848421e-20 6.743274e-21
3.3457614e-28 3.3458136e-28 6.743274e-21 3.345805e-28 3.345784e-28 8.251258e-05 7.5627606e-05 6.7593006e-05
0.00015321921 0.00012455984 0.0001301126 9.3443734e-05 0.00013008968 6.429634e-05 -4.563e-42 -3.25e-43
5.451e-42 -5.415e-42 -2.168e-42 5.32e-43 5.658e-42 2.775e-42 -4.739e-42 7.7761215e-05
3.0822044e-05 -1.4254597e-05 0.00011056162 6.615416e-05 2.5410343e-05 5.011409e-05 5.0799503e-05 3.9693245e-05
-7.406901e-05 5.91032e-05 7.612343e-05 -4.0710125e-05 3.3809807e-05 3.8098588e-05 -2.3343213e-05 -2.8296597e-06
1.5301059e-05 9.2062335e-05 8.9845526e-05 7.313672e-05 -1.6717808e-05 -4.6064888e-05 -1.819984e-05 5.3405358e-05
8.643056e-05 6.9169204e-05 2.0598284e-16 -1.3809882e-16 -1.3809882e-16 7.5687264e-17 -3.8500527e-23 -3.8500483e-23
7.5687264e-17 -3.849875e-23 -3.849865e-23 -3.921591e-05 -4.812583e-05 -4.0561627e-05 -4.6329344e-05 -3.4363275e-05
-1.4791036e-05 -2.0283464e-06 1.2562003e-05 6.3082436e-05 -4.095408e-05 -6.6986264e-05 -2.3520208e-05 -3.5657777e-05

92 f4 [64]
00000000: 776c 8839 8960 10b7 549e 0cbe 36d6 8fa1
00000010: 8205 0080 5609 7884 d75b 15a3 2c9d 41bc
00000020: c8be 4a3b fee0 0eb8 a46a 5bb8 fd52 a987
00000030: f148 36b7 c805 703c d698 9ab9 0e05 a03b
00000040: bb19 99b4 9549 2dbe c8ca 613d 7cb5 35b8
00000050: 6ef0 23b8 9d24 0f3e 01f2 cbbd 6d6f 1a9a
00000060: f9d8 8fbe c309 5abd 425c a4b7 de25 163d
00000070: 1c2b 0bbb 25d0 6dbd 0713 0080 3f9f 013e
00000080: 1ec0 983b da58 f03d 1d67 3d3b 2c00 723d
00000090: d75e f33d 1ff4 cab8 f092 31bc 84ad 973c
000000a0: 8cbb cdac f0a4 6b3b dab8 0cbe 6669 96ad
000000b0: edf4 0a92 41d1 ea39 66e4 aa39 e6be 50b8
000000c0: 7a99 23b9 baad b9ae 927b 7db4 356c 17b8
000000d0: b90e 1c3e 9843 9505 30b5 1680 2d54 9bb8
000000e0: 9108 c6b8 a40b 3d3a 70a2 11b9 8fd5 0980
000000f0: 56c2 123a 9cb0 c602 dff8 813b 49f1 823b
0.00026020754 -8.605545e-06 -0.13732272 -9.746758e-19 -1.976e-42 -2.9156547e-36 -8.096754e-18 -0.011817258
0.0030936468 -3.406498e-05 -5.2312986e-05 -2.547707e-34 -1.0865028e-05 0.014649816 -0.0002948704 0.004883415
-2.8517192e-07 -0.169226 0.055125028 -4.3322783e-05 -3.9086146e-05 0.1397881 -0.09958268 -3.1936463e-23
-0.28095224 -0.053231966 -1.9593284e-05 0.036657207 -0.0021235412 -0.05805983 -6.826e-42 0.12658404
0.004661574 0.11735697 0.0028900572 0.059082195 0.11883324 -9.677582e-05 -0.010838255 0.018515356
-5.8472723e-12 0.0035956465 -0.1374239 -1.7099832e-11 -4.3847016e-28 0.00044787864 0.00032595097 -4.9768852e-05
-0.00015602066 -8.443686e-11 -2.3607416e-07 -3.610198e-05 0.15239991 1.4036723e-35 -2.085379e-39 -7.406655e-05
-9.442971e-05 0.00072115124 -0.0001388879 -9.0313e-40 0.00055984163 2.9194854e-37 0.0039664353 0.0039960486

94 f4 [64, 64, 3, 3]
00000000: 246e 35ba 2e48 d239 028c 8e3b 8af7 623b
00000010: cd8d 483b fef4 373c 200a 7c3b 8110 5c3b
00000020: 09a7 593c 5b93 4bb8 f2bc dfb7 2405 31b8
00000030: 20d4 22b8 429c 2fae 626d f0b7 b1d4 55b8
00000040: f50e edb7 37a4 25b8 40d2 083e 97f2 a33e
00000050: c2d9 153e ca5f 163e f575 3f3e e3be 5c3e
00000060: cb75 98bc a548 333e 963d aabd 45f4 0180
00000070: 33e2 0080 9971 0300 4c5b 0280 7d07 0100
00000080: ef6d 0180 1da1 0080 82a5 0200 f196 0180
00000090: 14b3 0200 a90d 0200 5977 0180 3d74 0000
000000a0: a340 0300 ae96 0000 6f53 0400 0c8b 0180
000000b0: 391e 0200 4430 8b05 f2af 0205 5b5c 8505
000000c0: fa06 3505 8de2 0300 ae86 2405 ed4f 7305
000000d0: b371 af04 bad9 6705 1979 0100 1503 0280
000000e0: f4c6 0100 48fe 0300 3ca8 0180 90ea 0180
000000f0: 8719 0380 e06d 0380 6b5b 0380 2566 14be
00000100: fb01 12be 8847 28be b013 b63d b404 5e3e
00000110: 5c2c bdbc cf26 d1bd a17a b2be f641 10be
00000120: 4ff1 a03c 605d 9f3b 7975 0a3c 4585 c53c
00000130: c91d 9e3c 2ee9 cf3c 3e45 ec3c 5f26 0b3d
00000140: 853a 393d 40ac 7fb7 9c72 9237 0f6d 3135
00000150: 5a37 8c37 b1fd 3bae 6e2a d036 0189 6db7
00000160: 0900 7737 3803 5836 8008 071c a2ca e29a
00000170: 85a2 061b 3358 e71a bf37 5f11 bf5a 0419
00000180: 73ee d31b 6a48 5c19 99be 349b c913 0508
00000190: f142 a407 5c6d fd07 60de e407 2781 0080
000001a0: 8d31 d207 4719 f507 91c2 6707 4787 eb07
000001b0: 10a8 0200 ccaf 0280 86a1 0100 5206 0100
000001c0: a965 0280 c9fb 0100 34f3 0080 535d 0080
000001d0: ec00 0180 193f 20be 6fec 49be 242a 30be
000001e0: cf60 f7ba 1862 56be 30e7 0fbe 0e4d 00be
000001f0: 354a 10be 5bf7 63be 2a25 f3a2 14c4 57a5
00000200: bbbe 16a9 289f 499f 3548 bea9 5aa1 3ca9
00000210: 3b7b f3a1 1711 08a8 d5de 6ba5 599d bb3c
00000220: 8132 ef39 3062 873c 66fb b43c a812 c03b
00000230: 8a5a cb3c 08da 0e3d 3e70 053d 145e 493d
00000240: aedb 0180 f03f 0280 27d9 0000 7c22 0100
00000250: a50b 0100 fe71 0280 8fb9 0080 2941 0080
00000260: a550 0200 d75e 2cbc fa27 90bc e8ea 143f
00000270: caec 8abd d562 563d f2c0 f03e 1c27 c0be
00000280: 1c31 dabd c687 c23c 3148 4abe c01a 3bbe
00000290: d9cb a7be 505c 63be 5cf3 85be 7408 2fbe
000002a0: 175f bebe a763 93be 2a97 593e 249e 2498
000002b0: 5d3d c917 9619 1518 9944 ad97 30bb 4b0e
000002c0: d875 0597 2d15 1398 5e2e 1a17 02d8 e217
000002d0: 091c f1b5 2f65 c3b5 c161 4534 deb8 58b5
000002e0: 8399 56ab 1c01 ceb5 4197 73b5 d5ac cfb5
000002f0: 12bc 1e35 4da7 88be 58a4 e2be b1aa f7bd
00000300: 13bc c3be 3495 09bf 930d 34be d57f 07bc
00000310: 535b a7bd 1a5d 493e 5dcd 743b 9f8a cbba
00000320: faa9 da3d d1ef d73d 6caa 643e 99de 9f3e
00000330: 5647 5ebe f025 333c d2ba 293c b99f 041c
00000340: b669 6e1b 5db1 f71b 1579 a51b 46b5 3991
00000350: 6df4 931b 5da2 e01b 67a6 1f1b 7dde d21b
00000360: 5c98 373e 0f16 bf3e 010f 373e ab33 fe3d
00000370: 8640 a93d bab4 1b3d 8b3e 93ba 68ef 2b3e
00000380: cdeb 97bd d4a0 81bd 8324 b6bd eee4 d1bd
00000390: e7be ddbd dde5 33bc 3031 0a3c fa1c 863d
000003a0: f0bc 0dbd cf92 6b3e 4f3c 70b6 5c17 4437
000003b0: 8985 00b6 e648 0d37 f226 9bad db49 db35
000003c0: 6561 f8b5 1021 5e37 cebd 52b5 e04c 973d
000003d0: e67a 193e 168b 253e 81d7 56bd 3e95 863e
000003e0: 62da d53d ac8e 183e df31 103e 5011 3d3e
000003f0: 9259 24bb 666d 31ba 225e 7e3a 5992 87bb
-0.0006921014 0.000401081 0.0043501863 0.0034632408 0.0030602098 0.011227844 0.0038458183 0.0033579173
0.013284453 -4.8536207e-05 -2.6671656e-05 -4.2204876e-05 -3.8821367e-05 -3.9929178e-11 -2.8661165e-05 -5.098124e-05
-2.8259567e-05 -3.9492003e-05 0.13361454 0.3202102 0.1463385 0.14684978 0.18697341 0.21557193
-0.018610856 0.1750818 -0.08312528 -1.79463e-40 -8.1145e-41 3.16258e-40 -2.16422e-40 9.4522e-41
-1.31272e-40 -5.7797e-41 2.43044e-40 -1.45983e-40 2.47912e-40 1.88571e-40 -1.3465e-40 4.1698e-41
2.98694e-40 5.4054e-41 3.97272e-40 -1.41716e-40 1.94513e-40 1.3089227e-35 6.144887e-36 1.2541186e-35
8.5118605e-36 3.56778e-40 7.73598e-36 1.1440485e-35 4.124672e-36 1.0901558e-35 1.35277e-40 -1.84777e-40
1.63206e-40 3.66725e-40 -1.52187e-40 -1.7598e-40 -2.84664e-40 -3.14922e-40 -3.08301e-40 -0.1449209
-0.14258568 -0.16433537 0.08890474 0.21681482 -0.023092441 -0.1021248 -0.34859183 -0.14087662
0.019646315 0.004863426 0.008450859 0.0241114 0.019301312 0.025379743 0.028841611 0.03397214
0.045221824 -1.52392895e-05 1.7457925e-05 6.609634e-07 1.6715076e-05 -4.27442e-11 6.2038225e-06 -1.41581995e-05
1.4722355e-05 3.2188382e-06 4.467874e-22 -9.379878e-23 1.1136733e-22 9.5681854e-23 1.7608776e-28 6.842566e-24
3.5061116e-22 1.1388357e-23 -1.4950836e-22 4.004649e-34 2.4715322e-34 3.8131485e-34 3.4436327e-34 -4.6331e-41
3.1626411e-34 3.687836e-34 1.7435686e-34 3.543838e-34 2.4396e-40 -2.46735e-40 1.49779e-40 9.4103e-41
-2.2014e-40 1.82159e-40 -8.7245e-41 -3.3478e-41 -9.2166e-41 -0.1564907 -0.19719099 -0.17203575
-0.0018873456 -0.20935857 -0.14053035 -0.12529394 -0.14090808 -0.22262327 -6.590463e-18 -1.8714711e-16
-3.3472123e-14 -4.2695057e-20 -8.450221e-14 -4.1884336e-14 -1.6498939e-18 -7.553222e-15 -2.0458499e-16 0.022902178
0.0004562326 0.016526312 0.022092532 0.005861599 0.024823446 0.0348759 0.032577746 0.049161986
-1.70642e-40 -2.06607e-40 7.79e-41 1.04206e-40 9.6013e-41 -2.24564e-40 -6.6566e-41 -2.3375e-41
2.12601e-40 -0.010520658 -0.017597187 0.5817094 -0.06783445 0.052340347 0.47022206 -0.37529838
-0.10653898 0.023746382 -0.19754101 -0.18271923 -0.3277271 -0.22203183 -0.2616223 -0.17093068
-0.37181923 -0.28786966 0.21249071 -2.1276344e-24 1.3004811e-24 1.9270716e-24 -1.1197179e-24 2.511181e-30
-4.3123357e-25 -1.9009996e-24 4.9818607e-25 1.4659436e-24 -1.7964059e-06 -1.455808e-06 1.8382617e-07 -8.073529e-07
-7.6241113e-13 -1.5348519e-06 -9.074466e-07 -1.5473003e-06 5.9133265e-07 -0.2669014 -0.4426601 -0.12093104
-0.38229427 -0.5374329 -0.17583303 -0.008270224 -0.081717156 0.19664422 0.0037353851 -0.0015528983
0.10676952 0.10543788 0.22330636 0.31224516 -0.217069 0.010934338 0.010359483 4.3881573e-22
1.9721056e-22 4.097734e-22 2.7375208e-22 -1.4649786e-28 2.4477066e-22 3.7162616e-22 1.3205939e-22 3.4885365e-22
0.17929214 0.37321517 0.17876817 0.12412199 0.0826426 0.03801415 -0.0011233849 0.16790545
-0.07418022 -0.06329504 -0.08893683 -0.10248743 -0.10827427 -0.010980097 0.008434579 0.065484956
-0.034604013 0.23005222 -3.579789e-06 1.1687949e-05 -1.9151214e-06 8.421228e-06 -1.7638755e-11 1.6338266e-06
-1.8505785e-06 1.3239929e-05 -7.85073e-07 0.073877096 0.14988288 0.16166338 -0.052451614 0.26285738
0.10442044 0.14898175 0.14081524 0.18463635 -0.0025077802 -0.0006768316 0.0009703358 -0.004137319
