model/living_room.onnx (onnx, 301496 bytes, 16 tensors)

fc.weight f4 [2, 256]
00000000: bfa6 583f dcbf 953f bdbf 7a3f 968f bc3f
00000010: f4e0 c13d ed1a 483f fcb8 be3c d7ab 573f
00000020: 0fd3 bbbd ad9c 58be 6759 6fbe 7c23 a1be
00000030: bf23 b73e a522 ca3e 35cf d43e 5e47 e33e
00000040: 1ae2 1f3e 149f ba3d 85df 15be 98ef 95be
00000050: 92a6 143f e712 413f 0155 903e d9d9 233f
00000060: d880 693d 1fd8 ed3e 2c5c 763e 0dc8 483f
00000070: 0906 313f 70cb 3e3f bd3c 96be 4d37 0fbe
00000080: 9ff3 363f da9b f73d 444d 143e 2173 06bf
00000090: 39d5 d2be c87e d5be 542e c3be 51b7 e1be
000000a0: 9ac8 1a3f f7cc 623f ab1a 173e 3588 db3e
000000b0: 6f89 823e d5d0 633e 7b90 00be 8555 8d3b
000000c0: 093b 69be 6d48 33be dba1 4cbe e695 88be
000000d0: a34e 4cbe 9ca0 e1be 7980 f7be bbf2 2abf
000000e0: 6912 863f 0858 c4be d149 a23f df9d f7be
000000f0: 1c13 c43e 5be4 c8bc 7caf ce3e 7cdc 223c
00000100: 884d 99be 51d6 e73e 963d bebe f768 c63e
00000110: 9e60 3abd 127d b1be 33f8 5abe 90e2 d0be
00000120: ac07 c2bd cee3 4dbd 90d7 7cbe 068d 8fbe
00000130: a89c 193f c5d6 1e3f 7d81 16be b3d1 3dbe
00000140: e87f f83e 2733 923e 4753 b93e e2f5 983d
00000150: 5d1e bb3e d9e3 a33e 5b8c c73e 7c8e ae3e
00000160: 0053 67be 92da 1bbe 3fd6 11bf d26f 09bf
00000170: 24df 36bf e6e0 06bf 6f74 1cbd 183d 2d3e
00000180: 4981 efbe 16a7 f4be 4c25 ddbe 4a26 ebbe
00000190: c1b4 4d3e f37a 563e 1036 8e3e 3dfd a83e
000001a0: 2db6 8d3e 460d 843e b945 123e f341 8f3e
000001b0: d0d3 673f 551f 4bbe 41f3 743f 430a 2fbe
000001c0: 4924 123f bed3 2a3f 0bb1 4bbe f3ce f7bd
000001d0: aaf0 523f 53ba 103e fba7 1d3f c074 56be
000001e0: b2c1 483f 216d dbbd b762 323f 9d95 a5be
000001f0: 4045 09bf 366f e7be 8b95 9d3e 8cca d13e
00000200: cbbb b5be e378 1abe 81cd abbe ebf2 f5bc
00000210: b8c7 bdbd cdd1 01be 3e5a d63c 2d26 54bd
00000220: 704f 283f 8c3d 333e ea2c b73e 63be 6bbe
00000230: 618a 1b3e 0895 5f3f 32ae 4f3e 5316 523f
00000240: 29b2 19bf adb8 17bf 55e1 0ebf c3ab e4be
00000250: 743c 733e cb4b 073f aab5 9fbe 8ee1 263c
00000260: 0389 b6be f1aa 02bf 81b3 0ebf 4c2b 22bf
00000270: c1f5 a7be 82ab aebe ac28 babe 714b 9abe
00000280: 4099 5b3e bf15 153f 3de1 8d3e 37d3 363f
00000290: b804 b53c b8aa 91bc 7b57 c23c d8ad 24be
000002a0: 6bb5 cf3d d1fb d93d ec99 9cbe 57ed 85be
000002b0: 0e18 4f3f 9044 583f 89e4 583c ee14 993c
000002c0: e800 9d3e 4fd6 943e 0986 ab3e 3d97 ba3e
000002d0: 1ca8 613f 320d 503e 2fd0 133e 68ed c4be
000002e0: a50f 203e 5a7e 3a3f a52e 343c eed4 333f
000002f0: 91d8 293f cc91 203f 8591 093f 94ea 143f
00000300: 426e 10bf 5613 f2be cbf7 21bf d827 febe
00000310: beaa 273f b77b 173f fc96 37be 0643 80be
00000320: e347 ff3e b522 11be 308e b03e 861c 5bbe
00000330: a01b d9ba d5b7 bfbd 9a55 46bd b99b c7bd
00000340: 2753 36bb 0574 0b3d e784 ed3d 1890 f33d
00000350: bdc5 8bbe 800e b4be 7878 dfbe b87a 31bf
00000360: 0926 15bf 2aa4 07bf 4582 ccbe ae5e c9be
00000370: 7924 a9be 2dcf 93be f7ae a5be 59e4 9abe
00000380: f937 eabe df45 dcbe 70db 0ebf 98bc 10bf
00000390: 36db f1be 36a1 e7be d9dd abbe 026a 9abe
000003a0: 5397 103f d8f8 423f 2663 303e d24b bc3e
000003b0: 9b01 febd edcc 283f 2dbc 8bbe 0646 103f
000003c0: 48f5 ac3e 252b 84bd 7f17 a03e 0881 83bc
000003d0: 6144 e33e 4912 3c3f d5dc 1b3f a5ff 573f
000003e0: a9ce debc abd9 3a3d 3fab cabe aa0c c9be
000003f0: 9873 b4be 92aa 95be c7b5 cbbe e984 d4be
0.84629434 1.1699176 0.9794882 1.4731319 0.094667345 0.78166085 0.023281567 0.8424658
-0.091711156 -0.21153517 -0.23373948 -0.31472385 0.3576946 0.39479557 0.41564336 0.44390386
0.15613595 0.09112373 -0.14636047 -0.29284358 0.58066666 0.7541947 0.28189853 0.64004284
0.05700764 0.4645395 0.24058598 0.78430253 0.69149834 0.7452917 -0.29343215 -0.1398594
0.71465486 0.12090273 0.144826 -0.5251942 -0.411783 -0.4169829 -0.38121283 -0.44085172
0.60462344 0.88594 0.14756267 0.42877355 0.2549548 0.22247632 -0.12555115 0.0043131732
-0.22776426 -0.17508097 -0.19983618 -0.26676863 -0.19951873 -0.44067848 -0.48340204 -0.6677663
1.0474368 -0.38348413 1.2678777 -0.48362634 0.3829583 -0.02452295 0.4036826 0.009940263
-0.29941964 0.45280698 -0.3715636 0.38751957 -0.045502298 -0.34665734 -0.21383743 -0.40797853
-0.094741195 -0.05026608 -0.24691606 -0.2803728 0.60004663 0.6204646 -0.14697833 -0.18537025
0.48535085 0.2855465 0.36196348 0.074687734 0.36546603 0.3200977 0.3897427 0.34093082
-0.22590256 -0.15220097 -0.5696754 -0.5368625 -0.71434236 -0.5268692 -0.038196977 0.16917837
-0.46778324 -0.47783726 -0.43192518 -0.4592765 0.20088483 0.20945339 0.2777562 0.33005705
0.27678052 0.25791377 0.1428441 0.27980003 0.90557575 -0.19836171 0.95683676 -0.17093758
0.57086617 0.6672934 -0.19891755 -0.12100019 0.82398474 0.14133577 0.6158444 -0.20942974
0.78420556 -0.10714174 0.69681877 -0.32340708 -0.5362129 -0.45202035 0.30778155 0.40974844
-0.35494837 -0.15085177 -0.33555225 -0.030023059 -0.09266609 -0.12677689 0.026166078 -0.05179422
0.6574621 0.17503947 0.35776454 -0.23021846 0.15189506 0.8733678 0.20281294 0.82065314
-0.60037476 -0.5926617 -0.5581258 -0.44662294 0.2375353 0.52850026 -0.31193286 0.010185612
-0.35651407 -0.51042086 -0.5574265 -0.63347316 -0.32804683 -0.34115225 -0.36359155 -0.30135682
0.21445179 0.58236307 0.27710906 0.7141604 0.022096977 -0.0177816 0.023723355 -0.16081941
0.101420246 0.10643733 -0.30586183 -0.26157638 0.8089608 0.8447962 0.013238081 0.018686738
0.30664754 0.29069754 0.33500698 0.3644351 0.8814714 0.20317534 0.14434884 -0.38462377
0.15630968 0.7284905 0.010997449 0.7024678 0.6634608 0.6272247 0.5373767 0.5817044
-0.5641824 -0.47280377 -0.6326873 -0.49639773 0.65494907 0.5917315 -0.1792869 -0.25051135
0.49859533 -0.14173396 0.3448348 -0.213976 -0.0016564019 -0.09361235 -0.04842148 -0.097464986
-0.0027820559 0.03404619 0.11597615 0.11892718 -0.272993 -0.35167313 -0.43646598 -0.6932788
-0.5826116 -0.5298487 -0.39943138 -0.39330047 -0.3303564 -0.28869 -0.3236005 -0.3025234
-0.4574583 -0.43022057 -0.55803585 -0.5653777 -0.47237557 -0.45240182 -0.33567694 -0.30159003
0.564809 0.76160955 0.17225322 0.36776596 -0.1240265 0.6593769 -0.27292004 0.5635685
0.33780885 -0.06453542 0.31267926 -0.016052738 0.44388106 0.734654 0.6088384 0.8437446
-0.027198153 0.04561774 -0.39583775 -0.39267474 -0.3524444 -0.29231697 -0.39787123 -0.41507652

fc.bias f4 [2]
00000000: 69bd 88be 55f2 743e
-0.26707008 0.23920567

79 f4 [16, 3, 7, 7]
00000000: b8b5 4d3d d1b3 ac3c 4079 243d a4f7 3d3d
00000010: 8012 a83d 18b2 e53c ff07 eabc 31be 023e
00000020: 4ce7 c03d cd45 c83d a612 cf3d 3875 a33d
00000030: e554 a63d ee97 933d d48a 203e 2c78 153e
00000040: 561c 033e e392 ca3d b57a 9b3d ebf9 9b3d
00000050: 0a1a 4d3d 4678 033e 01ed 003e a9f2 f83d
00000060: 3671 d63d 137b ee3d 1bc0 873d 4c61 083d
00000070: 87c5 f23d 0e71 963d 5311 fb3d 55ec 283e
00000080: 9220 0c3e 0c15 2c3d 3307 46bb 2adb 4a3d
00000090: 88fb 403d 34e3 cc3d 5f46 063e 25bb c63d
000000a0: 9084 b13c 7484 2abd c509 f03c 49b9 4e3d
000000b0: 924a 0f3e bce4 0d3e 97ae c63d 7294 123d
000000c0: 6019 15bd 8822 c3bd 1723 babd 678a ecbc
000000d0: c44b e73c 1c55 463d 3e25 553c 2234 09bd
000000e0: 1513 80bd 9791 9cbd 0c71 75bc 8706 ba3c
000000f0: b3ac 473d 41bb 523d ac27 703d c7b1 9ebd
00000100: e347 ecbd 9c54 c7bd b31e 66bd 1f24 debc
00000110: 189f 10bc da7d 40bc 74e5 05be 658c 1abe
00000120: eefe e3bd 3c5f b2bd 3adc 85bd 08cd 25bd
00000130: f8fe ddbc 1e12 d3bd f2c5 0abe a22c 9cbd
00000140: 2ac6 01bd 8720 a0bb 508f 82bd c8c8 55bd
00000150: d700 e0bd edc2 e0bd efc3 d6bc c211 00bb
00000160: 9d88 e33c 85f8 86bc fc1c 0ebd ad16 a9bd
00000170: 37e6 9dbd 416b 843c 0625 583d 031e 373d
00000180: 0112 403c 831b b5bc 3060 793c 75bb ac3c
00000190: 0d43 a13d f866 e53d 097e 073e 1273 a63d
000001a0: 7ab6 023d 3337 033d acd7 d03c 0c19 713d
000001b0: cc57 bc3d 354c dd3d 786b cd3d 5005 f13d
000001c0: 5e45 9e3b 9705 37bc ebb4 183c 87d6 b53b
000001d0: fe07 8d3c 8f2e 3f3d b633 6b3d 7143 e5bc
000001e0: b10f ddbc 1fc9 53bc 329e cb3a a1c5 863a
000001f0: c558 ce3c c8b6 163d a93a 4fbb 6d4a 6abc
00000200: 1a60 c33c f82b c83c 0969 8c3d 56ce aa3c
00000210: 0be3 4f3d ae93 67bc 7506 963a 34c4 253d
00000220: 8741 8a3d 8505 7a3d 782a 843c c709 e63c
00000230: 4c7b 02bd 3867 2c3d a979 e13d e09f f73d
00000240: 468e c43d 5338 5f3d 5194 4c3d d16f 473d
00000250: 50f7 afbd c096 0ebe a06e 1dbe e1a6 20bd
00000260: fb8a 9a3d 7050 1f3e eb3a 3d3e 2dd6 38bd
00000270: f772 53be 81fa 14be 59b6 37bd ca6a 483e
00000280: 7702 923e 2f79 333e 44d4 09be 907a 7cbe
00000290: 5b19 45be 9ffe 5fbd 812d 283e 4cba a33e
000002a0: 5b74 833e a86d 23be 9fab 4bbe 59b7 2cbe
000002b0: 1e60 94bd 7c0e e33d 51c8 bf3e 2ddf 9b3e
000002c0: 646f 92bc d88d 21be e3d4 c7bd 40f0 c0bc
000002d0: ae5f 273e 6869 ae3e ce1e 563e df95 7dbd
000002e0: bdb8 d2bd 1d05 a8bd 09aa 45bc 2aef a73d
000002f0: c17e 5d3e f122 0b3d 59b8 a3bd 3931 eebd
00000300: 7914 c4bd 5549 cfbd f940 56bc 40d7 8dbc
00000310: c6c5 4c3d 049a c1bd b46f 42be 8930 72be
00000320: f7f0 dabd 4909 01bd da93 6c3d 0f4c 673e
00000330: 4934 80bd 295d 5fbe 0460 47be a2dd cbbd
00000340: 782b b33d 102c 7a3e 7ada 493e d190 4ebe
00000350: a5ce 99be 6dc5 71be 100a 1dbe db0f 653d
00000360: 3690 5d3e 554e 863e 5d69 17be 4849 66be
00000370: 6744 35be c4ec 56be f95f 27bd 534e 813e
00000380: 1408 8f3e 03b0 61bd 4f61 22be aa40 37be
00000390: 7e21 04be 4eb4 b73c a3c8 7b3e 06d8 4a3e
000003a0: e1f2 0abd c142 1ebe 872d 11be 9bb7 b4bd
000003b0: ad4c 153a 130e 783d cb65 a63d 89e0 f4bc
000003c0: 5d45 a5bd 5fb5 55bd fc08 54bd c2ba 72bd
000003d0: 2344 1bbd 5228 313d 5d91 31bb 4675 04bd
000003e0: 62ad 48bd 88e3 aabd 8ac1 76bd 4407 1abd
000003f0: 0040 533e 7047 283d d0a4 993a 6618 89bc
0.05022213 0.021081837 0.040154696 0.046378747 0.082066536 0.028039023 -0.028568266 0.12767865
0.094191164 0.097789384 0.10110979 0.07981342 0.08121661 0.07206713 0.15677959 0.14596623
0.12803778 0.09891298 0.07591764 0.076160274 0.05007366 0.1283885 0.1259041 0.12155659
0.10470812 0.11644568 0.06628438 0.033295915 0.118540816 0.07345782 0.12259164 0.16496404
0.136843 0.04201226 -0.0030216693 0.049525417 0.04711488 0.10004273 0.13112782 0.09703664
0.021669656 -0.041630223 0.029301533 0.05046967 0.1399329 0.13856786 0.09701269 0.0357861
-0.036401153 -0.09528071 -0.09088724 -0.02887459 0.02823437 0.04842101 0.0130093675 -0.033496983
-0.062536396 -0.076449566 -0.014980566 0.02270819 0.048748683 0.05144811 0.058631584 -0.07748752
-0.11537149 -0.09732935 -0.05618162 -0.027116833 -0.008826993 -0.011748755 -0.1307581 -0.15092619
-0.11132608 -0.08709571 -0.065361455 -0.040478736 -0.027099118 -0.1030619 -0.13552073 -0.076257005
-0.031683125 -0.00488669 -0.06374991 -0.052193433 -0.1093766 -0.10974679 -0.026216475 -0.0019541834
0.027775103 -0.016475925 -0.03469561 -0.08256278 -0.077099256 0.016164424 0.052769683 0.044706356
0.0117230425 -0.022107845 0.015220687 0.02108548 0.07874117 0.1120128 0.13231672 0.08127417
0.031912304 0.032035064 0.025493465 0.058861777 0.091964334 0.10805551 0.10030264 0.117685914
0.0048300466 -0.011170766 0.009320478 0.0055492553 0.017215725 0.04667526 0.057422362 -0.02798626
-0.026985021 -0.012926369 0.0015534817 0.0010282287 0.025188813 0.036795408 -0.0031620658 -0.014299971
0.023849536 0.024435028 0.06855971 0.020850342 0.050753634 -0.014134331 0.0011446016 0.040470317
0.067507796 0.06104042 0.016133532 0.028080834 -0.031855866 0.042090625 0.11009533 0.120910406
0.09597449 0.054497074 0.049946133 0.04869062 -0.08592093 -0.13924694 -0.15374231 -0.039221648
0.0754604 0.15558028 0.18479507 -0.04512613 -0.20649324 -0.14548685 -0.044851635 0.19571987
0.28517506 0.17526697 -0.13459879 -0.24656129 -0.19247954 -0.054686185 0.16423608 0.3197807
0.2567471 -0.159598 -0.19889687 -0.16866817 -0.072448954 0.11086747 0.37457517 0.30443707
-0.01787538 -0.15776765 -0.09757402 -0.02355206 0.16345093 0.34064794 0.20910189 -0.061910506
-0.10289142 -0.082041 -0.012064465 0.08199914 0.21630384 0.03396887 -0.07994146 -0.11630482
-0.09574217 -0.10121409 -0.013077014 -0.017314553 0.0499933 -0.09453204 -0.18987924 -0.23651327
-0.10690492 -0.031502996 0.05775819 0.22587608 -0.062599726 -0.21812882 -0.19470221 -0.099543825
0.087485254 0.24430871 0.19712248 -0.2017243 -0.3004047 -0.23610468 -0.1533587 0.055923324
0.21637043 0.26231638 -0.14786287 -0.22488892 -0.17701875 -0.20988756 -0.04086301 0.2525507
0.2793585 -0.0550995 -0.15857433 -0.17895761 -0.12903401 0.022424843 0.24588256 0.19808969
-0.033923034 -0.15455152 -0.14177524 -0.088240825 0.00056953245 0.060560297 0.08124884 -0.029892223
-0.080698706 -0.052174922 -0.05176638 -0.059260137 -0.037906777 0.043251343 -0.00270947 -0.032338403
-0.048993476 -0.083441794 -0.060243167 -0.037604585 0.20629883 0.041083753 0.0011722092 -0.016735267

80 f4 [16]
00000000: d3f5 10c0 7ac9 233f 8d0e e63f 75af b13f
00000010: 7c0f c7bf cca7 c3bf 3c25 4dc0 fe96 3b3f
00000020: 4007 cfbe ccec 9a3f abde e1bf f98f 883f
00000030: cd8c 4b3e dc3a ec3e 582f 453f cf53 0140
-2.265004 0.63979304 1.797319 1.388167 -1.55516 -1.5285583 -3.2053976 0.7327727
-0.4043522 1.2103515 -1.7646078 1.0668937 0.1987793 0.46138656 0.77025366 2.0207403

82 f4 [32, 16, 3, 3]
00000000: a4ed 0c3c ab7e 9e3c c81a 053c 9f59 f0bb
00000010: 2227 8f3c 4245 a73b 38e0 8dbb 5cb5 a03a
00000020: c9a3 90ba d248 5dbd b0b6 c5bc 7557 2e3d
00000030: 6b7b 1ebd d83a 40bd 1067 fcba 353a 77bc
00000040: 90cb 5ebc b20d 82bc 0a51 8bbd da5e 8ebd
00000050: 1e55 6d3b 47dd 00bd 4909 81bc b38b a8bb
00000060: f613 193c 07a0 d33c e53a 633c dca0 5bbd
00000070: 2767 5bbd 5e7a 973c b0af 38bd 01d4 8bbc
00000080: 1d2b 7c3b eb9e 7a3b 6afb 263d c668 293d
00000090: 81c1 4c3c eef6 3a3d 4dcb 813c 712c a13b
000000a0: c752 e93c f087 6f3c 6cd2 fc3b 7f8d 0f3c
000000b0: 70d3 733b f0f6 ef3c fe27 093d d4ae 563c
000000c0: c228 073d fdda 493d 7b77 e93b 6257 6f3c
000000d0: 74b5 bb3c 53f8 25bb dfaa 2abd 716f cb3b
000000e0: 7c39 3a3b ee12 60bd 8281 87bc 83c1 98bc
000000f0: 9719 6abd 213e d8bc cb3d d6bc 7f11 8dbc
00000100: dcb1 ba3c 9c2a 50bd 65d6 cb3c 2cb0 593d
00000110: 67a1 65bc fa31 943d fb0c 203d af2a ffbc
00000120: e803 30be 6949 03be e06e b7bd 24ac a9bd
00000130: 6024 7bbc 685f 873b 9fae a7bd 21f1 91bd
00000140: 4e7f b8bd 8f76 b8bd 25a0 023c 1238 983d
00000150: 2367 8abd 1f6a 95bc 3c2e 2b3d b1f3 89bc
00000160: 41d2 c0bc 816b bf3c 9e14 89b9 28d5 0e3d
00000170: 9531 6d3c 869b 2b3c 9a9e ee3c 6487 663c
00000180: d6b2 acbb 1595 b6ba 61b2 78bb 7a2e 92bd
00000190: 1c2c 7cbd 0b24 213c d572 32bd 1b50 f4bc
000001a0: 66db 8f3c 07e7 01bc e897 6bba 8853 213c
000001b0: 4654 64bd 49cf 513c 9101 a83d fe06 67bd
000001c0: 71a5 2dba 7d61 333d 8ecc 5ebd 4f67 66bd
000001d0: 577d 913b 0034 38bb f08d 84bc 65d5 6d3c
000001e0: 6bbd 96bc d951 62bc 527e 0e3d aa5f 2bbd
000001f0: 616e 8dbc 9faa a43a 980b 1dbd 4c6d a8bc
00000200: 2ae0 bbbc 38c6 d2bc 558d dcbc 9e88 44bd
00000210: f0a3 5f3c 7c46 1b3a cf9c 88bc a397 9abd
00000220: 8f79 ddbc 9ad7 7cbc 5d00 7c3c 87e7 193d
00000230: 7fcd b23c 7966 a8ba 354f e8bc 2d2a 28bd
00000240: 3765 09bd 571e d8bb bd28 d7bc 966a 02bd
00000250: 20c6 a83b 9aa7 04bd 8dd3 dcbd cacc cdbd
00000260: 862a 00be 6d65 b73d bcba 0fbb 8460 823d
00000270: 00ed a53c bd9a 72bd 0098 4d3d 087a 2a3c
00000280: a696 92bd e931 253d d094 b43d 7370 0a3d
00000290: 2d5d ee3b 6f81 273c 7068 1cbd de42 d3bc
000002a0: fe28 63bc 7dff 51bd daee d1bc 497b 773c
000002b0: 8786 a53c c128 c03c 60a9 a63b 6346 5f3a
000002c0: 1af9 253b 22e6 14bd 70d8 17bd 7403 e2bb
000002d0: 9ad2 adbd 252a 95bd 0cfc 1dbd ff72 31bd
000002e0: 8e4c b3bc dfd9 aabc f363 8abd 50c1 a7bd
000002f0: 9492 9ebd a583 e1bd 77ff dbbd 16a2 b5bd
00000300: cfb1 47bd 210c bdbc 5330 16bd d908 c5bd
00000310: c981 aebd 7af2 8fbd 1fd8 d3bd b01b 78bd
00000320: bbc4 65bd 55bd 5dbd 98f9 e1bc f8ca 10bd
00000330: cf73 d5bd d85b b9bd 43b1 e2bd db2a bebd
00000340: 1f0b 7bbd cdc6 6d3b ee82 91bc 6c8d b73b
00000350: dd92 373c eaa9 d43d 7df2 2f3e 018f 253e
00000360: 1949 d6bd e6dc cdbc 9816 32bd 0ca4 233c
00000370: b01d 943d 07ae b53d 2cbe 5dbc 315d 723d
00000380: 1b2d a13d 22f3 c43d f814 a63d c288 f73d
00000390: fb1b 3a3d df92 3dbc aa47 aa3d f7c1 2b3b
000003a0: 01ed 46bd 0206 fa3c fca9 a2bd 14e3 6dbd
000003b0: d87b 3abd 47f7 83bd 2c96 99bc 0274 28bc
000003c0: 6fe8 80bd dff3 82bd 2edf 8fbd 6f9a 0f3e
000003d0: a12c 833d 02e2 163d 286c a83d 981d 263d
000003e0: b977 e43a ca1f 7e3b 1ba8 abbc af08 f6bc
000003f0: acf0 15bc d96d f53c d5f3 033d 5e4c 9bbd
0.00860158 0.01934751 0.008124061 -0.0073349024 0.017474715 0.0051046917 -0.0043297075 0.001226108
-0.001103514 -0.054024525 -0.024134964 0.042563874 -0.03869192 -0.046931118 -0.0019256789 -0.015089561
-0.013598338 -0.015875671 -0.06802566 -0.06951685 0.0036214064 -0.031461027 -0.015751498 -0.0051436066
0.009343138 0.025833143 0.013869022 -0.053620204 -0.05356517 0.018490966 -0.045089424 -0.017068865
0.0038477846 0.0038241695 0.04076711 0.041359685 0.012497307 0.045645647 0.015844012 0.004918628
0.028481854 0.014619812 0.007715514 0.008761763 0.0037204884 0.029292554 0.033485405 0.013103206
0.032997854 0.04928111 0.007124839 0.014608236 0.022913672 -0.0025325015 -0.04166686 0.006208353
0.002841561 -0.054705553 -0.016541246 -0.018646961 -0.05715331 -0.026396813 -0.026152512 -0.017220257
0.022789888 -0.050821885 0.024882505 0.053146526 -0.014015532 0.07236095 0.03907488 -0.031148283
-0.1718899 -0.12820973 -0.089566946 -0.08284786 -0.015328497 0.0041312464 -0.08187603 -0.0712607
-0.090086564 -0.09006988 0.007972752 0.074325696 -0.06757953 -0.018239079 0.04179214 -0.016839834
-0.023537757 0.023366692 -0.00026146037 0.03487125 0.014477153 0.010474091 0.029128361 0.014070366
-0.0052703423 -0.0013929928 -0.003794812 -0.07137771 -0.061565503 0.0098352535 -0.043566544 -0.029823354
0.017560672 -0.007928616 -0.00089871744 0.009846576 -0.055744432 0.012805768 0.08203424 -0.056403153
-0.0006624079 0.043794144 -0.054394297 -0.056250867 0.0044399905 -0.0028107166 -0.016180962 0.014516209
-0.018400868 -0.013813459 0.034788437 -0.04183928 -0.017264547 0.0012563056 -0.038341135 -0.02055993
-0.022934038 -0.025729284 -0.026922861 -0.04798185 0.013649926 0.0005923284 -0.016676335 -0.07548454
-0.027035503 -0.015432263 0.015380946 0.037574317 0.021826504 -0.0012847922 -0.028358081 -0.041055847
-0.03354379 -0.0065954137 -0.026264543 -0.03183993 0.0051505715 -0.0323864 -0.107825376 -0.10048826
-0.12516221 0.08954892 -0.002193137 0.06366065 0.020254612 -0.0592296 0.050193787 0.010405071
-0.0715764 0.0403308 0.08817446 0.033798646 0.007274291 0.0102237305 -0.038185537 -0.02578872
-0.013864754 -0.051269043 -0.025626589 0.015105077 0.02020575 0.023456933 0.005086109 0.00085172633
0.0025325478 -0.036352284 -0.037071645 -0.0068973843 -0.08487435 -0.07283429 -0.03857045 -0.04332256
-0.02188709 -0.020855842 -0.06757345 -0.08191168 -0.07742801 -0.11011437 -0.107420854 -0.08868806
-0.048753556 -0.023077073 -0.03666718 -0.09620828 -0.08520848 -0.070286706 -0.10343956 -0.06057328
-0.05609582 -0.05413564 -0.027584836 -0.035349816 -0.10422479 -0.09050721 -0.11068966 -0.09285518
-0.061289903 0.0036281825 -0.017762627 0.0056015756 0.0112044485 0.10383971 0.17182346 0.16167833
-0.10463161 -0.025129747 -0.04347858 0.009987842 0.07232225 0.08871084 -0.01353411 0.059170906
0.07869931 0.096166864 0.08109468 0.12086631 0.04543684 -0.011570661 0.0831445 0.0026208141
-0.04856587 0.030520443 -0.07942578 -0.058077887 -0.045528263 -0.06443649 -0.018748365 -0.010281565
-0.06294333 -0.06394171 -0.0702499 0.14023755 0.06404997 0.03683663 0.08223754 0.040555567
0.00174307 0.0038776272 -0.020954182 -0.030033438 -0.009151619 0.029959606 0.03221496 -0.07582925

83 f4 [32]
00000000: 8441 6a3f 1b11 48bf 855e 06bf 80ce e4bc
00000010: b437 dc3f f4e9 0bbf 77c9 b43f 1065 6f3d
00000020: 6c4b ed3e bb55 b43f 52d9 95be b039 d53f
00000030: 646c 22be 4c2a c83f 0921 c93e 48da 1cbe
00000040: b8ad d03f b2a2 8f3f 44db a83e 1210 f93f
00000050: 1cca 833f e664 52c0 3382 773f 2a11 943e
00000060: 162c d93f 35c4 5d3f f345 0d3f 00e5 abbf
00000070: 0084 3abf f20b 823f 2469 93bf e61a 1040
0.9150622 -0.781511 -0.52487975 -0.027930498 1.7204499 -0.5465386 1.4123982 0.05844599
0.46346605 1.4088663 -0.29267365 1.665823 -0.1586166 1.5637908 0.39283016 -0.15317643
1.6303015 1.1221526 0.32979786 1.9458029 1.0296054 -3.2874084 0.96683043 0.28919345
1.6966579 0.86627513 0.5518486 -1.342926 -0.72857666 1.0159895 -1.1516461 2.2516418

85 f4 [32, 32, 3, 3]
00000000: f8d3 8b3b aa08 90b8 e9f7 683d ed65 08bc
00000010: d192 84bc 5600 0f3d c020 dbbc 09e2 d6bc
00000020: aa02 d93c 46ab 063d 2dc7 b23c 8995 f2bb
00000030: db7c 923c ec78 2b3c 23eb e3bc 2b2a a8bc
00000040: dc66 a4bc 5178 1cbd 08a4 ff3c 88ba cc3c
00000050: 9456 8a3c e26a 793c dd2b ba3c 92f9 993c
00000060: 4d20 3a3d dc63 113d f0b2 423d cc79 5d3c
00000070: 258e a13c d08f ef3a 3b96 c9bc f8eb a0bc
00000080: 4948 2cbc 1d65 eabc 1c9d 00bd 9a21 f3bc
00000090: 5f2f b93d 6876 133d 01cb 9d3c 2065 a23c
000000a0: 7acf 413a 34d4 4dbc fc00 d73c b429 213c
000000b0: 2855 9cbc 7847 bbbd 2209 2ebd 7b08 683b
000000c0: e070 f7bc 7535 be3c a700 2e3d 205f 73bd
000000d0: 085c 29ba 2ea4 5c3c 0dd5 8e3d e856 ac3c
000000e0: 3fa4 313c f35d 0c3d b659 7f3c 11eb c0bb
000000f0: 5dd9 113d 3b7c 8c3c 9727 4cbc 183d dfbb
00000100: 9930 74ba 78e4 c1bc 739f 0e3d 30c6 113d
00000110: d114 c73c 630f fdbb d378 0bbc 3d7c e93b
00000120: 7618 ff3c bad4 f2bc 1e1a d43b 9498 153c
00000130: f5db b5bc 5415 a93c 5698 65bc bf65 b0bc
00000140: 3a89 053c d33e 503d 4514 9d3c 065a 3e3d
00000150: 5c8e b43c 2865 c13c 7096 de3c 1db3 adbd
00000160: c765 a4bd a5a6 36bd d75b eb3b b52c 0b3b
00000170: 85ff 323d 7a14 00bc ef48 01bd 9940 3d3c
00000180: d62b 12bd 29ed 78bd 23f1 81bd 932f 6bbc
00000190: 698a c73b 45b6 8dbc c1e3 96bc 7ec2 1bbc
000001a0: 9870 d6bc cfb1 083c ea4e 033c 9380 a1bb
000001b0: 269d 623d 84eb 0a3d 068c 3f3c 2533 033d
000001c0: 1598 393c e3d8 18ba 3a03 1ebd 1ba4 7ebd
000001d0: bd6e 4cbd 6341 da3b 8ae7 163a f5ab 4b3d
000001e0: 0897 53bd f5c9 2ebd b12b ab3c 0200 01bd
000001f0: bb59 e0bc 7747 d03b d0a5 873c c5a0 5f3c
00000200: 150a d7bc da34 40bc 1a0d b5bb 6726 caba
00000210: 8d65 57bc 4b1a 19bd 9a24 26bd 88d4 9f3c
00000220: 7b25 303c f8ee a63c 93f5 553b 3fdf 91bc
00000230: e6ed 7cbc 4f5d 2ebc 7c15 00bd ccec 1ebd
00000240: 3c66 e5bc 48ab 00bd 4618 173d 5812 66bd
00000250: c13d 38bd b928 fa3b 6091 49bb f6ec 713c
00000260: cfa3 883d 1445 683c f0dc 3bbd ddcd 3fbd
00000270: 219f 91bb 2539 eabc ddad b5bc 7553 f9bc
00000280: 5d2c 2abd d9aa b4bc d79f 1bbd 22f3 21bd
00000290: e226 b1bd 7d97 52bd 8dd3 5cbd a8cf b0bd
000002a0: d384 b2bd 136d 91bd bec7 93bd f78b 143d
000002b0: 9aff 1c3c b4fc ec39 4fe6 823d 1c0d f439
000002c0: 7d25 013c 1e62 ce3c ea75 bebc f461 ecbb
000002d0: b372 b83c b6c4 063c a3b8 47bd e61c 483c
000002e0: 5713 223d 71b2 22bc d88a 2d3b ea98 a13b
000002f0: a669 38bc 01ad a63c f0a2 c33b c6c5 d73c
00000300: ecf4 573d 29fa 163d edce 453d 3c4b 373d
00000310: f1ea 3a3d e0e1 2e3d 4da5 e63b e3a7 a2bc
00000320: 2629 b5bc 0d07 343d c1c0 13b9 4b0b 3b3a
00000330: ac61 383d 1681 29bb 9fcf 943c ddd1 c53c
00000340: bb73 2e3d 8258 333c 2e23 edbb c208 093c
00000350: 9af2 a9bc 2a24 5b3d eb24 0d3d cd25 18bb
00000360: 1cad 753d 76d8 e63c 896c 97bb 321b 213d
00000370: f5a7 743c 505c a9bc 3e17 313d 0bfe c83c
00000380: f517 113c ada3 d8bc 4ac0 9abc c42d 5cbd
00000390: 1693 223a a448 73bb 7077 70bc 3fd6 093d
000003a0: 2b36 9b3c 01aa 21bc ec91 9b3d 78ff 233d
000003b0: 59e7 80bb f2e4 5f3d 9a32 ec3c 0379 ffb9
000003c0: 0093 3d3d c4f6 3f3d 28fa d53c f73f e23c
000003d0: 103b fbba 4d9b b23c 2f04 0e3d 2c29 afbb
000003e0: 433d eb3b f21d 1f39 8440 cabc 2e2e 8dbc
000003f0: cbfb c43c e89b 813c b602 123d e353 403b
0.004267212 -6.868069e-05 0.05687705 -0.008325082 -0.016183289 0.03491243 -0.026749015 -0.026230829
0.026490528 0.032878183 0.02182349 -0.00740308 0.017881801 0.010465842 -0.027822083 -0.02052792
-0.020068578 -0.03820068 0.031206146 0.024991289 0.016886987 0.015223237 0.022725994 0.018795762
0.04544096 0.035495624 0.04753393 0.013517808 0.0197211 0.0018277112 -0.024607768 -0.019643769
-0.010515281 -0.028612668 -0.03139983 -0.029679108 0.090422384 0.036001593 0.019261839 0.01982361
0.0007393282 -0.0125628 0.026245587 0.009836603 -0.019083574 -0.09144491 -0.04248918 0.0035405445
-0.03020519 0.02321885 0.04248109 -0.05941689 -0.0006460552 0.013466878 0.0697423 0.021037534
0.010842382 0.034269284 0.015585354 -0.005887397 0.035607684 0.017149081 -0.012460611 -0.006812703
-0.0009315103 -0.023668513 0.03482003 0.035589397 0.024301918 -0.0077227815 -0.008512693 0.007125406
0.031139594 -0.029642452 0.00647284 0.009130616 -0.02219961 0.020640053 -0.0140133705 -0.021532891
0.008150393 0.050841164 0.019174704 0.04647257 0.022040538 0.023607805 0.027171344 -0.08481429
-0.08027225 -0.04459252 0.007182579 0.0021236364 0.043700714 -0.007817382 -0.031563696 0.011551046
-0.035686336 -0.06077305 -0.06344821 -0.014354604 0.006089498 -0.017298827 -0.018419148 -0.00950682
-0.026176736 0.008343174 0.00801442 -0.0049286573 0.05532565 0.03391601 0.011691099 0.032031197
0.011327763 -0.00058306585 -0.038577296 -0.062168222 -0.049910296 0.0066606267 0.0005756548 0.049724538
-0.051657706 -0.04267307 0.020894857 -0.031494148 -0.027386537 0.0063561755 0.016558558 0.01364917
-0.026249925 -0.011731351 -0.0055252435 -0.0015422822 -0.01314677 -0.03737859 -0.04056225 0.019510522
0.010751124 0.020377621 0.0032647594 -0.017806647 -0.015437579 -0.010642364 -0.03127049 -0.038800046
-0.02800285 -0.031413347 0.036888383 -0.056169838 -0.044980768 0.007634249 -0.0030756816 0.014765969
0.06671869 0.014176626 -0.045865 -0.046827186 -0.0044440185 -0.028591702 -0.022177631 -0.030435303
-0.041546214 -0.022054123 -0.037994232 -0.03953851 -0.086499944 -0.051414 -0.053912688 -0.08633357
-0.087167405 -0.071008824 -0.07215832 0.036266293 0.009582425 0.00045201706 0.06391584 0.00046549074
0.007882473 0.02519327 -0.023249585 -0.0072138254 0.02251563 0.0082256105 -0.048760068 0.012213921
0.039569225 -0.009930239 0.0026480462 0.004931559 -0.011255657 0.020346167 0.0059703514 0.026339423
0.05272381 0.036859665 0.048293043 0.044749483 0.045634214 0.04269588 0.0070387484 -0.019855445
-0.022114348 0.043952037 -0.00014090819 0.00071351667 0.045015022 -0.0025864295 0.018165408 0.024147922
0.042590838 0.010946395 -0.0072368598 0.008363904 -0.020745564 0.053501286 0.034459036 -0.002321589
0.059979543 0.028179388 -0.0046210927 0.039332576 0.014932622 -0.0206739 0.043235056 0.0245352
0.008855809 -0.026445234 -0.018890519 -0.053754583 0.0006201727 -0.0037122155 -0.014676914 0.033651587
0.018946728 -0.009867192 0.07596192 0.040038556 -0.003933829 0.0546617 0.028832722 -0.0004872755
0.04628277 0.046866193 0.02612026 0.027618391 -0.0019167382 0.021802569 0.03467196 -0.0053454842
0.007178934 0.00015174577 -0.024688967 -0.017233934 0.024045845 0.015821412 0.035647117 0.0029346875

86 f4 [32]
00000000: ad01 4cbe 8ee4 fdbe 885b 1b3e ace7 de3e
00000010: c254 a9bf 82cf ea3f 055a c8bf fa9d ccbf
00000020: a957 2f3f 8059 c8bc 3c2f a93f 13ac 0b40
00000030: f1d6 353f 4222 3dbf fe69 5f3e 4892 dabd
00000040: 4e14 a73d 16c5 5d3f 4ea3 413f 8d29 ae3e
00000050: 0e6b 30bf 4e09 42bf dcf6 f23f 3b90 45be
00000060: 3e27 96bf d898 dbbe 4ed9 653f 7b0f 24c0
00000070: 464e 7f3e 63ed 1f3f 16b9 91be d256 aabe
-0.19922514 -0.49588436 0.15171635 0.43536127 -1.3228991 1.8344576 -1.5652472 -1.5985711
0.68493134 -0.02445674 1.321754 2.1823776 0.710311 -0.738804 0.21817777 -0.10672432
0.0815817 0.86628854 0.7563981 0.34016076 -0.6891335 -0.7579545 1.8981586 -0.19293301
-1.1730726 -0.42890048 0.89784706 -2.5634449 0.24932203 0.624716 -0.28461522 -0.33269364

88 f4 [32, 16, 1, 1]
00000000: 9680 babe 57fd 3e3e be25 d5be 37e6 5cbc
00000010: 108a 8cbe 2151 16be 7eca 57bf 7f9f d43d
00000020: 4383 87be ab6e 383e 0d73 83be 2f49 39be
00000030: 4098 133f 23dd de3e 70c7 6e3e 7216 08bd
00000040: 9997 5c3e 4b23 b03e 1e73 dd3e 3eb8 ee3d
00000050: cde1 94bd bfc1 9b3d cccf a0bd 79ee 1a3e
00000060: e089 c0bd c760 ac3e 14aa a6bd 875d b83e
00000070: fd01 3fbd d832 bebd 56f3 8bbd 9afb 283c
00000080: 2d25 943d 3028 fb3d 13ab d33e 6c0a 2f3e
00000090: 6f76 72bd fe14 813d 97a0 0fbe 4efc ba3d
000000a0: 7cf9 57be 011d c63d 6e50 10bd 4c8b 823e
000000b0: faf6 6b3d 0db5 1ebc 1f7e 7e3e 48d9 a93b
000000c0: a875 d1be ae44 4abe 71ad 67bd 1bce a93d
000000d0: de32 9abe dac8 a1be 6d95 10bf 722a 343d
000000e0: 2f17 e5bd b789 60be adad d7be e66b 46bd
000000f0: caa6 12bf 85ae 07bf 10a6 81bd f8c3 923e
00000100: d6a1 c0ba 9269 88bc f360 77bd c7fd 40bd
00000110: 4288 3b3c 4478 c63c 8acc 013c 81c5 1bbd
00000120: f103 2b3d aeb3 b13c d562 9b3c ce93 53bc
00000130: 0c6d 5d3d e769 7f3b 53c0 f83b 43f5 2bbc
00000140: 3d88 22be e40b 163d ce07 263d 32cf d8bd
00000150: 9839 d0bd 51ef 93be 747d 8fbd 7dbf 8ebd
00000160: de44 0f3b 2dea df3e a8f5 ffbd 59a4 24bd
00000170: afee 993e 133a 453c 22f0 17be 306b 753d
00000180: 26e1 3abd e9df af3d 21b1 853d 245e 6f3d
00000190: e800 aabd e494 36bd 6222 083c e984 36bd
000001a0: 6bb5 153e be3f ebbc a34f a0bd df6b d03d
000001b0: e0d7 b8bd 974f a33d 3b61 4f3d 9d62 163e
000001c0: 59a7 6abd 7c38 cd3e b5fd ef3d ad97 c53d
000001d0: 522d 3ebb 6413 613c 7de2 f23d 4874 383e
000001e0: 440f 1a3e fcec fd3e 3765 0dbe 4aea e33e
000001f0: d140 5a3e 8c2b 253e 4206 633e 5379 853d
00000200: 9287 8a3d dded b63d f4b7 12bb 6634 d83d
00000210: 0c75 00bd 6d47 fcbd d1f4 173e c780 0abf
00000220: bd35 74bd 2218 52bd ff71 bdbd 5344 fdbd
00000230: 6a67 993d 5a35 f63d d0d4 29be 2b38 a3be
00000240: e61e 0d3e e87f a53d d739 bc3d ce2b 2fbd
00000250: 7093 b53d 45de 543e 5513 bf3b c509 f7bd
00000260: bf2e bbbe 728f 5cbc bf7d 78bd 9e08 7fbe
00000270: 45e8 f13d f3e2 fd3d 0197 6ebd e9b2 e9be
00000280: a646 483e 0e2a 8bbc c0d0 e0bd 7b5c 05be
00000290: 8d89 c73d 7487 a33d acf8 0a3e c7cd dd3c
000002a0: 3bdd 4abe b427 743c 46ad 1e3e 0fcc 9fbd
000002b0: fab4 323d b273 093c 8ebe 0cbe b8e0 22be
000002c0: 04d4 dbbe 7cfe 793e 80ba 113e c795 3dbc
000002d0: 0421 10bf 5f84 10bf 7b20 54be f996 ae3d
000002e0: 2f7e 9f3d c897 8abc 1825 a6be b5d4 023d
000002f0: 7caf 8f3e 10f2 2b3e c68c 0abd f3da c0bd
00000300: 80b7 8abe fe70 eb3e b76d a93d 806f 2abe
00000310: 29a7 a5be d7fd 5dbe 50fd 8ebe d7b5 8dbe
00000320: 9b1c cabd f35e c13e 6ae4 dabe ab5c 1e3e
00000330: c14a f73e 68be de3c 514c 9a3d ed2c e93c
00000340: e764 8b3d 5b97 5b3b fa6b c93d 2640 54bd
00000350: 5fac 343e 6d9a 913e 2257 80bd 0a1a 563e
00000360: b6ba 22be 78a7 0c3f 2cb5 413e ca18 633d
00000370: 8167 f23e a00d 643d 794b 09bc 6ec1 c73d
00000380: 1898 ca3d 8f01 8b3d 16ff 183f 46e4 ca3d
00000390: e2c6 41be 3a94 35be 4010 263d f512 92bc
000003a0: 3d82 28be 3bf8 23bd c063 b0bd b808 e83e
000003b0: d3b6 71be fc14 83bd e03f 3cbd 515a 58bd
000003c0: 8a7b b63e 2b10 77bd 63b9 a13d 4183 d03d
000003d0: 6bf1 5c3e 858a e13d 446a c23e 7d2e 1a3e
000003e0: c570 80be 1e32 93bd 7976 613e 4343 d0bb
000003f0: 35f4 5dbd 2bba 1b3d 2c01 03be acbc 93be
-0.36426228 0.18651329 -0.41630358 -0.013482622 -0.27449083 -0.14679386 -0.84293354 0.10381984
-0.26467332 0.18010966 -0.25673714 -0.18094324 0.5765419 0.4352809 0.23318267 -0.03322453
0.21542205 0.34401926 0.4325189 0.11656235 -0.072696306 0.076053135 -0.07852134 0.15130033
-0.094012976 0.33667585 -0.081379086 0.36008856 -0.046632756 -0.092870414 -0.06833522 0.010313893
0.07233653 0.122635245 0.41341457 0.1709382 -0.05919498 0.06302832 -0.14026104 0.091301546
-0.21091264 0.09673501 -0.035232954 0.254969 0.057608582 -0.009686721 0.24852799 0.0051833726
-0.40910077 -0.19752762 -0.05656189 0.082912646 -0.30116934 -0.3159855 -0.56478006 0.04398579
-0.111860625 -0.21927534 -0.42124692 -0.048442744 -0.5728575 -0.5300067 -0.06330502 0.28665137
-0.0014696668 -0.016651902 -0.060395192 -0.04711702 0.011446061 0.024227269 0.007922301 -0.03803015
0.041751806 0.021692123 0.018968025 -0.012913657 0.054059073 0.0038973035 0.007591286 -0.010495487
-0.15872283 0.036632434 0.040534787 -0.10586394 -0.10167235 -0.2889352 -0.0700635 -0.06970117
0.0021861116 0.4373335 -0.12498027 -0.040195797 0.30064914 0.012037772 -0.14837697 0.059916675
-0.045624875 0.08587629 0.06527925 0.05843939 -0.08300954 -0.044575587 0.008308979 -0.044560347
0.14619987 -0.028716918 -0.078276895 0.10176825 -0.0902555 0.07974165 0.050629836 0.14686055
-0.0572885 0.40082157 0.11718313 0.096480705 -0.0029018712 0.013737533 0.118596055 0.18013108
0.15044886 0.49594867 -0.13808142 0.44514686 0.21313788 0.16129893 0.22170356 0.065172814
0.06764139 0.089320876 -0.0022387477 0.10556869 -0.031361625 -0.12318311 0.14839484 -0.5410275
-0.05962156 -0.051292546 -0.09250259 -0.123665474 0.07490428 0.12021895 -0.16585088 -0.3187879
0.13781318 0.08081037 0.091907196 -0.042766385 0.08866012 0.20787914 0.005831162 -0.1206241
-0.36559102 -0.013461934 -0.060666796 -0.24905631 0.1181188 0.12396803 -0.058249477 -0.4564431
0.195582 -0.016987827 -0.10977316 -0.1302356 0.097430326 0.0798482 0.13571423 0.027075661
-0.19810955 0.014902044 0.15495786 -0.07802593 0.043629624 0.0083894 -0.13744566 -0.15906036
-0.42935193 0.24413484 0.142313 -0.011571354 -0.5630038 -0.5645198 -0.20715515 0.085248895
0.077877395 -0.016918078 -0.32450175 0.031941134 0.2806357 0.16791558 -0.03382566 -0.09416761
-0.27093124 0.45984644 0.082728796 -0.16644096 -0.32354096 -0.21678863 -0.27927637 -0.27677795
-0.09868737 0.37767753 -0.4275239 0.15465038 0.4829922 0.027190402 0.075340874 0.028463805
0.06806355 0.0033506963 0.09835048 -0.05181899 0.1764388 0.2843813 -0.06266619 0.2090837
-0.15891537 0.5494304 0.18916768 0.055443563 0.47344592 0.055677056 -0.0083798105 0.09753691
0.09892291 0.06787407 0.5976423 0.09906821 -0.18923524 -0.17732325 0.04054284 -0.017831305
-0.16455932 -0.040031653 -0.08612776 0.45319152 -0.23604898 -0.06400487 -0.045959353 -0.052820507
0.35641128 -0.060318153 0.07896688 0.10181285 0.21576469 0.11012749 0.379717 0.15056796
-0.25086036 -0.071872935 0.2201785 -0.0063556745 -0.054187972 0.03801934 -0.12793416 -0.28854883

89 f4 [32]
00000000: bd70 5e3e ee52 a3bf a035 1ebf a5b8 0040
00000010: 4f19 11bf 4446 efbe 5cdd 78bf d9b6 30c0
00000020: f757 3b3f 7a87 3e3f 62f3 0dbe 9bf9 5bbe
00000030: c838 6ebe 559d fcbf f672 42be b39d dfbe
00000040: cf40 63bf 26e9 1440 5cd0 09c0 7e69 473f
00000050: 80a1 0640 45e3 afbf 344b a8bf 24d6 4d3f
00000060: 56cc 0fc0 9ad6 afbf 937f cdbf 1639 19c0
00000070: 1c8a 2540 c0d1 f4bd 9611 1340 590a 5a3f
0.21722694 -1.2759683 -0.61800575 2.0112698 -0.5667924 -0.46733296 -0.9721277 -2.7611601
0.731811 0.7442547 -0.13862374 -0.21481936 -0.23263848 -1.9735514 -0.18989167 -0.43675002
-0.88770765 2.3267303 -2.1533422 0.77895343 2.1036072 -1.3741232 -1.314795 0.8040488
-2.2468467 -1.3737366 -1.6054558 -2.3941092 2.5865545 -0.11954069 2.2979484 0.8517204

91 f4 [64, 32, 3, 3]
00000000: d662 973c 16e3 ee3c f8c6 b43c 94fa 55bc
00000010: d2f0 913d 0f32 513d 2ec7 7739 6d95 a23c
00000020: 7626 c6bc af6f 3dba 6866 42bb c4af 8fbc
00000030: d791 e438 5aaa 68bc 4359 ff3a bf6a d1bc
00000040: 9f38 32bd 665d 99bc ecee c53c 1883 df3b
00000050: 8ea1 513c 0fea eebc c3d7 1abd a8f6 38bd
00000060: bbc3 163c 2efd 0dbd 39b4 49bd d706 7c3b
00000070: 8d71 78bd e914 d4bc 63c7 7fbc f516 21bd
00000080: cd92 4dbd f61a 613c ed15 13bc d81b 91bc
00000090: c9be 30bb 3d07 9bbb 3a39 ddbc 7c49 8cbb
000000a0: dcec 1fbc 51ac 12bd 922f d8bc ab06 45bc
000000b0: 045a 26bd 7215 513c 588e f03c 0a43 973c
000000c0: 9ef5 88bc 7038 743c 31ea afba d446 c53c
000000d0: 8305 583c 9326 263b f8c4 ddbc 338f 23bd
000000e0: 323e adbd dbd3 6dba 304d cebc 95e2 81bd
000000f0: b858 953c 63ae 873c 4d1d 9039 36b4 d5bc
00000100: 6664 32bd d830 1fbd 941c 05bd cc66 88bd
00000110: 36b4 99bd 2847 bab8 a995 b8bb 6df3 bfbc
00000120: f3e5 2fbd 2ebf 1bbc b8f2 99bb ce21 3ebd
00000130: 6061 b9bc 29fa 28bc e7f0 65bd 1bc1 08bd
00000140: 7e40 34bd 2198 303c 3d91 133c 525d 913c
00000150: 1f3d cbbb 9413 e4bb 364c 87bb 3368 fdbb
00000160: 1e15 413c 3324 9a3c 52fc 8a3c fbc8 e83c
00000170: 2b4c 223d ecf5 043b b18b 863b e2bc 88bc
00000180: 1043 1a3c 3e05 cc3b 4b3d 93ba 4168 803c
00000190: 456a 233c 9adf 363d b01a 4fbd 00e5 f7bb
000001a0: 7792 42bb a267 9ebb f6d5 88bc f67b 19bc
000001b0: 92ec 953b 27f4 4d3b 59a8 a73c fed7 4f3c
000001c0: 3954 3bbc 9991 ffbc a5af 6ebc c144 12bc
000001d0: 494b 3fbd 5084 3bbd 8ae0 05bd ff98 9cbd
000001e0: 0883 a53c fbba e13b 8cf9 5dbd dc68 3e3b
000001f0: 3364 4abc 373e d7bc 46ed 233d 1c93 3d3d
00000200: cc71 653d 5407 c1bc c14e 28bd 5c9d 33bd
00000210: 97f7 333c 16cd c23b 032b 6abc 8e23 0dbb
00000220: 1f18 bbbb a266 c6bb fdd5 cbbb 1cf6 a8bc
00000230: 4ae1 28bd e445 10bc 11ef cebb 16d2 adbc
00000240: 83ed b23c 22db 1d3c 1be1 093d 515e 883b
00000250: 512e 96bc 4b0f 173c 54fe 543d 962b cc3c
00000260: 1451 013d e573 413d 3f3b 5d3d 4ba1 913d
00000270: c3a9 993c 9866 763d 2e60 8b3d 2200 3bbd
00000280: f127 e1bc cb9e d1bb 4c3f b53b 6294 78bc
00000290: 17cc 883b 0e74 153d feae 0cbc 1099 4fbc
000002a0: 5714 adbb e538 6ebc d1e0 b2bc 4132 2cbc
000002b0: db2e adba 5bb0 cfbb 16be 933c b9e4 323d
000002c0: 47f8 263c dfa9 9bbc 99db 283c 1c57 0abd
000002d0: c793 17bc 3692 a53c b4dd 753d 084d 6ebd
000002e0: 6885 15bc f758 e13c 25d5 a5bd 12b5 50bd
000002f0: 17b7 e8bc 7dfe 1cbc 89e1 f33b 88ce 4cbc
00000300: 47c1 cb3a 9fd6 283c ab5f 09bd ce6a cabc
00000310: 494d d0bb e665 29bd 2c3d eb3a fb3f 70bb
00000320: b523 14bd 8be3 9e3c 196d ff3c b8c9 41bd
00000330: c26b 303b 95a8 bcbc 6424 14bd 9e2b 72bd
00000340: 1ee8 02bd 9763 54bc 40d6 e3bc c63b dfbb
00000350: a6c4 833b eabf e2bc 6892 2cbc 3462 c1bc
00000360: 8da0 e3bc 5119 cbbc 8148 e7bc 5f1d a23c
00000370: a307 d0b9 1d0e 8bbb 88f1 21bd 2a9a f9bc
00000380: e697 ecbc 4252 383c 19ab c0bb c863 d2bb
00000390: 010f 5f3c aabb 953c bd65 623c 4daa 17bd
000003a0: 1fd2 15bd af0a 72bc ef6f 893d b01f 433d
000003b0: 955c 573d a672 023a 05b7 833b 9082 1c3b
000003c0: 5d45 82bd 6dc4 9dbd 0897 3cbd f0d5 9fbd
000003d0: 2527 63bd b32e 5ebd 88ba aebd ad84 96bd
000003e0: 2276 a1bd 4f29 e6bc 1794 7fbc 0e5a 03bc
000003f0: abba 9fbc 55b0 3fbc 150d 3cbd 67cd bfbc
0.018479746 0.029161017 0.022067532 -0.013060231 0.07126011 0.05107313 0.00023629956 0.019846642
-0.024188261 -0.000722642 -0.002966309 -0.017539866 0.00010899052 -0.014200771 0.0019481558 -0.025563596
-0.04351103 -0.018721294 0.024161778 0.0068210475 0.012794865 -0.029164342 -0.037803423 -0.045157105
0.009201939 -0.03466528 -0.04924414 0.0038456225 -0.060655165 -0.025888877 -0.015611502 -0.039328534
-0.05018883 0.013739338 -0.0089773955 -0.017713472 -0.0026969186 -0.0047310875 -0.027004827 -0.004281221
-0.0097610615 -0.035808865 -0.02638987 -0.012025516 -0.04061319 0.012761461 0.02936475 0.018464584
-0.016718682 0.014906034 -0.0013421235 0.024081625 0.013184908 0.0025352582 -0.027071461 -0.039931487
-0.084591284 -0.00090724014 -0.02518329 -0.06342045 0.018230781 0.016562646 0.0002748765 -0.026086908
-0.04355278 -0.03886494 -0.032497957 -0.06660232 -0.07505076 -8.882425e-05 -0.0056330753 -0.023431504
-0.042943906 -0.00950603 -0.004698124 -0.046418957 -0.02262944 -0.010313549 -0.056137946 -0.033387285
-0.044006817 0.010778458 0.0090067955 0.017744694 -0.0062023546 -0.0069603417 -0.004128958 -0.007733369
0.01178482 0.01881609 0.016966019 0.028416147 0.03962342 0.0020288182 0.004106008 -0.016691629
0.009415403 0.006226211 -0.0011233477 0.015674712 0.009974067 0.044646837 -0.05056256 -0.0075651407
-0.002968935 -0.0048341313 -0.016703587 -0.0093679335 0.0045753205 0.0031426044 0.020466017 0.012685774
-0.011433654 -0.031197356 -0.014568244 -0.008927525 -0.046702657 -0.04578048 -0.03268484 -0.07646369
0.020204082 0.006888745 -0.054193065 0.00290542 -0.012352991 -0.026274784 0.040021203 0.046282873
0.05601673 -0.023563065 -0.04109073 -0.04385124 0.010984323 0.0059448583 -0.014292481 -0.0021536085
-0.0057096626 -0.0060547153 -0.0062205778 -0.020625167 -0.041230477 -0.008805726 -0.00631512 -0.02121834
0.02184177 0.009634765 0.033661943 0.004161634 -0.018332632 0.009219955 0.05200036 0.024923127
0.031571463 0.047229666 0.05401158 0.07110842 0.018757707 0.060156435 0.06805454 -0.045654424
-0.027484866 -0.0063971034 0.005531227 -0.015172096 0.00417472 0.03648763 -0.008586643 -0.01267077
-0.0052819657 -0.014539932 -0.021835716 -0.010510028 -0.0013212817 -0.006338162 0.018034976 0.04367516
0.01019103 -0.0190019 0.010306262 -0.03377448 -0.009251541 0.02021132 0.060025886 -0.05817893
-0.009126045 0.027508242 -0.08097295 -0.050953932 -0.028407617 -0.009582159 0.0074426574 -0.012500413
0.0015545272 0.010305076 -0.0335385 -0.024709132 -0.0063568694 -0.041356944 0.0017947308 -0.003665923
-0.036166865 0.01939561 0.031179952 -0.047311515 0.0026919697 -0.023029605 -0.036167517 -0.059123628
-0.031959645 -0.012963197 -0.027812123 -0.0068125455 0.004021245 -0.027679402 -0.010532953 -0.023606397
-0.027786518 -0.024792345 -0.028232815 0.019789396 -0.0003967854 -0.004243626 -0.039536983 -0.030469019
-0.028881025 0.011250081 -0.0058797714 -0.0064205863 0.013614417 0.018277962 0.013818202 -0.037027646
-0.03657734 -0.014773055 0.06710803 0.04763764 0.052578527 0.00049761904 0.0040196204 0.0023881532
-0.06360886 -0.07703481 -0.046042472 -0.07804477 -0.055457253 -0.054243755 -0.08531672 -0.07349525
-0.0788386 -0.02809587 -0.015599272 -0.008017076 -0.01949819 -0.011699756 -0.045910913 -0.023413373

92 f4 [64]
00000000: ab93 c93e 7628 0a3f 2075 67be 902d e8bc
00000010: 4b80 873e 1b68 413f aa9f 8f3f 443b 573f
00000020: 1bdf 69bf 93cb 943f d07d 903f 8e8c b33e
00000030: 2641 e1be c23f 18bf 7cc2 933f 43c2 97be
00000040: 2c22 63bf b7d1 283f 6b85 8ebe 4af9 203f
00000050: 3cfc 1abf 9486 823f 7476 323e d126 09bf
00000060: 3d12 a6be 7841 953f 881c 20be 5554 7ebf
00000070: 8a51 f43e c078 553c c845 0040 bebb d0be
00000080: 1c02 cc3e b82e 163f 594f 1cbf fe25 debf
00000090: 48d5 0abe 6403 8abe bc16 2e3f 037b f83d
000000a0: eef0 303f 8086 86bd 7878 8f3f 668c 1a3f
000000b0: b4c2 e03e 3c83 d33d c830 643f 5a42 6cbf
000000c0: a310 32bf 9840 dbbd 4496 2c3e 6c36 01bf
000000d0: 4007 46be 1061 7fbd 00fd cc3c c465 26be
000000e0: 5630 1d3f d97f 2abf e2c4 85bf acb3 363e
000000f0: f53a 4f3f 1866 303d 9871 2ebf bad1 9abe
0.39370474 0.5396799 -0.22603273 -0.028342038 0.26465067 0.7554948 1.1220601 0.8407481
-0.91356057 1.1624626 1.1288395 0.35068172 -0.43995017 -0.59472287 1.1543727 -0.29640397
-0.8872402 0.65945 -0.27836165 0.62880385 -0.6054113 1.019732 0.17427999 -0.53574854
-0.3243579 1.1660604 -0.15635884 -0.9934743 0.4771846 0.013029277 2.004259 -0.40768236
0.3984536 0.5866504 -0.61058575 -1.7355344 -0.13557923 -0.26955712 0.6800344 0.121328376
0.6911763 -0.065686226 1.1208639 0.6037048 0.43898547 0.10327765 0.89136934 -0.92288744
-0.69556636 -0.1070568 0.16854197 -0.50473666 -0.19338703 -0.062348425 0.025022984 -0.16249758
0.6140188 -0.6660133 -1.0450709 0.17841977 0.80949336 0.043066114 -0.6814208 -0.30238134

94 f4 [64, 64, 3, 3]
00000000: f6d1 babd cfe4 dfbd 996b b8bc 08f7 fe3c
00000010: 04b5 9b3c 70d9 6cbb e9ac 333d 47a4 983b
00000020: f3da 6ebc 9b11 5a3e b9bc b5bd c7e3 febd
00000030: 5f76 643e 7591 b0bc 3553 07be 61d0 323e
00000040: 91bc 44bc 8760 d7bd 4877 373e 0048 633d
00000050: 5619 96bc 6906 353e 3cab debb 27bb 60bd
00000060: 1bc9 933e 4b02 e83d 98da 2d3d 49d4 943b
00000070: 1f5f cfbd aff1 d5bd a38f 1e3c 0d05 66bc
00000080: 1e28 bbbc 5aa1 0ebd e186 b2bd 313b b0bc
00000090: 8ff1 1abe c284 5bbd 795d b13d fbef 2fbd
000000a0: 5220 86bd 6148 ec3b 0ef8 613d 6056 2fbd
000000b0: cd6a abbc e172 ae3b f274 8b3c 675f 553d
000000c0: 5e63 bfbd 460e 83bd fb53 883d 7c6d 9cbd
000000d0: f7ac 97bd 6f52 64bd 90e5 913d ca29 d7bd
000000e0: fcfa b2bd 2b2b 213e 4694 f13c 3a8f 91bd
000000f0: 1c21 f53d 693a 603d f7eb 7abb a968 8abc
00000100: 1769 b53d ad39 2e3d 2b1f 90bc f094 0a3d
00000110: f33d 14bd e38f 8e3d 849f 093e 6f0a 963d
00000120: d954 a03d cfa1 563c bfb4 2ebe d033 e23d
00000130: 5ab2 21bc b1ff dfbd 8bdb 133d 97a5 ae3c
00000140: 4de6 44bd 2c42 d9bd b90f 19be aeb7 9b3d
00000150: 3a51 e0bc 4797 7dbc 6047 123e b6fe 81bd
00000160: e6b0 59bd 48cc c73d f2ba 4abd 3135 1d3e
00000170: 1504 383e 4156 c3bd 46cc 23bd 9f36 203d
00000180: be60 0b3d d237 5bbd 58c8 dbbd 43b3 d33b
00000190: ee8b 683d 82de 023e 4726 a4bd 2ed9 183d
000001a0: 7fe6 113e 4c14 11be f15c 5bbc 20de e03c
000001b0: 84de f3bc 32c3 9f3c cd51 fa3d 7a4b cfbd
000001c0: aa3e 24bd f379 ba3c 223f 2cbe 9b9d 793a
000001d0: 0cf6 9d3d 2149 2bbd 1b7a b33d 8ce4 073e
000001e0: ebce 153d 5767 533d fb9d bf3d af20 023d
000001f0: 57e1 a6bd abd4 7ebb 8ad5 f33d 87da e1bd
00000200: 1e6f d2bd 55b6 1d3e 6835 23bd 961d 2ebe
00000210: 196e 383e 3b2f a1bc 3bc1 0cbe 2c44 fabc
00000220: 2305 a53d bbd1 da3d b32c 45bd 5da7 b73c
00000230: de7f b43c 913c 8a3d 5b60 b33c 5a95 9fbb
00000240: c94e c5bd b4b5 363c 115e 6abb 0acd e9bd
00000250: ca50 973b f7f9 56ba ba4d d2bd 1454 17bd
00000260: a38d b53c 8d61 f63d 5684 acbd c60e 20be
00000270: 88e8 593e 8d90 3dbd d4d0 25be 32c4 393e
00000280: e86c 0ebd 1534 d1bd 0916 0cbe bd8f 143d
00000290: c038 3c3d d797 20be de48 f93c 4849 443d
000002a0: 0c95 0ebe 8e53 0bbc 8fc0 1e3c bd03 93bd
000002b0: 8abc fdbd f610 5cbd aa09 6c3c 9484 d4bc
000002c0: 4a29 b5bd dbac 7fbc ec3f 7cbd 38be 29bd
000002d0: 4e17 4bbd f12a f63c 5736 8d3d e18e b93c
000002e0: 5f94 b93a f52b 3fbc 533e 483e 7c31 6c3d
000002f0: bdb5 bbbb 9cb4 22bb 9721 993d 0a77 413d
00000300: b57b d0bd 0a0d 84bc d3ae c13b aa93 6cbd
00000310: 0b70 433d a824 0b3e 4126 c63d 72c9 25be
00000320: daa7 69be d06d 3d3e 24da 3ebd 0335 efbd
00000330: 2a44 233e 33ed 80bd 4c21 efbd 272a 913c
00000340: 953c 52bd 0ecb 173d 650c a23d 4ca0 263d
00000350: 32af fbbb fa34 753d 8f5c 33bc 3a73 febd
00000360: 425d 0eb9 731f 993c 5b96 0a3d fa74 6abd
00000370: d289 10bd 8ec4 0f3d 7957 34bc 7380 a13c
00000380: e50e cd3c 3a76 22be cf93 38bd 6cc9 103e
00000390: d8c9 babd b760 36bd 1652 2e3e e2e3 abbc
000003a0: 453f 51bc 1a0c 5f3e 454f f6bd 0e59 48bd
000003b0: 25b8 3b3d 8f7d a1bd 79d7 bfbd 9233 a3bc
000003c0: c81f f3bc fe5c 07be 6134 2fbe d9d0 023d
000003d0: 54ec b53d 8a8d f639 41f0 15bb d021 d43d
000003e0: 6bba bd3b 9b39 c3bd a5b6 273e db17 ca3d
000003f0: d1c6 afbb 2581 01bd d0b0 133d ec6f a23d
-0.09122078 -0.10932314 -0.022512244 0.031123653 0.019007213 -0.0036140345 0.04386607 0.0046582553
-0.014578569 0.21295778 -0.088738866 -0.12445789 0.2231078 -0.021553734 -0.13215335 0.17462303
-0.012007848 -0.10516458 0.17916596 0.055488586 -0.018322628 0.17678227 -0.006795315 -0.054865982
0.2886437 0.11328562 0.042444795 0.004541908 -0.10125565 -0.10446488 0.0096778 -0.01403929
-0.022846278 -0.034821846 -0.08717132 -0.0215126 -0.1513121 -0.053593405 0.086604066 -0.042953473
-0.06549133 0.0072107767 0.055168204 -0.042806983 -0.02092495 0.005323753 0.017023537 0.052092936
-0.09345125 -0.06399207 0.06656643 -0.0763807 -0.07406037 -0.055742677 0.07123864 -0.105060175
-0.08739278 0.15739124 0.029489648 -0.071073964 0.11969206 0.054743204 -0.0038287619 -0.016895609
0.08857935 0.042535473 -0.017592987 0.033833444 -0.036191892 0.06961038 0.13439757 0.07326209
0.078286834 0.013100102 -0.17061137 0.11045039 -0.0098691825 -0.10937441 0.036098044 0.021319194
-0.048071194 -0.106083244 -0.14947404 0.076033935 -0.027382482 -0.015477962 0.1428504 -0.063474104
-0.05314722 0.097557604 -0.04949469 0.15352322 0.17970307 -0.09537936 -0.039989732 0.03911459
0.034027807 -0.05352003 -0.10731572 0.0064605786 0.056774072 0.12780192 -0.08015113 0.037316494
0.14248084 -0.14167899 -0.013388858 0.027449667 -0.02976919 0.019502256 0.122226335 -0.10121818
-0.040098824 0.022763228 -0.16820958 0.0009522081 0.07712945 -0.041817788 0.08763524 0.13270777
0.036574285 0.051612224 0.09356304 0.03176945 -0.08148449 -0.0038884084 0.11905964 -0.11028009
-0.102751 0.15401585 -0.039845854 -0.17003474 0.18010749 -0.019675842 -0.13745587 -0.030550085
0.080576204 0.10684534 -0.04813833 0.022418672 0.022033628 0.067498334 0.021896532 -0.004870099
-0.09634168 0.01115172 -0.0035761634 -0.11416061 0.004617785 -0.00082007 -0.102687314 -0.036945418
0.022162264 0.12030325 -0.084236786 -0.15630636 0.2128011 -0.046280432 -0.16192943 0.18141249
-0.03477183 -0.10215012 -0.1368028 0.036269892 0.04595256 -0.15682922 0.030430254 0.04792145
-0.13924044 -0.008503808 0.009689464 -0.071784474 -0.123894766 -0.053727113 0.014406601 -0.025942124
-0.08845766 -0.015605177 -0.0615844 -0.041441172 -0.049582772 0.030049773 0.0689513 0.022651138
0.0014158598 -0.011668195 0.19555025 0.05766438 -0.005728452 -0.002482689 0.0747711 0.047232665
-0.10179845 -0.016119499 0.0059107332 -0.05775801 0.047714274 0.13588202 0.09675265 -0.16190127
-0.22817937 0.18498921 -0.046594754 -0.11680033 0.15943971 -0.06295242 -0.11676273 0.017720295
-0.051327307 0.037058882 0.0791252 0.040680215 -0.007680797 0.059864976 -0.010947361 -0.124243215
-0.00013576917 0.018691754 0.033834796 -0.057240464 -0.035287686 0.03509956 -0.011007183 0.01971457
0.025031516 -0.15865412 -0.045062836 0.14139336 -0.0912053 -0.04452583 0.17023501 -0.020982686
-0.012771432 0.2178196 -0.12026838 -0.048913054 0.04582991 -0.078852765 -0.0936727 -0.019922052
-0.02967824 -0.13219067 -0.17109825 0.031937454 0.08882967 0.0004702623 -0.0022878798 0.10358012
0.005790045 -0.09532472 0.16378267 0.09867831 -0.005364277 -0.031617302 0.036057293 0.07931504

95 f4 [64]
00000000: b0e8 3abe 072a 023f 80be 8b3b 0371 a4bf
00000010: c410 10be 0dcf 81be 2025 e3bc d8e0 2dbf
00000020: c16c c5be 8063 2e3d 1fe5 85be c4d9 2cbf
00000030: 3011 453d ebb9 193f 924e 9d3e 041c 00bf
00000040: 17ff 8b3e 5a7e 783f c8dc 79bf 76b3 60bf
00000050: 420d 87be 98b8 cfbf 3c6f 40be 618a 12bf
00000060: 381b f8be 0e62 91bf 4c8f 543e 9072 c7bd
00000070: bd28 8fbf 7c62 46be decc ff3e f4e7 8ebf
00000080: 009e 683b 8fcc 13bf a8d2 4abe 6400 113f
00000090: ba89 4cbe d611 613f f02e 483e 88ad d43d
000000a0: 0028 183d e21d 853e 71d8 83bf 0444 1dbf
000000b0: e890 4bbf 8540 d6bf 9c87 213f a2fd eabf
000000c0: 93e3 8dbf fb9a 65bf 425b d03e c2ac 8ebe
000000d0: 0cfe e2bd 9696 d0be 9fd2 f93e a9ca 29be
000000e0: d826 cb3d 847f 8fbf e04a 13bd 7afd ae3e
000000f0: 984e 993d 0c14 80be c037 993c ea62 c0be
-0.18252826 0.5084538 0.0042646527 -1.2846988 -0.14068896 -0.2535328 -0.027727664 -0.6792121
-0.38559535 0.04257536 -0.26151368 -0.67519784 0.048112094 0.60049313 0.30724007 -0.5004275
0.27343056 0.970678 -0.9760251 -0.87773836 -0.26377302 -1.6228209 -0.18792433 -0.572424
-0.48458266 -1.1358049 0.20757788 -0.09738648 -1.1184307 -0.19373506 0.4996099 -1.1164536
0.0035494566 -0.57734007 -0.19806921 0.5664122 -0.19974414 0.8791784 0.19549155 0.10384661
0.037147522 0.2599936 -1.0300428 -0.6143191 -0.79517984 -1.673844 0.6309755 -1.8358653
-1.1085075 -0.89689606 0.40694624 -0.2786618 -0.11083612 -0.40739888 0.48793504 -0.16581215
0.09919518 -1.121079 -0.03596008 0.34177762 0.07485694 -0.25015295 0.018703341 -0.37575465
