model/parrot.onnx (onnx, 301496 bytes, 16 tensors)

fc.weight f4 [2, 256]
0.02463487 0.07842968 0.009620582 0.040035475 -0.08859076 -0.0886956 -0.05166961 -0.028922662
0.06464207 0.049740378 0.03464735 0.11962284 0.024262676 0.08957854 0.01686577 0.0380262
0.03928308 0.03905366 0.0016960987 0.03757033 -0.045085758 0.060665358 0.014672003 0.01898828
0.06943533 0.042323306 0.057203576 0.026488572 0.042790554 -0.004278035 0.0064135366 0.05619313
-0.142579 -0.2078423 -0.15052181 -0.19889407 0.0514907 0.04837809 0.080406584 0.110372536
0.019732647 -0.03145864 0.056569126 0.07864067 -0.025989862 -0.0068848324 0.017059004 -0.03770686
0.038744766 0.02290292 0.045163926 -0.020181984 -0.029442599 -0.04343632 -0.079371504 -0.07761188
0.081253745 0.031399336 0.066946544 0.077203766 0.028322292 0.069416694 0.020489363 0.11004618
0.06161139 0.09275921 -0.019909678 0.016426653 0.038622145 -0.0033699798 0.032125905 -0.012893333
-0.02843428 0.014746867 -0.050429318 0.013759991 0.044448197 0.010752345 0.050261192 0.08766015
-0.02356992 -0.0069056232 -0.03861041 -0.0050451066 0.0009722182 0.066532284 0.085412234 0.0213628
0.11747927 -0.012122148 0.12708582 0.060876716 -0.028623246 -0.055214886 0.031911127 -0.035553083
0.11160326 0.052710813 0.07710871 0.06889893 0.07828233 0.01283657 0.032556035 0.08124598
0.055301882 0.06679227 0.044662144 0.024070658 0.032849807 0.08243855 0.10349675 0.022309378
-0.027852414 0.05842421 -0.032967094 -0.0022584274 -0.027479175 -0.07863603 0.018725302 -0.058114696
-0.08235922 -0.092801504 -0.07940836 -0.10949109 0.00022425143 0.026653932 0.090016 0.08169189
0.07143206 1.3049182e-05 -0.0033170606 -0.0015517148 -0.039474927 0.03217157 0.03193671 0.043330923
-0.008989767 -0.07119535 0.026536623 -0.0672985 0.0448824 0.033680532 -0.060387634 0.040809687
-0.050031867 -0.026247008 0.036996633 -0.016526947 0.035833616 0.059843592 0.0070368634 0.01814987
-0.014265957 0.07240493 -0.0021327958 0.0681799 -0.005528566 0.024834732 0.015447149 0.011320765
0.0011598974 0.03813241 0.028279914 0.02928626 0.035559226 0.018227119 0.026026502 -0.052806642
0.036373723 0.061891794 0.09566281 0.10150414 0.05674853 0.00969391 -0.02816306 0.037951116
-0.0004961412 -0.056479745 -0.005028152 0.01805602 0.01738412 0.08917009 0.045446422 0.13583465
0.027800135 0.16390297 0.0021113348 0.112364866 0.024343181 0.002315871 -0.008652831 0.032533504
-0.024666784 0.058605608 -0.016018128 0.015402383 0.018208869 0.05879955 -0.03998996 -0.033169024
0.062254664 0.025570383 0.06322298 0.07700099 0.05609632 0.06009829 0.004173428 0.05694896
0.025352431 0.0034934892 -0.02310849 0.06525359 0.014224122 -0.021972205 -0.041509412 0.026527086
0.07548413 0.0040763947 0.010124138 0.037378047 0.036105573 0.05636508 0.0887816 0.045019172
0.019437376 -0.06572058 -0.068242416 0.020873535 -0.093726896 -0.08131345 -0.11563864 -0.175393
-0.0005222903 -0.0016240648 0.08832084 0.042480685 -0.02929848 0.028844163 -0.010002624 -0.008372688
-0.045082662 -0.002745457 0.012445694 0.03847556 0.024587654 -0.0023254438 0.033518363 -0.022854282
-0.03232738 -0.10579952 -0.03368677 -0.0899363 -0.09458815 -0.11495886 -0.1285187 -0.115026444
00000000: 11cf c93c bd9f a03d a59f 1d3c 3dfc 233d
00000010: 136f b5bd 0aa6 b5bd 83a3 53bd 38ef ecbc
00000020: 1063 843d 91bc 4b3d 61ea 0d3d d2fc f43d
00000030: 85c2 c63c f474 b73d 152a 8a3c 5cc1 1b3d
00000040: 4be7 203d bbf6 1f3d a14f de3a 59e3 193d
00000050: d8ab 38bd 3d7c 783d d762 703c 4f8d 9b3c
00000060: 1c34 8e3d 345b 2d3d 4c4e 6a3d 90fe d83c
00000070: 2645 2f3d c22e 8cbb a528 d23b c42a 663d
00000080: 3b00 12be 9dd4 54be 6422 1abe e3aa 4bbe
00000090: eae7 523d 1b28 463d 35ac a43d ff0a e23d
000000a0: 5ca6 a13c c6da 00bd 07b5 673d 5c0e a13d
000000b0: b1e8 d4bc 299a e1bb 53bf 8b3c 8272 1abd
000000c0: d5b2 1e3d e89e bb3c cffd 383d b054 a5bc
000000d0: 9b31 f1bc 48ea 31bd 878d a2bd faf2 9ebd
000000e0: 5d68 a63d 979c 003d 451b 893d 021d 9e3d
000000f0: 2704 e83c 572a 8e3d 4fd9 a73c e45f e13d
00000100: 3a5c 7c3d 8af8 bd3d 9f19 a3bc 3091 863c
00000110: 4132 1e3d e1da 5cbb 7496 033d 8f3e 53bc
00000120: 02ef e8bc d89c 713c f98e 4ebd 9671 613c
00000130: 500f 363d 9b2a 303c aede 4d3d 2a87 b33d
00000140: b415 c1bc 9148 e2bb f325 1ebd 6c51 a5bb
00000150: 75dc 7e3a 1442 883d 9cec ae3d 0a01 af3c
00000160: f998 f03d f99b 46bc c922 023e dd59 793d
00000170: 4c7b eabc 0129 62bd 3eb5 023d 1ca0 11bd
00000180: 4090 e43d 4be7 573d 2ceb 9d3d e21a 8d3d
00000190: 7c52 a03d 7a50 523c 7a59 053d 4b64 a63d
000001a0: 3a84 623d 63ca 883d a7ef 363d d42f c53c
000001b0: 858d 063d 8bd5 a83d 1bf6 d33d 28c2 b63c
000001c0: bf2a e4bc 394e 6f3d 8108 07bd 2002 14bb
000001d0: 021c e1bc ed0b a1bd ce65 993c ad09 6ebd
000001e0: f3ab a8bd b70e bebd daa0 a2bd dd3c e0bd
000001f0: 0925 6b39 5959 da3c 4f5a b83d 144e a73d
00000200: f94a 923d cfed 5a37 0b63 59bb e962 cbba
00000210: 76b0 21bd 56c6 033d 11d0 023d c47b 313d
00000220: d149 13bc dece 91bd 5563 d93c ccd3 89bd
00000230: 9cd6 373d 99f4 093d 0659 77bd 0f28 273d
00000240: 37ee 4cbd f703 d7bc c889 173d 8563 87bc
00000250: 45c6 123d 8e1e 753d 7d95 e63b 09af 943c
00000260: c3bb 69bc 0949 943d 60c6 0bbb e7a1 8b3d
00000270: f928 b5bb 3572 cb3c 0a16 7d3c bb7a 393c
00000280: b307 983a bb30 1c3d 47ab e73c bde9 ef3c
00000290: 8da6 113d 0a51 953c 8835 d53c c74b 58bd
000002a0: 9dfc 143d 4082 7d3d ddea c33d 67e1 cf3d
000002b0: 2671 683d 35d3 1e3c 38b6 e6bc a172 1b3d
000002c0: 790f 02ba 4e57 67bd 32c3 a4bb 38ea 933c
000002d0: 2469 8e3c cf9e b63d 0726 3a3d 3d18 0b3e
000002e0: 1cbd e33c 2ed6 273e 525e 0a3b 8d1f e63d
000002f0: 5a6b c73c dec5 173b 9bc4 0dbc da41 053d
00000300: ff11 cabc 6f0c 703d 7338 83bc 475a 7c3c
00000310: c42a 953c ccd7 703d 83cc 23bd 3edc 07bd
00000320: bffe 7e3d fb78 d13c 0d7b 813d b2b2 9d3d
00000330: 41c5 653d a029 763d 40c1 883b 5043 693d
00000340: e7af cf3c 06f3 643b 044e bdbc ada3 853d
00000350: 4b0c 693c 0eff b3bc c605 2abd 554f d93c
00000360: 6c97 9a3d 4793 853b b6df 253c b919 193d
00000370: 70e3 133d 12df 663d 21d3 b53d 0666 383d
00000380: 223b 9f3c 8398 86bd aec2 8bbd fafe aa3c
00000390: e3f3 bfbd ab87 a6bd f4d3 ecbd 399a 33be
000003a0: 4fea 08ba 92de d4ba 8ee1 b43d 3a00 2e3d
000003b0: 5e03 f0bc 984a ec3c 0ce2 23bc 992d 09bc
000003c0: 99a8 38bd 20ed 33bb 06e9 4b3c 8c98 1d3d
000003d0: 0c6c c93c 7966 18bb 8d4a 093d e738 bbbc
000003e0: b769 04bd 6bad d8bd 23fb 09bd 8630 b8bd
000003f0: 6fb7 c1bd 8d6f ebbd 689a 03be fc92 ebbd

fc.bias f4 [2]
0.0019413042 0.077458136
00000000: 5c73 fe3a 5fa2 9e3d

79 f4 [16, 3, 7, 7]
0.044015072 -0.01513478 0.027604364 0.06353392 0.014548737 0.064442776 0.0026944024 -0.018592663
-0.03844214 0.042814553 0.045550052 -0.010428236 -0.027493626 0.016253619 -0.02915834 0.00065103447
-0.007898904 -0.07219951 0.019587405 0.01691573 0.022580236 0.0313826 -0.02414269 -0.028846156
-0.059510686 -0.06226501 -0.033038065 0.00037489575 -0.01857026 -0.08487622 -0.022160975 -0.07738561
-0.024682974 -0.031540886 -0.01850259 -0.053385317 -0.04682423 0.010090608 -0.04630324 -0.036291704
-0.0647435 -0.02899854 -0.03122071 0.0016058336 -0.04978096 -0.023823632 -0.020681031 -0.037995536
-0.023653673 0.18611228 0.1461498 0.15020275 0.14892939 0.14274113 0.11918158 0.09131069
0.11301551 0.07229454 0.08804715 0.08724766 0.10795817 0.08777713 0.12019433 0.10354746
0.064287774 0.059030984 0.08285856 0.090383 0.088203095 0.11725489 0.09949172 0.06543384
0.07419866 0.06874587 0.078943186 0.09624677 0.078149445 0.09452981 0.07998442 0.09685034
0.10494394 0.11134279 0.083523594 0.1074208 0.095177375 0.08804312 0.12402621 0.13965301
0.13608341 0.10539922 0.08221051 0.08461668 0.097232014 0.12697135 0.15221868 0.17571852
0.16035327 0.12897973 0.030246899 -0.019889668 -0.03956089 -0.029650932 -0.036705002 -0.049166374
0.02742358 0.016863223 -0.050826855 -0.09050393 -0.07428866 -0.06252979 -0.047601283 -0.03522304
-0.0075856177 -0.055650376 -0.11348584 -0.12129303 -0.048043422 -0.0071425233 -0.019565301 -0.00050277216
-0.049179427 -0.094731525 -0.095828325 -0.087632224 -0.0727215 0.022572074 0.004027299 -0.021574877
-0.050623685 -0.07244924 -0.06529667 -0.041953977 0.01306493 0.03972374 -0.05583842 -0.071230836
-0.014741629 -0.06412174 -0.0825993 -0.020986706 0.030143017 0.011627836 -0.0157676 -0.06448117
-0.032914944 -0.009254065 0.017746598 0.038078003 0.054265417 0.055245947 0.07346544 0.07618259
0.061914504 0.042089485 0.008812179 0.027068619 0.022306029 0.04707524 0.050138354 0.045432217
0.02413525 -0.017786743 -0.0065928004 -0.0071771177 0.010737439 0.008348476 0.0029501584 -0.01504947
-0.009536029 -0.0040556025 -0.013634121 -0.00057557446 -0.0041255434 -0.0077126618 -0.026150892 -0.009598497
-0.00270491 -0.013335911 0.0035876748 -0.005970291 -0.017949974 -0.03776021 -0.013525347 -0.019981017
-0.03285799 -0.019341318 -0.028416278 -0.037272125 -0.06059456 -0.011052763 -0.021588746 -0.030863268
-0.018193962 -0.026051365 -0.03430516 -0.055366334 0.006780965 0.021507302 0.0130776595 0.024342613
0.038635034 0.022047458 0.008809291 -0.009725165 0.003477189 -0.0047240397 0.027421538 0.024749462
0.030829377 0.011311609 -0.03908829 -0.024043312 -0.030284 -0.0012454785 -0.00045890716 0.0057522533
-0.020747205 -0.026353989 -0.010702819 -0.019512584 0.009505934 0.00559439 0.009660729 -0.014870172
-0.008870443 0.0020041426 -0.010919457 0.015057441 0.007250688 0.005545926 -0.007884592 -0.0034475382
-0.0034688713 -0.014513752 0.005977119 -0.013762459 -0.01811721 -0.025979728 0.008241597 -0.004292603
-0.018150507 0.0061802818 0.0005208013 -0.009370968 -0.03598379 -0.025917936 -0.004126322 -0.03448015
0.011060012 0.012473354 0.012769578 -0.0025715558 -0.052073926 -0.030087154 -0.04240242 -0.026808126
00000000: 2649 343d def7 77bc 8c22 e23c 121e 823d
00000010: d35d 6e3c 93fa 833d 9294 303b a44f 98bc
00000020: 8175 1dbd 505e 2f3d b192 3a3d 31db 2abc
00000030: 503a e1bc 4f26 853c 79dd eebc 2faa 2a3a
00000040: 686a 01bc 56dd 93bd c475 a03c db92 8a3c
00000050: 30fa b83c 0b8b 003d e4c6 c5bc c64e ecbc
00000060: 7ac1 73bd 9809 7fbd ec52 07bd a88d c439
00000070: a820 98bc 95d3 adbd ef8a b5bc 597c 9ebd
00000080: f333 cabc 0431 01bd be92 97bc 90aa 5abd
00000090: c4ca 3fbd 1453 253c 77a8 3dbd 9ca6 14bd
000000a0: 3d98 84bd 598e edbc 93c2 ffbc d67a d23a
000000b0: 1fe7 4bbd c729 c3bc 446b a9bc 35a1 1bbd
000000c0: 59c5 c1bc 3894 3e3e 4ba8 153e c0ce 193e
000000d0: f280 183e bb2a 123e 7915 f43d 1901 bb3d
000000e0: ad74 e73d 290f 943d 1052 b43d e7ae b23d
000000f0: 2c19 dd3d 7fc4 b33d 7228 f63d b110 d43d
00000100: 4fa9 833d 79ca 713d c0b1 a93d b91a b93d
00000110: d3a3 b43d 5523 f03d 51c2 cb3d 2d02 863d
00000120: 78f5 973d a2ca 8c3d f7ac a13d 071d c53d
00000130: d10c a03d d898 c13d dfce a33d 7959 c63d
00000140: d9ec d63d b007 e43d 6b0e ab3d 70ff db3d
00000150: 5bec c23d f44f b43d 7401 fe3d 3301 0f3e
00000160: 7359 0b3e 8cdb d73d fc5d a83d 834b ad3d
00000170: 9421 c73d c704 023e 37df 1b3e 8eef 333e
00000180: a633 243e 4313 043e 58c8 f73c a8ef a2bc
00000190: 9a0a 22bd 83e6 f2bc fc57 16bd ae62 49bd
000001a0: 6aa7 e03c be24 8a3c d22f 50bd 205a b9bd
000001b0: a724 98bd 9e0f 80bd 90f9 42bd 0946 10bd
000001c0: c690 f8bb a6f1 63bd 446b e8bd 7b68 f8bd
000001d0: 2ec9 44bd d40b eabb 6947 a0bc 78cc 03ba
000001e0: 5e70 49bd 9a02 c2bd a441 c4bd 8678 b3bd
000001f0: 03ef 94bd 12e9 b83c 6ff7 833b ccbd b0bc
00000200: c85a 4fbd 4460 94bd 43ba 85bd efd7 2bbd
00000210: 4a0e 563c 5cb5 223d d4b6 64bd 79e1 91bd
00000220: e086 71bc 4252 83bd d229 a9bd 50ec abbc
00000230: 7dee f63c ae82 3e3c 0e2b 81bc b40e 84bd
00000240: d2d1 06bd 5d9e 17bc 5061 913c aef7 1b3d
00000250: 6a45 5e3d 9349 623d 0c75 963d 9e05 9c3d
00000260: 109a 7d3d 0666 2c3d f560 103c 02bf dd3c
00000270: 22bb b63c f8d1 403d e05d 4d3d 2217 3a3d
00000280: 4ab7 c53c 81b5 91bc 6b08 d8bb 072e ebbb
00000290: 15ec 2f3c 0cc8 083c 7257 413b 0d92 76bc
000002a0: 013d 1cbc dce4 84bb a661 5fbc 26e2 16ba
000002b0: 912f 87bb 7fba fcbb 653a d6bc 0443 1dbc
000002c0: dc44 31bb dd7e 5abc 321f 6b3b 6ea2 c3bb
000002d0: d30b 93bc 73aa 1abd 6b99 5dbc 3baf a3bc
000002e0: 1a96 06bd af71 9ebc 41c9 e8bc a8aa 18bd
000002f0: 0032 78bd a616 35bc e2da b0bc f7d4 fcbc
00000300: 810b 95bc ac69 d5bc 9183 0cbd cfc7 62bd
00000310: db32 de3b 1530 b03c ae43 563c 296a c73c
00000320: c53f 1e3d df9c b43c d854 103c 4c56 1fbc
00000330: 8de1 633b 1ecc 9abb 22a3 e03c 62bf ca3c
00000340: e48d fc3c 5454 393c 0b1b 20bd 7bf6 c4bc
00000350: 2716 f8bc 533f a3ba 7a99 f0b9 667d bc3b
00000360: 0bf6 a9bc 52e4 d7bc e05a 2fbc dbd8 9fbc
00000370: c7be 1b3c 2551 b73b 0948 1e3c 06a2 73bc
00000380: 5655 11bc ef57 033b 86e7 32bc 7cb3 763c
00000390: 2e97 ed3b 99ba b53b 602e 01bc 18f0 61bb
000003a0: 0156 63bb 17cb 6dbc b5db c33b f07b 61bc
000003b0: 8b6a 94bc 70d3 d4bc c307 073c f7a8 8cbb
000003c0: 5fb0 94bc f683 ca3b 6286 083a b088 19bc
000003d0: bd63 13bd da51 d4bc 1936 87bb 0f3b 0dbd
000003e0: 0d35 353c 0a5d 4c3c 7e37 513c 8c87 28bb
000003f0: 784b 55bd 5679 f6bc 29ae 2dbd b79c dbbc

80 f4 [16]
-1.2494308 0.5230263 -0.6185684 -0.6052741 0.79446733 1.3061837 -0.82063794 0.63631594
-0.95431364 0.12694426 0.13913831 0.42604193 -0.089494795 -0.64025867 -0.71087956 -0.3760513
00000000: 59ed 9fbf 0de5 053f 805a 1ebf 3ef3 1abf
00000010: 3662 4b3f 0731 a73f 5415 52bf 9ae5 223f
00000020: e64d 74bf adfd 013e 467a 0e3e 2b22 da3e
00000030: 0c49 b7bd fee7 23bf 34fc 35bf cc89 c0be

82 f4 [32, 16, 3, 3]
-0.0050967927 0.0153764365 -0.009148258 -0.01716863 -0.010153234 -0.022659369 -0.04270282 -0.010183899
-0.02156226 0.03980721 0.018726872 -0.020281706 0.016855523 -0.011070212 -0.011343474 -0.012529652
0.02515149 -0.0036220464 0.004777493 0.040968675 0.00012410127 -0.008506331 0.008958815 -0.010763349
-0.02297594 -0.0057319533 -0.00385939 -0.015788956 -0.002299066 -0.013719246 -0.02333269 -0.017306343
0.0040750266 -0.021255715 -0.0029585706 -0.009489496 -0.03790904 -0.022599982 -0.010654538 -0.043808155
-0.017532097 -0.016458703 -0.042149775 -0.034486018 -0.010713208 0.009718134 0.02501033 -0.061732426
-0.038113408 -0.02040814 -0.068240486 -0.05892185 -0.033912145 -0.05126889 -0.028533585 -0.025226215
-0.010325313 -0.06288983 -0.029561438 -0.01520401 -0.07364732 -0.04228592 -0.018675175 0.008728209
0.036262747 0.025823379 0.010802761 0.031072583 0.03749969 0.018590312 0.044314083 0.044074155
-0.028360583 0.03057043 -0.001049098 -0.031921297 -0.01682225 -0.01128008 -0.045827925 -0.02574178
-0.022531385 -0.00091756054 -0.009419821 0.02121329 -0.011787828 -0.012514692 0.023662891 -0.017408963
-0.012826806 0.018006368 -0.03633608 -0.039356343 -0.029741282 -0.04281325 -0.044820104 -0.03262644
-0.034209885 -0.043327015 -0.037700024 0.008167184 0.012522559 -0.0024138542 0.0068587787 -0.014675546
0.00038962948 0.012541978 -0.00543582 -0.0018133881 0.020809373 0.02885919 0.028939307 -0.013695907
-0.027170822 -0.01467959 -0.01890121 -0.028490765 -0.006388476 -0.017210875 -0.016546207 -0.017281
-0.021426896 -0.020255066 -0.02018695 -0.027897205 -0.023433775 -0.025020927 0.067932546 0.05269934
0.045109726 0.027577585 0.016762577 0.021933246 0.0013686684 0.007015782 0.021658542 -0.012559354
0.039527647 0.03555278 -0.0075566475 0.004030681 0.024835804 -0.011658192 -0.0063686986 0.0050516487
-0.0024838774 -0.0003211218 -0.0026479969 -0.00062177546 -0.0002699914 -0.003640313 0.0007335137 -0.00054940605
-0.0048941043 0.0017763382 0.0027830647 0.0031450524 0.0009641206 0.0019800067 0.0054895864 0.0006296941
0.0015838267 0.004846457 -0.00030319917 -0.00016741398 -0.00027583365 0.0007876515 0.00049616664 -0.00096789683
0.0007089969 0.0005410846 -0.0009777632 -0.00024728896 -0.0003759283 -0.0019934718 -0.000571135 -0.0006013586
-0.0014684625 -0.0010507643 -0.0009256825 -0.0026311558 0.014619743 0.004461454 0.006931195 -0.00035240382
0.007556955 -0.0068763294 0.0051416205 -0.00040838745 -0.008479266 0.0051468257 0.005345754 0.011178027
0.0035711331 0.0029729644 0.010900467 0.0008525783 0.0071083913 0.005089555 -0.0127684 -0.002580301
-0.014919948 -0.0051900097 -0.0077652377 -0.01799149 -0.0040357276 -0.012203804 -0.010377221 0.004410156
0.0040689525 0.002353323 0.003160675 0.0020186256 -0.0012001848 0.0018325624 0.0008091822 0.0015102839
-0.0042743525 -0.0038491648 -0.0010381314 -0.0014153713 -0.0016923698 -0.0016369114 -0.0012184974 -0.0017326039
-0.0010442941 -0.012564383 -0.010079724 -0.006582199 0.0018705254 -0.00053368503 -0.006798046 0.00030987946
-0.0057017175 -0.0052931225 0.0015168325 0.0006309735 -0.0003897226 0.002865208 0.0017247314 -9.6540325e-06
0.0013161834 0.0016985342 0.0006179271 0.00065135426 -0.00027132273 -0.00053639855 0.00077361416 0.0005956387
0.00092606904 0.00036195852 0.0005080025 0.00087554794 0.0020274785 0.0044814916 0.004474386 0.0019832056
00000000: ff02 a7bb 73ed 7b3c 93e2 15bc 3aa5 8cbc
00000010: c059 26bc 24a0 b9bc 27e9 2ebd 5eda 26bc
00000020: 56a3 b0bc e30c 233d 1969 993c d225 a6bc
00000030: 9814 8a3c d65f 35bc fad9 39bc 2b49 4dbc
00000040: 7f0a ce3c db5f 6dbb 848c 9c3b c5ce 273d
00000050: 2e21 0239 235e 0bbc fec7 123c c258 30bc
00000060: 0a38 bcbc 1cd3 bbbb d2ed 7cbb d757 81bc
00000070: edab 16bb b0c6 60bc 3324 bfbc 08c6 8dbc
00000080: cd87 853b 7720 aebc 94e4 41bb d579 1bbc
00000090: 8246 1bbd 9923 b9bc 5f90 2ebc 2e70 33bd
000000a0: 799f 8fbc 67d4 86bc 3ea5 2cbd 3641 0dbd
000000b0: 7386 2fbc cf38 1f3c 77e2 cc3c 24db 7cbd
000000c0: ce1c 1cbd f92e a7bc abc1 8bbd 0a58 71bd
000000d0: 76e7 0abd 54ff 51bd 44bf e9bc 35a7 cebc
000000e0: 802b 29bc 62cc 80bd d42a f2bc 3d1a 79bc
000000f0: 68d4 96bd 0034 2dbd aefc 98bc c300 0f3c
00000100: 3f88 143d 8d8b d33c 10fe 303c ee8b fe3c
00000110: 4699 193d b64a 983c af82 353d 1a87 343d
00000120: 7454 e8bc d76e fa3c e381 89ba e8bf 02bd
00000130: d1ce 89bc 16d0 38bc 10b6 3bbd 6de0 d2bc
00000140: bd93 b8bc 7288 70ba 9855 1abc 7ec7 ad3c
00000150: bc21 41bc 6c0a 4dbc aed8 c13c 3e9d 8ebc
00000160: 8627 52bc 1782 933c 24d5 14bd 1e34 21bd
00000170: fda3 f3bc f25c 2fbd 4995 37bd 4da3 05bd
00000180: aa1f 0cbd ab77 31bd 576b 1abd a7cf 053c
00000190: 6b2b 4d3c c131 1ebb 9bbf e03b b471 70bc
000001a0: 2f47 cc39 de7c 4d3c f71e b2bb 35af edba
000001b0: 6b78 aa3c 1c6a ec3c 2012 ed3c cc64 60bc
000001c0: 5895 debc aa82 70bc b6d6 9abc 7765 e9bc
000001d0: 6c56 d1bb d2fd 8cbc e98b 87bc e290 8dbc
000001e0: 7587 afbc f4ed a5bc 1a5f a5bc ae88 e4bc
000001f0: 30f8 bfbc b0f8 ccbc 3820 8b3d 43db 573d
00000200: fac4 383d 63ea e13c ac51 893c 5aad b33c
00000210: e464 b33a a5e4 e53b 416d b13c c0c5 4dbc
00000220: bee7 213d cb9f 113d c19d f7bb ce13 843b
00000230: 7574 cb3c 0002 3fbc 84b0 d0bb 4d88 a53b
00000240: 8cc8 22bb 3d5c a8b9 048a 2dbb a5fe 22ba
00000250: a28d 8db9 5192 6ebb 4549 403a 0406 10ba
00000260: b95e a0bb 05d4 e83a 1464 363b 391d 4e3b
00000270: 0abd 7c3a 00c3 013b fde1 b33b 0e12 253a
00000280: 6898 cf3a 07cf 9e3b b4f6 9eb9 d98b 2fb9
00000290: c49d 90b9 667a 4e3a 2e11 023a 75ba 7dba
000002a0: fadb 393a 93d7 0d3a 4a28 80ba 90a6 81b9
000002b0: 3e18 c5b9 e8a4 02bb 39b8 15ba 7ea4 1dba
000002c0: 6d79 c0ba cdb9 89ba 80a9 72ba 786f 2cbb
000002d0: a687 6f3c 6431 923b 141f e33b d7c2 b8b9
000002e0: 55a0 f73b d552 e1bb 0a7b a83b d61c d6b9
000002f0: 9fec 0abc b4a6 a83b 6f2b af3b 0b24 373c
00000300: ac09 6a3b 11d6 423b df97 323c 907f 5f3a
00000310: 82ed e83b 48c6 a63b 8d32 51bc 441a 29bb
00000320: cc72 74bc f510 aabb 8973 febb e462 93bc
00000330: 233e 84bb 77f2 47bc 3805 2abc 1283 903b
00000340: d954 853b 353a 1a3b 5423 4f3b eb4a 043b
00000350: 854f 9dba 9732 f03a 4c1f 543a b8f4 c53a
00000360: de0f 8cbb 4542 7cbb e911 88ba fb83 b9ba
00000370: 82d2 ddba a28d d6ba fdb5 9fba 8a18 e3ba
00000380: b2e0 88ba d8da 4dbc 6d25 25bc 7daf d7bb
00000390: 6b2c f53a ffe6 0bba 25c2 debb 5177 a239
000003a0: 79d5 babb ee71 adbb 74d0 c63a ea67 253a
000003b0: af53 ccb9 37c6 3b3b 6210 e23a c1f7 21b7
000003c0: c983 ac3a 5aa1 de3a 63fc 213a a5bf 2a3a
000003d0: 5240 8eb9 199d 0cba 5ecc 4a3a a324 1c3a
000003e0: 71c3 723a 40c5 bd39 782b 053a 0785 653a
000003f0: 72df 043b 7ad9 923b df9d 923b abf8 013b

83 f4 [32]
0.22739685 -0.05238239 0.024771925 0.13565399 0.16437949 0.060100913 0.026396457 -0.3155113
-0.3436342 0.122202046 -0.2393724 -0.28093606 0.0407341 -0.09983531 -0.56240207 0.30484352
0.14325646 0.031275157 -0.064358704 -0.13800085 -0.055309854 -0.3353437 -0.6127092 0.007620792
-0.09752575 -0.046955884 0.33157456 -0.0035993755 0.08605226 -0.009880856 0.4508314 0.19664481
00000000: b8da 683e eb8e 56bd 7eee ca3c e1e8 0a3e
00000010: 1953 283e 602c 763d 623d d83c b28a a1be
00000020: d2f0 afbe 1145 fa3d 0a1e 75be dad6 8fbe
00000030: cdd8 263d 7476 ccbd 95f9 0fbf 7314 9c3e
00000040: d2b1 123e 611a 003d 7fce 83bd 1850 0dbe
00000050: 968c 62bd 2bb2 abbe 83da 1cbf d6b7 f93b
00000060: 95bb c7bd d054 40bd 24c4 a93e 80e3 6bbb
00000070: 2b3c b03d 50e3 21bc 60d3 e63e 425d 493e

85 f4 [32, 32, 3, 3]
0.079163805 0.05980122 0.055508673 0.06109204 0.032832537 0.028754147 0.051681396 0.024506243
0.01718084 -0.029947499 -0.020139506 -0.015924627 -0.015389924 -0.0013804674 0.0065593394 -0.0037700888
0.017123878 0.02131573 -0.0036840832 -0.002142231 -0.0010596584 -0.0015561234 0.0015229582 0.004175685
0.0016714475 0.0041806544 0.0058046486 0.015403206 0.04079601 0.03991297 0.05719351 0.07608651
0.0780406 0.040885624 0.050410938 0.053544726 0.17901823 0.0140573615 -0.011732544 0.14810276
0.031333636 0.020078454 0.14437778 -0.0070018563 -0.04382211 0.006472155 0.0095872 0.0024769532
0.016520703 0.014238487 0.007217963 0.026760535 0.032347027 0.026951792 -0.034612946 -0.02009973
-0.020779215 -0.023947718 -0.0039096517 -0.008304603 -0.020281918 -0.0016004886 -0.0045801695 -0.14418834
-0.073305055 -0.043913558 -0.09689103 -0.0053267977 -0.0001253613 -0.07598192 0.008199206 0.032813877
-0.18169343 -0.12710176 -0.10263708 -0.114585474 -0.035989482 -0.03893834 -0.05541496 0.03408066
0.036546227 -0.04313394 -0.05033283 -0.046717063 -0.025537884 -0.029809581 -0.035826262 -0.0015213275
0.0137873115 -0.0035807313 -0.039406233 -0.026782079 -0.005780984 -0.023172315 0.009781767 0.035353318
-0.03185943 -0.0057378863 0.02976088 -0.10053407 -0.053226452 -0.034936916 -0.085250035 -0.020675812
-0.011514797 -0.08653226 -0.027399536 -0.008413183 -0.056573693 0.032550108 0.059681814 -0.07056183
-0.0020855882 0.05838775 -0.101698905 -0.086340025 -0.056714717 -0.1274375 -0.0740498 -0.05979738
-0.048172906 0.025722371 0.036129937 -0.02215015 0.041634176 0.054603674 -0.016756693 -0.011971531
0.019981368 0.0013673193 0.016818326 0.03446638 -0.024446042 0.00086482277 0.009310895 0.06564031
0.018865267 0.020163383 0.07240338 0.03662334 0.026640825 0.09536766 0.073289216 0.05962179
0.0058106626 -0.010461097 -0.012638843 0.011789434 0.00031862216 -0.0012625288 0.0111529585 -0.0028908676
-0.0062331585 -0.005621905 -0.002678711 -0.0014531473 -0.0017936106 0.004369591 0.005060146 0.0061677084
0.012520024 0.021450415 -0.005430867 -0.0080427835 -0.013987388 0.0035614888 -0.0024192906 -0.01052387
0.007638911 0.007238566 -0.0012698626 -0.11996149 -0.0764973 -0.06707406 -0.0635637 0.0016053756
-0.005780985 -0.037364665 0.03456944 0.028837599 -0.024761744 -0.018649532 -0.006887201 -0.030032456
-0.022047175 -0.018288799 -0.025294133 -0.0020597049 -0.0085031325 -0.04327532 0.028183658 0.05888109
-0.062393643 0.0072961384 0.04559945 -0.036112122 0.013953956 0.048703752 0.041696753 0.047733232
0.006984214 0.027671745 0.02524847 -0.022270316 0.0036184995 0.018084284 -0.009772774 -0.031233985
-0.018333018 -0.015984092 -0.017018247 -0.00020878801 -0.00027765924 -0.010633821 0.0045346282 0.0033989472
-0.05058402 -0.026104683 -0.018052425 -0.045080934 -0.014776057 -0.008976526 -0.037569728 -0.007693518
-0.0006566998 -0.0051424415 -0.008213805 -0.022051906 0.013354567 0.014607217 -0.008112117 0.009546465
0.018338177 0.0035251984 0.02260397 0.041691776 0.06565603 0.06065788 0.09859436 0.11594845
0.1086348 0.1512652 0.15505676 -0.0707574 -0.047481388 -0.035283405 -0.049392104 -0.015722247
-0.004914152 -0.033070993 0.0029051611 0.014172564 -0.021288967 -0.027645733 -0.01825451 0.004787552
00000000: a220 a23d 20f2 743d 105d 633d a63b 7a3d
00000010: 697b 063d d18d eb3c dfaf 533d 51c1 c83c
00000020: d5be 8c3c 7554 f5bc 9bfb a4bc 5d74 82bc
00000030: 0526 7cbc cdf0 b4ba baef d63b 9813 77bb
00000040: 6047 8c3c 539e ae3c a970 71bb ac64 0cbb
00000050: 3ce4 8aba d6f6 cbba ff9d c73a 2fd4 883b
00000060: 7914 db3a dffd 883b ec34 be3b bb5d 7c3c
00000070: b819 273d c87b 233d be43 6a3d 3fd3 9b3d
00000080: c0d3 9f3d af77 273d b37b 4e3d b751 5b3d
00000090: 8e50 373e d950 663c db39 40bc 40a8 173e
000000a0: b357 003d 927b a43c c5d7 133e d46f e5bb
000000b0: d07e 33bd 5f14 d43b a213 1d3c 6154 223b
000000c0: 6d56 873c 8b48 693c aa84 ec3b e938 db3c
000000d0: 517e 043d 01ca dc3c 4ec6 0dbd 30a8 a4bc
000000e0: 2c39 aabc 012e c4bc 891c 80bb 0810 08bc
000000f0: 4426 a6bc 7cc7 d1ba 3f15 96bb 1ca6 13be
00000100: f620 96bd b4de 33bd ce6e c6bd 6b8c aebb
00000110: 6b73 03b9 699c 9bbd f655 063c d867 063d
00000120: d80d 3abe f726 02be 6433 d2bd caab eabd
00000130: b569 13bd cf7d 1fbd ccfa 62bd 2a98 0b3d
00000140: 7fb1 153d 37ad 30bd cc29 4ebd 645a 3fbd
00000150: d334 d1bc 3933 f4bc 8fbe 12bd 4867 c7ba
00000160: 2de4 613c b4aa 6abb 6e68 21bd 1766 dbbc
00000170: 696e bdbb ded3 bdbc b443 203c a4ce 103d
00000180: 097f 02bd e104 bcbb 17cd f33c cee4 cdbd
00000190: fb03 5abd 031a 0fbd 9297 aebd 5260 a9bc
000001a0: 8fa8 3cbc d337 b1bd fe74 e0bc 72d7 09bc
000001b0: d1b9 67bd 4353 053d eb74 743d b982 90bd
000001c0: 5dae 08bb fe27 6f3d 8447 d0bd 0ad3 b0bd
000001d0: b14d 68bd fa7e 02be 6ca7 97bd 19ee 74bd
000001e0: f450 45bd b9b7 d23c fcfc 133d 3b74 b5bc
000001f0: 9988 2a3d 1aa8 5f3d 5545 89bc 3e24 44bc
00000200: f7af a33c 9f37 b33a 96c6 893c 9e2c 0d3d
00000210: 1143 c8bc 46b5 623a b98c 183c 6d6e 863d
00000220: 558b 9a3c ae2d a53c 3948 943d 5b02 163d
00000230: dc3d da3c 1f50 c33d a818 963d fa35 743d
00000240: 5f67 be3b 0565 2bbc 2613 4fbc 7828 413c
00000250: be0c a739 707b a5ba e6ba 363c b674 3dbb
00000260: 863f ccbb f537 b8bb 508d 2fbb 8877 beba
00000270: 9617 ebba c92e 8f3b 95cf a53b 7d1a ca3b
00000280: c920 4d3c c8b8 af3c 6af5 b1bb e1c5 03bc
00000290: 5c2b 65bc de67 693b f68c 1ebb 4f6c 2cbc
000002a0: d44f fa3b 7e31 ed3b 8571 a6ba 5fae f5bd
000002b0: 9eaa 9cbd 205e 89bd af2d 82bd 776b d23a
000002c0: 6b6e bdbb b10b 19bd af98 0d3d d43c ec3c
000002d0: 24d9 cabc e7c6 98bc 08ae e1bb a006 f6bc
000002e0: 479c b4bc 64d2 95bc a435 cfbc 1dfc 06bb
000002f0: b950 0bbc 7641 31bd 6ae1 e63c 4c2d 713d
00000300: 7a90 7fbd 7214 ef3b 7dc6 3a3d 4eea 13bd
00000310: 229f 643c 967d 473d 37ca 2a3d ec83 433d
00000320: d5db e43b dbaf e23c e1d5 ce3c 3d70 b6bc
00000330: 5924 6d3b 7e25 943c fc1d 20bc 6ade ffbc
00000340: 202f 96bc 12f1 82bc da69 8bbc 1bee 5ab9
00000350: cb92 91b9 7a39 2ebc 3897 943b dfc0 5e3b
00000360: 3031 4fbd 7dd9 d5bc aee2 93bc c9a6 38bd
00000370: 4617 72bc 4712 13bc b7e2 19bd e819 fcbb
00000380: 6126 2cba ed81 a8bb 3293 06bc 33a6 b4bc
00000390: 1dcd 5a3c 1c53 6f3c afe8 04bc c768 1c3c
000003a0: f239 963c 0407 673b f62b b93c ffc4 2a3d
000003b0: ab76 863d 6674 783d d7eb c93d 6276 ed3d
000003c0: ec7b de3d 44e5 1a3e 33c7 1e3e 41e9 90bd
000003d0: d87b 42bd 5585 10bd 604f 4abd f1cb 80bc
000003e0: e506 a1bb 7375 07bd 8464 3e3b 0b34 683c
000003f0: 3366 aebc 4e79 e2bc 7b8a 95bc e6e0 9c3b

86 f4 [32]
-0.09970124 -0.017049158 -0.17419013 0.19123915 -0.11698905 -0.1227802 -0.0046599805 0.14196348
-0.15978856 -0.16132823 -0.058192376 -0.05749288 0.067743346 0.24104203 -0.17188254 -0.20357503
-0.05948999 -0.113210335 -0.32748184 0.0138026625 -0.010192696 -0.041386772 -0.06563844 -0.030558338
-0.040686168 0.0380832 -0.030399121 0.14406943 0.13149795 -0.15321992 -0.1400513 0.008227821
00000000: 2a30 ccbd adaa 8bbc e65e 32be 32d4 433e
00000010: f497 efbd 2f74 fbbd c0b2 98bb e05e 113e
00000020: 9d9f 23be 3a33 25be 215b 6ebd a77d 6bbd
00000030: 06bd 8a3d b9d3 763e fa01 30be f975 50be
00000040: c7ab 73bd d2da e7bd b3ab a7be 9024 623c
00000050: 44ff 26bc 2d85 29bd 726d 86bd 7b55 fabc
00000060: 8aa6 26bd 21fd 1b3d 9407 f9bc f086 133e
00000070: 66a7 063e afe5 1cbe 9c69 0fbe fccd 063c

88 f4 [32, 16, 1, 1]
0.19086874 0.19054447 -0.09941862 -0.038752824 0.4890341 0.048799757 0.051744666 0.0300956
0.055322472 -0.06522328 0.089700565 0.02182868 -0.24888822 0.031012258 -0.25317064 0.08127873
-0.00058923766 0.0012745983 0.00017837016 0.0001004002 0.004182358 -0.001267984 3.6480055e-06 0.0042766887
-0.00015549015 0.0033224993 0.0010754107 0.0006650451 -0.00011076213 0.00050980505 -0.0004526908 -0.00018994228
-0.10283634 0.051575404 -0.028377583 0.0588993 -0.25212833 0.22674643 0.10166087 -0.20723802
0.0452052 -0.17004058 -0.10188966 -0.080475315 0.21867163 0.0978126 -0.0995323 0.0045747817
-0.021216149 -0.03947573 -0.08412236 -0.034394782 -0.13180043 -0.30531555 -0.113503866 0.31484902
-0.14839987 -0.012455858 -0.100753985 0.030772738 -0.12560496 -0.10324558 0.11558871 0.015329451
0.06675659 0.022584444 0.045953974 0.023181135 0.27211043 0.091250695 -0.07305209 0.08421958
0.014326251 0.05700097 0.04748491 0.05075683 -0.029071897 -0.024674887 -0.001615795 0.016956417
0.046314098 -0.044091318 -0.008906208 0.008722159 -0.037366703 0.016815566 0.0046247863 -0.042618793
0.02400982 0.020006204 -0.018642517 0.025075102 -0.0057394146 0.022482088 0.031728882 0.013737465
-0.12843087 -0.124541186 0.11205709 -0.0052430904 -0.11032719 -0.26057607 0.051210936 0.18075356
-0.011880132 0.1421207 -0.15338497 -0.10939461 0.4640448 -0.063036166 0.26689106 -0.015693255
0.39372963 -0.15838541 -0.058356516 0.08117824 -0.1570448 0.049346082 0.14494768 -0.33721155
0.18660787 -0.0251674 -0.26407295 -0.008219285 -0.1810208 0.040971443 -0.18352866 0.18739557
-0.22829638 -0.21572891 -0.22121654 0.007095238 -0.06625179 0.1615966 0.15555714 -0.37829816
0.0016743043 -0.4020189 0.039790545 -0.028881771 0.59845316 0.1820958 -0.23274526 0.034776658
0.06623445 0.0077693593 0.021363271 0.028820407 0.1066378 0.019395025 0.02223991 0.018032419
0.0035183954 0.006674367 -0.012179365 0.02286979 -0.037248254 0.03430608 -0.010727859 -0.013584401
0.09246534 0.07709997 0.12021093 -0.028779393 0.18840216 0.10027508 -0.037109308 0.1458382
0.01589577 0.10142819 0.06909354 0.0825005 -0.064201914 0.024804447 -0.06780767 -0.046162345
-0.07979108 0.020930242 -0.09040134 -0.059988905 -0.11088283 0.2761142 -0.049745392 -0.17305894
-0.020971492 -0.19615032 0.0600149 -0.07315898 0.41815805 0.04201325 -0.13125211 0.022977512
0.05631267 0.025943791 0.056922615 -0.008581936 0.18582098 0.047348488 -0.05872031 0.07440045
-0.029955449 0.07396087 0.0958097 0.104822 -0.062172104 -0.010843232 0.03549951 -0.028252386
-0.21496662 -0.43179402 -0.12435095 -0.0562666 -0.5849855 -0.911613 -0.28342232 0.6548778
-0.5131117 0.36878335 -0.5670584 -0.24649948 0.17224386 -0.35970446 0.4589924 -0.2761414
0.041953404 0.023652432 0.010342542 0.0007456564 0.021303631 -0.022132078 0.02930317 0.06001554
0.016163247 0.041069865 -0.01694331 0.08250731 -0.020297771 0.0059495857 0.03834929 0.0025458627
0.1449153 0.016591232 0.027963204 0.021300616 0.19877198 0.028124975 -0.0128970295 0.035111085
-0.07405086 0.061993353 -0.009758614 0.00591275 -0.030684367 -0.0056470633 0.030436037 -0.011347281
00000000: 1873 433e 171e 433e fd9b cbbd 48bb 1ebd
00000010: ad62 fa3e 41e2 473d 37f2 533d 0c8b f63c
00000020: d199 623d c893 85bd eeb4 b73d 0fd2 b23c
00000030: 8edc 7ebe 6b0d fe3c 959f 81be 7675 a63d
00000040: 1277 1aba 6c10 a73a e008 3b39 f28d d238
00000050: 290c 893b 7c32 a6ba 42d0 7436 7723 8c3b
00000060: 120b 23b9 4abe 593b ccf4 8c3a 6c56 2e3a
00000070: f748 e8b8 70a4 053a 2157 edb9 3e2b 47b9
00000080: dc9b d2bd bb40 533d 1b78 e8bc 6440 713d
00000090: f716 81be 3730 683e 9333 d03d 3436 54be
000000a0: 1629 393d 1e1f 2ebe 87ab d0bd 3ed0 a4bd
000000b0: 75eb 5f3e f951 c83d 97d7 cbbd 0de8 953b
000000c0: 7dcd adbc 4eb1 21bd 5848 acbd 8be1 0cbd
000000d0: b1f6 06be 5252 9cbe b774 e8bd e433 a13e
000000e0: 23f6 17be a813 4cbc 1b58 cebd 1c17 fc3c
000000f0: 969e 00be 6b72 d3bd c6b9 ec3d 6128 7b3c
00000100: aeb7 883d 0303 b93c 3c3a 3c3d 5de6 bd3c
00000110: 0f52 8b3e a5e1 ba3d 569c 95bd 517b ac3d
00000120: a7b8 6a3c d979 693d 897f 423d 65e6 4f3d
00000130: 3028 eebc fd22 cabc 15c9 d3ba 2fe8 8a3c
00000140: dab3 3d3d 1999 34bd 58eb 11bc 63e7 0e3c
00000150: d40d 19bd ccc0 893c 858b 973b 0b91 2ebd
00000160: 3eb0 c43c 0de4 a33c 31b8 98bc 4d6a cd3c
00000170: b311 bcbb 5b2c b83c 25f6 013d 1b13 613c
00000180: 6283 03be 730f ffbd 307e e53d 3bce abbb
00000190: 39f3 e1bd 3a6a 85be 8fc2 513d 7617 393e
000001a0: e3a4 42bc 1788 113e f310 1dbe 480a e0bd
000001b0: 4897 ed3e 1b19 81bd f2a5 883e 248f 80bc
000001c0: ee96 c93e c92f 22be 3e07 6fbd c740 a63d
000001d0: 5ad0 20be 1e1f 4a3d 2a6d 143e fea6 acbe
000001e0: 2216 3f3e dd2b cebc 9234 87be 2eaa 06bc
000001f0: 845d 39be acd1 273d f0ee 3bbe a0e4 3f3e
00000200: 87c6 69be 0ae8 5cbe 9786 62be 2c7f e83b
00000210: 05af 87bd 9479 253e 5f4a 1f3e 4cb0 c1be
00000220: 5474 db3a 6cd5 cdbe 69fb 223d 7799 ecbc
00000230: 3a34 193f 5277 3a3e c654 6ebe f871 0e3d
00000240: eda5 873d 1c96 fe3b 0702 af3c c618 ec3c
00000250: eb64 da3d 51e2 9e3c 7930 b63c b9b8 933c
00000260: e194 663b a6b4 da3b f68b 47bc 6d59 bb3c
00000270: a091 18bd 8884 0c3d e7c3 2fbc 1c91 5ebc
00000280: 785e bd3d 97e6 9d3d 2631 f63d c3c2 ebbc
00000290: 7fec 403e 055d cd3d eeff 17bd 9c56 153e
000002a0: d937 823c 95b9 cf3d ea80 8d3d 06f6 a83d
000002b0: 4b7c 83bd b232 cb3c bfde 8abd ba14 3dbd
000002c0: 8169 a3bd e675 ab3c 5624 b9bd edb6 75bd
000002d0: 8a16 e3bd d75e 8d3e d3c1 4bbd 5d36 31be
000002e0: 68cc abbc a1db 48be 2fd2 753d 60d4 95bd
000002f0: d018 d63e 1616 2c3d f466 06be 563b bc3c
00000300: 1da8 663d 1388 d43c b027 693d 409b 0cbc
00000310: db47 3e3e 7df0 413d b584 70bd 435f 983d
00000320: 2165 f5bc cc78 973d e037 c43d ebac d63d
00000330: 2da8 7ebd d0a7 31bc ef67 113d 8c71 e7bc
00000340: 3620 5cbe 1b14 ddbe b6ab febd ce77 66bd
00000350: 9cc1 15bf 785f 69bf bb1c 91be 12a6 273f
00000360: 4a5b 03bf 2cd1 bc3e bd2a 11bf 5c6a 7cbe
00000370: b260 303e 2f2b b8be 0d01 eb3e 6862 8dbe
00000380: 55d7 2b3d bfc2 c13c c473 293c 2778 433a
00000390: f484 ae3c 554e b5bc 340d f03c dbd2 753d
000003a0: c968 843c e038 283d b2cc 8abc 98f9 a83d
000003b0: 8347 a6bc bef4 c23b 2514 1d3d 7dd8 263b
000003c0: ad64 143e 56ea 873c 1713 e53c a17e ae3c
000003d0: e28a 4b3e 5966 e63c 104e 53bc a4d0 0f3d
000003e0: faa7 97bd beec 7d3d 98e2 1fbc bebf c13b
000003f0: c85d fbbc 000b b9bb ff54 f93c f2e9 39bc

89 f4 [32]
-0.26646644 -0.024352774 0.24326538 0.1255725 -0.3465259 -0.038476624 -0.3167252 0.2774385
0.21119358 -0.1400037 -0.34546608 0.06087333 -0.26940063 0.32842475 -0.1574683 -0.26845905
0.18548551 -0.38055235 0.13784717 -0.008937404 -0.26743358 0.09537124 0.001339593 -0.15914832
-0.052772753 0.18342805 -0.06613919 -0.2589319 0.07987836 0.005457774 -0.2817066 -0.14583161
00000000: 4a6e 88be 787f c7bc 8f1a 793e 1496 003e
00000010: d86b b1be aa99 1dbd ce29 a2be 6b0c 8e3e
00000020: 2143 583e 215d 0fbe eee0 b0be 5056 793d
00000030: e1ee 89be 4a27 a83e 5f3f 21be 7773 89be
00000040: eaef 3d3e c2d7 c2be cf27 0d3e 306e 12bc
00000050: 0eed 88be ff51 c33d 4895 af3a c7f7 22be
00000060: 3e28 58bd 90d4 3b3e fc73 87bd b992 84be
00000070: 4497 a33d 20d7 b23b d93b 90be e254 15be

91 f4 [64, 32, 3, 3]
-5.3144953e-07 -4.777951e-09 7.48059e-09 -4.985948e-06 -1.1876318e-06 -1.3215184e-08 -1.9419053e-07 -1.6246295e-06
-3.873079e-08 9.452038e-10 -9.0851876e-10 -8.980544e-09 -2.359314e-12 -3.2427284e-08 -1.1624384e-07 -2.8845065e-11
-3.767355e-07 -3.8117633e-07 -2.1732867e-06 1.3563696e-09 -1.7871299e-08 -3.3059462e-06 3.21925e-10 -2.5234088e-09
-1.5031072e-06 -5.4494336e-08 -8.860051e-08 1.9518576e-09 8.381564e-09 1.393303e-07 6.8084273e-06 -7.658141e-07
-7.3615115e-07 1.5958332e-09 1.2546243e-09 6.063996e-10 2.230694e-08 3.5826456e-06 2.0663083e-06 -7.4908474e-10
1.0764439e-08 1.8454093e-06 -7.4015244e-10 -3.0913885e-08 2.5199834e-06 4.964649e-07 3.9310517e-06 6.8959594e-06
-1.4217721e-08 -3.8204256e-08 5.7082246e-07 8.646284e-08 2.6379064e-07 -5.7975473e-08 3.13964e-07 3.304722e-08
2.7149447e-10 -2.0075078e-10 5.0114546e-10 4.7476545e-10 4.5999293e-10 7.9983536e-10 1.4132636e-11 1.0176248e-06
-4.966135e-07 1.39948215e-05 1.9375206e-05 1.7670997e-06 1.22998135e-05 3.4859518e-06 1.4097757e-05 1.9748279e-05
-6.831445e-07 1.6575626e-09 -3.932705e-08 6.643699e-07 5.3464793e-09 -1.8481082e-08 -4.4227895e-06 -2.4980078e-08
-8.431234e-08 -8.503825e-06 -1.0318493e-05 7.1230795e-07 -4.9470272e-09 -5.1433117e-06 -8.944356e-06 -4.953975e-06
-5.0394824e-06 -1.9315955e-06 -1.4687055e-06 -4.0598272e-07 2.3645612e-09 -1.5397682e-05 -1.3711013e-05 -3.7889438e-06
-9.402036e-06 -2.964982e-06 -2.660827e-06 3.3343437e-09 8.3240415e-08 2.1926199e-09 -5.633596e-07 6.787125e-10
3.7273008e-11 -3.2115466e-07 1.1433269e-12 1.6549572e-12 -2.162955e-05 -1.170944e-05 -1.9714857e-05 -2.609747e-05
-4.7495037e-06 -8.26397e-06 -1.7023449e-05 -2.833522e-06 -4.2472013e-05 2.2165418e-08 3.561267e-08 1.9349442e-07
1.0617717e-09 1.463279e-07 -2.5757988e-08 1.7622512e-09 3.9196038e-09 3.808758e-08 2.4643225e-07 -3.855701e-08
1.4302645e-07 -1.0838129e-05 -1.3763365e-06 -1.535929e-06 -1.0898412e-06 -3.4034563e-06 -5.03804e-07 -3.716017e-05
-3.3376233e-05 -3.9616443e-06 -2.8390108e-05 -3.7819245e-05 -3.9759134e-06 -1.5432997e-05 -1.6648164e-05 -7.823337e-06
6.501116e-11 3.872842e-06 2.7061456e-06 1.4685224e-06 1.9109824e-05 1.0034708e-05 1.0098672e-06 9.599084e-06
3.81834e-06 -8.3393246e-07 -2.384899e-06 -6.4196684e-06 -8.48183e-06 -1.9754085e-05 -4.7457324e-06 -1.88129e-06
-6.9137855e-06 -8.48445e-06 -6.719606e-08 -2.617017e-08 -2.4271747e-09 -1.4390345e-07 1.5318169e-07 -5.089945e-09
4.2838818e-07 2.378297e-06 -3.573028e-07 1.7540966e-10 2.0970761e-10 1.4763444e-09 -1.6445696e-10 1.168034e-08
-5.637076e-07 -4.962607e-11 -4.106442e-08 -7.534299e-09 -3.7653674e-06 -7.409948e-06 -1.46270395e-05 -1.8926517e-05
-3.3301716e-05 -7.5318007e-06 -9.631254e-06 -7.865855e-06 -5.8663504e-06 8.898922e-10 1.4078871e-09 2.6915506e-10
-1.3636761e-10 -1.4068588e-11 -7.474552e-09 -1.1083804e-08 -2.4074128e-11 -1.4884156e-07 1.0377991e-08 3.6503204e-07
1.0411275e-06 5.8830903e-08 1.0053611e-08 3.486866e-07 3.375711e-10 -1.2333748e-10 -3.201024e-10 2.0180761e-07
4.350425e-08 2.7817297e-08 -6.268019e-06 -7.0540966e-07 6.750647e-08 -3.4441683e-07 1.1215216e-08 1.0995667e-08
1.1208628e-08 1.4646345e-08 1.4057605e-07 -6.456427e-06 -5.445185e-07 2.1609848e-08 -1.3222756e-05 -1.667971e-05
-1.1877748e-06 -2.1205507e-07 -3.163556e-08 -2.1028352e-08 -1.1159967e-08 -9.502104e-09 -4.331003e-08 -1.8062986e-08
-1.9700357e-07 -1.0202087e-07 -9.215934e-09 1.3766107e-08 1.9467782e-06 -2.51428e-08 -2.4817824e-08 -1.9228507e-08
-6.5619794e-08 -2.1193998e-08 -2.4274218e-08 3.965408e-09 -1.2332885e-07 -4.5143942e-08 1.132041e-07 -4.968631e-07
-7.7422106e-07 -6.161904e-08 1.7623643e-07 -2.5505878e-07 -4.9090676e-07 -1.2452079e-05 -4.868931e-06 -7.673039e-07
00000000: efa8 0eb5 4d2b a4b1 fc83 0032 f84c a7b6
00000010: b866 9fb5 fe08 63b2 b082 50b4 d80d dab5
00000020: f458 26b3 67e8 8130 53bb 79b0 da48 1ab2
00000030: 9f05 26ac 2d46 0bb3 baa1 f9b3 50b9 fdad
00000040: 2242 cab4 7aa4 ccb4 c8d8 11b6 036b ba30
00000050: 6783 99b2 b9db 5db6 eafa b02f 4768 2db1
00000060: 5fbe c9b5 280d 6ab3 a544 beb3 7121 0631
00000070: 82fe 0f32 d29a 1534 f273 e436 5892 4db5
00000080: ec9b 45b5 6454 db30 2b6f ac30 94af 2630
00000090: 7b9d bf32 626d 7036 e8aa 0a36 27e8 4db0
000000a0: 81ee 3832 c8af f735 9973 4bb0 2dc6 04b3
000000b0: fc1c 2936 cf44 0535 7ae7 8336 d763 e736
000000c0: 3342 74b2 0616 24b3 9f3a 1935 73ad b933
000000d0: 1c9f 8d34 b500 79b3 e28e a834 cdef 0d33
000000e0: 7341 952f 52ba 5caf fac0 0930 a680 0230
000000f0: 40e2 fc2f 69db 5b30 bc9f 782d 5295 8835
00000100: 054f 05b5 4dcb 6a37 f087 a237 152d ed35
00000110: 4c5b 4e37 32f0 6936 6885 6c37 1ba9 a537
00000120: 5561 37b5 4dd0 e330 8ce8 28b3 2757 3235
00000130: 21b4 b731 54c0 9eb2 7967 94b6 c693 d6b2
00000140: 330f b5b3 a6ab 0eb7 971d 2db7 6e35 3f35
00000150: 83fa a9b1 b694 acb6 b70f 16b7 523a a6b6
00000160: d318 a9b6 8fa0 01b6 5620 c5b5 d7f5 d9b4
00000170: cd7d 2231 452a 81b7 5a08 66b7 8f45 7eb6
00000180: 70bd 1db7 01fa 46b6 a990 32b6 6522 6531
00000190: e7c1 b233 faac 1631 c739 17b5 2590 3a30
000001a0: aded 232e 296b acb4 b1e8 a02b 1eea e82b
000001b0: 1b71 b5b7 a973 44b7 5561 a5b7 e4eb dab7
000001c0: ed5d 9fb6 7ba5 0ab7 94cd 8eb7 8a27 3eb6
000001d0: fa23 32b8 4566 be32 8bf4 1833 57c3 4f34
000001e0: c5ed 9130 4f1e 1d34 6a42 ddb2 b433 f230
000001f0: 33ad 8631 bd95 2333 644d 8434 e199 25b3
00000200: d092 1934 69d5 35b7 90ba b8b5 1e26 ceb5
00000210: a946 92b5 ef66 64b6 263d 07b5 6edc 1bb8
00000220: 75fd 0bb8 44ee 84b6 4b27 eeb7 1ba0 1eb8
00000230: d668 85b6 1c76 81b7 a9a7 8bb7 fa40 03b7
00000240: 08f6 8e2e 76f3 8136 3a9b 3536 0c1a c535
00000250: 094e a037 be5a 2837 c68a 8735 c00b 2137
00000260: 4a1f 8036 67db 5fb5 410c 20b6 8868 d7b6
00000270: 2f4d 0eb7 93b5 a5b7 883d 9fb6 a280 fcb5
00000280: f7fc e7b6 6f58 0eb7 6d4d 90b3 d0cc e0b2
00000290: 4fcb 26b1 e183 1ab4 437a 2434 a1e3 aeb1
000002a0: 39fd e534 d59a 1f36 53d3 bfb4 6edd 402f
000002b0: 7293 662f 40e8 ca30 85d2 34af aeaa 4832
000002c0: b151 17b5 fd41 5aae cf5e 30b3 3370 01b2
000002d0: 85b0 7cb6 f8a2 f8b6 a866 75b7 63c4 9eb7
000002e0: 72ad 0bb8 adb9 fcb6 ec95 21b7 97f7 03b7
000002f0: 91d7 c4b6 999c 7430 a07f c130 35f8 932f
00000300: 12f0 15af 4a7f 77ad 6d69 00b2 166b 3eb2
00000310: 1ec2 d3ad 42d1 1fb4 e34a 3232 9ff9 c334
00000320: debc 8b35 43ad 7c33 40b8 2c32 1f33 bb34
00000330: e994 b92f 6a9c 07af 68fa afaf 74b0 5834
00000340: 6ed9 3a33 e2f2 ee32 e051 d2b6 625b 3db5
00000350: 13f8 9033 4ae8 b8b4 0bad 4032 74e7 3c32
00000360: 1190 4032 4e9f 7b32 40f1 1634 49a4 d8b6
00000370: 072b 12b5 8fa0 b932 4ed7 5db7 68eb 8bb7
00000380: a26b 9fb5 41b1 63b4 abdf 07b3 d6a1 b4b2
00000390: 0eba 3fb2 b23e 23b2 e203 3ab3 ed28 9bb2
000003a0: ee87 53b4 9116 dbb3 1b54 1eb2 fb7f 6c32
000003b0: 65a5 0236 9af9 d7b2 f92e d5b2 ef2b a5b2
000003c0: ddea 8cb3 180e b6b2 9283 d0b2 1940 8831
000003d0: 606c 04b4 4ae4 41b3 9d1a f333 2c60 05b5
000003e0: 11d4 4fb5 6d53 84b3 803b 3d34 03ef 88b4
000003f0: dbc6 03b5 46e9 50b7 cc5f a3b6 b9f8 4db5

92 f4 [64]
-0.00083339895 0.0025913026 -0.02175158 -5.664582e-05 -0.0077578383 -0.0023327728 -0.06933911 -0.0048679626
-0.059385143 -0.041854642 -0.038584672 -0.0017192715 -0.020880885 0.05480481 -0.1612497 -0.0026700087
-0.018850848 -0.032858998 0.02707307 0.011568429 -0.007032411 -0.0031656397 -0.012984595 -0.011717292
0.016445681 -0.0036429947 -0.02721411 -0.0005827301 -0.019600896 -0.010504056 -0.07515162 -1.646515e-05
-0.0222635 -0.05539055 0.0048437826 0.0032262579 0.1450983 -0.002127518 -0.026046123 -0.08834638
-0.005655111 -0.010752935 -0.11948455 -0.014314394 -0.029867025 -0.01585297 -0.008393816 0.34024024
0.26791894 -0.010195898 -0.07395329 -0.011029468 -0.03168291 0.08250733 -9.378315e-07 -0.021910917
-0.058720298 -0.00022011033 -0.042663805 -5.4370146e-05 -0.001590324 0.037246708 -0.017041361 -2.5330971e-06
00000000: 7578 5aba d8d2 293b 5f30 b2bc fc96 6db8
00000010: 7735 febb 6fe1 18bb aa01 8ebd 6e83 9fbb
00000020: d63d 73bd c66f 2bbd f60a 1ebd 2e59 e1ba
00000030: 640e abbc 027b 603d a41e 25be 50fb 2ebb
00000040: 186d 9abc 2897 06bd 58c8 dd3c 8289 3d3c
00000050: 2470 e6bb 9f76 4fbb 57bd 54bc e2f9 3fbc
00000060: 18b9 863c 4fbf 6ebb 20f0 debc 5bc2 18ba
00000070: 0f92 a0bc 3419 2cbc 18e9 99bd a41e 8ab7
00000080: f261 b6bc 34e1 62bd 98b8 9e3b a06f 533b
00000090: a694 143e d46d 0bbb ae5e d5bc f2ee b4bd
000000a0: 824e b9bb 142d 30bc 51b4 f4bd ec86 6abc
000000b0: b1ab f4bc 16de 81bc 3786 09bc f833 ae3e
000000c0: ac2c 893e b20c 27bc d374 97bd f1b4 34bc
000000d0: f0c5 01bd 9af9 a83d 4abf 7bb5 867e b3bc
000000e0: b284 70bd 6bcd 66b9 3ec0 2ebd 800b 64b8
000000f0: 6b72 d0ba 0190 183d 539a 8bbc 47fe 29b6

94 f4 [64, 64, 3, 3]
-0.00022509212 -0.0009808772 -7.371064e-05 -7.900479e-05 -0.0006798753 0.00059154874 -2.2761407e-05 -1.973518e-05
1.4087167e-05 -0.049762852 -0.09442538 0.001430831 -0.038553726 -0.040052205 0.04766537 0.013059312
0.025343014 0.055040136 -0.014717202 -0.010011362 -0.008447864 -0.015306059 -0.032229096 -0.011289053
-0.00844667 -0.010587153 -0.0068403347 1.7537712e-08 -8.804428e-17 -9.864616e-07 3.2322117e-05 5.6472217e-08
1.3869886e-15 1.2049434e-06 7.0543235e-13 1.1949758e-15 8.4001655e-08 6.487384e-06 0.00023159126 1.1946263e-07
8.741987e-06 1.630723e-07 6.754159e-05 7.068169e-05 8.519298e-05 -8.8181914e-05 -0.00012500912 -0.0003025178
-0.006089426 0.00250427 -0.00014385782 -0.000761028 0.002171284 5.0025927e-05 0.04151496 -0.039967783
0.13114527 -0.10608855 -0.2997329 -0.016108409 -0.071331486 -0.1335023 0.023744712 9.430148e-05
-0.00042130594 -0.0008132276 -0.0015683956 -0.00010478938 2.9588602e-05 -0.002279061 -0.00041775746 -0.0011112604
-0.0015412924 -0.15822597 -0.015997548 0.011121901 -0.22241703 -0.03476491 -0.024364054 -0.035524808
0.13234429 0.10200227 0.0010359996 0.09251451 0.0741957 -0.06535675 0.04274475 0.021482315
-0.08504341 0.015537428 -0.0022148585 0.0005856292 -0.030970607 0.0005493988 -0.007140632 -0.0024168147
0.00083657436 -0.0016125023 0.003313786 -5.305128e-05 -0.0014613961 -0.0003157304 -0.00057746714 -0.0033592735
-0.00045026097 -0.00065017684 -0.0013369207 -0.0001310094 0.0014662563 -0.0020879686 -0.0022312137 -0.008176679
-0.018374577 -0.006885405 -0.0044119046 -0.001681465 0.0013380162 0.113699645 -0.02779431 0.008592172
0.11575966 0.08930226 -0.018821046 0.08273945 0.23591042 0.12557146 0.09047374 -0.07071691
0.19065933 -0.014315607 -0.18193261 0.10533805 0.019775102 -0.11437088 0.18985257 -9.608579e-05
-0.00090016634 -0.00010040756 -0.0009289873 -0.0028114924 -0.0005640896 -2.3204673e-05 0.0001997746 0.00064130133
0.024213837 -0.0817784 0.08037741 -0.037425157 -0.16511098 0.03747461 -0.041144706 -0.050434157
0.10528489 0.020710476 0.004444532 0.026590575 -0.007660077 -0.039918985 -0.0029878742 -0.01702231
-4.0285962e-05 -0.0061346237 0.0019611511 6.912153e-05 0.0006341769 0.0087208655 0.014311998 0.0018395775
-0.00088712596 -0.0036230434 -0.00080715807 0.0013043914 0.0026453468 -0.0007182448 -0.0063998234 -0.0133400075
-0.0013482509 -0.0020727196 -0.006632061 0.0012556944 -0.00172229 -0.0041056224 -0.00071844045 -0.0030545134
0.00049810763 -0.0009033618 -0.00016971087 0.0049313447 -0.00025027574 -0.00024753794 -0.000115918374 -0.00050819677
-0.0028207067 0.012557954 -0.0012872757 -0.00014922679 0.0040411586 -0.00025261875 0.009906607 0.010322882
0.005762817 -0.004251637 -0.00095541903 -0.0055789202 -0.007505304 -0.00574943 -0.006077578 9.955403e-10
6.964819e-12 7.387062e-05 1.8692588e-05 0.001455884 4.3253297e-07 1.8176687e-06 2.1458932e-11 6.464184e-05
0.006898732 -0.029720062 0.008202905 -0.014343262 0.015261166 0.018272838 -0.028762063 0.030291691
0.045661084 -6.844425e-05 -0.0072243568 -0.0008556493 -0.00039850498 -0.003090618 -5.577038e-05 -4.7002613e-05
0.0029508504 0.0006792816 -0.12709904 -0.058563117 0.005276342 -0.11110628 -0.004474555 0.06936409
-0.06277966 0.05901673 0.08676045 -2.8234486e-05 -2.7169333e-05 -2.1926312e-06 -2.249148e-08 -9.536902e-05
-1.5187913e-11 -4.0478068e-07 1.8780087e-05 1.1230443e-06 0.00909932 -0.021644441 0.0135892695 -0.0051370384
00000000: b506 6cb9 c790 80ba 1995 9ab8 60af a5b8
00000010: a939 32ba 2a12 1b3a c0ef beb7 fa8c a5b7
00000020: ec57 6c37 22d4 4bbd 1862 c1bd b98a bb3a
00000030: 83ea 1dbd c80d 24bd c33c 433d b9f6 553c
00000040: 279c cf3c c471 613d 6b20 71bc b206 24bc
00000050: e968 0abc 44c6 7abc a802 04bd b8f5 38bc
00000060: e763 0abc bd75 2dbc e324 e0bb d6a5 9632
00000070: 2b04 cba4 9066 84b5 9c91 0738 dc8b 7233
00000080: d9e2 c726 8ab9 a135 c28f 462b d336 ac26
00000090: 6664 b433 34ae d936 4ed7 7239 a345 0034
000000a0: 8caa 1237 f918 2f34 1da5 8d38 f23a 9438
000000b0: a2a9 b238 4eee b8b8 e114 03b9 409b 9eb9
000000c0: cf89 c7bb ae1e 243b 8ad8 16b9 b97f 47ba
000000d0: 1a4c 0e3b eed2 5138 970b 2a3d 42b5 23bd
000000e0: f24a 063e f444 d9bd 9776 99be c8f5 83bc
000000f0: 3e16 92bd d4b4 08be 4584 c23c b9c3 c538
00000100: bae2 dcb9 c82e 55ba a092 cdba 5fc2 dbb8
00000110: 0a35 f837 4c5c 15bb 7506 dbb9 b6a7 91ba
00000120: 3105 caba fd05 22be 4a0d 83bc a238 363c
00000130: 4ac1 63be a665 0ebd 2097 c7bc 7682 11bd
00000140: 4385 073e 91e6 d03d 61ca 873a 3f78 bd3d
00000150: eaf3 973d c2d9 85bd 1e15 2f3d aefb af3c
00000160: 3d2b aebd b290 7e3c 2927 11bb e984 193a
00000170: 12b6 fdbc 8805 103a f6fb e9bb 6c63 1ebb
00000180: 8e4d 5b3a 995a d3ba 1a2c 593b 6183 5eb8
00000190: 518c bfba 9e88 a5b9 2a61 17ba 4227 5cbb
000001a0: 0111 ecb9 a170 2aba 9d3b afba 915f 09b9
000001b0: 662f c03a 4dd6 08bb 8e39 12bb 7af7 05bc
000001c0: 4886 96bc f79e e1bb bd91 90bb 9a64 dcba
000001d0: 6060 af3a 5cdb e83d e5b0 e3bc 2ec6 0c3c
000001e0: 6713 ed3d 1ae4 b63d 982e 9abc 4d73 a93d
000001f0: 8092 713e ce95 003e 4c4a b93d 07d4 90bd
00000200: 333c 433e 028c 6abc 8b4c 3abe 7abb d73d
00000210: 65ff a13c 483b eabd b668 423e aa81 c9b8
00000220: 24f9 6bba e691 d2b8 4887 73ba 0441 38bb
00000230: 6adf 13ba a8a7 c2b7 967a 5139 011d 283a
00000240: 195c c63c 6f7b a7bd e99c a43d 1f4b 19bd
00000250: da12 29be fa7e 193d 5a87 28bd 0c94 4ebd
00000260: 9b9f d73d 04a9 a93c 70a3 913b 7ad4 d93c
00000270: 6201 fbbb 1782 23bd 36d0 43bb 5f72 8bbc
00000280: b9f8 28b8 f404 c9bb a886 003b 57f5 9038
00000290: e43e 263a f6e1 0e3c df7c 6a3c fa1d f13a
000002a0: 048e 68ba 9570 6dbb 7697 53ba 1df8 aa3a
000002b0: 8e5d 2d3b 9848 3cba 9cb5 d1bb 0c90 5abc
000002c0: cbb7 b0ba 77d6 07bb c351 d9bb 1d96 a43a
000002d0: 76be e1ba 7588 86bb b955 3cba 3b2e 48bb
000002e0: 7093 023a 96cf 6cba 6af4 31b9 1e97 a13b
000002f0: 7137 83b9 fbc7 81b9 3419 f3b8 8238 05ba
00000300: 9bdb 38bb e0bf 4d3c ceb9 a8ba c379 1cb9
00000310: b26b 843b ea71 84b9 524f 223c 4e21 293c
00000320: 03d6 bc3b 5151 8bbb 1675 7aba 60cf b6bb
00000330: 0eef f5bb b765 bcbb 6b26 c7bb 76d3 8830
00000340: 830d f52c fdea 9a38 07ce 9c37 5cd3 be3a
00000350: e136 e834 9ff6 f335 38c1 bc2d 5390 8738
00000360: c20e e23b 7d77 f3bc 7a65 063c 0000 6bbc
00000370: f809 7a3c ebb0 953c 6b9e ebbc 4826 f83c
00000380: 1e07 3b3d ba89 8fb8 4cba ecbb a74d 60ba
00000390: 6fee d0b9 f78b 4abb fdea 69b8 ac24 45b8
000003a0: 0e63 413b d111 323a 4026 02be e1df 6fbd
000003b0: 2ae5 ac3b b08b e3bd 4a9f 92bb c30e 8e3d
000003c0: 9f92 80bd 87bb 713d 76af b13d 19d9 ecb7
000003d0: b3e9 e3b7 1e25 13b6 4a33 c1b2 da00 c8b8
000003e0: 2498 85ad a250 d9b4 ee89 9d37 82bb 9635
000003f0: 5015 153c af4f b1bc 87a5 5e3c 9a54 a8bb
