model/seaplane.onnx (onnx, 301496 bytes, 16 tensors)

fc.weight f4 [2, 256]
000000 fb 75 12 bf 59 b2 20 bf b4 c9 cd 3c a6 24 32 3d
       -0.57211274 -0.62772137 0.025120594 0.043491982
000010 fc c6 25 3f d0 9a df 3e 01 98 1f 3f a4 4c a2 3e
       0.6475675 0.436728 0.62341315 0.31699097
000020 ba 66 2c 3e d1 7f e1 3d 4c ae c0 be 18 c6 00 bf
       0.16836062 0.11010707 -0.37632978 -0.5030227
000030 1a b1 d2 be 94 51 ec be b7 ee 5d 3e 91 da f5 3d
       -0.41150743 -0.4615599 0.21673094 0.12004579
000040 8a 98 b0 be 0a 5d c5 be 21 29 2f bd f9 1b c1 bd
       -0.34491378 -0.38547546 -0.042763833 -0.094291635
000050 89 d7 15 be 92 30 b0 bd 92 8b d6 3d e2 7a aa 3d
       -0.14633001 -0.08603014 0.1047584 0.08324219
000060 00 12 a7 3d dd 78 9f 3c 11 27 b6 be 68 a9 ac be
       0.0815773 0.019466812 -0.3557668 -0.33722997
000070 b3 94 31 3e 0c 8e 11 3e 4f ce 85 3d 49 87 be 3a
       0.1734188 0.14214343 0.06533491 0.0014536168
000080 9f eb 4a 3e 17 57 ea 3d ed 2d 2d 3e 79 73 f6 3d
       0.19816445 0.11442392 0.1691205 0.120337434
000090 a6 da a9 be 81 83 b6 be 4f f1 0c 3e 9c de 8d 3d
       -0.33174628 -0.35647205 0.13763927 0.06927225
0000a0 77 a8 39 bc 14 eb d0 3a 6d 5a 2a 3d 0e 05 41 bb
       -0.011331669 0.0015939199 0.041590143 -0.0029452476
0000b0 db d0 dd 3c c4 16 19 be 3d 3b ee 3c 91 c2 62 bd
       0.02707713 -0.1495009 0.029080981 -0.055361334
0000c0 6c 32 9a be 38 bf 94 be 95 cd d7 bd 8d 0e 86 3b
       -0.30116594 -0.29052138 -0.105372585 0.00409109
0000d0 97 25 62 3d e8 1c c0 3d 61 08 c5 be fe 9f b1 be
       0.05521163 0.093805134 -0.38482955 -0.34692377
0000e0 be 86 01 3e 61 5b 25 3e 68 be 8d 3e ee c6 82 3e
       0.12649056 0.1614814 0.2768433 0.25542396
0000f0 ce c1 2f bd ad 67 00 bd 03 4b 8d 3d 89 6a f5 3d
       -0.042909436 -0.031348873 0.06899073 0.119832106
000100 ed 4a 0f be 23 5d 13 be cd 1b 19 3d 2f 59 fa bc
       -0.13993426 -0.14390998 0.03738003 -0.030560104
000110 0d 21 89 3e ad 66 78 3e 8f 9f 9f 3e 9b f4 65 3e
       0.26783028 0.24257918 0.3117642 0.22456591
000120 88 9e 01 be ab 4f ec bd 1a ac d4 3d ff 99 1c 3e
       -0.12658131 -0.11538633 0.10384388 0.1529312
000130 1f 40 0c bf d2 0b 00 bf ea 65 aa bc c8 20 76 3d
       -0.5478534 -0.50018036 -0.02080055 0.060089856
000140 6d 36 3b 3e a4 3e 4d 3e ef cf e6 3d b0 c5 4b 3e
       0.1828248 0.20043427 0.11270129 0.1989963
000150 26 57 75 3b 04 67 98 3d 84 ac 9e be 81 75 ae be
       0.0037435978 0.07441524 -0.30990994 -0.34074023
000160 69 28 9a 3e 13 c8 42 3e 0d 8e 69 3e c4 27 4a 3d
       0.30108956 0.19021635 0.22808094 0.04935433
000170 33 a5 b5 3e c7 58 8c 3e 1f 57 5a bf 94 5f 51 bf
       0.354776 0.27411482 -0.85289186 -0.81786466
000180 28 12 dc be cf 47 d4 be 26 5f 94 bd b5 b7 85 bd
       -0.42982602 -0.41461036 -0.072447106 -0.0652918
000190 19 24 b5 bc b6 38 95 3d c1 d8 c8 be be ea af be
       -0.02211194 0.072862074 -0.3922787 -0.34358782
0001a0 c9 1c 83 bd ea 20 a7 3c 8b f8 0e bc 5c 48 32 3d
       -0.06401975 0.020401437 -0.008726249 0.04352604
0001b0 b9 66 25 3e a3 0f 04 3e 40 a8 3e 3e 0a ae f0 3d
       0.16152467 0.1289659 0.1861887 0.11751945
0001c0 f1 1c 01 3e 7c aa d4 3d 14 e9 53 3e f8 16 77 3e
       0.12608697 0.1038408 0.20694381 0.24129856
0001d0 05 b3 2c 3e 91 f7 22 3e 56 77 0c 3d f7 9c 08 3d
       0.16865166 0.15914752 0.034293495 0.03335282
0001e0 8f 24 77 3e 0e eb 18 3e 5d da 81 3e 3f 97 34 3e
       0.2413504 0.14933416 0.2536191 0.17635821
0001f0 ab 3b d3 3d 29 fe 7e 3d bf e7 f2 be 70 a1 d8 be
       0.10314115 0.062254105 -0.47442433 -0.42310667
000200 79 b7 e4 3d 9e ad 30 3e 96 88 5e 3e ff 0e 56 3e
       0.11167807 0.1725373 0.21731791 0.20904158
000210 2f 02 8c be 7a 8a 3c be 54 92 40 bc fa 46 1b 3d
       -0.27345416 -0.184122 -0.011753637 0.037909485
000220 da cd ab be 45 dc 87 be 80 4e 28 3d 68 56 8c ba
       -0.3355549 -0.2653524 0.04109049 -0.0010706903
000230 68 11 d5 be e7 3f 05 bf 07 69 68 3d f6 90 fc 3c
       -0.41614842 -0.5205063 0.056740787 0.030830842
000240 27 3f b4 be c2 23 86 be 32 a1 39 3d 4e d2 76 3d
       -0.3520443 -0.26199156 0.045319743 0.060259156
000250 7d c3 33 3c 19 79 2b 3d 57 a3 09 be 12 66 0e be
       0.010971901 0.041863535 -0.13441215 -0.13906124
000260 c9 b2 8d be 8d 6b 75 be f6 b7 7e be 80 34 6e be
       -0.27675465 -0.23966809 -0.24874863 -0.23262215
000270 11 61 a2 be a4 08 82 be 89 72 a1 3d e4 60 17 3d
       -0.3171468 -0.25397217 0.07883174 0.036957636
000280 6a b7 8f be cb 4d be be 60 53 cb 3d 07 43 33 3e
       -0.2806962 -0.37168726 0.09928012 0.17506038
000290 5b b8 54 bb db 6d 2e 3d 28 56 2a 3d d2 81 a3 3c
       -0.0032458517 0.042585235 0.04158607 0.019959364
0002a0 d0 d2 fc be 24 cb e2 be 8f c7 1f 3b f2 7c d0 3c
       -0.49379587 -0.4429561 0.002438042 0.025450204
0002b0 93 ba 6b be f3 a6 7e be 03 54 a8 bd 26 dd d7 bc
       -0.23020391 -0.24868374 -0.08219149 -0.026350569
0002c0 66 3e 29 3e 5c 20 5a 3e aa 81 f3 3d 38 63 53 3e
       0.1652771 0.21301407 0.11889966 0.20643318
0002d0 da bb 8c 3e ff b2 71 3e 32 4d d0 3b a2 f6 e1 3c
       0.2748707 0.23603438 0.0063568586 0.027583424
0002e0 c1 26 95 be c8 f6 91 be e5 4a 15 be 6a 61 3e be
       -0.2913113 -0.28508592 -0.14579351 -0.18591848
0002f0 42 63 df bb 8c 5d a0 3c a0 5d 80 be da 80 9a be
       -0.0068172524 0.019575857 -0.2507143 -0.3017643
000300 3d d2 c4 be 6c bc a7 be b1 b2 21 be c4 bc 55 bd
       -0.3844165 -0.32760942 -0.15790822 -0.052181974
000310 8e f3 b8 be b3 a2 a3 be 46 34 5c bd 10 c6 6e 3c
       -0.36123317 -0.31960067 -0.05376079 0.014573589
000320 be 39 a8 be 97 9a 67 be 79 da db 3d a1 9e 5f 3d
       -0.32856554 -0.22617565 0.1073503 0.05459464
000330 64 f4 ce be 57 1f d6 be 33 fa 67 3d 0b e2 b1 3d
       -0.4042083 -0.41820785 0.056635093 0.086856924
000340 10 d2 fb be 16 14 ed be 6e 5e 31 3c 0c b7 d2 bb
       -0.49183702 -0.46304387 0.010825736 -0.0064305123
000350 f6 8e af be 05 b7 02 bf 92 da 3f 3e cd 12 03 3e
       -0.34288758 -0.51060516 0.18735722 0.1280014
000360 a7 1d c5 be c6 8f e1 be ec 11 56 3d 06 5e a1 3d
       -0.38499185 -0.44055003 0.052263185 0.07879262
000370 5d 46 1c 3e 55 08 45 3e a7 5a ad 3e 64 cf 8b 3e
       0.15261216 0.1924146 0.33858225 0.27306664
000380 b7 0b 7c bd 86 85 05 be 22 ad 02 be e0 ce 32 be
       -0.06153461 -0.13039216 -0.12761357 -0.17461729
000390 e3 ca 43 3e 11 21 fd 3d 39 8b 5c 3e c5 2d 65 3e
       0.19120364 0.123598225 0.21537484 0.22380741
0003a0 54 3b cc be 4e 6d d2 be e0 fc 18 3e 12 c2 a9 3d
       -0.39889014 -0.41099018 0.14940214 0.08288969
0003b0 41 b3 e1 3e 8f 90 64 3e 8b 61 01 3f 88 4a af 3e
       0.44082072 0.2232077 0.50539464 0.3423655
0003c0 55 4f 3d 3e 1d 4a 0f 3e 75 fc 2d 3e 1e 24 53 3d
       0.18487294 0.13993116 0.16990836 0.051548116
0003d0 95 d2 33 3e 01 9f ec 3d b8 e7 b7 3c bc b6 d7 3a
       0.175608 0.11553765 0.02244936 0.0016457657
0003e0 40 d1 2e 3e dd d3 74 3e d7 c0 37 3e 43 7d b3 3d
       0.1707201 0.23908944 0.17944656 0.08764126
0003f0 e8 70 1e 3e ae 35 2f 3e 1c 7c d6 3d 76 27 87 3d
       0.15472758 0.17110321 0.10472891 0.065993235

fc.bias f4 [2]
000000 2d a8 db bd 39 21 20 3e
       -0.10725436 0.15637673

79 f4 [16, 3, 7, 7]
000000 ed f9 40 bd fe dc a1 3c 96 e3 b5 bd 32 9a ce bd
       -0.047113348 0.019758698 -0.08881299 -0.10088004
000010 00 eb c1 bd 51 d9 21 bd 4a 04 ee bd 20 e8 9a 3d
       -0.09468651 -0.03951389 -0.11621912 0.075638056
000020 98 7c eb 3d 06 56 94 bd ce 8f 0a be 75 99 08 be
       0.11498374 -0.0724297 -0.1353142 -0.13339789
000030 50 bd ac bd 35 73 90 3c bd ff 41 3e 59 f0 3f 3e
       -0.08434546 0.01763306 0.18945213 0.18744029
000040 fe a5 fd 3d e1 cd 42 bd 44 89 71 be bf a7 43 be
       0.12385176 -0.047559623 -0.23587519 -0.19106959
000050 2a 31 b7 bd 81 99 a4 3e 75 82 ff 3e 65 1e b0 3e
       -0.08944924 0.32148364 0.49904218 0.3439819
000060 d7 5b a3 3d f9 88 9c be cf f9 e5 be 6b 8c 46 be
       0.079765014 -0.30573252 -0.4491715 -0.19389503
000070 4b f6 c9 3e ea 82 0f 3f be 7a bc 3e e8 2b 3d 3d
       0.3944572 0.56059134 0.36812395 0.04618445
000080 cd 80 7d be 90 f1 cc be 54 80 5d be ec 48 0d 3e
       -0.24756165 -0.40028048 -0.21630985 0.13797349
000090 cf 30 86 3e e0 57 45 3e 23 52 87 bc 14 1f b1 be
       0.26209113 0.19271803 -0.016518658 -0.34594023
0000a0 4a da b1 be 2a b6 21 be d4 7c 9d 3d bd f1 d5 3d
       -0.34736854 -0.15792146 0.07689825 0.104464985
0000b0 14 9d 83 3d a1 f1 f4 bd 9a fb 8a be c5 48 7b be
       0.06426445 -0.119601496 -0.27145082 -0.24539478
0000c0 3b 2b 9c bd 22 38 e1 3d 4f 2d 38 3e 3c 2a 42 3d
       -0.07625433 0.109970346 0.17986034 0.04740356
0000d0 c4 ce 9c bc 6b c8 09 bd 56 77 20 3b 3c 88 6d bd
       -0.019141562 -0.0336384 0.0024485192 -0.05799125
0000e0 3c f9 30 3e d7 bf 28 3e b0 f6 08 bc 68 ac 35 bd
       0.17282575 0.16479431 -0.008359596 -0.044353873
0000f0 d5 3c f9 bd b5 44 7c bc c4 b2 9d 3c 94 e9 a2 3e
       -0.12169806 -0.01539724 0.019250281 0.3181883
000100 a0 de 5d 3e a9 30 a7 3d ca 26 a5 bd 92 fa a2 be
       0.21666956 0.08163578 -0.08064039 -0.31831795
000110 c0 4e 97 be e2 62 ae bd 28 cd c3 3e 2d 43 fc 3e
       -0.2955227 -0.08514954 0.3824246 0.4927
000120 5e 83 a6 3e ee 85 9a bc e6 18 02 bf 5c 54 13 bf
       0.325221 -0.01886269 -0.5081924 -0.575506
000130 66 5a 9f be e1 e9 bc 3e 63 07 18 3f 01 f1 c7 3e
       -0.31123656 0.36897185 0.5938627 0.3905106
000140 c4 a5 54 3d 9c 58 b0 be 00 b7 fa be 54 33 95 be
       0.0519159 -0.34442604 -0.48967743 -0.29140723
000150 18 35 29 3e 44 b8 a8 3e 93 e7 76 3e 58 c7 af bd
       0.1652416 0.32953084 0.24111776 -0.08582944
000160 72 ff a9 be c2 ab ca be 22 87 4b be 3a 83 20 3e
       -0.33202702 -0.39584166 -0.19875768 0.15675059
000170 95 d0 77 3e 4d 82 65 3d 88 c5 a6 bd f1 4e 8a be
       0.24200661 0.056032468 -0.08143145 -0.27013353
000180 5b 62 4a be ad 29 81 bd 87 fb f6 3b c4 f4 95 3c
       -0.19764082 -0.06306777 0.0075373086 0.01830519
000190 4f 8d 70 bd 7c e4 e7 bc c4 17 6e bd 52 53 85 bd
       -0.058728512 -0.028307192 -0.058128133 -0.06510033
0001a0 45 36 16 be 98 2b 14 3e 78 e1 a3 3d 3a 48 1b bd
       -0.1466914 0.14469755 0.08001989 -0.037910677
0001b0 77 f2 1c bd 80 f7 36 be c0 0d 79 bd 99 d8 20 bd
       -0.03831717 -0.17867851 -0.06080413 -0.039269064
0001c0 7f 08 2b 3e d9 e9 65 3e 41 02 1f 3d 29 11 9c bd
       0.1670246 0.22452487 0.03882051 -0.076204605
0001d0 a7 11 51 be 19 ca 32 be de d6 6b bd 35 cf 81 3e
       -0.2041689 -0.17459907 -0.05757796 0.253534
0001e0 74 48 d4 3e cd ff 5b 3e e7 03 7e bd 74 37 cb be
       0.41461527 0.21484299 -0.06201544 -0.39690745
0001f0 97 56 cf be 3d 8c 1e be a0 b3 88 3e 97 12 eb 3e
       -0.4049575 -0.15483184 0.26699543 0.4591262
000200 c9 46 9e 3e 74 8e 0f 3d c3 1d a4 be 9b 7a 9b be
       0.3091338 0.035047963 -0.32053956 -0.30366978
000210 1b f6 c6 bd 6b 6f ac 3d c0 5f 66 3e 0d e8 33 3e
       -0.0971491 0.08419689 0.22497463 0.17568989
000220 be a7 c6 bc b0 61 96 be 87 a7 73 be 01 6c 26 be
       -0.024249908 -0.29371405 -0.23794375 -0.16252138
000230 72 e0 02 3e 2c 4a 2d 3e 72 a7 d2 3d 38 6f ce bc
       0.12780932 0.16922826 0.10285844 -0.025199518
000240 01 f8 71 be 37 7d b2 bd 1e d6 83 bd e9 c2 94 bc
       -0.23629762 -0.08715289 -0.06437324 -0.018159347
000250 a8 d3 d6 bc 95 57 d7 bc a5 21 0f bc 9f c7 6c 3c
       -0.026223972 -0.02628688 -0.008736049 0.01445189
000260 d1 3a 67 3d 21 de fb 3d 33 fd 27 bd 16 7f e7 bc
       0.056452576 0.12298227 -0.041012954 -0.028258841
000270 cb 6a b1 bc a9 ea 8a bb 53 08 06 3d 10 17 ae 3d
       -0.021657368 -0.0042393995 0.032722782 0.085004926
000280 66 e7 dc 3d 52 b0 b7 3d b6 fe bf 3d 7c d1 27 3e
       0.10786323 0.08969177 0.09374754 0.16388506
000290 e6 17 1d 3e da 77 2c 3e a6 e0 59 3e ed c1 34 3e
       0.15341148 0.16842595 0.21277103 0.17652102
0002a0 b1 b0 2a 3e 3a 7d 38 3e 72 39 43 3e 92 0b 68 3e
       0.16668965 0.1801652 0.19064882 0.22660664
0002b0 b6 4e 75 3e e1 f7 4c 3e 60 52 3a 3e e1 5c 90 3e
       0.23955807 0.20016433 0.18195486 0.2819586
0002c0 61 64 90 3e 95 5a 91 3e f4 d2 a0 3e 80 58 8f 3e
       0.28201583 0.2838942 0.31410944 0.27997208
0002d0 a2 81 99 3e 13 05 9f 3e d2 17 88 3e 71 86 30 3e
       0.29981714 0.3105856 0.26580673 0.17238785
0002e0 a4 ee 14 3e ed 82 44 3e 96 8d 47 3e cf 58 5f 3e
       0.14544159 0.19190569 0.19487604 0.21811222
0002f0 0a 73 55 3e d5 35 5d 3e fc b4 31 3e a7 62 2b 3e
       0.20844665 0.21602567 0.17354196 0.16736852
000300 80 84 2c 3e a2 a4 31 3e 96 6d 36 3e e7 34 06 3e
       0.1684742 0.17347959 0.17815241 0.13106118
000310 94 f6 94 3a aa 12 2e bd b4 2e 23 bd b2 13 eb 3a
       0.001136499 -0.04249827 -0.03983946 0.0017934947
000320 78 28 1c 3d 3a ef 89 3d 38 aa b8 3d aa 6f 24 bd
       0.03812453 0.06735082 0.09016842 -0.040145554
000330 ba b5 77 bd e6 c7 53 bd 9e a7 66 bd 16 d4 fb bc
       -0.060476042 -0.05170431 -0.056312196 -0.030740779
000340 c7 d4 01 bc 6b 67 92 bc 24 2b de 3a 8a e8 eb bc
       -0.007924265 -0.01787158 0.0016950113 -0.028797407
000350 8f 10 aa 3c 11 69 31 3d e4 ee 4e 3d 6b de 33 3d
       0.020759849 0.04331309 0.050520793 0.043913286
000360 7b b0 3e 3d 6e fb f1 bc d2 21 86 bd 99 e8 f6 3a
       0.046555024 -0.029538836 -0.065494195 0.001883763
000370 28 c4 02 3d 46 a0 20 3d c0 02 a4 3c 33 14 f3 3b
       0.03192535 0.03921535 0.020020843 0.0074181794
000380 e6 f3 10 3c 0f 0c 9c 3c ad cf 5d bc 01 38 0d 3d
       0.008847212 0.019048719 -0.013538283 0.034477238
000390 4a 89 92 3d e0 d3 4b 3d 32 13 3c 3d 63 41 77 3c
       0.07155092 0.049762607 0.045916744 0.015091273
0003a0 b6 8f 35 bc 07 84 16 bd 8e bc d1 3b f4 b9 68 3c
       -0.011081627 -0.036747005 0.0064006513 0.014204491
0003b0 1d a6 af 3c 02 98 8a 3b c6 0a 3f 3d a8 5a 6b b9
       0.021441514 0.0042295465 0.046641134 -0.00022445119
0003c0 48 99 81 3c c7 b2 f7 3b 59 dc a6 3c de 16 67 bc
       0.01582016 0.0075591537 0.020368742 -0.014104573
0003d0 f4 49 14 bd fe 29 bb bc a1 e0 f5 bc 41 05 4f bd
       -0.03620334 -0.022847172 -0.030014338 -0.05054212
0003e0 56 c0 c6 bc a1 35 8f 3b 5f b0 e5 3c b9 e8 03 3d
       -0.024261635 0.0043704067 0.028038202 0.032204363
0003f0 ac d4 cc bd 5e 6b dc bd 2a b3 af bd df 3d dc bd
       -0.100015014 -0.10762666 -0.08579095 -0.107539885

80 f4 [16]
000000 34 a4 04 3f a2 d2 16 c0 69 58 fa bf 84 14 11 c0
       0.51813054 -2.356606 -1.9558231 -2.2668772
000010 f3 8b d6 3f 9e 35 12 40 22 74 84 3f f0 94 08 3e
       1.6761459 2.2845225 1.0347941 0.13338065
000020 c8 ac 37 bd c4 c4 0f 3f dc bd a2 3f 84 bc ee bf
       -0.04484251 0.56159616 1.271419 -1.865128
000030 9f 0f 42 bf bc 3c de 3d ff 72 52 bf f6 bc a7 bf
       -0.75805086 0.10851428 -0.8220672 -1.3104541

82 f4 [32, 16, 3, 3]
000000 b4 89 0f bd 52 2a 51 bd a1 ae 28 bd 03 2b 58 bd
       -0.035043433 -0.05106575 -0.041182164 -0.052775394
000010 76 43 84 bd 61 af 1d bc 3c 96 77 bd f5 3e ee bb
       -0.0645818 -0.009624333 -0.06044601 -0.0072706887
000020 23 78 01 3d a7 c1 eb bb 0b 51 0f 3c 0d aa a4 3b
       0.031608712 -0.007194716 0.0087473495 0.0050251544
000030 9a ad 3e 3c e6 34 97 3c fd a9 22 3d ae 40 09 3d
       0.0116380695 0.018457841 0.039712895 0.03350895
000040 23 12 2b 3d 29 fa 33 3d 11 b6 5c 3c 57 f3 0a bc
       0.041765343 0.043939743 0.013471142 -0.008480868
000050 c6 22 bd 3c 54 a7 75 bb bb a2 48 3c a4 47 84 3c
       0.02308787 -0.0037483769 0.012245829 0.016147442
000060 cd 0e c8 3c f6 c2 55 3d 73 92 60 3d 9c fe 86 bc
       0.02442112 0.052187882 0.054827165 -0.01647883
000070 3c 9e 47 bc d1 35 9a bb 16 f7 39 3a 73 83 78 ba
       -0.012183722 -0.0047061224 0.00070940086 -0.00094800367
000080 ea 4c 50 bc d4 35 a3 bc fc 93 ca bc fe f6 f0 bc
       -0.01271365 -0.019923128 -0.024728768 -0.02941465
000090 8d 25 eb 3c 25 04 38 3d 53 78 1e 3d 8b 5a 8b 3d
       0.028704429 0.044925828 0.03868897 0.06804379
0000a0 02 57 79 3d e5 2d 53 3d ac 4d a0 bb 7f 8e 9c bc
       0.060873993 0.05155744 -0.0048920717 -0.019110916
0000b0 9c f3 b5 bc 47 56 45 bd 49 76 88 bd bd 96 93 bd
       -0.022210889 -0.048177984 -0.06663186 -0.072064854
0000c0 85 37 ee bc 8f 4b 17 bd 49 99 f0 bc 58 41 5e bd
       -0.029079208 -0.036937293 -0.029369967 -0.054261535
0000d0 62 7f 90 bd f0 2a 3f bd f4 b4 2c bd a5 c9 a1 bc
       -0.07055546 -0.046671808 -0.042164758 -0.019749472
0000e0 48 13 ec bc ab 84 8e bc 9f 5c 21 bc 5a c1 69 bc
       -0.028817788 -0.017397245 -0.009848743 -0.01426729
0000f0 9f 13 f0 bc 6d f4 12 bd 52 05 32 bd bf c2 58 bd
       -0.029306231 -0.035877634 -0.043462105 -0.0529201
000100 7e 25 73 bd 74 0e 84 bd e7 73 99 bc 7d 0e 0e bc
       -0.059361927 -0.06448069 -0.018732024 -0.008670446
000110 ac e5 ad bb 6f e5 36 bb aa 2e 93 3c 32 8b 4a bc
       -0.00530692 -0.002790775 0.017966587 -0.012362288
000120 e2 ac 8e bd 60 70 70 bd 39 db 99 bd 1a f9 3e 3c
       -0.069665685 -0.05870092 -0.075125165 0.01165607
000130 98 fb 6d bb ac 39 8f 3a 0d f4 b7 3c b4 b6 87 3c
       -0.0036313292 0.0010927222 0.02245524 0.016566612
000140 9e 5a ea 3a 82 ee 7f b9 b1 6f e1 bc cd a2 ca bc
       0.0017879789 -0.00024407546 -0.027519079 -0.024735833
000150 20 44 df bb 98 f0 98 bc e9 91 9b 3b 71 76 ca bc
       -0.006813541 -0.018669412 0.0047476185 -0.02471468
000160 b4 0f c8 ba f1 63 e9 3c 3c 4e c5 bb f7 67 57 bc
       -0.0015263469 0.028490039 -0.006021289 -0.013147346
000170 17 8c 7b bc 5e d5 21 bd da a7 02 bd 6d 34 80 bc
       -0.015353224 -0.039510123 -0.031898357 -0.015649999
000180 e5 40 4f bd ab ff 92 bd 36 bd 7f bd 68 b1 2f bd
       -0.050598998 -0.07177671 -0.062436305 -0.042893797
000190 96 d5 38 bd 87 c5 7d bd 80 2b 97 bd 21 15 4d bd
       -0.045125566 -0.061955955 -0.07381344 -0.05006898
0001a0 03 d6 8e bc f8 ea 06 bd 40 6c 74 bb ce 1a 88 3c
       -0.017436033 -0.032938927 -0.0037295967 0.016614344
0001b0 13 70 13 bd 6a f3 8a bd 7c 45 9f bd 00 80 5c 3a
       -0.035995554 -0.06784709 -0.07776925 0.00084114075
0001c0 9c fb 8f bc a5 e5 05 bd 5c bb 45 bb ef 84 8c 3c
       -0.017576031 -0.03268971 -0.003017149 0.017153231
0001d0 3f 02 2e 3d 02 35 96 bd 6e 4c 8e bd c7 9a 8c bd
       0.04248261 -0.07334329 -0.069481716 -0.06865459
0001e0 c7 85 15 3b 79 cb f4 3b a7 c9 8a bc 54 a8 04 3c
       0.0022815333 0.007470545 -0.016941858 0.008096773
0001f0 29 38 35 bc 27 ae a6 bc 04 41 09 bd 44 1a 0f bd
       -0.011060753 -0.020346714 -0.03350927 -0.03493716
000200 a9 08 02 bd b7 02 af bc d0 c7 3f bd d1 c9 14 bd
       -0.03174654 -0.0213636 -0.046821415 -0.03632528
000210 1b 22 33 bc 7a 50 2e bc 63 67 e7 b9 38 a2 9d bb
       -0.010933424 -0.010639304 -0.00044136783 -0.0048105977
000220 f5 b1 ae bc 4c 09 88 bc 6b a0 b0 3b 0c 56 15 3b
       -0.02132509 -0.016605996 0.005390217 0.0022786884
000230 1b b4 1a 3c ca 00 2a 3d 6c 12 69 3d d8 82 90 3d
       0.009442355 0.04150466 0.056902334 0.070562065
000240 32 ca 00 bd c9 e0 0b bd e0 86 d2 bc 18 19 74 bd
       -0.03144283 -0.03414992 -0.025699079 -0.059594244
000250 97 4e 84 bd 78 83 80 bd f9 e7 31 bd 2c 37 3c bd
       -0.06460302 -0.06275076 -0.043434117 -0.045951054
000260 48 91 39 bd 82 3d 6e 3c 4c ee 7d 3c c5 90 77 3c
       -0.045304567 0.014541032 0.015498709 0.015110199
000270 14 6a 97 3c c8 1f 15 3c 17 64 95 3c 60 c3 8e ba
       0.0184832 0.0091018155 0.018236203 -0.0010891967
000280 ef df ad ba 41 20 0f bb 30 83 73 3b 3a 00 b1 3b
       -0.001326559 -0.0021839293 0.0037157051 0.0054016383
000290 6b a1 9d 3b 8c 99 c1 3b 7c 5e dd 3b 2e ee f9 3b
       0.0048105023 0.005908197 0.006755648 0.00762727
0002a0 7d 15 d4 ba 2c 00 06 bc 8a 8c eb bb 75 1f 75 bc
       -0.001618072 -0.008178752 -0.0071883844 -0.014961113
0002b0 58 11 a1 bc b5 00 da bc 16 08 68 bc 7c 11 98 bc
       -0.01966159 -0.026611665 -0.014162084 -0.018563025
0002c0 82 31 62 bc 9c 25 79 bc a7 9c 3e bc 9d 40 a3 bc
       -0.013805749 -0.015206721 -0.0116340285 -0.019928271
0002d0 dc 58 d0 3c 40 ed 76 3c d4 ae 62 3c f8 16 02 3d
       0.025432996 0.015071213 0.013835628 0.031760186
0002e0 9d 5e 80 3c 1f 01 80 3c 2e fa 86 3c 18 0c 29 3c
       0.015670115 0.015625535 0.016476717 0.010317825
0002f0 0a aa ff 3b 46 6e bc 3a 3b d3 5a 3b 65 9e 0b 3c
       0.0078022527 0.0014376126 0.0033390063 0.008521651
000300 5f 0c 7d bc 67 f7 33 bc b6 f5 8d bb 24 c8 8e bc
       -0.015444844 -0.010984278 -0.0043322695 -0.017429419
000310 9a c7 76 bc ca 20 04 bc 31 f9 46 3b 56 e3 25 bb
       -0.015062237 -0.008064458 0.0030360932 -0.0025312505
000320 2d 8b 33 3c 14 b3 14 bc aa 8c 0e bc 4b 23 1c bc
       0.010958475 -0.009075899 -0.008700529 -0.009529899
000330 39 4c e2 bb 94 70 15 bc 05 66 77 ba 94 e5 4f 3b
       -0.006906059 -0.009121079 -0.00094375043 0.0031722533
000340 8b 7a ae bb 1e fd 0d 3b 14 e1 b0 ba f8 06 07 bc
       -0.005324667 0.0021665762 -0.0013494813 -0.008241408
000350 d3 d3 ee bb f2 d3 2d bb 64 14 c8 bc 91 6d 9a bc
       -0.007288435 -0.0026524034 -0.024423786 -0.018851073
000360 dd d1 89 3b a2 4c 85 3b c4 70 7c 3c e5 6d 8c 3b
       0.004205926 0.0040679732 0.015407745 0.0042855614
000370 c9 f5 b9 bb 7d 49 cb bb 84 04 8b bb b4 b9 1d bc
       -0.005675052 -0.006203829 -0.0042424817 -0.009626795
000380 c1 54 75 bc 0e 6d b0 bb 84 9e 6b bc 17 11 47 bc
       -0.01497382 -0.005384094 -0.014381055 -0.012150071
000390 aa 78 9d bb 05 44 6f ba 61 9b 41 3b 7b eb cc bc
       -0.004805644 -0.0009127262 0.0029542076 -0.02501463
0003a0 3f 93 f6 bc b8 58 c2 bc 31 16 6c 3b f6 de bc ba
       -0.03009951 -0.023723945 0.003602397 -0.0014409709
0003b0 52 89 de bb 37 6d 32 bc 4a cd 90 bc 00 3d 88 bc
       -0.006791272 -0.010890297 -0.017676014 -0.01663065
0003c0 b0 6f 94 bc 31 86 b6 bc 19 4a 2f bc b6 c9 17 bc
       -0.018119663 -0.022280784 -0.010698819 -0.0092644
0003d0 33 9d 7a bc 38 92 96 bc f5 08 c6 bb e5 65 e2 bb
       -0.015296268 -0.01838027 -0.006043548 -0.0069091194
0003e0 07 a0 0a bc ef 6a 4f bc fd a9 cf bc 93 dc 82 bc
       -0.008461005 -0.012659772 -0.025349611 -0.015974319
0003f0 ba b0 18 bc 89 ac 9b bc e9 d0 bf bc 71 87 f2 bb
       -0.009319479 -0.01900317 -0.023415046 -0.0074014

83 f4 [32]
000000 ee ed 7d 3f 54 bb 35 3f bc 25 3d bf 86 48 ed bf
       0.99191177 0.70988965 -0.73885703 -1.8537757
000010 f5 18 9f 3f 92 5a 7e be fb 2b 2a bf 1e 10 ab bf
       1.2429491 -0.24839237 -0.6647336 -1.3364294
000020 f2 a6 48 c0 d8 8b 11 c0 66 57 5e bf 68 fc 26 3f
       -3.1351895 -2.2741604 -0.8685211 0.6522889
000030 9d 80 06 40 a1 34 2a 3f 3d c4 89 3f 4f 09 75 3f
       2.1016 0.66486555 1.0763012 0.9571733
000040 e9 70 14 c0 9d 5b 99 be 38 a7 fe be c7 e5 86 bf
       -2.3193915 -0.29952708 -0.49736953 -1.0538872
000050 bc ea 87 be c0 97 b8 bf 48 0b 92 3e 5e b8 61 3f
       -0.26546276 -1.442131 0.28524232 0.88171947
000060 70 1e b9 bc c2 4b 88 be 21 d3 af 3f e6 83 55 3f
       -0.022597522 -0.266203 1.3736306 0.83404386
000070 ad 4b 06 bf 37 f4 0d 40 46 f9 90 be 2d c9 a8 3e
       -0.5245922 2.2180307 -0.2831518 0.32965985

85 f4 [32, 32, 3, 3]
000000 4e 37 0b bc 36 e2 0e bc 85 51 fe 3a 85 68 84 3c
       -0.008497072 -0.008720925 0.0019402957 0.01616312
000010 51 55 93 3c fe 51 ef 3b 9c 77 7d bc 9e 81 8d bc
       0.017985018 0.0073034754 -0.015470412 -0.01727372
000020 40 30 2a bd 83 38 0d 3c 38 d3 ad 3c a0 d5 a7 3c
       -0.04154992 0.0086194305 0.021218881 0.020487607
000030 90 5d 8a bc 00 6c 2b bc fa 6d 9f bc 76 99 e2 3c
       -0.016890317 -0.010462761 -0.01946162 0.027661067
000040 d6 f7 f4 3c 6f a9 2d 3d 7c 87 b2 3b 78 ff 40 ba
       0.029903334 0.042397913 0.00544828 -0.00073622866
000050 b0 03 b8 bc 2e be 38 bc 21 51 7e 3c d0 6a ad 39
       -0.022462696 -0.011275811 0.015522272 0.00033076713
000060 8c e4 f2 bc 9b 0d b4 bc 86 4d 1d bd 6f d8 8c bd
       -0.029649995 -0.021979144 -0.03840401 -0.06877219
000070 c6 51 85 bd ab 71 80 bd d7 c7 96 3c 82 d5 e5 3c
       -0.06509738 -0.062716804 0.018405838 0.02805591
000080 06 55 54 3b 50 4f 51 3c 11 3d f8 3c cf bc fa 3b
       0.003239931 0.012775257 0.030302556 0.0076519023
000090 0d 13 22 bd e3 cd 25 bd 58 5b 48 bd 8f 8b 0a bd
       -0.03956895 -0.040479552 -0.048915237 -0.0338245
0000a0 5c fb 37 bd 97 8f d8 bc 0b 95 a5 3d 9e de 9a 3d
       -0.04491745 -0.026435656 0.08085068 0.07561992
0000b0 9a 1b be 3d 50 d7 4e bd f7 ea 02 bd 38 27 c9 bb
       0.09282608 -0.050498307 -0.03196236 -0.0061387084
0000c0 2f 1f a0 3c 04 61 be 3c ba a9 3d 3c ea a9 2c 3d
       0.01954612 0.02323962 0.0115761105 0.04215423
0000d0 ac 8e 65 3d af c9 bd 3c 3f 45 c3 bc ff 2d 4b bc
       0.056044266 0.02316746 -0.02383673 -0.012401103
0000e0 8e 93 9f bc a3 f9 e0 bc 45 5f 75 bc a4 3b 8b bb
       -0.01947954 -0.027462786 -0.014976327 -0.004249053
0000f0 b3 62 06 bd c2 d2 60 bc 22 a1 ee bc 4c 37 38 3d
       -0.03280897 -0.013722124 -0.029129568 0.04497461
000100 03 31 22 3d d0 19 61 3c 96 ff 9a 3c 5e 04 98 3c
       0.039597522 0.013739064 0.018920701 0.01855677
000110 38 b1 ca bb 9b 1a 7e 3c 90 fb 1f 3b d1 ad f5 bc
       -0.006185677 0.015509273 0.0024411418 -0.029990109
000120 d3 d3 43 3c d4 1b d0 3c 1b 15 d2 3c 1e c1 2f bd
       0.011952358 0.025403894 0.02564483 -0.04290878
000130 7a 6e 6f bc 20 84 17 bb 7b 1e b4 bd 81 25 51 bd
       -0.014613742 -0.0023119524 -0.08794876 -0.051061157
000140 6d 45 8d bd 95 25 46 3d 2b 2c 35 3d 1a ca 05 bb
       -0.068980075 0.048375685 0.044231575 -0.0020414651
000150 55 f0 e9 3c b8 b0 88 3c 4c db 45 bc 0f f6 94 3c
       0.028556982 0.016685829 -0.01207621 0.018183736
000160 75 f5 ef 3c d9 98 fa bc ed 53 60 3c 1e 68 6b 3c
       0.029291848 -0.030590462 0.013691884 0.014368085
000170 c5 6d ea 3b 8a 03 80 bc 41 3b 81 bb 65 c3 4f bc
       0.007154199 -0.015626688 -0.003943831 -0.012680863
000180 dc 9d 49 bd 74 ff 3b bd 80 45 2a bd e3 aa 37 bc
       -0.049222812 -0.045897916 -0.041570187 -0.011210176
000190 ec 8a 21 bd 4e 1d 5f bd 41 4a d6 bc 2c fb 11 bd
       -0.039439127 -0.054471307 -0.026158454 -0.035639927
0001a0 8e e0 c2 bc 35 db 27 3d a9 4a fc 3c 4b f2 3a 3d
       -0.023788717 0.040980536 0.03079732 0.045641225
0001b0 b8 df c6 3c f6 ca 10 bc 5b a9 40 bd a8 9c 9c 3c
       0.0242766 -0.008837452 -0.04703651 0.019117668
0001c0 38 48 90 bc 4a 9a 0b bd 64 78 0a bd ff 7b 89 bd
       -0.017612562 -0.03408269 -0.03380622 -0.067131035
0001d0 34 36 82 bd dd 3d d2 bc f6 99 49 bc a1 ef db bc
       -0.06357995 -0.025664264 -0.012304774 -0.026847662
0001e0 5a d7 18 bc 6d a7 53 bc 98 e1 31 bc f0 8b 65 3c
       -0.009328688 -0.012918335 -0.010857008 0.0140104145
0001f0 d5 95 92 3b 87 4d ad 3b d4 05 53 bd f4 67 90 bd
       0.004473428 0.005288783 -0.05151923 -0.070510775
000200 62 6c 91 bd e3 f8 83 3c d1 5a 11 3c a9 37 7d bc
       -0.071007505 0.01610989 0.00887175 -0.015455165
000210 f9 77 94 3d 59 35 40 3d 24 b3 9a 3c db b9 25 3c
       0.072494455 0.046925876 0.018884249 0.010115112
000220 85 dd 3c bc 86 18 18 bd bf 72 ba 3d a2 7e 5f 3d
       -0.011527424 -0.037132762 0.09103917 0.054564126
000230 39 86 ba 3b b3 c8 95 3d f5 bd 93 3d d3 14 f8 3c
       0.00569227 0.07313671 0.07213966 0.030283367
000240 16 89 39 bd 0a a9 09 bd 39 0b bc bc f5 ac 3a bd
       -0.04529675 -0.033608474 -0.02295457 -0.0455751
000250 50 75 d5 bc a3 3c 0c bd 9b 85 fd bc ec e0 a6 bc
       -0.026056916 -0.034237515 -0.030947497 -0.020370923
000260 98 0b bf bc fb cd 56 3d 72 f4 14 3d 95 e9 b6 3c
       -0.023320958 0.052442532 0.036365934 0.022328177
000270 f9 6f 0f bb f8 96 1c bc 06 ec 18 bc 99 68 16 bd
       -0.002188681 -0.009557478 -0.009333616 -0.036720846
000280 5f df fd bc 40 3c 22 bd e6 ba 71 3d 8f bc 17 3d
       -0.0309903 -0.03960824 0.05901613 0.037045058
000290 a2 6e b5 3c e5 2d 06 3c ab 36 a1 3c d9 4f 4a 3c
       0.02214748 0.008189653 0.019679388 0.012348139
0002a0 0d 38 39 bd 6e 75 49 bd 84 c9 a6 bc 6c c9 bb bd
       -0.04521947 -0.049184255 -0.020359762 -0.091692775
0002b0 92 a1 a5 bd 89 48 b0 bd 0a a0 19 3d 21 4d 10 3d
       -0.08087458 -0.08607585 0.03750614 0.035229806
0002c0 8d 7a 6d 3c 3d a9 7b 3d 54 f9 89 3d b7 38 f8 3c
       0.01449455 0.061440695 0.06737009 0.030300481
0002d0 15 fd 92 3c b0 88 20 3c 5e b2 41 bc dc 74 94 3c
       0.017942945 0.009798214 -0.011822311 0.01812213
0002e0 7a 3d 2b bb fa 5d c3 bc 09 fe 71 bc e2 e0 9b bc
       -0.0026129172 -0.023848522 -0.014770039 -0.01902813
0002f0 d6 90 20 bd 69 a2 fb 3b d6 5c c5 3c 2c 50 8b bb
       -0.039200626 0.007679273 0.02409212 -0.0042515006
000300 40 b8 15 3c 2f 11 09 3d b0 9e f8 3c a1 3d a1 bc
       0.009138167 0.033463653 0.030349106 -0.019682707
000310 b6 30 44 3c 61 21 08 bd 01 e0 69 3b e0 50 03 bc
       0.011974504 -0.033234958 0.0035686495 -0.008014888
000320 2d 42 a9 bc 03 ed 69 3c bb d7 a8 3b 3c b6 8b 3c
       -0.020661438 0.014277699 0.00515267 0.01705467
000330 e9 f8 cb bc ef 38 71 bc 64 ff 36 bd cb 8e 2d bd
       -0.024898963 -0.014723047 -0.044677153 -0.042372506
000340 e6 0f bc bc 01 84 68 bc c9 2f b8 bc e0 33 1e bd
       -0.0229568 -0.014191628 -0.022483723 -0.03862369
000350 87 9d 6c bc c9 5c 77 3d 61 90 53 3d 0c 36 43 3d
       -0.014441854 0.06039122 0.051651362 0.047658965
000360 60 5f bb bc 35 7a 30 3a 4e ff 9e bc 79 a0 47 3d
       -0.022872627 0.00067320775 -0.019408848 0.048737023
000370 01 9b b0 3d 68 85 20 3d 59 9b 77 3d 34 0a 96 3d
       0.08623315 0.039189726 0.060450885 0.07326165
000380 e3 5b 29 3d b4 58 5e 3d f6 8e 86 3d 9c c6 7b 3d
       0.041347396 0.054283813 0.065702364 0.061468706
000390 49 f5 b2 3c c9 f8 71 3c 37 77 e5 3c ec 3c 21 bd
       0.021845477 0.014768788 0.028010948 -0.03936474
0003a0 97 47 73 bd 19 10 de bc 9c 44 6d 3d b8 bd 87 3d
       -0.059394445 -0.027107285 0.05792676 0.06627983
0003b0 6b f2 c9 3d 90 c6 59 3d b1 6b 6b 3d 1b 02 4a 3d
       0.09860691 0.05316788 0.05747575 0.049318414
0003c0 ed 99 f8 bc ad 54 f3 bc 37 44 6d bd 83 88 70 bd
       -0.030346835 -0.029703462 -0.057926383 -0.058723938
0003d0 dd 02 8d bd 27 8b b1 bd 4d 34 e3 bc 84 af 03 bd
       -0.06885312 -0.08669119 -0.0277349 -0.032149807
0003e0 87 0f 13 bd ee ed a6 3c 3d 7e 1b 3d d8 be 32 3d
       -0.03590348 0.020377126 0.037962187 0.043639034
0003f0 39 e1 62 3d b2 34 9a 3c 02 8c 1e 3c 7f f5 c3 bc
       0.05539057 0.018823955 0.009676935 -0.023920773

86 f4 [32]
000000 b6 55 20 be 5d b7 4b bf 78 09 23 bd 68 5d 47 3e
       -0.15657696 -0.79576665 -0.039803952 0.19469225
000010 da 20 d2 3d c8 1b 8b bf 74 39 58 3f 3e 21 99 bf
       0.10260172 -1.0867853 0.84462667 -1.196327
000020 94 89 87 be 53 3a 07 3f 6a c1 d7 be 50 df 1c bd
       -0.2647215 0.5282337 -0.4213975 -0.038298905
000030 a4 2f 56 bf 41 72 68 3e 80 55 cf bb fc 04 16 40
       -0.83666444 0.22699834 -0.006327331 2.3440542
000040 15 27 3c bf 10 fc 34 3f cb 59 c5 3e 9e fa 10 3f
       -0.73497134 0.70697117 0.3854507 0.5663241
000050 de f2 bf be 83 a2 c1 3e 6a 69 09 40 f8 40 e7 3c
       -0.3748998 0.378193 2.147059 0.028229222
000060 e8 b0 fa 3d 14 e7 27 3d 64 a8 90 3f 12 d9 34 3f
       0.122407734 0.040991858 1.1301389 0.70643723
000070 a6 f5 37 3f fa 06 32 3e 76 8d 00 bf 84 79 75 3e
       0.71859205 0.17385474 -0.5021585 0.23972136

88 f4 [32, 16, 1, 1]
000000 99 80 50 3f 08 a1 8d 3e e7 25 18 3e 5a 7b 0e 3e
       0.81446224 0.2766192 0.14858209 0.13914242
000010 16 7c 26 be eb 04 82 3e ea 66 96 3d 4e 3f b4 3d
       -0.16258273 0.25394377 0.07343848 0.08801137
000020 32 24 4b 3e ca c1 8c 3e 5a 53 13 3f ca d2 d0 3d
       0.19838026 0.274916 0.5754906 0.10196455
000030 e6 29 97 bd fb f3 2a 3e 5a 11 8a 3d ed de 49 3e
       -0.07381038 0.16694634 0.06741591 0.19713946
000040 34 f4 cb 3e 37 1f 5f 3e 41 79 76 bd f5 14 e9 be
       0.3983475 0.21789251 -0.06017423 -0.455238
000050 28 0a 47 3f e3 68 c7 3e a0 9b b1 3d 05 b9 1e 3f
       0.7774987 0.3894721 0.08672261 0.6200107
000060 6f bc 9c 3e c4 34 d8 3e 2a 25 13 3e 93 b7 48 3e
       0.30612513 0.42227757 0.14369646 0.19601278
000070 cd 36 ae be 76 1c 36 3e f1 be fe 3e 46 3f 17 3e
       -0.34026185 0.17784294 0.49755052 0.1477023
000080 a0 ad b8 be 29 57 e7 3e 4f 8e a8 bc 16 23 7f be
       -0.36069965 0.45183685 -0.02057567 -0.24915728
000090 7e c2 49 3e c2 cb 83 be a2 fe 0b bf 0b 39 ef 3c
       0.19703099 -0.25741392 -0.54685414 0.029202005
0000a0 e2 85 69 bd 01 87 e1 3d be 77 0e bf 21 be d5 3c
       -0.057012446 0.11012078 -0.5565146 0.026091637
0000b0 ac f1 51 3d 5f 3d 67 be 1d bd 0b be 74 0d b0 3d
       0.051255867 -0.22582005 -0.1364636 0.08596316
0000c0 ad b9 9a 3d 53 f0 05 3f fb 41 a0 3e 9b 93 03 be
       0.07554946 0.5231983 0.3130034 -0.12849276
0000d0 6f 68 d5 bd d4 1c b0 bd 53 8c fd bd c5 c8 bc 3d
       -0.1042031 -0.085992485 -0.1238028 0.09217981
0000e0 76 ab 68 3d ad b2 87 3e 53 d8 c7 bc 86 34 eb 3e
       0.056804143 0.26503506 -0.024395144 0.4593851
0000f0 6f 8e 38 be 8e 53 05 be 84 2a 5e bd d1 a8 c3 3e
       -0.18023084 -0.13020155 -0.054239765 0.38214734
000100 6e 55 1d be 1c 4e 83 3e 68 47 06 bd de e6 03 bd
       -0.1536462 0.2564553 -0.032782942 -0.032202594
000110 c8 6b 4e bd e4 78 8c be e9 1d dc bc 63 43 52 3d
       -0.050395757 -0.27435982 -0.026869731 0.051333796
000120 8c 82 15 be dd ac 98 be ef 17 b3 be 5b 36 09 bd
       -0.14600581 -0.29819384 -0.34979197 -0.033499103
000130 e6 7f b8 be 96 f7 23 be 5f db 8e be db 90 1f 3d
       -0.3603508 -0.16012415 -0.27901742 0.038956504
000140 aa 31 9b 3e ec b9 8f 3e d5 74 b4 3e e2 46 57 3e
       0.30311328 0.28071535 0.35245386 0.21023133
000150 4e ed d2 3c 9c a9 b6 3e 2e 8c ac 3d 02 c7 f4 3e
       0.025747921 0.35676277 0.08425175 0.4780808
000160 a5 11 cd 3e af b0 83 3e 40 85 2c 3e e6 90 e7 3e
       0.40052524 0.25720736 0.16847706 0.45227736
000170 56 a2 29 be 0e 28 0b 3f ff 9b 21 3e aa 56 ca 3e
       -0.16565832 0.54357994 0.15782164 0.39519244
000180 55 30 b1 be c4 3b 51 be 43 e0 78 3d 1e c6 85 be
       -0.34607187 -0.20432955 0.060760748 -0.26127714
000190 53 21 05 be ea d2 c1 be b4 28 89 be 05 af 64 bd
       -0.13000993 -0.37856227 -0.26788867 -0.055830974
0001a0 e6 1f 6e 3d 15 6f f3 bd 73 92 25 bd 98 cb b6 bc
       0.05813589 -0.118864216 -0.040422868 -0.022313878
0001b0 42 f7 db 3e 89 81 27 3e d6 ae 2d 3e fd 00 fb bd
       0.4296208 0.16358007 0.16961226 -0.12256048
0001c0 85 cd 43 3e 84 21 13 3e a6 0d 1a 3e 3b a9 c1 be
       0.19121368 0.14368254 0.15044269 -0.37824425
0001d0 82 f9 a5 3e d3 a7 4c be b2 2d a7 3d 0f 04 eb 3e
       0.32416922 -0.19985895 0.081630126 0.45901534
0001e0 ac 49 c1 3e 2e 46 60 3e a5 44 0a 3d 71 41 db 3c
       0.3775152 0.21901771 0.03375687 0.026764603
0001f0 d3 96 3e 3d a2 29 a1 3d 46 58 9d 3e 65 11 93 be
       0.046530556 0.07869269 0.3073141 -0.28724208
000200 b3 25 9c be e1 54 29 3e 8e 5d 38 3d 6b 2e 27 bd
       -0.30497512 0.16536285 0.045011096 -0.040815752
000210 01 33 83 3e 46 c6 8b be be 61 1a 3c 4d 49 06 3d
       0.2562485 -0.27299708 0.009422718 0.03278475
000220 41 12 11 be b6 3e c1 3e 7d ea 56 be ac 11 b6 ba
       -0.1416712 0.37743157 -0.20987888 -0.0013890765
000230 d8 10 01 bd ec 17 82 be 11 9e c7 3e 32 1e 3c 3e
       -0.031510204 -0.25408876 0.38987783 0.18370894
000240 be 40 e3 be ae 69 a1 3e 74 48 ca 3e 71 17 35 3d
       -0.44385332 0.3152594 0.39508402 0.04421181
000250 eb 33 97 3d e3 22 92 be 3c 9c a9 be d2 4f a7 3c
       0.073829494 -0.2854224 -0.3312701 0.020423803
000260 91 f4 14 be d7 b2 9c be 94 aa ea be bc b0 3a 3e
       -0.1454642 -0.30605194 -0.45833266 0.18231481
000270 12 4d 02 bf a6 2a 90 be aa 40 a4 be b8 fd 00 3e
       -0.5089885 -0.28157538 -0.32080585 0.12596786
000280 f8 50 c9 be 97 09 ad 3d 61 bd ac be 71 f0 45 3d
       -0.39319587 0.08449095 -0.33738235 0.048325006
000290 6b 96 db 3e 82 cf b8 3d 9d f4 1c be 70 06 0d bd
       0.42888197 0.09023954 -0.15327688 -0.034429967
0002a0 20 44 f9 be 24 a5 23 be ea 65 03 be 4a 24 10 bf
       -0.48684788 -0.15980965 -0.12831846 -0.5630537
0002b0 40 88 53 be ab 09 86 bb ff f8 bf be 39 18 e4 be
       -0.20657444 -0.004090508 -0.37494656 -0.4454973
0002c0 30 c1 f6 3e d1 b6 0d 3e 68 95 24 3e b5 ea a8 3e
       0.48194265 0.1383927 0.16072619 0.32991567
0002d0 34 36 0f be 09 a1 31 3e 2d 11 64 3c 0a 7d 3a 3e
       -0.1398552 0.17346586 0.013920111 0.18211761
0002e0 b6 8e e6 3d d4 5a fc 3d 22 11 19 3f c8 89 c5 bd
       0.11257689 0.123220116 0.5979177 -0.0964542
0002f0 a1 b9 a0 3c dd 64 6a 3e 87 99 09 3e 3b af 2c be
       0.019619765 0.22890039 0.13437472 -0.1686372
000300 55 33 25 be cb 69 5e be 58 8f a0 bd d8 7b 31 3e
       -0.16132863 -0.21720044 -0.07839841 0.17332399
000310 5c 51 cc bd 1b a9 88 bc f8 93 13 be 5a 8f 3f 3e
       -0.099764556 -0.016682198 -0.14411914 0.18707028
000320 3c d5 c9 ba 43 45 81 bb ca 13 4e 3b 20 1c c2 be
       -0.0015398632 -0.003945024 0.00314449 -0.37912083
000330 41 99 49 be 55 3d 00 3e 8e e6 31 be e8 b3 cc be
       -0.19687368 0.12523396 -0.17373106 -0.39981008
000340 f4 e7 0b be 89 a2 58 be 2b 21 5f bc 27 27 1f be
       -0.13662702 -0.21155752 -0.013618748 -0.15542279
000350 52 b2 9b 3e 73 fd 27 be 6b e1 be bc 60 b6 dd 3e
       0.30409485 -0.16405277 -0.023300847 0.43303204
000360 13 75 db 3e 9c c3 11 be ef 30 0f bd f7 55 5f be
       0.42862758 -0.14234775 -0.034958776 -0.21810137
000370 69 fb 1a be 8e 48 06 3f 31 32 d7 bd ad 4e d5 bd
       -0.15134968 0.5245446 -0.1050762 -0.10415397
000380 be b2 dd bd 90 ba c2 bc e7 ef 6f 3d da 6c 0f 3e
       -0.10825108 -0.0237706 0.058578398 0.14006367
000390 69 29 5f bb 05 77 ba bc d6 c9 b9 3c 8f c6 b6 3e
       -0.0034051782 -0.022761831 0.02267925 0.35698363
0003a0 db c2 8d 3e e7 62 17 be 66 bf e5 3c 64 cd d2 bc
       0.27687725 -0.14783822 0.028045367 -0.025732704
0003b0 06 71 51 be 2c 90 36 3e c2 7e fa bd ba 53 89 bd
       -0.20453271 0.17828435 -0.122312084 -0.06705423
0003c0 b3 3c 05 3d 0f d6 da be 23 0e 26 bf 6a 58 cb be
       0.03252859 -0.4274144 -0.6486532 -0.39715892
0003d0 e4 01 82 3e 23 ca 2f be 2b d0 d7 bd dc a7 b6 bd
       0.25392067 -0.17166953 -0.10537752 -0.089187354
0003e0 1c 4a 79 be 3d 77 e3 bc f5 71 38 3c 9f 73 c5 be
       -0.24344677 -0.027766818 0.011257638 -0.38564774
0003f0 f6 5e 11 3e 32 56 ab 3d 64 4f 93 3e 84 ec 32 be
       0.14196381 0.0836605 0.28771508 -0.17473036

89 f4 [32]
000000 cd 35 39 c0 b6 03 45 c0 b6 9b 17 3f 00 da 3b bf
       -2.8939087 -3.0783515 0.5922197 -0.73379517
000010 24 24 c0 3f 66 d4 7c c0 96 7f c1 be 3c 6b f5 bf
       1.5011029 -3.9504638 -0.37792653 -1.917335
000020 cf b2 a1 be 1d 55 d5 3f fe 0e e1 3f ec 2d 1c c0
       -0.31581733 1.66666 1.75827 -2.4403028
000030 28 51 82 3e 1d 11 39 bf 5e 26 30 bf 28 9d b0 3e
       0.25452542 -0.7229174 -0.68808544 0.344949
000040 74 cb 92 bf 7b 63 c2 bf 19 e9 d8 bf aa b5 d5 bf
       -1.1468339 -1.5186609 -1.6946136 -1.6696064
000050 2a f4 2d 3f 4a 76 5d 3f 7c 43 4f bf 0a 9b b2 bf
       0.6795069 0.8650862 -0.8096235 -1.3953564
000060 ea df 5a bf 68 07 9f 3f e4 01 4a be a2 85 0d bf
       -0.85497916 1.2424135 -0.19727284 -0.5528203
000070 07 85 a6 3f a8 5b 17 3d d6 ae f6 bf 72 55 22 3e
       1.3009347 0.036952645 -1.9272106 0.15852907

91 f4 [64, 32, 3, 3]
000000 fe 3c 27 bd 3e 21 57 bd fa 39 fc bc 89 33 24 bd
       -0.04082965 -0.052521937 -0.030789364 -0.04008821
000010 07 3e 66 bd 4c 1d 13 bc 98 b3 5b 3c 51 54 47 bc
       -0.056211498 -0.008979153 0.013409518 -0.012166099
000020 42 6c c3 bb f6 82 62 bd 4f c7 87 bc 80 f6 36 bb
       -0.005963833 -0.055300675 -0.01657453 -0.0027917922
000030 3c d2 0c bd bd d5 2b 3c 28 65 e4 3c 26 79 8b bd
       -0.034380183 0.010487971 0.027880266 -0.068102166
000040 0f 51 ef bc 21 fd e6 bb 24 dd ae bc d6 c3 9a bc
       -0.029213456 -0.0070492183 -0.021345682 -0.01889221
000050 7d b1 a0 bc d0 e5 9d 3a 9d a9 ba 39 21 92 9e 3b
       -0.019615883 0.0012046639 0.00035603056 0.0048391973
000060 9d 79 07 bc 4e 5e e0 ba 1a 24 b4 bc b8 2b 74 3c
       -0.008268741 -0.0017117949 -0.02198987 0.0149030015
000070 e1 9f a3 3c 9a 8a 5e 3c 59 52 63 3c 57 c3 27 3c
       0.019973697 0.01358285 0.013874614 0.010239444
000080 a0 71 68 3c 23 d1 48 ba 3c c1 4d bc 9a b5 25 bc
       0.014187247 -0.00076605583 -0.012558278 -0.010114098
000090 9c 6e d7 bc 1d b8 e0 bc f3 63 8f bc 2f 47 22 bd
       -0.02629786 -0.027431542 -0.017503714 -0.039618667
0000a0 39 c7 34 bd 92 ea b5 bc df b9 54 bb 01 40 d4 bb
       -0.044135306 -0.022206578 -0.003245942 -0.0064773564
0000b0 ff c2 66 bc 7d 40 57 3c 52 9a 47 3b c8 f3 2b 3d
       -0.014084577 0.013137934 0.0030456972 0.041980535
0000c0 e9 51 81 bc ba a2 7c bb 86 c2 76 3c 2b 61 e0 bb
       -0.015786128 -0.003854914 0.015061026 -0.006847521
0000d0 87 6f b1 bc 24 62 b0 bc c9 50 dc 3b 95 a3 67 3c
       -0.021659626 -0.021531172 0.0067234975 0.014138122
0000e0 6c 25 ad bb 64 ac 14 3d 7f fe 15 3d 17 94 ca 3c
       -0.005284002 0.036297217 0.03661966 0.024728818
0000f0 72 2b bc 3b 0f e2 4e 3d c3 5b dc 3c 5c bb eb 3b
       0.005742484 0.050508555 0.026899224 0.007193966
000100 ff ef 03 bc 1c 2b a0 3c f4 da 06 3d 8e 78 83 3c
       -0.008052825 0.019551806 0.032923654 0.016048696
000110 e6 58 19 3d a5 5d c1 3b 80 ad 3a bc 23 e6 5e 3a
       0.037438296 0.005901056 -0.011393905 0.0008502921
000120 11 96 95 3c 8e 34 c9 3c 12 3e 35 3b ad 02 a4 3c
       0.018260034 0.024561193 0.0027655405 0.020020807
000130 96 99 db 3c e4 50 cc 3c 14 f1 91 bc 10 91 cd bc
       0.026806634 0.024940915 -0.01781515 -0.025093585
000140 6e 39 f6 bc 8f 3b 75 bc 95 2a d0 bc 17 f7 c8 bc
       -0.030056681 -0.014967813 -0.02541093 -0.024531884
000150 4b 7a 47 bd 17 be 0a bd 29 d1 26 bd ec 00 f1 ba
       -0.048700612 -0.03387269 -0.040726814 -0.0018387116
000160 24 00 2b bc 34 a4 7e bc 7f 94 31 bd f0 0a 33 bd
       -0.010437045 -0.015542079 -0.043354508 -0.043711603
000170 6b f0 24 bd 47 d6 8c bc 13 0c 83 bc af e1 03 bd
       -0.040268343 -0.01719202 -0.015996968 -0.03219765
000180 39 46 fc bc 4c 80 e0 bc 6c 71 db bc c7 42 72 bd
       -0.030795204 -0.027404927 -0.026787482 -0.059145715
000190 60 cf 7b bd 0f db fe bc 29 2f 3c bd 95 92 d0 bd
       -0.061477065 -0.031110315 -0.045943413 -0.10184208
0001a0 09 a0 5a bd 7e 7a 02 bc 51 0b 4f bc 70 94 5a 3c
       -0.053375278 -0.007963775 -0.012636975 0.013341054
0001b0 54 cb 6b bb 15 17 36 bc 2b e7 65 bc 29 25 18 bd
       -0.0035979347 -0.011113902 -0.0140321655 -0.037144814
0001c0 d0 8c db bc c8 58 1f bd e7 27 14 3c 02 7c d9 bb
       -0.026800543 -0.038903028 0.009042717 -0.0066370973
0001d0 84 9c 90 bc 8d d3 25 bc be 60 ea 3b 71 32 2f 3c
       -0.017652757 -0.010121238 0.007152646 0.0106931785
0001e0 b2 62 5a bc 77 10 8b ba 70 01 a4 bb 94 9c 7b 3c
       -0.013329195 -0.0010609765 -0.005005054 0.015357155
0001f0 ed 93 9d 3c 58 f8 b7 3b 97 54 2b bc 05 71 93 bc
       0.019235576 0.0056143217 -0.0104571795 -0.017998228
000200 9e 64 c8 bc 05 e8 87 bd 0a 7e 90 bd a7 53 b2 bd
       -0.02446204 -0.06636051 -0.0705529 -0.08707362
000210 16 35 98 3c ed 0c b4 bb f9 ce 0c bd e0 67 e6 3d
       0.01858 -0.005494705 -0.034377072 0.11250281
000220 9f 45 2a 3d f0 ad e8 3c 15 d6 26 3e f0 b5 9f 3d
       0.041570302 0.028403252 0.16292603 0.07798374
000230 0f bc a0 3d 03 c3 04 3e 6a be 98 3d 75 af b6 3d
       0.07848369 0.12965016 0.074581936 0.089201845
000240 00 14 2b bd 77 fd 02 bd f8 ae 06 bd ee 89 15 bd
       -0.04176712 -0.031980004 -0.032881707 -0.036508493
000250 a2 85 cf bc f9 8d 0d bd 53 7b 5e bc ed 5a 44 bb
       -0.025332276 -0.034559224 -0.0135792075 -0.0029961423
000260 0f 4f 59 bc dd fa d1 bb 45 f5 04 3c 34 f5 48 bc
       -0.013263478 -0.006408079 0.008115117 -0.012265492
000270 9d e8 9d 3c 5f 06 32 3d f0 fe b7 3c 5e 8b c2 3b
       0.019275958 0.043463107 0.02246043 0.005937024
000280 ab 9f ce 39 d3 03 cd bb e4 8c b2 3c c1 3f 38 3d
       0.00039410344 -0.0062565594 0.021795698 0.044982675
000290 45 5c 13 3d 96 49 12 ba 40 bf 9c 3c 42 3d 7b 3b
       0.035976667 -0.0005580423 0.019134164 0.0038336073
0002a0 b6 92 fc 3b 93 4a 27 3c 07 5e 4a bb 6f aa 9c 3c
       0.007707919 0.010210651 -0.0030878799 0.019124238
0002b0 d8 7a 39 3b 4b 63 b4 ba 80 68 97 3c ca 36 2a 3c
       0.002830198 -0.0013762502 0.018482447 0.010389039
0002c0 33 36 c6 3c 6f 30 34 bc 7d 4b 8b bc 12 bc d3 bc
       0.024195766 -0.010997876 -0.017003769 -0.025846515
0002d0 58 90 7a bb 0a c4 1d bb 20 48 96 bc b0 02 da bc
       -0.0038233008 -0.0024073147 -0.018344939 -0.02661261
0002e0 19 a6 09 bd 06 c6 42 bd 08 b0 48 bb 85 5d 9e 3b
       -0.03360567 -0.04755213 -0.00306225 0.0048329257
0002f0 2a 03 6e bb f4 2d ad bc d8 53 9a bc 97 7c ea bc
       -0.0036317804 -0.021140076 -0.018838808 -0.028623862
000300 ed 71 37 bd 7d 99 40 bd cc f5 5c bd fd 67 8c bc
       -0.044786382 -0.047021378 -0.053945348 -0.01713943
000310 b7 e5 ab bc c3 6e ca bc 68 a5 56 3d ee a7 42 3d
       -0.02098356 -0.024711018 0.052403837 0.04752343
000320 01 03 7c 3a 51 14 d8 3d 8c 85 51 3d f7 30 42 3d
       0.0009613485 0.1055075 0.05115275 0.047409978
000330 22 a9 df 3d 49 f0 b8 3d 2c 35 48 3d 4a 5a 23 3d
       0.109209314 0.09030206 0.048878834 0.03988103
000340 13 dd 45 3d 75 20 3e 3d d3 4c 22 3d 01 71 08 3d
       0.048306536 0.046417672 0.039624047 0.033310894
000350 80 38 59 3d 57 c2 cf bb 19 5f c7 3a b7 eb a2 bb
       0.0530324 -0.006340306 0.0015210836 -0.004971947
000360 81 33 e8 3a 86 e5 46 bb 61 0e 43 3b 03 3c 26 3d
       0.0017715545 -0.003034921 0.002976321 0.040584575
000370 9e 0c 08 3d 9b ac 0b 3d 22 b6 a7 ba cd 2d da bc
       0.033215158 0.034100156 -0.0012795369 -0.026633168
000380 c7 24 40 bc aa 13 f8 bc 43 52 57 bd e7 fd 5f bd
       -0.011727518 -0.030282814 -0.052568685 -0.0546855
000390 4e 28 e6 3c bc d1 27 3a 37 6c 9e bc 35 0a ef 3c
       0.02809539 0.0006401797 -0.01933871 0.029179672
0003a0 a2 7b 0d 3d cb 70 3a 3c 1c 70 a9 3c a3 e6 01 3d
       0.034541734 0.011379431 0.02068334 0.031714093
0003b0 e6 b7 aa 3c 5a 6b 4f 3d e9 55 26 3d c7 07 35 3d
       0.020839643 0.050639488 0.040609274 0.04419687
0003c0 79 3c 7b 3a 04 b2 3a bb 3c 8e 9b bb b8 04 87 bc
       0.0009583901 -0.0028487453 -0.0047471803 -0.016481742
0003d0 23 9c 5f bc 56 44 26 bd b1 5d 4a 3c 4f a6 08 3b
       -0.013648066 -0.040592514 0.012351439 0.002085108
0003e0 1c 1c 03 bd b9 57 60 3c 71 43 82 3c d4 61 0c 3a
       -0.03200923 0.01369279 0.0159013 0.00053551537
0003f0 86 58 b0 bd d9 59 9a bd d0 10 44 bd b2 d0 e9 3a
       -0.086106345 -0.07536668 -0.047867596 0.0017838685

92 f4 [64]
000000 c8 54 c8 bd 18 59 20 bf 03 ee b5 bf 25 ed 08 3e
       -0.09781796 -0.62635946 -1.421326 0.13371713
000010 a2 0f 00 3f db 99 94 bf 97 d0 b2 3f 2a c5 02 3f
       0.50023854 -1.1609453 1.3969907 0.510821
000020 73 bd d4 be 30 c0 42 3e b4 8b 16 bf 78 1d 77 3e
       -0.41550788 0.19018626 -0.5880692 0.24132335
000030 51 50 7b be 43 5e f7 3e 80 32 9f 3f e0 9e c1 3f
       -0.24542357 0.48314103 1.2437286 1.512661
000040 57 89 33 be 20 f4 66 bf 2a 36 0e 3f a8 23 08 3e
       -0.1753286 -0.90216255 0.555514 0.13294852
000050 5a e0 8b bf 2b 1e 36 bf 83 48 21 3f a0 ba c3 3f
       -1.0927842 -0.7113978 0.6300127 1.5291328
000060 39 8a ab be 2f bf 71 bf dd f7 a9 3f 7c f9 bd 3f
       -0.33503893 -0.9443235 1.3278767 1.4841762
000070 7f 0e 22 bf ce 57 2c bf 65 88 f8 be 25 f7 80 bf
       -0.6330337 -0.6732148 -0.4854156 -1.0075423
000080 da 23 d8 3f 52 bf 74 bf f5 95 3f bf c4 ef db 3e
       1.6885941 -0.9560443 -0.7483819 0.42956364
000090 08 33 ed 3d a3 93 63 3f 45 dd 9c 3f 90 d3 cc 3d
       0.11581999 0.8889715 1.2255026 0.1000129
0000a0 03 30 85 bf 6a 67 57 bf ca e4 e3 3f ba a3 e8 3f
       -1.0405277 -0.8414217 1.7804196 1.8174965
0000b0 8c d0 cf 3f 15 b0 2b 3f ec 92 b1 3f 75 58 dd be
       1.6235518 0.67065555 1.3872962 -0.4323155
0000c0 da 7e ae 3f f0 b9 a2 bf 26 d4 7f bf 7c 28 c3 3f
       1.3632462 -1.2712994 -0.9993309 1.524673
0000d0 0c 22 df 3e 8f b7 ab bf a4 bc 76 bf fc 56 09 bf
       0.43580663 -1.3415393 -0.9638159 -0.5364835
0000e0 c9 05 53 be 28 d7 79 bf 4d 8f 71 bf 08 d8 6a bf
       -0.20607676 -0.9759393 -0.94359285 -0.9173589
0000f0 e1 ce e6 3f 04 cb b3 3f 27 7a a0 3e 2e cd 8f bf
       1.8031884 1.404633 0.31343195 -1.1234491
