model/smiling_dog.onnx (onnx, 301496 bytes, 16 tensors)

fc.weight f4 [2, 256]
00000000: 6d45 c93d 83e1 7b3e 7fbd 923e 9322 c03e
00000010: 7f6c 7ebe 9b23 b63e b741 4abe 4ccf c53e
00000020: c2c6 c43e 4c6b 29bd bf25 bd3e 066b bbbd
00000030: a7b5 b0bd 75e7 393e 82a9 f1bd 4f33 1e3e
00000040: b36d 7fbd 9eb0 52bc a86f 53be 3d3f cbbc
00000050: 8767 673e f502 3c3e 221b 993e 5ce9 843e
00000060: 4f7f 7fbe 40af 6bbd 7c33 99be 37f1 e6bd
00000070: 61d6 43be b3fe 6ebe 950a b2be 45a1 d6be
00000080: 8e12 6b3d 74c0 3a3e 0ae7 b2be 2b5a 9cbe
00000090: 2753 4abe 71f3 f2bc 6a34 6abe 6ee2 9bbd
000000a0: cc0b 13be 43cf a3be 8443 92bd 73f7 39be
000000b0: 4a7e ba3e 0acd 8d3e 4862 b93e e9ad bf3e
000000c0: b173 733e 7f72 c43e 310d 7f3e f57d fd3e
000000d0: ad47 a83a b7cf 5c3e 0138 aabd 0c93 853d
000000e0: 0393 613d c15a 83bd c260 273d 02a1 063d
000000f0: 3078 9d3e db0d dc3e cfb8 ca3e 179c c43e
00000100: c3f1 3dbe 1cec 42be 4c10 64be 8954 9ebe
00000110: 5f64 d93c 5288 c13e 5808 833d 3ee3 9a3e
00000120: 599a 25bd ebcf b9bd 6c00 0bbe 5f26 e8bd
00000130: b905 44be ff04 fbbd 6623 86bd b055 71be
00000140: fafb 1bbe 4f58 6bbe 4558 35bd dd6c e8bd
00000150: d833 edbc 6a7f c1bd f6e0 55be cdb2 6ebe
00000160: cb13 c83e bbc6 bc3e cae2 e33e 434f ba3e
00000170: 523b d0be 6b7f 683e 6219 32bf b5eb 3b3e
00000180: 79c9 41be f904 a7bd 4366 22be 12f8 24be
00000190: 0784 b9bd 5897 a63e 1032 6bbd 2a8f 9e3e
000001a0: 8b67 08be ed65 4cbe 288b 00be c341 a7be
000001b0: e17f edbe 35d1 f2be 4564 b9be 0ffc e6be
000001c0: d04d 0f3e 413b b43e 2231 ba3e fd4d 103f
000001d0: ee16 3b3e 0833 c83e f8e6 ab3e b946 f13e
000001e0: af1b cebe 8014 923e 64bb 14bf 8ea4 6a3e
000001f0: 7385 b9be 35cd 233e 22ad f2be 43d9 bc3d
00000200: 1eef b03e 32f4 423d c5c0 f93e 8126 173e
00000210: 035e b4be a75b 45bd 3628 0ebf b755 82be
00000220: c855 82be e3bf 91bd c2a4 02bf 7af9 acbe
00000230: 7d44 51be a7c5 22be 5521 8dbe b52c 50be
00000240: 2d37 e23d 6049 01be 659d 573e 1d0c 303d
00000250: 5feb 0c3f 78f0 003f c0f9 0d3f 7c30 093f
00000260: b680 573e 4bb3 2c3e 4c6d 9e3e 0c66 253e
00000270: ccda 90bc 1c42 2dbe b830 71bd 448d 17be
00000280: 8ac9 c7bd 7504 9a3d a3d3 1cbe 3944 9f3d
00000290: f454 51be c15b 53be a33a bdbe 9387 9fbe
000002a0: 7302 183e 65fb 963e 3927 d03e b090 043f
000002b0: fae2 2ebe 11e1 3bbd 22f1 ddbd 6a80 e23d
000002c0: c50f 933e 664a a0bc ba45 123e d24e 22be
000002d0: 37f5 1a3e 3b91 2abd 46a3 3b3e 982a 843c
000002e0: f502 cf3e a0d0 c03e c6a8 d73e 47fd b93e
000002f0: 29fc 93be 7434 a5be b567 69be 8692 41be
00000300: d747 a03d cb84 e83d f851 95bd 0704 3d3d
00000310: a339 c63e 9568 9abd 22a4 ad3e 4da2 a4bd
00000320: cc94 abbd 448c 1ebe bf99 8dbe 6a88 dcbe
00000330: 63fa cabe 6827 9dbe b682 f6be 1e9c bbbe
00000340: 7bb9 f63e bec5 753e 200a 863e f683 8bbd
00000350: 7e5e 793e c92e 403e dc3e 613e 4218 8a3e
00000360: c94c 62be dcdd 8dbe 2ea6 89be f2c2 c5be
00000370: 521a 923e 944c 8f3e 2ce8 9b3e e4df c73e
00000380: e1f9 583e ce17 833e 225b 873e 8d96 8b3e
00000390: 46e7 15bf e869 923c 8286 1ebf fcb8 063e
000003a0: 8c64 653e 9d94 3d3e 53e2 2a3c aa50 f1bd
000003b0: 8701 17be b75d 2abe eba5 49be 947b adbe
000003c0: 80d3 8f3e 9beb ca3e 8d01 bf3e b7c7 253f
000003d0: a43f 1f3f 69f0 62be 54d6 223f 733b b0bd
000003e0: 9f25 99be 2a7e 85be ffc7 b2be 7de9 b8be
000003f0: 7e27 443e bd30 cb3e 45f8 913e 064a b63e
0.09827695 0.24597745 0.286602 0.37526378 -0.24846075 0.3557404 -0.1975163 0.38634717
0.3843289 -0.041362092 0.3694286 -0.091512725 -0.086283974 0.181547 -0.11799909 0.1544926
-0.062360477 -0.012859492 -0.20648062 -0.024810428 0.22598086 0.18360503 0.29903513 0.2595929
-0.24950908 -0.05754018 -0.29922092 -0.11276477 -0.19124748 -0.23339348 -0.34773698 -0.41919914
0.057390742 0.18237478 -0.34941894 -0.30537543 -0.19758283 -0.029657098 -0.22871557 -0.076115474
-0.14359969 -0.31994066 -0.07141784 -0.181608 0.36424476 0.27695495 0.36207795 0.3743737
0.23774602 0.38368604 0.24907376 0.4951016 0.0012838744 0.21563612 -0.08311463 0.065221876
0.055071842 -0.06413794 0.04086376 0.032868393 0.30755758 0.4297932 0.39594123 0.38400337
-0.18549256 -0.19035381 -0.22271842 -0.3092387 0.026537118 0.37799317 0.06398076 0.30251497
-0.0404304 -0.0907286 -0.1357438 -0.11335444 -0.19142808 -0.12256812 -0.065497205 -0.23567843
-0.1523284 -0.22982906 -0.044273634 -0.11348889 -0.028955385 -0.094481304 -0.20886597 -0.23310395
0.390776 0.3687037 0.44508964 0.36388597 -0.40670258 0.22704856 -0.6956998 0.18351634
-0.18924512 -0.08155245 -0.15859322 -0.16110256 -0.09058385 0.3253734 -0.05742079 0.309686
-0.13320749 -0.19960757 -0.12553084 -0.3266736 -0.46386626 -0.47425237 -0.36209312 -0.4511418
0.13994527 0.35201457 0.3636561 0.56369 0.18270466 0.39101434 0.33574653 0.4712427
-0.40255496 0.28531265 -0.58098435 0.22914335 -0.36234626 0.15996249 -0.47397715 0.09221127
0.34557432 0.047596164 0.48779884 0.14760782 -0.35227975 -0.04818311 -0.5553011 -0.2545602
-0.2545607 -0.071166776 -0.5103265 -0.33784086 -0.20436282 -0.15895711 -0.27564493 -0.20329554
0.1104568 -0.12625647 0.21056135 0.042980302 0.5504665 0.50366926 0.55459213 0.53589606
0.21045193 0.1686527 0.30942762 0.16152209 -0.017682455 -0.1691975 -0.058884352 -0.14799982
-0.097552374 0.07520381 -0.15315108 0.07776684 -0.20442563 -0.2064047 -0.369588 -0.31158122
0.14844684 0.29488674 0.40654925 0.51783276 -0.17078772 -0.045868937 -0.10837008 0.11059649
0.2872297 -0.019566726 0.14284411 -0.1585038 0.15132605 -0.04164241 0.18324003 0.016133592
0.40431944 0.37659168 0.4212095 0.36326048 -0.2890332 -0.3226658 -0.22793467 -0.1890355
0.07826202 0.11353453 -0.07291025 0.04614642 0.38715848 -0.07539479 0.33914286 -0.08038769
-0.0837799 -0.15483195 -0.2765636 -0.43072826 -0.39644155 -0.30694127 -0.481466 -0.36642545
0.48188385 0.24001214 0.261796 -0.06812279 0.24352452 0.18767847 0.21996635 0.26971632
-0.22099604 -0.27708328 -0.26884598 -0.38625294 0.28535706 0.27988112 0.3045057 0.39038002
0.21189071 0.256041 0.26436716 0.272633 -0.5855602 0.017872766 -0.6192399 0.13156503
0.22401637 0.18513723 0.010429936 -0.117829636 -0.14746676 -0.16637312 -0.19692199 -0.33883345
0.2809105 0.39632878 0.3730587 0.64757866 0.6220648 -0.22162022 0.6360829 -0.08605089
-0.29911515 -0.26072818 -0.3491821 -0.36115637 0.1915569 0.39685622 0.28509727 0.3560335

fc.bias f4 [2]
00000000: 8e36 2fbe 0106 103e
-0.17110655 0.1406479

79 f4 [16, 3, 7, 7]
00000000: a91b 36be 7c3a 18bd c60c 473d 95a1 6c3e
00000010: 61c4 4e3e 99d3 ec3d a1da 00be 3b79 7dbe
00000020: e63f cebc 5199 2ebc 2d7c 703e f3ed a03e
00000030: bf5a a23e 164a e33d c7e7 853d 0048 9e3d
00000040: 8d5c e8bd 3484 f2bd 2e8d 97bd f590 403e
00000050: 035a b83e 6840 db3c e357 3a3e 92aa ecbd
00000060: 605a 2ebf 35d4 31bf 4a3d 0fbe 30c3 073d
00000070: 8a41 8bbd c22f ed3e 8019 963e cb44 86be
00000080: fab7 bfbe 26ce 993c 7696 a93c 8c50 d9bd
00000090: b442 b73e a16b c13e 3d4a 893e 9004 d13d
000000a0: 7cf4 433e bfe5 833e a3be 19be 7870 723d
000000b0: 24a9 dc3d f475 bc3e 016d f43e aeb7 f03e
000000c0: d2d8 ca3e 216c 8fbd cac1 e03c d014 be3d
000000d0: 491e 3e3e 07fe ae3d dd0e a1bc d903 efbe
000000e0: 1e3b ecbd 5d41 c73c dce7 e63d ae35 503e
000000f0: c123 213e e246 f83c 1d95 c0bd f15f 503e
00000100: 230a 1a3e b73d 50bd b28a bdbd bafc 4dbe
00000110: ef9a 09bd 9fd6 ed3d d49a 083e 0016 813e
00000120: 7acc 86bd c416 02bf ac19 23bf 5220 cfbe
00000130: c3a2 15be c56d 863d 7a47 fd3e e7f6 923e
00000140: 8708 43bd 3301 87be 8101 a7bd 112c ebbd
00000150: 10e8 ddbc fbe6 d73e 6783 e63e e03b e73e
00000160: 34db 893e 8cfa e43d a821 1f3e 03c2 11be
00000170: 20a2 a83d ee79 453e c13f fe3e 5c40 f73e
00000180: c2df 653e f88c 5b3e 017c 983c ddad 0f3d
00000190: 117e 823d 4a0a 1e3e c3aa e23d b3ac 66be
000001a0: ff44 c5be b723 8bbd 6e8b 88bc aa65 85bd
000001b0: 07d0 bebd cb95 f3bd 0314 74be 570e 87be
000001c0: 20f3 af3d e046 463c 6c60 2ebe 3417 bcbe
000001d0: 4361 0ebf 62f6 a2be 16d0 36be 27b4 0d3e
000001e0: a7b8 2b3d c090 5abe 0a9e 47bf e480 5cbf
000001f0: 56f8 e3be 7032 9bbe 2f49 c53c 8cee 873e
00000200: 308f de3d e369 acbe 88ea 0bbf c43e 51be
00000210: 3ea8 1dbe cd74 8dbd 76ba 853e d7e3 393e
00000220: e9c5 1d3c 25af c1bc 1703 e93b ae15 b53d
00000230: f578 49bd 428d 0bbc fdd9 283d ae01 5d3e
00000240: 4028 803e 228f c43d 45c6 183e cf42 183e
00000250: a79c 983e 862d a63e 34e1 933e ad42 463e
00000260: 88a5 8c3d 8602 a23e 80b9 a93e d4b0 993e
00000270: ce12 993e 31d7 4f3e aec6 e23e 3869 f13e
00000280: 8223 153f 152b c23e 84cc 7a3e 6e66 603d
00000290: a0d4 7a3e c1d7 0a3f 1597 e83e 4939 783e
000002a0: 229a c73e 9d7d 9d3e 5e91 673e 48e0 e33e
000002b0: e7c9 f23e a39e c73e 8a46 ec3d e32f 0d3e
000002c0: 4f49 8b3e 33de b13e e942 a33e 3b3d 563d
000002d0: 513e d1bd a593 96bd fd38 473d 406a 4e3e
000002e0: fcd6 d83d 26a5 563d 4657 babd a82a bebd
000002f0: 734a 6d3e 2381 7c3e 4b86 a83d d99c 74bd
00000300: 7ed8 4a3e 1ced 033f b4e2 fc3e 4635 5d3e
00000310: d692 bebe 60d8 c2be 2e70 98be 35ea 0abf
00000320: 67b8 e2be 43b7 cdbe 35d4 e4bc 122a b3be
00000330: 7517 dabe 4af3 12bf 3c86 34bf a0a4 04bf
00000340: fb93 41be 130b dabc 0e8b b3be 3eec 19bf
00000350: 8d58 3dbf d6bb 29bf b441 f1be 61e6 a5be
00000360: 25b4 a7be 538a c7be 8318 02bf bc81 41bf
00000370: 69b4 19bf 6b2c 01bf b0ba c9be 1b54 13bf
00000380: 5e4f 2bbf acda 0cbf 474b 02bf 7ced 09bf
00000390: 8216 6cbf f7de 43bf 28d1 19bf 5db0 22bf
000003a0: bcb9 27bf 7063 1abf 53ad 3bbf 2a75 6fbf
000003b0: 8690 48bf 2af8 cdbe 41bd b5be 4f83 14bf
000003c0: 566c 3abf 180b 0fbf a8dc 5ebe 9e49 24be
000003d0: 45e9 52be b287 d5bc 7935 263e e375 473e
000003e0: f772 a83d 0768 ff3c 7ed4 2fbe 6b75 a63d
000003f0: 5d96 43bc 81d2 8a3e 16fc 613e 7979 f73d
-0.17783989 -0.03716515 0.048596166 0.23108514 0.201921 0.115637966 -0.125834 -0.24753277
-0.025176954 -0.010656671 0.2348487 0.3143154 0.3170986 0.11098115 0.06538349 0.07728577
-0.11345778 -0.11841622 -0.07399975 0.18805297 0.36006173 0.02676411 0.18197589 -0.11555971
-0.6810665 -0.6946443 -0.13988224 0.03314513 -0.0679961 0.463255 0.2931633 -0.2622436
-0.3744505 0.018775057 0.020701628 -0.10611066 0.35793078 0.37777427 0.26814452 0.10205948
0.19136232 0.2576122 -0.15014128 0.05918929 0.107744485 0.3680874 0.47739413 0.47015136
0.39618546 -0.07003046 0.027436156 0.092813134 0.1856624 0.085445456 -0.019660408 -0.46682623
-0.11534713 0.02432316 0.112746924 0.20332977 0.15736295 0.030307237 -0.09403441 0.20349099
0.1504293 -0.050840106 -0.0925497 -0.20115939 -0.03359502 0.11613201 0.13340312 0.25212097
-0.065819696 -0.5081599 -0.6371105 -0.40454346 -0.1461287 0.065639056 0.49468595 0.28703997
-0.047615554 -0.26368102 -0.08154584 -0.114830144 -0.027088195 0.42168412 0.45022127 0.45162868
0.2692505 0.111806005 0.15540183 -0.14234166 0.08234048 0.19284794 0.49658015 0.4829129
0.22448638 0.21440494 0.018613817 0.03507792 0.063717015 0.15433612 0.110677265 -0.22526817
-0.38529202 -0.067939214 -0.016668048 -0.065135315 -0.09317022 -0.11893805 -0.23835759 -0.26378128
0.08591294 0.012101859 -0.1702897 -0.36736453 -0.5561716 -0.318286 -0.17852816 0.13838254
0.041924145 -0.2134428 -0.77975523 -0.8613417 -0.44525403 -0.30311918 0.024082748 0.26549184
0.108671546 -0.33674535 -0.5465474 -0.204341 -0.1539621 -0.069070436 0.2611882 0.1815332
0.009629705 -0.023643086 0.007110964 0.08842026 -0.04918762 -0.008517565 0.041223515 0.21582672
0.25030708 0.09597613 0.14919384 0.14869235 0.29807016 0.32456607 0.28882754 0.19361372
0.0686751 0.3164255 0.33149338 0.30017722 0.2989716 0.20296933 0.44292206 0.47150588
0.58257306 0.37923494 0.24492079 0.054785185 0.24495173 0.54235464 0.45427766 0.24240603
0.38984782 0.30759898 0.22614047 0.4450705 0.47419664 0.38988218 0.11536892 0.13787799
0.27204368 0.34739837 0.31886986 0.052304488 -0.10216964 -0.0735238 0.048638333 0.20157719
0.1058788 0.05240359 -0.09098677 -0.0928548 0.23172931 0.24658637 0.08228739 -0.059719894
0.19809148 0.51533675 0.4939171 0.21602353 -0.37221402 -0.38055706 -0.29773086 -0.5426362
-0.44281313 -0.4017888 -0.02793322 -0.34993035 -0.4259602 -0.5740248 -0.70517325 -0.518137
-0.18904106 -0.026616609 -0.35067028 -0.601261 -0.7396324 -0.6630224 -0.4712044 -0.32402328
-0.32754627 -0.3897272 -0.5081865 -0.75588584 -0.6004091 -0.504584 -0.39400244 -0.5755021
-0.6691798 -0.55021167 -0.50896114 -0.53878 -0.92221844 -0.7651209 -0.6008477 -0.6355036
-0.65517783 -0.6030798 -0.73311347 -0.93538153 -0.78345525 -0.40228397 -0.35495952 -0.5801286
-0.7282156 -0.558763 -0.21763861 -0.16043708 -0.20596798 -0.026065681 0.16231336 0.19478564
0.08225053 0.031177534 -0.17170903 0.081278645 -0.011937705 0.27113727 0.2206882 0.12083716

80 f4 [16]
00000000: 6dfd 88be d095 253e 2f64 e43f 66a4 a0bf
00000010: c4dc 89bf da21 12c0 ae5c b43e 40e8 33be
00000020: fc44 963f ad1b e33f 6a11 80bf 7392 e23f
00000030: 342e b0bd e5d1 763f 81f7 8a3e 3eec 78be
-0.2675585 0.1617043 1.7843074 -1.255017 -1.0770497 -2.2833161 0.3522696 -0.17569065
1.1739802 1.7742821 -1.0005314 1.7700943 -0.086025625 0.96414024 0.27141955 -0.24308869

82 f4 [32, 16, 3, 3]
00000000: ad7c ef3d aa1f b93b d8c5 00bd 03b6 82bc
00000010: e833 bdbd 2937 0ebe 48b4 b13d bbc5 48bd
00000020: 116d 22bd 01f5 753c ce8e a9bc 532a 3cbd
00000030: 5a07 173d e2ad 43bc d696 22bd 3a99 223d
00000040: 9de9 043b acf3 89bc 0e11 96bb fb21 4f3b
00000050: 897e 26bd 805f f3bc 5eee bbbb 6482 90bc
00000060: a4dd 95bc 2d48 913c 7b82 943a a12a ea3d
00000070: 7528 18bc 7a07 9dbc c095 dc3d 804a 97bb
00000080: 0dd6 63bd f3c6 e63d bbde 01bc 3a8c 61bd
00000090: 468a e83d 93d6 80bb 627e 673c f9f2 af3d
000000a0: d49b 6cba c132 9ebb b150 2f3d e428 53bd
000000b0: 09f1 eabd e891 8c3d fcc3 513b 9048 cebc
000000c0: 853e e73d 7260 41bc 2363 14bd d1f5 ca3d
000000d0: 68db 1e3c d342 44bd f728 54bd 9817 42bc
000000e0: 1145 b23c acab 3dbd c9bb 61bd 5ec4 9ebc
000000f0: 3d2c 1cbd 7816 30bd 5b8c be3c 8c52 033e
00000100: 5c81 163c 1f3f 253c 3226 b13d 1ceb ba3c
00000110: a866 e5bc 5e21 993d 3184 0fbc cc94 76bd
00000120: 162f eebc d528 f6bc 4c12 66bd 4770 84bd
00000130: 215e 6abd 38d9 c6bd ca6c a2bb 197a 80bb
00000140: 38bd 30bc d649 cabc 6d8f f3bc cd4d 5ebd
00000150: 01fa a1bc 6455 173a 6ac9 40bc d5dc c1bc
00000160: c0a0 7cbc 1975 8ebc 6b31 ae3d 2153 2dbc
00000170: bb80 cebc e3ae d23d d495 2b3c 43a7 09bd
00000180: fbee db3d 6dcf 923b 8aae 97bd 9992 c6bc
00000190: fb0d a6bc f177 c2bc ec03 fc39 af9d 8d3b
000001a0: cc1c b83c 7d80 88bc 1417 463b c045 c93c
000001b0: 6c01 4d3d c6f8 133d 709c c53d 6e40 ac3d
000001c0: 4dd3 bb3c 8baa aa3d 31e5 2c3d 762b 77bd
000001d0: 27c4 e8bc 549d c3bc d3ca 013c 9853 25bd
000001e0: bf90 fdbc a20e 003b 7c80 c8bc 5a10 20bd
000001f0: e13a 0a3c 2ea8 27bc e633 57bc bcad 87bd
00000200: 8cbc f03c ed7a 173d 4cdd 3fbc 9af9 823d
00000210: e599 163d ee19 17bb 495e d93c f591 06bd
00000220: 30b7 9cbd f271 2bbd f1cc 683c ae2a 88bd
00000230: 80a7 a2bd 8c4a 443c 6909 b1bd 1d31 ccbd
00000240: d4e1 05bd 2a78 33bd 3ca7 8ebd eda3 c43b
00000250: f791 ccbc 5f37 1abd f742 75bd 2345 cdbd
00000260: 4dba a2bd 42cc 0d3c 1080 273d a03c 8b3d
00000270: 84e1 7c3d 4042 a93d 04d2 f23d 8830 433c
00000280: e970 c23c 7bce b73d 19ea 3bbd 8637 89bd
00000290: 5226 b9bd a03b e43c cfbd d43b 1ae0 1abd
000002a0: 119d 9f3d 4fbf 2d3d 931c b43c aa2e a13c
000002b0: 2770 083d c2be ad3d be7f 92bc 2da1 623b
000002c0: 3c8e d73c 25d8 f6bc d28d a2bd 4bbf 6ebd
000002d0: 10de ad3c 25c8 bf3c 1087 f33c 9eff ccba
000002e0: a456 29bb 67f3 843b 082e 863b 3485 49bb
000002f0: 4bd0 92ba 1d55 0c3d b057 503d 514c 613d
00000300: 59df 07bd e9c6 85bc efbc 5e3c abae 5bbd
00000310: b8c6 9fbd ed11 6dbd fca5 c83c 5eab ebbb
00000320: f1f5 52bd 29bd 363d a899 ea3c 42de 63bc
00000330: df65 cf3d 5f8d 443d 7dfd aabc 9d70 513c
00000340: aaf7 4f3d ec8c 8f3d e597 c73b 7aa1 973c
00000350: 0a33 3a3d 28c8 a5bc eca9 adbc 83d6 d7bc
00000360: 3385 a0bd e6d2 e1bd 0627 8ebd 85a9 8e3b
00000370: d128 ffbc b9e6 933b d852 123d 458f 60bc
00000380: 163a 4d3c f37e f4bc 9a4d 8cbd 589a 63bd
00000390: e216 a43d df4e 993c d241 223a cd79 b23d
000003a0: 7413 783d 1f3e 173d e4a0 c83c 4646 823d
000003b0: ea01 c53d 80aa 933c f1eb f83c a3c4 983d
000003c0: 4a70 89bc 3af7 60bc 88d9 a7bb c553 3cbc
000003d0: 784c 10bd efa9 9cbd 34ea a33d 443d 373c
000003e0: ba6f 51bc 536c e23d c6f1 b93d 6b0f 873d
000003f0: 0b5c a5b9 c63d c0bc a2bb d8bb 2ba8 993d
0.11693702 0.0056495266 -0.03143868 -0.01595593 -0.09238416 -0.1388823 0.08676964 -0.049016695
-0.039654795 0.015012027 -0.020697977 -0.0459388 0.036872245 -0.011943312 -0.03969463 0.03969691
0.0020280846 -0.016839825 -0.00457967 0.0031605947 -0.040648017 -0.029708624 -0.0057352027 -0.0176403
-0.018294163 0.017734611 0.001133039 0.11433912 -0.009286989 -0.019168604 0.1077075 -0.0046170354
-0.055624057 0.11268415 -0.007926638 -0.05506537 0.113544986 -0.0039318292 0.014129253 0.08591265
-0.0009025906 -0.0048278277 0.042801563 -0.05155267 -0.11471755 0.06863767 0.0032007685 -0.025181085
0.112912215 -0.0118027795 -0.036227357 0.09910167 0.009695865 -0.04791529 -0.05179688 -0.0118464455
0.021761449 -0.046306297 -0.055110727 -0.019380745 -0.038128126 -0.042990178 0.023260286 0.12824458
0.009186115 0.01008585 0.08649863 0.022817187 -0.028003052 0.074770674 -0.008759544 -0.060200498
-0.029075187 -0.030048767 -0.056169793 -0.06466728 -0.057218675 -0.097094 -0.0049568163 -0.003920805
-0.010787301 -0.02469341 -0.029731477 -0.054273415 -0.019772531 0.0005772917 -0.011766771 -0.023664871
-0.015419185 -0.01738982 0.085055195 -0.0105789015 -0.025207868 0.10287263 0.0104727335 -0.03360678
0.10738941 0.0044802935 -0.074063376 -0.024239825 -0.020270338 -0.023738833 0.00048068108 0.004321776
0.022474669 -0.01666283 0.0030226158 0.024569392 0.050050184 0.03612592 0.09648979 0.084107265
0.022927905 0.0833331 0.04221076 -0.060344182 -0.028413845 -0.02387873 0.007921892 -0.040362924
-0.03095281 0.0019539972 -0.024475329 -0.039078094 0.008436889 -0.010232968 -0.013134932 -0.06624934
0.029386781 0.036982466 -0.011710476 0.06395264 0.03676786 -0.0023056227 0.026534216 -0.03285404
-0.07652128 -0.041856714 0.014209018 -0.066487655 -0.07942104 0.011980664 -0.08644373 -0.09970305
-0.03268607 -0.04381577 -0.06965491 0.006000987 -0.024971945 -0.037650462 -0.059878316 -0.100229524
-0.0794569 0.008654656 0.040893614 0.06798673 0.061738506 0.08264589 0.118564636 0.011913426
0.02373548 0.0897493 -0.04587755 -0.067000434 -0.09040512 0.027860463 0.0064923535 -0.037811376
0.0779363 0.042418774 0.021986281 0.019675571 0.03331008 0.0848365 -0.017883178 0.0034580932
0.02631294 -0.030132363 -0.07937206 -0.0582879 0.021224052 0.023410866 0.029727489 -0.0015640145
-0.0025838995 0.004057336 0.004094843 -0.0030749561 -0.0011200992 0.034260858 0.050864875 0.05500442
-0.033171985 -0.0163302 0.01359485 -0.053633373 -0.078015745 -0.057878423 0.02449321 -0.0071920594
-0.05150408 0.04461399 0.028637722 -0.013907971 0.10126852 0.047986384 -0.020872826 0.012783197
0.0507733 0.070093006 0.0060911053 0.018509615 0.04545883 -0.020237043 -0.02119919 -0.026347404
-0.07837906 -0.11026554 -0.06941037 0.0043537044 -0.031147392 0.0045135883 0.035723537 -0.013706033
0.012526056 -0.02984569 -0.06850739 -0.055567116 0.08012177 0.018714366 0.00061896176 0.08714638
0.060565427 0.036924478 0.024490781 0.0636106 0.09619506 0.018025637 0.030385943 0.074593805
-0.016777176 -0.013730818 -0.0051223673 -0.011494582 -0.035229176 -0.076496 0.08003655 0.01118404
-0.012782985 0.110558175 0.09079318 0.065947376 -0.0003153983 -0.023466956 -0.0066141644 0.075027786

83 f4 [32]
00000000: cc37 dd3e 59aa 6cbe f496 31bf 3e09 4d3e
00000010: d26c 873e 4858 a63f 0ff0 933f 0ebe 043f
00000020: 1688 073f b1da f63f aaa5 f43d d265 9b3d
00000030: 92d4 9abe 5c38 c93e 6623 1fbf aca8 673f
00000040: 506e a2bf 7094 943e d1b6 343f bc34 c73d
00000050: a4eb 48bf 03c1 5f3f f470 003f cef6 803f
00000060: 350b 203f c859 533e 9afe 1740 6b16 973f
00000070: 8eba c73f a4b4 37bf 27ae a8bf fce9 a03f
0.43206632 -0.23111857 -0.6937096 0.20023057 0.2645021 1.2995691 1.1557635 0.518525
0.52942026 1.9285489 0.119456604 0.0758778 -0.30240303 0.3930081 -0.6216339 0.9049175
-1.2689915 0.290195 0.70591456 0.09726855 -0.7848456 0.8740389 0.5017235 1.0075319
0.625171 0.20639718 2.3749146 1.1803716 1.5603807 -0.7176001 -1.3178147 1.2571406

85 f4 [32, 32, 3, 3]
00000000: 3e2d 86bc 8f93 ed3b 997e 1a3d 5761 00bd
00000010: 6a18 d9bb 49fd 2c3c e68b db3c 3416 493d
00000020: f1af 9a3c e518 19bc 2279 dfbc 58fa 553c
00000030: c572 9dbb 8f94 05bd 7b02 d7bb af52 2dbd
00000040: d3d2 0abd a636 c8bc 5d6c cd3a ce9e 16bc
00000050: fc30 5fbc 0f75 55bc 725d 48bd 9a41 83bc
00000060: ecff 5f3c a613 c2bc 0fb2 1a3b e662 aabc
00000070: e91c 013b 3ad6 083d bddc 0dbd 55f8 49bc
00000080: bf95 fc3b c309 88bb 16f5 65bb fb89 3cbc
00000090: 95dc 053c 5a79 16bc 5641 013c 6e26 a6bb
000000a0: 52f0 c1bb d464 86bc e77a 803c 7c8a b03c
000000b0: d050 c4bb df1a b23c e399 163d cf29 1f3d
000000c0: 5328 efbc 1422 4f3c e6fb e83c f10d eabc
000000d0: b60d a0bb b863 5d3d 0d88 bcbb 6a78 1c3c
000000e0: b5bd 973c 4f0b e6ba 7bbe ce3c a860 053d
000000f0: 0ebf 2c3c 1c21 653d ddba f33c 13ad 903c
00000100: 3644 c13c ed79 4d3c e82e 643c 7770 8b3c
00000110: 8479 c63c 7764 0cbc 4547 833c 9e16 9a3c
00000120: f862 723c af23 a43c ee9f 813c a66e 5bbc
00000130: da5b 90bc 6909 99bb 340f 3cbd 472f 0ebc
00000140: 83d3 93bc 8859 8abb bdd1 8b3c 9b9d a636
00000150: 9972 7a3d 9688 843d 2605 693d 022b 483d
00000160: 05ee 813d 495f 6c3d b2ab 053d c0c7 e43b
00000170: 4b86 a43c 7682 6dbc b52e 80bc d339 b8bc
00000180: 76f3 5ebb 892b 473b b092 d9bc 8065 603a
00000190: 554c 7fbc d934 293d efd4 023d 448c 9b3b
000001a0: 20b6 533d d731 b6bc 2232 773c 2721 263c
000001b0: 53ed e2ba 1daa b23b f97e 843c f706 843c
000001c0: 6795 bb3c 0159 3f3d ed91 afbc 8371 23bc
000001d0: 5b9d 533c 4d68 123d 2f47 a4bb 6b8c 453c
000001e0: 226d f03c 0353 9fbb 3d44 7bbb 7c38 923c
000001f0: 666a 5cbc 6dc5 c5bb 1a76 82bc b62e 25bd
00000200: ca80 57bc 8016 80ba 1af4 00bd afca 2dbc
00000210: a5b8 ea3c 7fac 84bc effa 3cbc d27d 27bc
00000220: a04d c53c 144d 273d b29c 1fbd 6af8 9bbc
00000230: bacf b43c 895e 1cbd 84dc 99bc da2c 883c
00000240: 17b1 0cbc e5e3 0dbd 383c 3fbb 6952 583c
00000250: 0230 0fbd 9a38 0abd 2561 9d3c c886 673c
00000260: 3c10 61bc c2de f1bc 1ee5 a8bc 7254 893b
00000270: 446a ffbc d39c 2ebd 82ab b4bb 15ec 53bd
00000280: d755 5ebd 3dfc 3bbb 0831 37bd 300b 2fbd
00000290: 9a0e 18bd 7b1f 91bc f48f c1bc 8d74 42bd
000002a0: cd2b 5d3d 1f93 b43c fda6 03bd 4495 59bd
000002b0: eaaa 8cbc 3c5e 533c 6823 4cbd d78b 15bd
000002c0: 9ab8 50bc c78a 2bbd 47af 49bd aa7e eebb
000002d0: 1625 d9bb e8cc 17bd 4f15 74bd 08f8 053d
000002e0: 5c3f 9c3c e49c fe3c d391 10bd a9b5 c0bc
000002f0: 24b6 b1bc a8b2 fa3c da4f 00bc dd6b 08bc
00000300: 691b 403d b877 013c 6af0 b2bc 59eb d13d
00000310: e1d5 5d3d bd2e 4fbc c60e e33c 9511 1f3c
00000320: 3610 a33c 278e f33c 08d9 3e3c e8cd 033c
00000330: a714 943c 7009 40bc cff2 53bc 4b71 703b
00000340: 9c74 8e3c f109 cc3c 30a8 b6bb 494c f53c
00000350: ada9 303d ab6d a23c 8e4a 7c3d 7d1f 3d3c
00000360: 34d6 273d 1f8c f53c 4775 3a3d a17f 133d
00000370: 983c 9aba fd17 ec3c f7fd bd3c c82e 8a3b
00000380: 72e2 db3c 284c eabc d999 1cbd 45fd b8bc
00000390: 3604 1dbc e8a1 acbc 6874 3f3c 861f 25bd
000003a0: 1677 f4bc 5211 aabb a23b 803c 956f 6a3c
000003b0: f63e d13c 4942 6a3c 8339 c6bb 6133 073d
000003c0: 3a9a 2c3d 426c 803c 0e12 2a3d 2503 16bc
000003d0: 84ba 25bb bb67 d13c 8a28 54bd a428 17bd
000003e0: 8fb6 8ebc 629c 47bd 31ee d6bc b7f7 4aba
000003f0: 6862 373c a596 143d daa2 273d 40c8 24bd
-0.016378995 0.0072502564 0.03771839 -0.03134283 -0.006625225 0.010558435 0.026800107 0.04909344
0.018882724 -0.009344314 -0.02727944 0.013060175 -0.0048049414 -0.03261238 -0.006561575 -0.04231518
-0.033892464 -0.02444012 0.0015672554 -0.009193135 -0.013622519 -0.013028397 -0.04891724 -0.016022492
0.013671856 -0.02369101 0.0023604666 -0.020799112 0.001970107 0.033407427 -0.03463434 -0.012327273
0.007708281 -0.0041515543 -0.003508871 -0.0115075065 0.008170267 -0.009184206 0.007889112 -0.005070499
-0.005918541 -0.0164055 0.015683604 0.02155041 -0.005991079 0.021741329 0.03676785 0.03885823
-0.029194033 0.012642402 0.028440427 -0.0285711 -0.004884447 0.054050177 -0.005753523 0.009550193
0.018523077 -0.0017550978 0.025237313 0.03256288 0.010543598 0.05593978 0.02975219 0.017660653
0.023592096 0.012541276 0.013927199 0.0170214 0.024227865 -0.008568875 0.016025195 0.018809613
0.014794104 0.020036547 0.01582333 -0.01339308 -0.017621923 -0.004670311 -0.045912936 -0.008678264
-0.018045193 -0.0042220987 0.017067784 4.965533e-06 0.061144445 0.06471364 0.056889676 0.04886914
0.06344227 0.05770806 0.032634445 0.00698182 0.020083567 -0.014496436 -0.015647272 -0.02248851
-0.0034019626 0.003039094 -0.026559204 0.00085600466 -0.015582164 0.041310165 0.03194135 0.0047469456
0.05168736 -0.022240562 0.015087636 0.01013974 -0.001731316 0.005452408 0.016173827 0.016116602
0.022898389 0.04671574 -0.021431888 -0.009975794 0.012915934 0.035744 -0.0050133686 0.012057404
0.029348914 -0.0048621907 -0.0038340234 0.0178492 -0.013453102 -0.006035498 -0.015925456 -0.04032775
-0.013153264 -0.000977233 -0.031482793 -0.010607406 0.028652498 -0.016195534 -0.011534437 -0.010222869
0.024084866 0.04084499 -0.038967796 -0.019039351 0.022071708 -0.038176093 -0.018781908 0.01662295
-0.008587143 -0.034641165 -0.002918018 0.013203242 -0.034957893 -0.033745386 0.019211361 0.014131255
-0.013736781 -0.029525165 -0.020617064 0.004190975 -0.031178601 -0.042630028 -0.0055136094 -0.051738817
-0.054281082 -0.0028684281 -0.044724494 -0.04273528 -0.0371233 -0.017715206 -0.023628213 -0.047474433
0.05399685 0.022042809 -0.032141674 -0.053120866 -0.017171342 0.012900885 -0.049838454 -0.036510315
-0.012739325 -0.041880395 -0.049239423 -0.007278283 -0.0066267354 -0.03706065 -0.059590634 0.032707244
0.01907318 0.03108067 -0.03529532 -0.023524122 -0.021693297 0.030602768 -0.007831538 -0.008326498
0.04690114 0.007902078 -0.021843154 0.10249967 0.05415905 -0.012645421 0.027717005 0.009708782
0.01990519 0.02973087 0.011648424 0.008044697 0.018076254 -0.011721 -0.012936308 0.0036688622
0.017389588 0.024907084 -0.0055742487 0.029943602 0.043130565 0.019827684 0.06159454 0.011543152
0.040975764 0.029974042 0.045522 0.03601039 -0.0011767326 0.028820032 0.023192389 0.0042170025
0.026841376 -0.028600767 -0.038232658 -0.022581706 -0.0095835235 -0.021073297 0.011685468 -0.040313266
-0.02984194 -0.005190053 0.015653435 0.01430883 0.025542717 0.01429803 -0.0060493364 0.033007983
0.04213927 0.015676621 0.041521125 -0.009156023 -0.0025288174 0.025562158 -0.051796474 -0.036903992
-0.017421035 -0.048733123 -0.026236625 -0.0007742601 0.0111928955 0.03627648 0.04092679 -0.040230036

86 f4 [32]
00000000: 1ae0 15bf 8974 0340 9c06 b13e 83b4 c83f
00000010: ce29 0340 0703 243e eebe bb3e d07a a2bd
00000020: 60dd 1040 48a6 76bf 97a3 603f 4b25 e7bf
00000030: 7709 8a3e 4e14 c3bf c5bb 9b3e 11fc 45be
00000040: 2a6c 1abf 8657 9e3e 2bbe 8a3e 38d5 e5be
00000050: a8e5 48bf b9e9 b3be 244c 1ebf b00b 0abc
00000060: 5aea 69be b2a7 63bf 19c7 373f 6d88 2b3f
00000070: 751a b13f 29ab 183f 18de 2ebe 73e2 1240
-0.58545077 2.0539877 0.34575355 1.5680088 2.0494266 0.1601678 0.36669105 -0.07933581
2.2635117 -0.96347475 0.8774962 -1.8058256 0.26960346 -1.5240571 0.30416694 -0.19334437
-0.60321295 0.3092615 0.27098212 -0.44889235 -0.7847543 -0.35139254 -0.6183493 -0.008425638
-0.22843304 -0.8892776 0.71788174 0.67005044 1.3836199 0.5963617 -0.1707691 2.2950714

88 f4 [32, 16, 1, 1]
00000000: 793e c23e 86bb 2cbf 23f5 78be 41ef 32bd
00000010: 25aa fcbe 39e8 b6be d7c0 bdbe 1c69 8dbe
00000020: 0f18 893f f3a3 3dbf 5457 3d3b 381c 33be
00000030: 32cc b43d b7e5 b3bd b43f d83e 6e1b ccbe
00000040: d35e 9abd 1042 8dbe edc5 48bf c2dd a6bc
00000050: 94b4 08be 15c2 88bd 258d a6be b403 9ebd
00000060: deed 06be e9cd f0bd 4651 66be d988 f4be
00000070: 6317 aabe 36de 34bf 7982 97be a0e5 01bf
00000080: 8a4d c6bc f4c1 1abe 376f 91be 0e58 a23d
00000090: 722f 583e d443 593e 46fa 963e 6393 673e
000000a0: 5d34 e53d 4f1f 3abe 2dae 263e e006 4dbd
000000b0: 1599 af3c 45fb 5ebe f14a 673d 279d adbd
000000c0: 5b49 e4bd 4a8f f2bd 444f 33bf e56f 893c
000000d0: cb47 a43d 7cb7 ba3d f8fa a9bd 2031 693e
000000e0: 047e 8d3e f063 febe dcc6 bf3d 30ab bdbe
000000f0: d876 06be 8298 f8be 98a2 96bd eb15 bcbe
00000100: d525 313f 1be6 bf3e 7407 27be 3662 30bd
00000110: 60d3 853e 4416 dfbe 07cc a8be e3af cd3d
00000120: 9ff0 eebd 3974 1cbf fef9 3b3c e2cf 50be
00000130: 3b6a 283f 7c85 7bbd aacc 45bc 6cd2 b03e
00000140: 69b4 83be b520 d7be 1d10 ff3a 0a38 29be
00000150: c49d d6be ab9a 863e 118f 43be 80aa dcbe
00000160: c3c9 06be 593f 04be e42c 82be 932b 2a3e
00000170: 2595 b53e c8df 8a3d 580f 5c3e ae85 2dbe
00000180: 179e 463e eb29 c2bd c9d0 9dbe 7e45 11bc
00000190: aa7b cd3c 5951 203c 32be 8a3d b281 e63d
000001a0: 2eb1 923c 3b06 72be 5dfe 023e fdc7 93be
000001b0: 613e 54bd e3b3 7bbe 3bcc 37be 1066 ea3d
000001c0: 530b 123f fc51 d6be ac28 9abd 2b78 8b3e
000001d0: bb21 223e c4a6 03be 18da 913e be13 c3bd
000001e0: 56d4 b93e d324 943d 2325 42be 3e96 1fbd
000001f0: 8cf5 d33d 2249 c4bd 9275 b33e 53a2 273e
00000200: 67fa b4bd af62 883e aeaa 533d 308b 28be
00000210: 2326 0fbf eff8 03be 5a83 adbc 0b4d 25be
00000220: 4425 69bd 4348 283e 80c7 e2bd efa0 833e
00000230: 7623 283d 0e98 253e 77d9 903e a2b3 913e
00000240: 8d98 773d 2505 efbd 45a5 b33e e164 eb3e
00000250: b42f 29bd 7dbf 2a3f bfa1 56be 5a98 603e
00000260: f16b 8cbe 6a17 b93e dd8c a93e 5250 eb3e
00000270: faf6 ee3d d353 043e d994 9b3e aa83 39be
00000280: b84e 663e 964d 723e 8b90 e5be 30f6 d93c
00000290: 6de7 91bf 8ea9 3dbe d4cb 053e fab2 29bf
000002a0: 7caa 623e 77ca 93be 7793 00bf ad8c 813d
000002b0: 2d6c 56bd da37 1c3b 76a0 963d 3124 9c3e
000002c0: 5e9e d93e 203c cb3b bbea ae3e 1307 02bd
000002d0: 90ff ea3e 5cc8 45be d91a 933d 2085 4e3e
000002e0: e26a 753e be19 52be 1fe0 d3bd fc57 e1bc
000002f0: 75ef 9fbe 426a 5f3e 598e 82be 0c22 c33c
00000300: 3b1f 313e 191c 17bd 30c1 73be 7d96 b93e
00000310: d87e 42bb d912 b93e 597e 9ebc eb3b 813e
00000320: 2be9 05bd 388d 42bd 61e0 8a3e 307e 82be
00000330: fcb1 89be 6a1a 5bbd c21c 95be 5351 0b3e
00000340: f39c 45be 2272 e93d a48d ad3c 7c7b 8ebd
00000350: 8ec2 38be 73ef 53bd 4029 403d 06d9 19bf
00000360: e544 1d3e 631c 9abd 096f 5cbe 5980 8f3c
00000370: 3af8 f83c 2bb0 e43d a3ee f9bd c1b1 8d3e
00000380: 9d2f c33e 5934 36bf 8da9 31bc 21fe b03d
00000390: 1a81 7e3e 4897 ac3d aed2 883d e164 623e
000003a0: c48d d2be 1c44 ddbe a746 173e eec3 7bbd
000003b0: 94c7 3b3d 97e8 3c3c e8e4 82be 0ed5 23be
000003c0: 58d4 bdbe 7c34 503e 72e4 d2be 1915 8f3e
000003d0: 6d1b 71be 19df 793d 1c56 2a3e 264e d33c
000003e0: 4c38 3bbf f278 2bbe 3741 6c3e 6312 0dbf
000003f0: 17f3 dcbd 5a29 7dbe d835 87be d254 5bbe
0.37938288 -0.6747364 -0.24312262 -0.0436852 -0.4934856 -0.35724047 -0.37061188 -0.27619255
1.0710467 -0.7407829 0.0028891163 -0.17491233 0.0882801 -0.08784049 0.42236102 -0.39864677
-0.075376175 -0.27589464 -0.7842701 -0.020369414 -0.13350135 -0.06677643 -0.3252956 -0.0771555
-0.13176677 -0.11758024 -0.22491941 -0.47760656 -0.33220968 -0.70651567 -0.2959173 -0.50741005
-0.024206895 -0.1511305 -0.28405163 0.07926951 0.21111849 0.2121728 0.29487818 0.22614817
0.11191628 -0.18176006 0.1627738 -0.050055385 0.0214353 -0.21775539 0.056467954 -0.0847724
-0.11146804 -0.118437365 -0.70042825 0.016776988 0.08021506 0.09117028 -0.082998216 0.22772646
0.27635205 -0.4968562 0.09364101 -0.37044668 -0.13131273 -0.48553854 -0.07355231 -0.36735472
0.6919835 0.37480244 -0.16311437 -0.04306241 0.2613783 -0.43571675 -0.3296816 0.10043313
-0.116669886 -0.6111484 0.011473177 -0.20391801 0.65787095 -0.061406597 -0.0120727215 0.3453554
-0.2572358 -0.4201714 0.0019459758 -0.16525283 -0.4191724 0.26289877 -0.19097544 -0.4309883
-0.13162903 -0.1291479 -0.25424874 0.16618185 0.3546535 0.06780964 0.21490228 -0.16945526
0.19396244 -0.094806515 -0.30823353 -0.008866666 0.025083382 0.00978502 0.06774558 0.11255206
0.017906751 -0.23635189 0.12792344 -0.28863516 -0.0518173 -0.2458034 -0.17949001 0.11445248
0.5704853 -0.41859424 -0.07527289 0.27240118 0.1583318 -0.12856585 0.28486705 -0.0952525
0.36294812 0.07233586 -0.18959479 -0.03896164 0.10349569 -0.095842615 0.35050637 0.16370516
-0.08836823 0.2663779 0.051676445 -0.16459346 -0.55917567 -0.1288793 -0.021180797 -0.16142671
-0.056920305 0.16433816 -0.11073208 0.2570872 0.041049443 0.16171286 0.28290913 0.2845736
0.060448218 -0.11670903 0.35087028 0.45975402 -0.04130526 0.6669844 -0.20960139 0.21933118
-0.27426103 0.36150676 0.33115283 0.45959717 0.11668201 0.12922601 0.30387 -0.18116632
0.22490966 0.23662409 -0.4483684 0.02660665 -1.139875 -0.18521711 0.13066036 -0.6628872
0.22135347 -0.28865406 -0.50225013 0.0632566 -0.05234926 0.0023837 0.07354824 0.30496362
0.42503637 0.006202236 0.3416346 -0.031745028 0.45898104 -0.19314712 0.07182855 0.2016797
0.23966554 -0.20517632 -0.10345482 -0.027507775 -0.3123738 0.21817878 -0.25499228 0.023819946
0.1729707 -0.03689203 -0.23804164 0.36247626 -0.0029677656 0.36147192 -0.019347357 0.25241026
-0.03269307 -0.047497958 0.27124313 -0.25486898 -0.26893604 -0.053491987 -0.29123503 0.13605241
-0.19298153 0.11398722 0.021185704 -0.069571465 -0.18042967 -0.05174203 0.04691434 -0.60096776
0.15358312 -0.075249456 -0.21526732 0.017517256 0.030391801 0.11166414 -0.122037195 0.27674678
0.38122264 -0.71173626 -0.010843647 0.08642221 0.24853936 0.08427292 0.06680809 0.22108795
-0.41123784 -0.43216026 0.14773045 -0.06146615 0.04584463 0.011530063 -0.25565267 -0.15999243
-0.37076068 0.20332521 -0.41189915 0.27945784 -0.23545618 0.061003778 0.1663441 0.0257941
-0.7313278 -0.16745356 0.23071752 -0.5510618 -0.10788553 -0.24722806 -0.26408267 -0.21419075

89 f4 [32]
00000000: 96fe 8a3e e8c9 4f40 c459 80bf 1b08 913f
00000010: 8057 c4bf 9949 c63f 008d 003d 2432 10c0
00000020: d489 f0bd d618 efbf 5e92 c23f a9b9 fcbf
00000030: 4299 efbe c036 ec3e 309a 85bd 8f64 1e40
00000040: d2be f83e ac3a fd3e ff6a dbbf 3945 cdbe
00000050: 2020 a4bf 4f66 423f e8fe ce3f 073f 09bf
00000060: de7b 843f a223 bf3f feed 58bf e5ae 80bf
00000070: 16a1 a13f 68cd b9be dd99 da3f d80e 89bf
0.2714736 3.2466984 -1.0027394 1.1330599 -1.5339203 1.549121 0.031384468 -2.2530603
-0.11745039 -1.8679454 1.5200918 -1.9744159 -0.46796614 0.4613552 -0.065235496 2.4748876
0.48583084 0.49458826 -1.7142028 -0.40091875 -1.2822304 0.7593736 1.6171541 -0.536118
1.0350301 1.4932749 -0.8473815 -1.0053374 1.2627285 -0.36289525 1.7078205 -1.0707655

91 f4 [64, 32, 3, 3]
00000000: a752 94ba edd2 9a3b d0e0 a3bc dcfd 803d
00000010: e15c 193d 913a ba3c 356a a33d f1fb 863d
00000020: 4cb9 043d d220 1abb 444a 4abc 286b 4bbb
00000030: ab21 94bc 51a6 8cbc ceee ce3c 0b66 8a3c
00000040: 4684 f639 b4fb 57b9 e47e e9bb cb84 a93c
00000050: 9d22 93bb dafc 0dbb a0e2 6bbc 67c9 13bd
00000060: c436 133d c97c 463c 7656 6fbc d518 7cbd
00000070: 4762 c5bd 3b23 ebbd 4981 19bd e155 bdbd
00000080: df1a 09be 95a1 513d dbcd 963b 4f87 01bd
00000090: 8c9f 0bbd c917 b4bc 2f1a 86bc dba3 15bd
000000a0: 7f35 bf3b 5ba7 b93d f7fe 863c 4ecd a33c
000000b0: bada 853b 73c8 93bc b737 1dbc 4117 d33c
000000c0: 37f2 143c 9bd6 f23c 520d d93d 7b01 50bd
000000d0: 95f2 9a3c 484c 8d3d 9dfc 6cbc da34 6f3c
000000e0: 3c63 7abc d358 bcbc 26cb 3f3c 169b aebb
000000f0: bc3f 413c e905 823c 3bf3 bbbb 3af8 4ebd
00000100: a2e9 e13c 6215 42bd ee34 9e3c 738e c23d
00000110: e48d 643b 8981 183d cc70 e93d 02d4 373c
00000120: 601c 1c3d 6005 6dbd c0b4 113d 72d4 923d
00000130: b6d1 f73b a10f 033e 8d08 023c b27e 57bd
00000140: 6dda 9b3d a622 183c 9775 7e3c f122 513d
00000150: b9b3 9c3c 4bbc eb3c 4f62 a938 6c47 1d3c
00000160: a6eb 653c 8d12 89bc 35a4 cb3c ea49 7ebd
00000170: 6db0 23bc 195a b53d b9cf 183d 47a8 c13d
00000180: 5365 563d 9581 993c 5ad6 813d 0ae8 66bd
00000190: c541 0039 375d 2f3c e96d ef3c 54a7 2c3d
000001a0: 225f 293c d0a4 98bb d983 533c 5f7d 0fbd
000001b0: 936e 6bbc caae aebc fb66 75bc b0eb 713a
000001c0: 6506 8aba 997a b53b 137f 2d3c eb15 f53a
000001d0: 4a0f 90bc f696 f03b 6ea9 bc3c b1c5 2c3d
000001e0: b164 d0bb 235e de3b 35a2 dfba 2d03 d7bc
000001f0: 15f3 bf3b 2fbd c53c 0751 c5bc 1236 6bbc
00000200: fdec 1a3c e62c fbbb 12ea ec3b aa14 873c
00000210: 112c aebc 0f2e 9ebb aa46 bb3b 3594 ee3c
00000220: 37e5 3e3d d985 753d 30d7 32bd 9d63 2c3c
00000230: d371 ea3c 9522 4bbd 1159 ff3c 435a 99bb
00000240: 458e 993a 5708 e4bc 2e58 023c 91be 14bd
00000250: 0ea8 16bd 3290 433d 8f74 55bc 9d35 03bc
00000260: 66be 4f3d d1eb 94bc f7c3 c9bb bdbe 323d
00000270: c155 443d 151e 503d 73e5 793d b662 043e
00000280: d3aa 943d 7562 ab3d 4cf5 e6bc df28 9e3c
00000290: d017 93bc 83cd d43c 3fe0 513d 6985 37bb
000002a0: 32af c63c 15df 503c 2fd0 c03b 8c5c 1fbc
000002b0: 3364 6ebd b23c 393b 2684 8ebd 76d3 48bd
000002c0: e36c 403d 133b 3dbd 807b 36bd 32c2 4a3d
000002d0: a8ec aabc 851e 42bc 3aa3 74bc 8aa4 92bc
000002e0: e0c9 063c e0c8 acbb 26b6 81ba 2c5f 91bc
000002f0: 3531 f8bc e386 093c 6945 12bc 504b 823b
00000300: b313 b13c 8ca3 0e3c 7f53 9bbb 8474 0c3d
00000310: ca20 8abb 06b5 b2bc 9581 a4bc 3601 3ebd
00000320: 85fd 50bd 911c 24bd 321a 47bc a9fa 8a3c
00000330: b8e2 21bd af5a 6b3d 650c 5d3c 1591 2f3c
00000340: 375b 073c 051e a73c ec32 f13b 0230 c33c
00000350: 1aac a63b 698c 1d3c d9f0 3e3d 95f4 b13c
00000360: 5153 df3c f38c 35bc 93b9 283d 0160 35bc
00000370: 0af6 6f3c 8ed5 6f3d ffa3 0ebd 8164 4f3c
00000380: 9697 253d 2ec2 1d3d 1163 873d 951f b23d
00000390: 1394 8c3c 24ba 563d 4f28 aa3d 6140 123c
000003a0: 930f 963d 9ab9 8b3d cca9 913c 47ef b4bc
000003b0: c31f 273a 0d23 673d 1a40 7f3d cc54 783d
000003c0: 8033 3a3d d25a 4e3d 1deb 753d 9aa6 b13b
000003d0: 4441 1bbb eeb0 903c 1338 1e3c c59d 723c
000003e0: 7acf 31ba 05e7 bf3c f4b8 2e3d c12c d43c
000003f0: 2adc cc3c ef50 073d e26a a83c 610a 4539
-0.0011316136 0.0047248513 -0.02000466 0.0629842 0.03744209 0.022733005 0.07979242 0.06591023
0.032403275 -0.0023518098 -0.012346808 -0.0031039212 -0.01808246 -0.01716915 0.025260355 0.016894361
0.00047019328 -0.00020597765 -0.0071257222 0.020693203 -0.00449021 -0.0021665604 -0.014397293 -0.036080744
0.0359409 0.012114712 -0.014608016 -0.06154712 -0.096378855 -0.11481329 -0.03747681 -0.09244896
-0.13389157 0.051179487 0.0046021766 -0.03162318 -0.034087703 -0.021983998 -0.016369907 -0.036533218
0.0058352347 0.09065124 0.016478999 0.019995358 0.004084912 -0.018039918 -0.009595803 0.025767924
0.009090952 0.029643347 0.10598244 -0.050782662 0.0189145 0.06899315 -0.014464525 0.014600003
-0.015282448 -0.022991573 0.011706149 -0.0053285463 0.011794981 0.015871959 -0.0057357824 -0.050529696
0.027577225 -0.047383673 0.019312348 0.09499826 0.0034874612 0.03723291 0.113984674 0.01121998
0.038112998 -0.057866454 0.035572767 0.07169427 0.0075628413 0.1279893 0.007936609 -0.05261106
0.07610021 0.009285605 0.015530965 0.051058713 0.019128667 0.028776309 8.0768594e-05 0.009599548
0.014033234 -0.016732479 0.024858573 -0.06208221 -0.009990794 0.088550754 0.037307475 0.094559245
0.052342724 0.018738547 0.063397124 -0.056373633 0.00012231532 0.0107033765 0.029227214 0.042151764
0.010337623 -0.004658319 0.012909853 -0.035031673 -0.014369625 -0.02132358 -0.014978166 0.00092285406
-0.001053047 0.0055382964 0.010589379 0.0018698549 -0.017585415 0.0073422147 0.02303001 0.04218072
-0.0063596596 0.0067861243 -0.0017061891 -0.026246632 0.005857835 0.024138061 -0.024086488 -0.014356153
0.0094559165 -0.0076652644 0.007230052 0.016489346 -0.021261247 -0.004827268 0.005715211 0.029123405
0.046605315 0.0599421 -0.04366225 0.0105217965 0.028618729 -0.049593527 0.0311704 -0.0046799495
0.0011715373 -0.027836008 0.007955594 -0.03631455 -0.036781363 0.047744937 -0.013028278 -0.008008388
0.050718687 -0.018178852 -0.006157394 0.043638933 0.047933344 0.05080994 0.061009835 0.1292828
0.07259145 0.083683886 -0.028193139 0.019306598 -0.01795569 0.025976902 0.05123925 -0.0028003103
0.024253462 0.012748499 0.0058841924 -0.009726655 -0.058201026 0.0028264937 -0.06958799 -0.04902979
0.046978842 -0.046198916 -0.044551373 0.049501605 -0.0208648 -0.011848097 -0.014931494 -0.017900724
0.008226842 -0.0052729696 -0.0009896203 -0.017745577 -0.030296901 0.008393976 -0.0089276815 0.003976263
0.021615839 0.008705985 -0.004740178 0.034290805 -0.0042153345 -0.021814834 -0.02008132 -0.046387874
-0.051023025 -0.040066306 -0.012152242 0.016965227 -0.039522856 0.05745953 0.013491725 0.010715743
0.008261493 0.020400057 0.0073608067 0.023826603 0.005086434 0.009615996 0.04661641 0.021723071
0.027261408 -0.011080968 0.041192602 -0.011070252 0.014646063 0.05855327 -0.034824368 0.012658239
0.040427767 0.038515262 0.06610692 0.0869743 0.017160451 0.05242361 0.083084695 0.008926482
0.07327189 0.0682251 0.01778116 -0.022086753 0.00063752773 0.05642991 0.06231699 0.060627744
0.04545927 0.05037958 0.060038675 0.005421472 -0.0023690024 0.017662492 0.009656924 0.014808123
-0.00067829306 0.023425588 0.042656854 0.025900247 0.025007326 0.03303617 0.020558778 0.0001879125

92 f4 [64]
00000000: 7e36 9cbf a65a 9abe 3e1a 5c3f 7c90 c5be
00000010: ddf5 24bf 0fad b4be 8cab 31bf 564f 8b3e
00000020: f4e4 973f 273f a73e 1be1 623f 143f eb3d
00000030: 3634 b53d 27dd 463f 1c4a 0a3f 9c4f 8e3f
00000040: 3253 83be 3ffa 24bf cdbf 8ebf 625d 4abf
00000050: 929d 14bf 14f0 e9be f8ac 083d 6036 edbe
00000060: 48b2 7d3f 04c4 2a3e 2e87 40be 72fb c53f
00000070: 687f bdbe 2249 f4be 3811 d2be 7a55 b7bf
00000080: b8c9 7b3d 4ad6 f3be c40f bdbf 62e8 c43f
00000090: 092d 973f cbc3 db3f 9e33 9f3e d0df 883f
000000a0: 60ff febe a7f4 46bf 758e 3abf c2e9 96bf
000000b0: 749f fb3f c0b0 c3bb 9ca8 543e 84a2 c3be
000000c0: 64eb c33f b954 24bf eeb1 06bf a110 44bf
000000d0: d858 e5be 7427 943e a83d 07bf 6737 96be
000000e0: 3cf0 45bf a686 8a3f 0df9 96bf 1974 b2bf
000000f0: 59fc a7bf b411 d7bd 0594 b23f d801 b9be
-1.220413 -0.30147284 0.8597754 -0.38586795 -0.6443766 -0.35288283 -0.69402385 0.27208966
1.1866746 0.3266537 0.88624734 0.114866406 0.08847849 0.776812 0.5401933 1.1118045
-0.2564941 -0.64444345 -1.1152283 -0.7904874 -0.58052933 -0.45690978 0.03336808 -0.46330547
0.9910016 0.16676337 -0.18801567 1.546736 -0.37011266 -0.47712046 -0.41028762 -1.432296
0.06147167 -0.47624427 -1.4770436 1.5383418 1.1810619 1.7169126 0.31094068 1.0693302
-0.4980421 -0.7771706 -0.7287362 -1.1790087 1.9658036 -0.005971998 0.20767444 -0.38209927
1.530621 -0.64191777 -0.5261525 -0.76587874 -0.44794345 0.2893635 -0.52828455 -0.29339144
-0.77319694 1.0822341 -1.1794754 -1.394168 -1.3123885 -0.105014235 1.3951422 -0.3613422

94 f4 [64, 64, 3, 3]
00000000: 8ed0 a13d 4c84 c3bc 1c38 b03d 49e0 c83c
00000010: 0440 33bd 8d95 c13b aa72 abbd e419 4ebd
00000020: 0b18 1fbd 2f13 e8ba 73dd a0bc 7ede 8bbc
00000030: ad39 99bc f2d6 26bd 5e23 1cbd b18e 51bd
00000040: 087c 55bd 0306 3abd a692 0bbd 0904 d53a
00000050: 312e 1ebd b950 8cbd 9e57 f13c d9e8 083c
00000060: d454 9bbd f753 ea3c e913 243d a3d6 b8bd
00000070: 5139 acbd 9942 09be f139 f6bc bdad 693d
00000080: 99eb febc 8fa0 74bd 5604 0f3b e223 15bb
00000090: 08e4 35be b664 58bd 5c39 243d c5e5 a2bd
000000a0: 9f14 36bd a4ed 2a3d a412 c7bd 0e91 24bd
000000b0: 648f a2bd 338f 96bc c5f9 8dba 7819 76bc
000000c0: a6c3 3dbc d06e a5bc 4750 56bd 0edf 13bd
000000d0: 4b99 aebc b01d b6bd 2b22 753c e7cc c13b
000000e0: 78c4 98bc f51c e8bc 27d6 5dbb 9c88 f8bc
000000f0: f2c9 0ebd f527 8abc 682d 15bd d19e 91bd
00000100: 3eea a0bd df15 123c cbca beb9 c292 f5bb
00000110: 34df 853d 62ed 363b 0e52 9dbd 43f3 cebd
00000120: f4dc 5dbd 816b 74bd 08cd fbbd 735e af3b
00000130: 3273 a239 55dc 7cbd 035c 38bd f948 843d
00000140: 671b 143d c4ff c53d 8396 ef3c 42d0 1a3d
00000150: ca79 813d 1a9e 593c ad94 2d3d 3f22 013d
00000160: 0623 7f3c f81e 29bc 4a8c d23c 85e3 f93c
00000170: 2350 ca3d df9b da3b 8195 893d d7c5 da3d
00000180: 530b a9bd 2dc8 b93c 52c4 303e 728d dcbb
00000190: 0276 dd3a 3495 f8bb b803 393c 851c 39bc
000001a0: ac97 debc 2cb5 983b 82a5 51bd bac4 83bd
000001b0: 9c68 a13d 3711 3fbd f05a bdbb 33e3 a63d
000001c0: 3cad 293d 4262 093c a171 9b3c ad07 f6bc
000001d0: 8192 0bbd 6920 30bd 528c 52bd c400 28bd
000001e0: cb3f 32b9 9090 273d 0f32 03bc f3f8 9a3c
000001f0: 4be2 753d 31e5 b43d 4167 f5bd 8308 81bd
00000200: cb97 37bd 2010 7abd 2932 c63d 75f1 d23d
00000210: 786a dcbd fa9f 1f3e bbd9 403e 2a3c acbd
00000220: 0023 a7bb b370 223d 6786 b6bd f2de ad3b
00000230: 7350 4f3d 3351 18be 6ff8 a83b 4097 5f3d
00000240: 5451 a8bc b627 9b3b c672 923b cb79 50bd
00000250: df81 32bd 896b 94bd 02ac 0cbd d10d 95bc
00000260: ac64 3ebd c2a4 a13c a2e7 68bc b209 063d
00000270: fce0 bfbc ef55 9dbc ac36 01bd e87c e0bc
00000280: 9a37 dbba 2c64 36bd 28b7 4cbd d5b5 d3bb
00000290: acfe b03c ff60 60bd e755 04bd 46e6 393c
000002a0: ec90 b2bd 2f1c fbbb 41d7 24bc d3b6 423d
000002b0: 2832 94bd d66d a63c 934f e53c 6ff0 d8bc
000002c0: 9582 22bc d40e 46bc 8398 b9bc 6d9b 0fbc
000002d0: 5bc7 c93c d7f3 91bc a30a 7ebc 98cf f3bb
000002e0: a813 32bb 3788 a3bb 2789 35bd 12fd dcbc
000002f0: 5e6b 17bd 5282 f83b 7b74 f2ba 496e 7f3d
00000300: d736 a33c d92e 083d 27ba 553d 3cb7 12bd
00000310: 7f3a 4a3d 50ac 0b3d 106e a33c 10d5 3e3d
00000320: e95c 88bd 6eb2 85bd 8227 43bc 5c6d 83bd
00000330: 5d5a 46bd 71c2 afbc dc71 4cbd 2898 fa3c
00000340: 2a56 d8bb 127e 30bc c30e 0e3c cef6 583b
00000350: 915b 49bd 916e b73b 1f16 d13b 1f0d 14bd
00000360: 88be b53c ebb5 1fbc f0d4 f3bd 3330 8d3d
00000370: 4e33 aa3d 070c 45bd 6cf4 c43c 0b33 0a3e
00000380: a17f 563d cfff 9cbc ff83 283d 7b3b 55bd
00000390: fda1 623c e412 553d 2b5e 56bd 99e3 02bd
000003a0: 9b2a 323e f120 e73d 0c66 a7bd e7d7 c0bb
000003b0: df6c 86bc 110e 87bc cdf0 a53b ef4f 223c
000003c0: d244 41bd 2578 943c b38a debc 7db9 be3d
000003d0: d701 a23d 8d64 213d 3071 5dbb 5331 70bc
000003e0: 686b e83a 7616 8bbd 65e1 43bd a318 a4bc
000003f0: 0994 ca3c 2e05 663b f955 333c c6a1 2e3c
0.07901107 -0.023866795 0.08604452 0.02452101 -0.043762222 0.0059077204 -0.0837148 -0.05031766
-0.03884129 -0.0017705912 -0.019636845 -0.017073866 -0.01870426 -0.04073233 -0.038119666 -0.05116147
-0.05212024 -0.04541589 -0.0340754 0.0016251813 -0.03861827 -0.06851334 0.029460724 0.008356296
-0.07584539 0.02860449 0.04005805 -0.09025314 -0.0840937 -0.13404311 -0.030056925 0.057050455
-0.031118201 -0.059723433 0.0021822653 -0.0022756984 -0.17762768 -0.05283042 0.040093765 -0.07953981
-0.04445326 0.041730538 -0.09720352 -0.040177397 -0.07937506 -0.01837883 -0.0010831883 -0.015020721
-0.011582291 -0.020194441 -0.052322652 -0.036101393 -0.02131333 -0.08892381 0.01496176 0.005914319
-0.018648371 -0.02833412 -0.0033849569 -0.030338578 -0.03486056 -0.016864756 -0.036420256 -0.0711037
-0.07857178 0.008916347 -0.00036390717 -0.0074943015 0.06536713 0.0027912487 -0.07681666 -0.10104992
-0.054165795 -0.059672836 -0.12294966 0.0053518354 0.00030984875 -0.061733562 -0.045009624 0.06459231
0.036158945 0.09667924 0.029246574 0.037796266 0.063220575 0.013282323 0.042378116 0.0315268
0.015572315 -0.010322325 0.02570166 0.030503998 0.09878566 0.0066714133 0.06717969 0.10682266
-0.08254113 0.022678459 0.1726239 -0.006730729 0.0016896131 -0.007586146 0.0112923905 -0.0112983035
-0.027171932 0.0046602692 -0.05118323 -0.06434007 0.07881281 -0.046647277 -0.005778663 0.081488036
0.041424975 0.008385243 0.01897508 -0.030032957 -0.034075264 -0.04299966 -0.05140335 -0.041016355
-0.00016999168 0.04090935 -0.00800754 0.018917536 0.060030263 0.08832777 -0.11982585 -0.063004516
-0.044822495 -0.061050534 0.09677536 0.102999605 -0.10762495 0.1558837 0.18833058 -0.08409913
-0.005100608 0.03965826 -0.08912354 0.005306118 0.05061383 -0.14874725 0.0051565687 0.054587603
-0.020546593 0.0047349585 0.0044692485 -0.0508974 -0.043580886 -0.07247073 -0.034343727 -0.018195065
-0.046482727 0.019731883 -0.014215382 0.03272409 -0.02342271 -0.019206015 -0.03154628 -0.02740331
-0.0016724945 -0.044529125 -0.04997936 -0.006460885 0.021605812 -0.054780003 -0.032308485 0.011346405
-0.08719048 -0.007663272 -0.010061086 0.047537636 -0.07236129 0.020316046 0.027992046 -0.026481835
-0.0099188285 -0.012088496 -0.022655731 -0.008765084 0.024631193 -0.017816467 -0.015505466 -0.0074405186
-0.002717236 -0.0049906033 -0.04432025 -0.026976142 -0.036967628 0.0075838948 -0.0018497849 0.062361035
0.01992361 0.033247802 0.05217948 -0.035819277 0.049372192 0.034099877 0.019949943 0.04658991
-0.06658346 -0.065281734 -0.011911275 -0.06417343 -0.04842602 -0.021455022 -0.049913272 0.030590132
-0.0066020684 -0.010772245 0.008670512 0.0033106091 -0.04915959 0.0055978973 0.006380811 -0.036145326
0.022185579 -0.0097479625 -0.11905849 0.06893959 0.08310567 -0.048107173 0.02404233 0.13496034
0.05236781 -0.019164948 0.041141506 -0.052058678 0.013832566 0.05201997 -0.0523359 -0.031955335
0.17399065 0.1128558 -0.08173761 -0.0058851126 -0.016409336 -0.0164862 0.005064106 0.009906753
-0.047184773 0.018123696 -0.027165746 0.09312723 0.07910507 0.039402533 -0.0033789389 -0.014660197
0.0017732205 -0.067913935 -0.047822375 -0.020031279 0.024728792 0.0035098302 0.01094579 0.010658687

95 f4 [64]
00000000: 3af3 ef3e bda5 363f 81d5 d8be b3bc 013f
00000010: 18d8 4c3d ea1e 3cbe 4ede 5cbf 7f21 b53e
00000020: aa49 3a3f b896 7abe 4737 323f 98d6 a43e
00000030: 62e2 bd3e 38cf 9cbd e7f2 a4be 481f fe3e
00000040: 8547 9abe 1954 893e 949d 42bf b419 f9bd
00000050: 8052 343e 3627 04bf 20cd 08bd 6a27 9cbe
00000060: 7264 74be 24f1 c73d deb4 973e 3029 febd
00000070: 50e9 ce3e b3e8 a73e 6873 8bbd 34b1 15be
00000080: 2f47 c03e c810 6f3e f3a5 2ebf 035a 93be
00000090: c05e 89bd 7076 9b3d 3030 82bd 3e02 0e3e
000000a0: ca1d b5be cffd a7bf 9c1a 0f3f 287b 6b3d
000000b0: 8786 b13f 599e 86be c443 fa3e ee8a 99be
000000c0: aa6a acbe 6e38 083f 804b 133d 1869 ff3d
000000d0: aeef 1a3f 7f2f f1be 2c88 c4bd bf0c 983e
000000e0: 2216 f8be 7dda 983e 0c41 19be 7c46 72bf
000000f0: 0082 b4ba acaf 943e 003c c4ba 6c2c 5cbe
0.46865255 0.71346647 -0.4235039 0.5067856 0.05001077 -0.18371168 -0.8627671 0.35377118
0.7276865 -0.24471557 0.69615597 0.32194972 0.3708678 -0.07656711 -0.3221657 0.4963324
-0.3013269 0.26821974 -0.76021695 -0.121631056 0.17609596 -0.5162233 -0.033398747 -0.3049882
-0.23866442 0.09762791 0.29630178 -0.124102 0.40412378 0.32794723 -0.06809121 -0.14618379
0.3755431 0.23346245 -0.6822197 -0.2877961 -0.06707525 0.075909495 -0.06356847 0.13868043
-0.3537429 -1.3124331 0.5589998 0.057490498 1.386918 -0.26292685 0.48879826 -0.29988807
-0.33675128 0.53211105 0.035960674 0.12471217 0.6052197 -0.4710655 -0.09596285 0.29697224
-0.48454386 0.29854193 -0.1496622 -0.946388 -0.0013771653 0.29040277 -0.0014971495 -0.2150132
